LOSO/models/model_without_subj_2.pth (torch, 549103 bytes, 18 tensors)

lstm.weight_ih_l0 f4 [256, 6]
0	0x3a3136fb	0.0006760207
1	0x3b097861	0.0020976292
2	0x3b049ce4	0.0020235116
3	0x3b028a8f	0.0019919013
4	0x3b3425bf	0.0027488319
5	0x3a4f19f2	0.00079002895
6	0x39fc53f6	0.0004812774
7	0x3b158c23	0.0022819124
8	0x3ade0792	0.0016939512
9	0x3ae7c8e1	0.0017683768
10	0x3b09bd60	0.0021017417
11	0x397b5ea5	0.00023972483
12	0x3a611df9	0.0008587535
13	0x3b1da78f	0.0024056172
14	0x3b0f10ac	0.0021830006
15	0x3b15e72b	0.0022873383
16	0x3b3e5779	0.0029043837
17	0x3a604113	0.00085546187
18	0x3382c645	6.089662e-08
19	0x338f6f5a	6.679211e-08
20	0x3336104f	4.239001e-08
21	0x338c001a	6.5192765e-08
22	0x33850aee	6.195283e-08
23	0x33463c87	4.6155517e-08
24	0x3ca5a9a1	0.020222487
25	0x3c2e11c0	0.010624349
26	0x3cd3eabb	0.025868764
27	0x3cc8e732	0.024524305
28	0x3cd6ee7f	0.02623677
29	0x3ccd143d	0.025034064
30	0xb73175fb	-1.0577492e-05
31	0xb711a613	-8.681341e-06
32	0xb7414e55	-1.15219345e-05
33	0xb7270fc4	-9.957646e-06
34	0xb733f735	-1.0726789e-05
35	0xb734c7a5	-1.0775319e-05
36	0x3a9a154b	0.0011755613
37	0x3b2b6ceb	0.002615745
38	0x3b041996	0.0020156852
39	0x3b0f6f0b	0.0021886255
40	0x3b2813dc	0.0025646603
41	0x3ab28d10	0.0013622362
42	0x3ae95546	0.0017801903
43	0x3b5f08e6	0.0034032403
44	0x3b45a0e7	0.003015572
45	0x3b5291b5	0.0032130305
46	0x3b7ac63d	0.0038265132
47	0x3aeab8ef	0.0017907898
48	0x3598e690	1.1391985e-06
49	0x351855f5	5.6749496e-07
50	0x3603fb6c	1.9666868e-06
51	0x35734981	9.0631517e-07
52	0x35087f27	5.084898e-07
53	0x35908643	1.0767911e-06
54	0x3a889ee4	0.001042333
55	0x3b1bfbbc	0.0023801168
56	0x3af4748a	0.0018650454
57	0x3b034077	0.0020027438
58	0x3b0f2077	0.002183942
59	0x3a2a683a	0.00065005163
60	0xb5136344	-5.490622e-07
61	0xb4d5eafe	-3.984532e-07
62	0xb51aded3	-5.769372e-07
63	0xb507c840	-5.058282e-07
64	0xb50fe937	-5.3611024e-07
65	0xb50fb82a	-5.3539645e-07
66	0xb899a92f	-7.3271214e-05
67	0xb868abb7	-5.5473032e-05
68	0xb8adfafa	-8.296031e-05
69	0xb88b0e2c	-6.630676e-05
70	0xb895252f	-7.1118e-05
71	0xb89a53dd	-7.358913e-05
72	0x39a432b6	0.000313183
73	0x3b147434	0.002265227
74	0x3b023033	0.0019865155
75	0x3b00c231	0.0019646997
76	0x3b28abb1	0.0025737102
77	0xb908417b	-0.00012994364
78	0x3a993bc7	0.0011690789
79	0x3b273743	0.0025515116
80	0x3b10d656	0.002210041
81	0x3b22c25f	0.0024835092
82	0x3b448fa2	0.0029992838
83	0x3abc1832	0.0014350472
84	0x3abbf51e	0.0014340018
85	0x3b406c37	0.0029361376
86	0x3b29b1b1	0.0025893266
87	0x3b3b31ac	0.0028563542
88	0x3b5a89b3	0.0033346235
89	0x3ac5595d	0.001505654
90	0xb7378e6f	-1.0940813e-05
91	0xb71232d7	-8.714115e-06
92	0xb7533ec8	-1.2591197e-05
93	0xb727d616	-1.0003821e-05
94	0xb72ad1d6	-1.0181646e-05
95	0xb73482fc	-1.0759333e-05
96	0x3af40a59	0.0018618806
97	0x3b807045	0.0039196336
98	0x3b42e575	0.0029738818
99	0x3b489869	0.0030608422
100	0x3b54880d	0.0032429725
101	0x3afa4556	0.001909415
102	0x3ab1174a	0.0013510969
103	0x3b220da4	0.0024727369
104	0x3b0a9b13	0.002114956
105	0x3b26734e	0.0025398317
106	0x3b42943f	0.0029690412
107	0x3aa69c6e	0.0012711415
108	0x3a9e3612	0.0012070558
109	0x3b34f044	0.002760903
110	0x3b116497	0.00221852
111	0x3b2baa62	0.0026194085
112	0x3b53bf24	0.0032309974
113	0x3abf1944	0.0014579673
114	0xb8356404	-4.324691e-05
115	0xb7eeee68	-2.8482827e-05
116	0xb8470760	-4.7452166e-05
117	0xb81ff629	-3.813781e-05
118	0xb833ff6c	-4.2914806e-05
119	0xb82bdb25	-4.097367e-05
120	0x3ad7ea8c	0.0016473099
121	0x3b68ec3c	0.0035541197
122	0x3b43b60d	0.002986315
123	0x3b4ed960	0.003156267
124	0x3b78a210	0.0037938394
125	0x3ac6bfcd	0.0015163362
126	0x3aa73087	0.0012755551
127	0x3b2c4224	0.002628454
128	0x3b1e2857	0.002413293
129	0x3b254024	0.0025215233
130	0x3b4ba0c2	0.003107116
131	0x3aa54072	0.0012607707
132	0x3a57c731	0.0008231281
133	0x3b181ac0	0.0023209304
134	0x3af45bf4	0.0018643127
135	0x3b023516	0.0019868067
136	0x3b293796	0.0025820485
137	0x3a5e8f9f	0.0008490029
138	0x3b09af05	0.002100886
139	0x3b5ae15f	0.0033398492
140	0x3b4800b3	0.0030517995
141	0x3b644b18	0.0034834798
142	0x3b8a4c4c	0.004220521
143	0x3b01d269	0.0019809252
144	0x3cddfb01	0.027097227
145	0x3c71a56b	0.014748911
146	0x3d1772b9	0.036974642
147	0x3d0f333c	0.03496097
148	0x3d180719	0.037116144
149	0x3d11a965	0.035561938
150	0x3ada8692	0.0016672185
151	0x3b5ea403	0.003397227
152	0x3b3a8624	0.0028461302
153	0x3b44080e	0.0029912028
154	0x3b6c5734	0.003606272
155	0x3af477ba	0.0018651404
156	0x3a8b70c0	0.001063846
157	0x3b289b2d	0.0025727258
158	0x3af92a51	0.0019009804
159	0x3b0b0f44	0.0021218816
160	0x3b16e561	0.0023024904
161	0x3a92529c	0.0011163536
162	0x3a8198b1	0.0009887425
163	0x3b234515	0.0024913002
164	0x3b009db4	0.0019625248
165	0x3b067fe4	0.0020523006
166	0x3b21aec1	0.0024670812
167	0x3a4924da	0.0007673033
168	0x3aab79d7	0.0013082576
169	0x3b67b5d7	0.0035356188
170	0x3b369f79	0.002786605
171	0x3b3e805e	0.0029068212
172	0x3b440c6c	0.002991463
173	0x3a8debaf	0.0010827685
174	0x3a92b74b	0.0011193542
175	0x3b29c4be	0.002590462
176	0x3b0ed5b0	0.0021794848
177	0x3b126d8a	0.0022343122
178	0x3b21ea49	0.0024706295
179	0x3a4c2b1d	0.0007788407
180	0x3e15be0a	0.14623275
181	0x3dd85e3c	0.10564849
182	0x3e0f7d2a	0.1401259
183	0x3d9089ce	0.07057534
184	0x3e16aaa6	0.14713535
185	0x3dd9bbe9	0.10631544
186	0x3aaf6121	0.0013380387
187	0x3b5c1b29	0.0033585525
188	0x3b2899f8	0.0025726538
189	0x3b2a3736	0.002597285
190	0x3b3850a4	0.0028124237
191	0x3aaf75a3	0.0013386499
192	0x39ae8ae9	0.00033291362
193	0x3acaf84a	0.0015485373
194	0x3a804e32	0.0009788929
195	0x3a9c1f4d	0.0011911184
196	0x3acd1c93	0.0015648775
197	0x397c07bb	0.00024035473
198	0xb6d150e2	-6.2381014e-06
199	0xb6bbde09	-5.5988826e-06
200	0xb70b518c	-8.304032e-06
201	0xb6aedd2f	-5.2113533e-06
202	0xb6b0c58c	-5.268206e-06
203	0xb6e83791	-6.9206076e-06
204	0x3a78926b	0.0009482267
205	0x3b27e9b9	0.0025621487
206	0x3b0e9e94	0.0021762
207	0x3b05f8a9	0.0020442402
208	0x3b251c2b	0.0025193791
209	0x3a47d401	0.00076228386
210	0x3a3b25fa	0.0007139143
211	0x3b0ceef3	0.002150473
212	0x3ac3806f	0.0014915596
213	0x3acd2da7	0.0015653864
214	0x3adeba5b	0.0016992794
215	0x3a21a8e6	0.00061668304
216	0xbd54fc52	-0.051998444
217	0x3da386c4	0.07984689
218	0x3e0135ed	0.12618227
219	0x3e08a7a1	0.13345195
220	0x3d224ead	0.039625812
221	0x3e360c06	0.17778024
222	0x39cf3436	0.00039521017
223	0x3ad95b87	0.0016583063
224	0x3aa609f2	0.0012667759
225	0x3acb351d	0.00155035
226	0x3afbf43c	0.0019222568
227	0x39837cc3	0.00025079222
228	0x3a4f1ba3	0.00079005415
229	0x3b201bf7	0.002443073
230	0x3b021793	0.0019850477
231	0x3b0ce487	0.0021498518
232	0x3b1e1872	0.0024123457
233	0x3a1ac67d	0.0005904211
234	0x3aad1525	0.0013205154
235	0x3b322cab	0.0027187269
236	0x3b14331f	0.0022613478
237	0x3b1cefb2	0.002394658
238	0x3b3aaa61	0.0028482901
239	0x3ab7c580	0.0014020652
240	0x3a52b2b1	0.00080374914
241	0x3b203ffd	0.0024452202
242	0x3af04b0f	0.0018332916
243	0x3b0b24f0	0.0021231733
244	0x3b343bd1	0.0027501474
245	0x3a301ba0	0.00067179836
246	0x3cbd73ce	0.023126509
247	0x3c4d613a	0.012535388
248	0x3cf907c4	0.03039921
249	0x3ce7891b	0.02826362
250	0x3cf439c9	0.02981271
251	0x3ced7c23	0.028989857
252	0x3a9b9848	0.0011870945
253	0x3b357aea	0.002769167
254	0x3b05d06e	0.0020418423
255	0x3b0cc10c	0.002147737

lstm.weight_hh_l0 f4 [256, 64]
0	0x39acaca9	0.00032935038
1	0x39b60cb6	0.00034723216
2	0xb9bf7344	-0.00036516238
3	0x35feba20	1.8978644e-06
4	0xb99f72ce	-0.0003041238
5	0xb786e9f0	-1.608298e-05
6	0x39b5411f	0.0003457153
7	0x39bffdf3	0.00036619566
8	0xb765dee2	-1.3701358e-05
9	0xb97cda4b	-0.00024113913
10	0x358fd3cb	1.071597e-06
11	0xb86b8f41	-5.616178e-05
12	0xb9be9132	-0.00036347803
13	0xb9b63929	-0.00034756333
14	0x39b93cdc	0.00035331293
15	0x352389f5	6.0922986e-07
16	0xb9c421bb	-0.00037409164
17	0x39bac050	0.0003561997
18	0xb9d1c329	-0.00040008992
19	0x36d7276c	6.4120886e-06
20	0x39d2b241	0.0004018713
21	0x39b6c1f9	0.00034858266
22	0xb9a8813d	-0.00032139747
23	0xb9d4920e	-0.0004054461
24	0xb9e22a91	-0.00043137794
25	0xb9eaa43d	-0.00044754325
26	0xb9d0583d	-0.00039738594
27	0xb9b4ee39	-0.00034509765
28	0x39d6dfee	0.000409841
29	0x39902131	0.0002749055
30	0x3a0643ab	0.00051217776
31	0xb9cb455e	-0.0003877086
32	0xb99962e2	-0.00029256108
33	0x38698690	5.567685e-05
34	0xb9ac455e	-0.0003285808
35	0xb9bbae65	-0.00035797353
36	0xba7ef038	-0.00097251264
37	0x39bca9cf	0.00035984672
38	0x39ae9be0	0.00033304002
39	0x39eaad71	0.00044761182
40	0x39a49390	0.0003139046
41	0xb9923596	-0.00027887215
42	0x39f0024c	0.00045778078
43	0xb9e0182f	-0.00042742628
44	0x39a1ddab	0.00030873468
45	0x37173950	9.0136455e-06
46	0xb9cf0a0e	-0.00039489608
47	0x39e8ab4f	0.00044378123
48	0x39c38fda	0.00037300476
49	0x39bc9b3d	0.00035973816
50	0xb9d95b27	-0.0004145738
51	0x3976299f	0.00023475893
52	0xb9b07b63	-0.00033661266
53	0xb9ed916d	-0.00045312513
54	0xb9e5b13b	-0.0004381033
55	0xb687f197	-4.0514383e-06
56	0xb9c91af5	-0.00038357792
57	0xb9d07ffc	-0.00039768207
58	0x340c90e6	1.309123e-07
59	0x39935f3f	0.0002810899
60	0x35ac8ea2	1.285651e-06
61	0xb9caac14	-0.0003865665
62	0xbacc36b3	-0.0015580266
63	0x38dabd8e	0.00010430357
64	0x39aac24a	0.00032569683
65	0x399d6bd0	0.000300257
66	0xb9a752d0	-0.00031914422
67	0x35ece41e	1.7649761e-06
68	0xb9ac056b	-0.00032810433
69	0xb74a8b02	-1.20725035e-05
70	0x399d126c	0.000299591
71	0x39ad1f4c	0.0003302045
72	0xb754a3cb	-1.2674321e-05
73	0xb984b921	-0.00025314934
74	0x358ca786	1.0479569e-06
75	0xb85b7251	-5.2320134e-05
76	0xb9b2a9d1	-0.0003407733
77	0xb9a12efa	-0.00030743313
78	0x39a3f554	0.00031272566
79	0x3586d4f8	1.004576e-06
80	0xb9affef5	-0.0003356856
81	0x39abfb3e	0.00032802852
82	0xb9b0a3df	-0.0003369143
83	0x364b0682	3.0253145e-06
84	0x39bc7e8e	0.00035952445
85	0x39a59d36	0.00031588384
86	0xb99bdd51	-0.00029728797
87	0xb9b2ce4a	-0.00034104503
88	0xb9f3c8be	-0.00046498136
89	0xb9cb88e7	-0.00038821177
90	0xb9b896cb	-0.00035207564
91	0xb9aae4a6	-0.00032595283
92	0x39c20c30	0.00037011644
93	0x398c906e	0.0002681049
94	0x387ea239	6.07094e-05
95	0xb9b76f8e	-0.00034987595
96	0xb98d40df	-0.00026941948
97	0x3845095c	4.6977177e-05
98	0xb9a67864	-0.00031751685
99	0xb9ae0d93	-0.0003319798
100	0x394474e4	0.00018735562
101	0x39a1e070	0.00030875532
102	0x39a03e62	0.00030564057
103	0x39c66d82	0.00037847093
104	0x399eac10	0.00030264305
105	0xb9af3006	-0.0003341438
106	0x39d0dc09	0.0003983679
107	0xb9bf696d	-0.00036508907
108	0x39a39f44	0.00031208445
109	0x3701ba94	7.73244e-06
110	0xb9bf831d	-0.00036528046
111	0x39c49011	0.0003749137
112	0x39b30c49	0.00034150694
113	0x39a86555	0.00032118955
114	0xb9b6df25	-0.0003488
115	0x397edcfe	0.00024305654
116	0xb99b705b	-0.00029647615
117	0xb9cef6ae	-0.00039475173
118	0xb9c70838	-0.0003796236
119	0xb66ac8b7	-3.4985549e-06
120	0xb9b85d1a	-0.0003516458
121	0xb9b04796	-0.00033622672
122	0x35aaf1ea	1.2736393e-06
123	0x3991a883	0.00027782106
124	0x356b896b	8.774429e-07
125	0xb9b6cac0	-0.00034864806
126	0xbb007443	-0.0019600547
127	0x38caf69d	9.678046e-05
128	0x39a3c7b8	0.00031238585
129	0x39a6b00e	0.00031793158
130	0xb9a243eb	-0.0003094965
131	0x3644b27d	2.931017e-06
132	0xb9bbcd02	-0.00035820162
133	0xb71fd0e6	-9.5257765e-06
134	0x39916c89	0.0002773742
135	0x39a74715	0.00031905682
136	0xb7522fc3	-1.2528096e-05
137	0xb98ad2cf	-0.00026478476
138	0x36158a54	2.2283248e-06
139	0xb877cad8	-5.9078302e-05
140	0xb9bbd24b	-0.000358241
141	0xb99d086d	-0.0002995165
142	0x399b858d	0.00029663407
143	0x35957f8e	1.1138488e-06
144	0xb9a0ac35	-0.00030645882
145	0x39a1875e	0.0003080917
146	0xb9a84720	-0.0003209645
147	0xb57311bf	-9.055038e-07
148	0x39b75755	0.00034969547
149	0x39a2a853	0.0003102446
150	0xb99b28e0	-0.00029594358
151	0xb9abc287	-0.00032760596
152	0xb9fce968	-0.00048239087
153	0xb9b5a5b4	-0.0003464647
154	0xb9aa0652	-0.00032429636
155	0xb9a122b4	-0.0003073417
156	0x39ba4413	0.00035527404
157	0x3991e480	0.000278268
158	0x39de1f1d	0.0004236632
159	0xb9a88e31	-0.00032149398
160	0xb987b13c	-0.00025881256
161	0x384b411f	4.845962e-05
162	0xb9a71209	-0.0003186616
163	0xb99ad854	-0.00029534346
164	0xba100e7e	-0.00054953236
165	0x399313ad	0.00028052685
166	0x39a01cfb	0.0003053917
167	0x39b09f83	0.0003368818
168	0x39991ddd	0.00029204684
169	0xb9c0a0b2	-0.0003674082
170	0x39a7fadf	0.00032039636
171	0xb9ab6cce	-0.00032696727
172	0x39a32b4d	0.00031122044
173	0x37074857	8.06347e-06
174	0xb9b0566e	-0.0003363373
175	0x39acf7dc	0.00032991066
176	0x39adf3c2	0.00033178745
177	0x399c4c1f	0.00029811353
178	0xb9a7f214	-0.00032033084
179	0x398f60f6	0.00027347327
180	0xb9953b0b	-0.00028463485
181	0xb9b48fed	-0.00034439508
182	0xb9b960da	-0.0003535811
183	0xb69a0888	-4.590551e-06
184	0xb9b53193	-0.00034559946
185	0xb9a0870a	-0.0003061819
186	0x3634bd90	2.693243e-06
187	0x39909e9b	0.0002758399
188	0x349884a7	2.8408724e-07
189	0xb9a7d06e	-0.00032008014
190	0xbaaf215a	-0.001336138
191	0x38e25420	0.00010792189
192	0xb18f531a	-4.1712953e-09
193	0xb18314fc	-3.8149874e-09
194	0x319521b6	4.3403032e-09
195	0xad9a0ef0	-1.7514407e-11
196	0x2f816afc	2.354098e-10
197	0x2f18a169	1.3881664e-10
198	0xb16f81f6	-3.4852952e-09
199	0xb19d89f6	-4.5849857e-09
200	0xadf9271a	-2.8325387e-11
201	0x311f5b25	2.3189355e-09
202	0x2e1fdc09	3.6347845e-11
203	0xafce850c	-3.7565717e-10
204	0x319227ee	4.2536987e-09
205	0x31767efe	3.5869898e-09
206	0xb194af3d	-4.327289e-09
207	0x2f221553	1.474139e-10
208	0x31a51aa3	4.8051603e-09
209	0xb1ad90af	-5.0514113e-09
210	0x319cd4df	4.564398e-09
211	0xafc068b1	-3.4998984e-10
212	0xb19bcbf4	-4.5342805e-09
213	0xb189155e	-3.989654e-09
214	0x31819901	3.7717887e-09
215	0x31a25ecd	4.725598e-09
216	0xaef6b956	-1.1219707e-10
217	0x31c65c4d	5.773052e-09
218	0x31a7b61f	4.8810445e-09
219	0x31906862	4.2028185e-09
220	0xb18fa712	-4.1808415e-09
221	0xb1765416	-3.5845509e-09
222	0xb1779f9d	-3.603396e-09
223	0x31b571a0	5.280711e-09
224	0x3159ee32	3.1713054e-09
225	0xaf22f27b	-1.481996e-10
226	0x31887fd7	3.9726546e-09
227	0x319886f2	4.4391237e-09
228	0x32d4ccda	2.4773204e-08
229	0xb1b86396	-5.3664264e-09
230	0xb1793c6e	-3.626862e-09
231	0xb1c17606	-5.630457e-09
232	0xb1bd8450	-5.515666e-09
233	0x3014c74d	5.412531e-10
234	0xb1ab4d72	-4.9855595e-09
235	0x31b46f2b	5.251328e-09
236	0xb1725550	-3.526413e-09
237	0xad9468a4	-1.6872122e-11
238	0x31cd3612	5.9724323e-09
239	0xb1ab7571	-4.9901066e-09
240	0xb187c158	-3.9509978e-09
241	0xb19871db	-4.436726e-09
242	0x31c41581	5.7067955e-09
243	0xb121fdbf	-2.3572821e-09
244	0x31715913	3.5120749e-09
245	0x31c3e049	5.700745e-09
246	0x31a31e5a	4.747375e-09
247	0x2e262191	3.7773843e-11
248	0x31a01a27	4.659586e-09
249	0x318829a9	3.962857e-09
250	0x2f04e074	1.2085072e-10
251	0xb1981531	-4.4261914e-09
252	0xadd82674	-2.4573434e-11
253	0x318262ef	3.7947454e-09
254	0xb261f158	-1.3151599e-08
255	0x301f340c	5.7917826e-10

lstm.bias_ih_l0 f4 [256]
0	0x3b8bdf5d	0.0042685703
1	0x3b7ab642	0.0038255607
2	0x3b93f5d4	0.004515389
3	0xb205915d	-7.774671e-09
4	0x3d4d3331	0.050097648
5	0xb787b8a4	-1.6179234e-05
6	0x3b587364	0.0033027763
7	0x3bc0ccb1	0.005883776
8	0x3616393a	2.2385052e-06
9	0x3b444833	0.002995026
10	0xb54628eb	-7.382029e-07
11	0xb8fb387a	-0.00011979132
12	0x3b9ec1c9	0.0048448783
13	0x3b937ab3	0.004500711
14	0x3ba3c951	0.004998364
15	0xb7912f41	-1.7307351e-05
16	0x3ba6d66c	0.005091479
17	0x3b913884	0.004431786
18	0x3b98e975	0.004666502
19	0xb8913031	-6.923115e-05
20	0x3bca616b	0.006176164
21	0x3b9ac9ee	0.004723779
22	0x3b7a75f8	0.0038217288
23	0x3bc46894	0.005993912
24	0x3d93a58e	0.072093114
25	0x3bba9355	0.005693833
26	0x3b6873ef	0.0035469492
27	0x3b750984	0.0037389705
28	0x3bb2d18d	0.0054571093
29	0x3b825185	0.003977003
30	0x3e85777a	0.26067716
31	0x3b99f377	0.0046982127
32	0x3b10c297	0.002208864
33	0xb7a46d90	-1.9601343e-05
34	0x3b87b1b0	0.004141055
35	0x3b41968d	0.0029539198
36	0x3dfb3b73	0.122671984
37	0x3b48ed85	0.003065915
38	0x3b7ef8d9	0.003890565
39	0x3b9f37bb	0.0048589385
40	0x3b854c24	0.0040679146
41	0x3d6cc23e	0.05780243
42	0x3b79f1bb	0.0038138467
43	0x3ba62e05	0.005071404
44	0x3b88b19b	0.004171563
45	0xb51c8895	-5.831328e-07
46	0x3bacbb11	0.0052713235
47	0x3b9bf411	0.0047593196
48	0x3b8ffa1c	0.004393829
49	0x3b92622d	0.00446727
50	0x3b6bf2ca	0.0036002868
51	0x3b3561d1	0.0027676711
52	0x3b4e419e	0.0031472216
53	0x3bd262c1	0.006420464
54	0x3b9ef12e	0.004850528
55	0xb576a3cd	-9.1880503e-07
56	0x3bbbe27d	0.0057337866
57	0x3b733a41	0.003711358
58	0xb70dcafa	-8.451514e-06
59	0x3b54181a	0.0032362998
60	0xb4d9aca8	-4.0545024e-07
61	0x3b76c136	0.0037651784
62	0x3e3813f9	0.17976369
63	0xb985868d	-0.00025467985
64	0x3b8309ca	0.0039989697
65	0x3b5e136a	0.0033886083
66	0x3b820198	0.003967475
67	0xb0a1b8ca	-1.1766812e-09
68	0x3d6337ea	0.055473246
69	0xb78b7ef4	-1.6629208e-05
70	0x3b58d923	0.0033088408
71	0x3bbb34ae	0.005713067
72	0x361fa884	2.3790935e-06
73	0x3b2f7f84	0.0026778886
74	0xb5514f1e	-7.79737e-07
75	0xb8ff15eb	-0.0001216343
76	0x3b904612	0.0044028843
77	0x3b8f67ca	0.0043763863
78	0x3b9a27e2	0.0047044614
79	0xb797656e	-1.8047835e-05
80	0x3b98cd88	0.004663173
81	0x3b86e9e0	0.0041172355
82	0x3b8e179c	0.0043363106
83	0xb896b0c3	-7.185482e-05
84	0x3bc25cc5	0.005931469
85	0x3b8f6e32	0.00437715
86	0x3b57cc8c	0.0032928316
87	0x3bc29260	0.0059378594
88	0x3db95310	0.09049046
89	0x3bb576d4	0.005537847
90	0x3b4dc9a0	0.0031400695
91	0x3b6b88a1	0.0035939591
92	0x3babeff9	0.005247113
93	0x3b6c7c8d	0.003608498
94	0x3e98d410	0.2984929
95	0x3b928568	0.0044714697
96	0x3b00a944	0.001963214
97	0xb7a10c8e	-1.9198542e-05
98	0x3b79efc9	0.0038137308
99	0x3b242b57	0.0025050247
100	0x3e856caf	0.26059482
101	0x3b2b1404	0.002610446
102	0x3b74e0a3	0.003736534
103	0x3b94579b	0.004527045
104	0x3b7521df	0.0037404222
105	0x3d861088	0.06546122
106	0x3b55000d	0.003250125
107	0x3ba3d6a3	0.004999952
108	0x3b7834cd	0.0037873269
109	0xb516c5d3	-5.6167227e-07
110	0x3bab2f06	0.0052241115
111	0x3b968ee1	0.004594669
112	0x3b8e54f9	0.0043436256
113	0x3b9342ad	0.0044940324
114	0x3b408bf2	0.002938029
115	0x3b1ec079	0.002422361
116	0x3b40488e	0.002934012
117	0x3bcbd447	0.006220374
118	0x3b8e937e	0.0043510785
119	0xb57353eb	-9.064667e-07
120	0x3bbb8310	0.005722411
121	0x3b639126	0.0034723966
122	0xb713e9a4	-8.8162815e-06
123	0x3b34a035	0.002756131
124	0xb4df7b51	-4.162671e-07
125	0x3b5f0e40	0.0034035593
126	0x3dcf3bfb	0.10118862
127	0xb989316b	-0.00026167496
128	0xbbd42c24	-0.0064749885
129	0xbc0ce4ac	-0.0085994415
130	0x3bfb3e35	0.0076673278
131	0xb840f64a	-4.600574e-05
132	0x3d5c0ac3	0.0537212
133	0x36cfb23c	6.18983e-06
134	0xbb8959d9	-0.004191619
135	0xbbcec521	-0.0063101207
136	0xb9b343b1	-0.00034191975
137	0x3c1682a1	0.009186418
138	0xb7fa2800	-2.9820949e-05
139	0xb9fbd3b7	-0.0004803219
140	0x3c1d885c	0.00961503
141	0x3b8e68fe	0.004346012
142	0xbbae6d98	-0.005323123
143	0xb91a2951	-0.00014701976
144	0x3bc9be2b	0.006156703
145	0xbbd298f1	-0.0064269234
146	0x3b91822e	0.0044405675
147	0x39944eb6	0.00028287404
148	0xbbc817fb	-0.0061063743
149	0xbbed9489	-0.007250373
150	0x3bef2b40	0.007298857
151	0x3b91e098	0.0044518225
152	0x3d7ade8a	0.061247386
153	0x3b8d8eda	0.0043200077
154	0x3bca88e4	0.0061808694
155	0x3be13051	0.006872215
156	0xbbba791a	-0.005690706
157	0xbc13d14a	-0.009022066
158	0xbcd57abb	-0.026059499
159	0x3be6cf70	0.0070437714
160	0x3bd3a0be	0.006458371
161	0x39a9baae	0.0003237328
162	0x3c0f98ab	0.008764426
163	0x3beec52e	0.0072866892
164	0xbd52dd99	-0.051480863
165	0xbbac6178	-0.0052606426
166	0xbbb9ec82	-0.005673946
167	0xbb9caf3d	-0.004781632
168	0xbc016870	-0.007898435
169	0x3d6dff22	0.05810464
170	0xbb5ef92f	-0.0034023037
171	0x3b40639f	0.0029356254
172	0xbc06928c	-0.00821365
173	0x396990f6	0.00022274614
174	0x3bd5a8a4	0.0065203477
175	0xbb58de6f	-0.0033091565
176	0xbbc8b07e	-0.006124555
177	0xbbb15fa9	-0.005413015
178	0x3bca7247	0.0061781737
179	0xbc246f56	-0.01003631
180	0x3bdcb840	0.0067358315
181	0x3b7df74d	0.003875214
182	0x3bb85179	0.0056249467
183	0x37a0ffc7	1.9192592e-05
184	0x3c02b668	0.007978059
185	0x3b6ab2ab	0.003581206
186	0xb8c35ec6	-9.3159775e-05
187	0xbc18b770	-0.009321079
188	0x38c8bd6f	9.572028e-05
189	0x3bc87314	0.006117234
190	0xbdbd688e	-0.09248458
191	0x3a6f989a	0.0009139866
192	0x3b8bef56	0.0042704744
193	0x3b7b3010	0.0038328208
194	0x3b942104	0.0045205373
195	0xb2053314	-7.753233e-09
196	0x3d4db540	0.05022168
197	0xb787b443	-1.6177195e-05
198	0x3b5878f8	0.0033031087
199	0x3bc0dd7d	0.0058857785
200	0x361616a0	2.2364911e-06
201	0x3b4488f3	0.0029988855
202	0xb545f9c6	-7.3751687e-07
203	0xb8fb305a	-0.00011977619
204	0x3b9f2723	0.0048569604
205	0x3b9389d3	0.004502514
206	0x3ba3d958	0.0050002746
207	0xb7912510	-1.7302606e-05
208	0x3ba6eab8	0.0050938986
209	0x3b913605	0.0044314885
210	0x3b98fa3d	0.0046685026
211	0xb8912c55	-6.922396e-05
212	0x3bca8656	0.006180565
213	0x3b9aebfb	0.004727838
214	0x3b7aa89a	0.0038247467
215	0x3bc497af	0.0059995274
216	0x3d943ed6	0.072385475
217	0x3bba8b25	0.005692857
218	0x3b686eae	0.003546636
219	0x3b751fd0	0.0037402995
220	0x3bb305f7	0.0054633575
221	0x3b8282f6	0.003982897
222	0x3e94b8b2	0.2904716
223	0x3b99f822	0.004698769
224	0x3b10df4b	0.002210575
225	0xb7a485bc	-1.9612598e-05
226	0x3b87d0ca	0.0041447626
227	0x3b418fef	0.0029535254
228	0x3e4a6bac	0.19767636
229	0x3b48c683	0.00306359
230	0x3b7f3038	0.0038938653
231	0x3b9f31ad	0.0048582167
232	0x3b854128	0.004066605
233	0x3d6d8786	0.057990573
234	0x3b79fd9f	0.0038145555
235	0x3ba62efa	0.005071518
236	0x3b88ca44	0.0041745026
237	0xb51c8acd	-5.831651e-07
238	0x3bacb8ba	0.0052710446
239	0x3b9c0a69	0.004761983
240	0x3b90112c	0.0043965783
241	0x3b925e65	0.004466819
242	0x3b6bcfdf	0.0035982055
243	0x3b35cde7	0.0027741136
244	0x3b4e71f8	0.0031501036
245	0x3bd277fb	0.006422994
246	0x3b9f101f	0.0048542167
247	0xb576a849	-9.188703e-07
248	0x3bbc0add	0.0057385997
249	0x3b7347a3	0.0037121556
250	0xb70dbd52	-8.4483345e-06
251	0x3b543d51	0.003238518
252	0xb4d9a101	-4.0536545e-07
253	0x3b76edc5	0.0037678343
254	0x3e3905a2	0.18068555
255	0xb9857297	-0.00025453113

lstm.bias_hh_l0 f4 [256]
0	0x3b8bdf5d	0.0042685703
1	0x3b7ab642	0.0038255607
2	0x3b93f5d4	0.004515389
3	0xb205915d	-7.774671e-09
4	0x3d4d3331	0.050097648
5	0xb787b8a4	-1.6179234e-05
6	0x3b587364	0.0033027763
7	0x3bc0ccb1	0.005883776
8	0x3616393a	2.2385052e-06
9	0x3b444833	0.002995026
10	0xb54628eb	-7.382029e-07
11	0xb8fb387a	-0.00011979132
12	0x3b9ec1c9	0.0048448783
13	0x3b937ab3	0.004500711
14	0x3ba3c951	0.004998364
15	0xb7912f41	-1.7307351e-05
16	0x3ba6d66c	0.005091479
17	0x3b913884	0.004431786
18	0x3b98e975	0.004666502
19	0xb8913031	-6.923115e-05
20	0x3bca616b	0.006176164
21	0x3b9ac9ee	0.004723779
22	0x3b7a75f8	0.0038217288
23	0x3bc46894	0.005993912
24	0x3d93a58e	0.072093114
25	0x3bba9355	0.005693833
26	0x3b6873ef	0.0035469492
27	0x3b750984	0.0037389705
28	0x3bb2d18d	0.0054571093
29	0x3b825185	0.003977003
30	0x3e85777a	0.26067716
31	0x3b99f377	0.0046982127
32	0x3b10c297	0.002208864
33	0xb7a46d90	-1.9601343e-05
34	0x3b87b1b0	0.004141055
35	0x3b41968d	0.0029539198
36	0x3dfb3b73	0.122671984
37	0x3b48ed85	0.003065915
38	0x3b7ef8d9	0.003890565
39	0x3b9f37bb	0.0048589385
40	0x3b854c24	0.0040679146
41	0x3d6cc23e	0.05780243
42	0x3b79f1bb	0.0038138467
43	0x3ba62e05	0.005071404
44	0x3b88b19b	0.004171563
45	0xb51c8895	-5.831328e-07
46	0x3bacbb11	0.0052713235
47	0x3b9bf411	0.0047593196
48	0x3b8ffa1c	0.004393829
49	0x3b92622d	0.00446727
50	0x3b6bf2ca	0.0036002868
51	0x3b3561d1	0.0027676711
52	0x3b4e419e	0.0031472216
53	0x3bd262c1	0.006420464
54	0x3b9ef12e	0.004850528
55	0xb576a3cd	-9.1880503e-07
56	0x3bbbe27d	0.0057337866
57	0x3b733a41	0.003711358
58	0xb70dcafa	-8.451514e-06
59	0x3b54181a	0.0032362998
60	0xb4d9aca8	-4.0545024e-07
61	0x3b76c136	0.0037651784
62	0x3e3813f8	0.17976367
63	0xb985868d	-0.00025467985
64	0x3b8309ca	0.0039989697
65	0x3b5e136a	0.0033886083
66	0x3b820198	0.003967475
67	0xb0a1b8ca	-1.1766812e-09
68	0x3d6337ea	0.055473246
69	0xb78b7ef4	-1.6629208e-05
70	0x3b58d923	0.0033088408
71	0x3bbb34ae	0.005713067
72	0x361fa884	2.3790935e-06
73	0x3b2f7f84	0.0026778886
74	0xb5514f1e	-7.79737e-07
75	0xb8ff15eb	-0.0001216343
76	0x3b904612	0.0044028843
77	0x3b8f67ca	0.0043763863
78	0x3b9a27e2	0.0047044614
79	0xb797656e	-1.8047835e-05
80	0x3b98cd88	0.004663173
81	0x3b86e9e0	0.0041172355
82	0x3b8e179c	0.0043363106
83	0xb896b0c3	-7.185482e-05
84	0x3bc25cc5	0.005931469
85	0x3b8f6e32	0.00437715
86	0x3b57cc8c	0.0032928316
87	0x3bc29260	0.0059378594
88	0x3db95310	0.09049046
89	0x3bb576d4	0.005537847
90	0x3b4dc9a0	0.0031400695
91	0x3b6b88a1	0.0035939591
92	0x3babeff9	0.005247113
93	0x3b6c7c8d	0.003608498
94	0x3e98d408	0.29849267
95	0x3b928568	0.0044714697
96	0x3b00a944	0.001963214
97	0xb7a10c8e	-1.9198542e-05
98	0x3b79efc9	0.0038137308
99	0x3b242b57	0.0025050247
100	0x3e856cad	0.26059476
101	0x3b2b1404	0.002610446
102	0x3b74e0a3	0.003736534
103	0x3b94579b	0.004527045
104	0x3b7521df	0.0037404222
105	0x3d861088	0.06546122
106	0x3b55000d	0.003250125
107	0x3ba3d6a3	0.004999952
108	0x3b7834cd	0.0037873269
109	0xb516c5d3	-5.6167227e-07
110	0x3bab2f06	0.0052241115
111	0x3b968ee1	0.004594669
112	0x3b8e54f9	0.0043436256
113	0x3b9342ad	0.0044940324
114	0x3b408bf2	0.002938029
115	0x3b1ec079	0.002422361
116	0x3b40488e	0.002934012
117	0x3bcbd447	0.006220374
118	0x3b8e937e	0.0043510785
119	0xb57353eb	-9.064667e-07
120	0x3bbb8310	0.005722411
121	0x3b639126	0.0034723966
122	0xb713e9a4	-8.8162815e-06
123	0x3b34a035	0.002756131
124	0xb4df7b51	-4.162671e-07
125	0x3b5f0e40	0.0034035593
126	0x3dcefd86	0.101069495
127	0xb989316b	-0.00026167496
128	0xbbd42c24	-0.0064749885
129	0xbc0ce4ac	-0.0085994415
130	0x3bfb3e35	0.0076673278
131	0xb840f64a	-4.600574e-05
132	0x3d5c0a9d	0.05372106
133	0x36cfb23c	6.18983e-06
134	0xbb8959d9	-0.004191619
135	0xbbcec521	-0.0063101207
136	0xb9b343b1	-0.00034191975
137	0x3c1682a1	0.009186418
138	0xb7fa2800	-2.9820949e-05
139	0xb9fbd3b7	-0.0004803219
140	0x3c1d885c	0.00961503
141	0x3b8e68fe	0.004346012
142	0xbbae6d98	-0.005323123
143	0xb91a2951	-0.00014701976
144	0x3bc9be2b	0.006156703
145	0xbbd298f1	-0.0064269234
146	0x3b91822e	0.0044405675
147	0x39944eb6	0.00028287404
148	0xbbc817fb	-0.0061063743
149	0xbbed9489	-0.007250373
150	0x3bef2b40	0.007298857
151	0x3b91e098	0.0044518225
152	0x3d7add71	0.06124634
153	0x3b8d8eda	0.0043200077
154	0x3bca88e4	0.0061808694
155	0x3be13051	0.006872215
156	0xbbba791a	-0.005690706
157	0xbc13d14a	-0.009022066
158	0xbd101f5b	-0.035186153
159	0x3be6cf70	0.0070437714
160	0x3bd3a0be	0.006458371
161	0x39a9baae	0.0003237328
162	0x3c0f98ab	0.008764426
163	0x3beec52e	0.0072866892
164	0xbd85dc1c	-0.06536123
165	0xbbac6178	-0.0052606426
166	0xbbb9ec82	-0.005673946
167	0xbb9caf3d	-0.004781632
168	0xbc016870	-0.007898435
169	0x3d6dff44	0.05810477
170	0xbb5ef92f	-0.0034023037
171	0x3b40639f	0.0029356254
172	0xbc06928c	-0.00821365
173	0x396990f6	0.00022274614
174	0x3bd5a8a4	0.0065203477
175	0xbb58de6f	-0.0033091565
176	0xbbc8b07e	-0.006124555
177	0xbbb15fa9	-0.005413015
178	0x3bca7247	0.0061781737
179	0xbc246f56	-0.01003631
180	0x3bdcb840	0.0067358315
181	0x3b7df74d	0.003875214
182	0x3bb85179	0.0056249467
183	0x37a0ffc7	1.9192592e-05
184	0x3c02b668	0.007978059
185	0x3b6ab2ab	0.003581206
186	0xb8c35ec6	-9.3159775e-05
187	0xbc18b770	-0.009321079
188	0x38c8bd6f	9.572028e-05
189	0x3bc87314	0.006117234
190	0x3c87b299	0.016564654
191	0x3a6f989a	0.0009139866
192	0x3b8bef56	0.0042704744
193	0x3b7b3010	0.0038328208
194	0x3b942104	0.0045205373
195	0xb2053314	-7.753233e-09
196	0x3d4db540	0.05022168
197	0xb787b443	-1.6177195e-05
198	0x3b5878f8	0.0033031087
199	0x3bc0dd7d	0.0058857785
200	0x361616a0	2.2364911e-06
201	0x3b4488f3	0.0029988855
202	0xb545f9c6	-7.3751687e-07
203	0xb8fb305a	-0.00011977619
204	0x3b9f2723	0.0048569604
205	0x3b9389d3	0.004502514
206	0x3ba3d958	0.0050002746
207	0xb7912510	-1.7302606e-05
208	0x3ba6eab8	0.0050938986
209	0x3b913605	0.0044314885
210	0x3b98fa3d	0.0046685026
211	0xb8912c55	-6.922396e-05
212	0x3bca8656	0.006180565
213	0x3b9aebfb	0.004727838
214	0x3b7aa89a	0.0038247467
215	0x3bc497af	0.0059995274
216	0x3d943ed6	0.072385475
217	0x3bba8b25	0.005692857
218	0x3b686eae	0.003546636
219	0x3b751fd0	0.0037402995
220	0x3bb305f7	0.0054633575
221	0x3b8282f6	0.003982897
222	0x3e94b8b2	0.2904716
223	0x3b99f822	0.004698769
224	0x3b10df4b	0.002210575
225	0xb7a485bc	-1.9612598e-05
226	0x3b87d0ca	0.0041447626
227	0x3b418fef	0.0029535254
228	0x3e4a6bac	0.19767636
229	0x3b48c683	0.00306359
230	0x3b7f3038	0.0038938653
231	0x3b9f31ad	0.0048582167
232	0x3b854128	0.004066605
233	0x3d6d8786	0.057990573
234	0x3b79fd9f	0.0038145555
235	0x3ba62efa	0.005071518
236	0x3b88ca44	0.0041745026
237	0xb51c8acd	-5.831651e-07
238	0x3bacb8ba	0.0052710446
239	0x3b9c0a69	0.004761983
240	0x3b90112c	0.0043965783
241	0x3b925e65	0.004466819
242	0x3b6bcfdf	0.0035982055
243	0x3b35cde7	0.0027741136
244	0x3b4e71f8	0.0031501036
245	0x3bd277fb	0.006422994
246	0x3b9f101f	0.0048542167
247	0xb576a849	-9.188703e-07
248	0x3bbc0add	0.0057385997
249	0x3b7347a3	0.0037121556
250	0xb70dbd52	-8.4483345e-06
251	0x3b543d51	0.003238518
252	0xb4d9a101	-4.0536545e-07
253	0x3b76edc5	0.0037678343
254	0x3e3905a2	0.18068555
255	0xb9857297	-0.00025453113

lstm.weight_ih_l0_reverse f4 [256, 6]
0	0x9f3dcc21	-4.0191158e-20
1	0x9ef4ac96	-2.5905885e-20
2	0x9f45388c	-4.1763147e-20
3	0x9f373056	-3.879174e-20
4	0x9f538ec8	-4.4799094e-20
5	0x9f37358f	-3.879606e-20
6	0xb38e9d38	-6.640988e-08
7	0xb2e93ee1	-2.7153364e-08
8	0xb3984035	-7.089731e-08
9	0xb2fd267b	-2.9470575e-08
10	0xb39e49a3	-7.370843e-08
11	0xb3af4bf2	-8.162887e-08
12	0xa8b73ff5	-2.0344818e-14
13	0xa892f559	-1.6315659e-14
14	0xa8c209a2	-2.1542504e-14
15	0xa8a66a61	-1.8475837e-14
16	0xa8a24457	-1.801525e-14
17	0xa8ba8e94	-2.0711982e-14
18	0x28461462	1.0995628e-14
19	0x28453cc6	1.0948875e-14
20	0x2840a559	1.0693995e-14
21	0x28326d5a	9.904697e-15
22	0x2799d50b	4.2697012e-15
23	0x283f06a4	1.060407e-14
24	0xaa9ad76b	-2.7505372e-13
25	0xaa4e11f1	-1.83027e-13
26	0xaaa4b47a	-2.9257483e-13
27	0xaa8aee12	-2.467892e-13
28	0xaa97cc3f	-2.6964712e-13
29	0xaa94114d	-2.6302086e-13
30	0xadc954d0	-2.2888719e-11
31	0xad78541a	-1.4115842e-11
32	0xadda6aa9	-2.4831097e-11
33	0xadb332ae	-2.037245e-11
34	0xadc4ab35	-2.2358651e-11
35	0xadc8970a	-2.2804442e-11
36	0xba348750	-0.0006886618
37	0xba2e9bb3	-0.0006660774
38	0xba43c8d5	-0.0007468586
39	0xba23f76b	-0.00062548247
40	0xba18cb48	-0.0005828631
41	0xba5b0a51	-0.0008355724
42	0xb20f4ef7	-8.34165e-09
43	0xb1f6a30d	-7.178079e-09
44	0xb1ff2778	-7.425964e-09
45	0xb208e2c2	-7.967801e-09
46	0xb1eefa71	-6.9551835e-09
47	0xb2206edf	-9.338435e-09
48	0x248b2105	6.033758e-17
49	0x249b17b1	6.726067e-17
50	0x24d45289	9.2080164e-17
51	0x245dd801	4.81047e-17
52	0x243b351b	4.0594143e-17
53	0x24b3a2cf	7.7904684e-17
54	0xaf0b1c96	-1.2652132e-10
55	0xafaeb27a	-3.177723e-10
56	0xae81081a	-5.86768e-11
57	0xaf9210d7	-2.656921e-10
58	0xafb54581	-3.2973094e-10
59	0xad1d3f2f	-8.938446e-12
60	0xadf7f6d2	-2.819026e-11
61	0x2d4d6daf	1.16772555e-11
62	0xae5c0afd	-5.0031968e-11
63	0x2d05cf92	7.606265e-12
64	0x2d1beacb	8.8628644e-12
65	0xae15edb3	-3.4089797e-11
66	0xaf3b4c27	-1.7034606e-10
67	0xaf9eb4e3	-2.886856e-10
68	0xaefd5067	-1.151939e-10
69	0xaf8245c6	-2.369644e-10
70	0xaf928324	-2.6650426e-10
71	0xaf2071fb	-1.4592409e-10
72	0xab711075	-8.564324e-13
73	0xab2144f6	-5.7294393e-13
74	0xab830b83	-9.311305e-13
75	0xab55b570	-7.5924596e-13
76	0xab64b842	-8.125758e-13
77	0xab6fd6d0	-8.520797e-13
78	0xa635f936	-6.3134734e-16
79	0xa62f1548	-6.0744163e-16
80	0xa613aa90	-5.1232025e-16
81	0xa626a429	-5.78153e-16
82	0xa6046400	-4.5932225e-16
83	0xa653609d	-7.3336266e-16
84	0xb718d860	-9.110285e-06
85	0xb6b7ea17	-5.4810766e-06
86	0xb72266ec	-9.679916e-06
87	0xb707b64f	-8.089074e-06
88	0xb7179c54	-9.036699e-06
89	0xb70da894	-8.443505e-06
90	0xadb693c7	-2.075663e-11
91	0xad997348	-1.7445281e-11
92	0xadab5cb8	-1.9481625e-11
93	0xadb01ccb	-2.002167e-11
94	0xad9ed2b0	-1.8056084e-11
95	0xadaa2529	-1.9343265e-11
96	0xad681db2	-1.3194267e-11
97	0xad682761	-1.3196417e-11
98	0xad70c6b4	-1.36865415e-11
99	0xad63eb40	-1.2955692e-11
100	0xad4b9609	-1.15725285e-11
101	0xad6636f3	-1.30861875e-11
102	0xa7683e81	-3.2230351e-15
103	0xa724b94b	-2.286002e-15
104	0xa74c8fa6	-2.838856e-15
105	0xa759a6bc	-3.0205186e-15
106	0xa768ef40	-3.2326165e-15
107	0xa75efc2e	-3.0945396e-15
108	0xb9137a15	-0.00014064492
109	0xb8e449f8	-0.00010885665
110	0xb9177d2d	-0.00014447114
111	0xb9064dcc	-0.00012808217
112	0xb904d1ff	-0.0001266673
113	0xb918880f	-0.00014546535
114	0xb8adb0aa	-8.282189e-05
115	0xb89a7d99	-7.3666866e-05
116	0xb8afddad	-8.3859406e-05
117	0xb89d46f7	-7.4995616e-05
118	0xb885564c	-6.358008e-05
119	0xb8bb4f29	-8.9315996e-05
120	0xb7083bbf	-8.120142e-06
121	0xb6cf3201	-6.174902e-06
122	0xb70b5883	-8.305654e-06
123	0xb6f173e9	-7.1958534e-06
124	0xb6efe7be	-7.1497334e-06
125	0xb70cbb0f	-8.388203e-06
126	0xaaa951a6	-3.0077086e-13
127	0xa9f92706	-1.1064591e-13
128	0xaab67d20	-3.2416517e-13
129	0xaa8e76bc	-2.5306656e-13
130	0xaaabc65f	-3.051335e-13
131	0xaaa3b286	-2.9078492e-13
132	0xb1809672	-3.742394e-09
133	0xb116181d	-2.184158e-09
134	0xb189f488	-4.0150248e-09
135	0xb1682549	-3.3781637e-09
136	0xb187c7d6	-3.951736e-09
137	0xb176eda8	-3.5932803e-09
138	0xb2a53fbe	-1.9237515e-08
139	0xb2460993	-1.1527294e-08
140	0xb2ae2ff5	-2.0278074e-08
141	0xb2942601	-1.724675e-08
142	0xb2a45572	-1.9130969e-08
143	0xb29a41e7	-1.7957928e-08
144	0xb4b3c843	-3.3487058e-07
145	0xb4b314e3	-3.3356545e-07
146	0xb4b9e467	-3.462512e-07
147	0xb4ab5e5d	-3.191989e-07
148	0xb493537d	-2.744163e-07
149	0xb4b43bbd	-3.3571078e-07
150	0xa74fc596	-2.8834132e-15
151	0xa761706f	-3.1285973e-15
152	0xa759cd72	-3.0226172e-15
153	0xa7539e39	-2.9367905e-15
154	0xa75308d8	-2.9286926e-15
155	0xa746cc3d	-2.7588738e-15
156	0xb0d4e223	-1.5489302e-09
157	0xb078c8f5	-9.050745e-10
158	0xb0e74df9	-1.6829623e-09
159	0xb0bc3058	-1.369254e-09
160	0xb0d1bac4	-1.5259833e-09
161	0xb0cb961a	-1.4812855e-09
162	0xb0e30161	-1.6516816e-09
163	0xb085a72f	-9.72454e-10
164	0xb0f87146	-1.8076569e-09
165	0xb0c77b8c	-1.451427e-09
166	0xb0e0e7ef	-1.6364065e-09
167	0xb0d98c35	-1.5828677e-09
168	0xa72e71ff	-2.4209148e-15
169	0xa713c8aa	-2.0509128e-15
170	0xa71f95b8	-2.2146845e-15
171	0xa724de79	-2.2880175e-15
172	0xa704be20	-1.8421747e-15
173	0xa7290e2f	-2.346115e-15
174	0xaadbf8fb	-3.907498e-13
175	0xaa1a51ed	-1.3706371e-13
176	0xaaf064d3	-4.2702525e-13
177	0xaaab987e	-3.0481515e-13
178	0xaaed5834	-4.216086e-13
179	0xaadba899	-3.9019203e-13
180	0xad20b07c	-9.134134e-12
181	0xacfb859b	-7.1486823e-12
182	0xad2c188b	-9.782518e-12
183	0xad082fc5	-7.741312e-12
184	0xacf88b37	-7.06404e-12
185	0xad1f0a0f	-9.040337e-12
186	0xabf8d5f3	-1.7680843e-12
187	0xabb7eaee	-1.3068138e-12
188	0xabff90f1	-1.8159069e-12
189	0xabde48e5	-1.5794281e-12
190	0xabd7f625	-1.5344988e-12
191	0xabf3458e	-1.7285494e-12
192	0xbb785555	-0.0037892659
193	0xbb030f35	-0.0019998078
194	0xbb8f185e	-0.0043669185
195	0xbb4b2a1e	-0.0031000446
196	0xbb6f2961	-0.003649317
197	0xbb7a3bf5	-0.003818271
198	0xa10d4e6f	-4.7876464e-19
199	0xa0a1406b	-2.731709e-19
200	0xa11d4140	-5.3280027e-19
201	0xa0ed5e06	-4.021158e-19
202	0xa0f54848	-4.1552446e-19
203	0xa0fcbe27	-4.2816293e-19
204	0xb2ae73c4	-2.030891e-08
205	0xb29f0234	-1.8511038e-08
206	0xb2b4778b	-2.100912e-08
207	0xb2a55344	-1.9246393e-08
208	0xb2a50e35	-1.9214989e-08
209	0xb2afd6d7	-2.047038e-08
210	0xb6b873cf	-5.497109e-06
211	0xb6879cfd	-4.0415894e-06
212	0xb6c17578	-5.7655234e-06
213	0xb6a8d553	-5.0316244e-06
214	0xb6ad26e4	-5.1603292e-06
215	0xb6c2930a	-5.798768e-06
216	0xab8ffc2a	-1.0230751e-12
217	0xab863b08	-9.537657e-13
218	0xab849edd	-9.423258e-13
219	0xab99b42b	-1.092131e-12
220	0xab8d8620	-1.005588e-12
221	0xab79893c	-8.865302e-13
222	0xaa3b54ae	-1.6638316e-13
223	0xa9ede850	-1.0565214e-13
224	0xaa4f4c97	-1.8411866e-13
225	0xaa282a05	-1.4935976e-13
226	0xaa393779	-1.6450547e-13
227	0xaa3672f0	-1.6204724e-13
228	0xa9b9e838	-8.255934e-14
229	0xa9414d93	-4.2921894e-14
230	0xa9afd018	-7.80766e-14
231	0xa99ae673	-6.8789504e-14
232	0xa9bb916d	-8.3296956e-14
233	0xa9b953f6	-8.230215e-14
234	0xb27d6a23	-1.4750671e-08
235	0x3282d94e	1.523281e-08
236	0xb3364936	-4.2441762e-08
237	0x3228ce69	9.825819e-09
238	0xb2f34e14	-2.8324429e-08
239	0xb33348a7	-4.1742762e-08
240	0xb585705f	-9.941976e-07
241	0xb53ba6e0	-6.9905764e-07
242	0xb58afbf6	-1.0355132e-06
243	0xb56d863d	-8.848472e-07
244	0xb57d0dab	-9.4269734e-07
245	0xb586b2c6	-1.0035808e-06
246	0xa3ffcdcc	-2.7734314e-17
247	0xa380cedd	-1.3965398e-17
248	0xa40e8b32	-3.0909245e-17
249	0xa3cf3777	-2.2466475e-17
250	0xa4000e7d	-2.7767848e-17
251	0xa3fdcdea	-2.7517523e-17
252	0xab0932d0	-4.8742694e-13
253	0xaaae034b	-3.0910894e-13
254	0xab1035d8	-5.12338e-13
255	0xaaebce21	-4.1887416e-13

lstm.weight_hh_l0_reverse f4 [256, 64]
0	0x0f49b710	9.945322e-30
1	0x1b118997	1.2038577e-22
2	0x938d6f21	-3.5702986e-27
3	0x13c74a87	5.0308152e-27
4	0x13e78dd1	5.845244e-27
5	0x93d26685	-5.3112545e-27
6	0x1b8abece	2.295349e-22
7	0x976d6d6d	-7.6716945e-25
8	0x1081c12e	5.117917e-29
9	0x183c523b	2.4339946e-24
10	0x16bb3d46	3.0250148e-25
11	0x16a8bcd3	2.7261029e-25
12	0x1332c89a	2.2565663e-27
13	0x11fb4a5c	3.9646645e-28
14	0x19a8e8ae	1.7464771e-23
15	0x15452871	3.9815736e-26
16	0x15353c62	3.6600293e-26
17	0x92a56726	-1.0438392e-27
18	0x185063cc	2.6933754e-24
19	0x1a830bdc	5.419949e-23
20	0x9a293f02	-3.4999278e-23
21	0x9504be91	-2.6807518e-26
22	0x97211bf8	-5.2057207e-25
23	0x173f92af	6.190057e-25
24	0x988a059f	-3.567784e-24
25	0x92087c2b	-4.306708e-28
26	0x9690466d	-2.33089e-25
27	0x9667657c	-1.8692054e-25
28	0x92091e86	-4.32672e-28
29	0x93947a68	-3.7481154e-27
30	0x15474f43	4.0250256e-26
31	0x14b75ecb	1.8515667e-26
32	0x9c5501cb	-7.0478106e-22
33	0x0fbb0e48	1.8445125e-29
34	0x16ad46c6	2.7994322e-25
35	0x186d61fe	3.0681005e-24
36	0x138d2d33	3.5637974e-27
37	0x9357722a	-2.7193102e-27
38	0x1448d44a	1.0139286e-26
39	0x1a600ebe	4.6334023e-23
40	0x180de5af	1.8339783e-24
41	0x0fa25bfe	1.6009867e-29
42	0x142e2171	8.79135e-27
43	0x194bb88b	1.0532122e-23
44	0x1a758ddd	5.077941e-23
45	0x178d75d6	9.141657e-25
46	0x1a988e82	6.309596e-23
47	0x93fee535	-6.434463e-27
48	0x1a3ec196	3.9447457e-23
49	0x12fc4a93	1.592182e-27
50	0x151f513a	3.217387e-26
51	0x18c1f5ac	5.0137396e-24
52	0x97939ff4	-9.54003e-25
53	0x13d45f27	5.361015e-27
54	0x1ade8e10	9.204656e-23
55	0x10e10ef3	8.8769885e-29
56	0x12b9e10f	1.1730623e-27
57	0x1745c4ca	6.3902516e-25
58	0x96b1a1e1	-2.8698052e-25
59	0x968dc859	-2.2906216e-25
60	0x8fae4636	-1.7184769e-29
61	0x9306a3cf	-1.6993942e-27
62	0x11299875	1.3378729e-28
63	0x950b2f8a	-2.8108328e-26
64	0xa4887a5f	-5.91879e-17
65	0xb09c76fe	-1.1384313e-09
66	0x28b4b151	2.0060913e-14
67	0xa8b530e2	-2.0116236e-14
68	0x252c6550	1.4952948e-16
69	0xaab87092	-3.2763077e-13
70	0xadbf92d9	-2.17794e-11
71	0xa9238893	-3.631173e-14
72	0xa76a1c71	-3.2489442e-15
73	0x2e0adcc9	3.1573664e-11
74	0xaaac9171	-3.0654258e-13
75	0xac56b557	-3.0511893e-12
76	0x27be7902	5.286679e-15
77	0x26092879	4.7586274e-16
78	0x2d30084e	1.0006286e-11
79	0xaa2a3b6d	-1.511965e-13
80	0xaa37e356	-1.6332538e-13
81	0xa8c1036f	-2.1428793e-14
82	0x2d297c20	9.634099e-12
83	0x2e1cd0f7	3.565589e-11
84	0x2f087e89	1.2414082e-10
85	0x2912157c	3.2437147e-14
86	0xaa7dc36f	-2.2538719e-13
87	0x2a4dda4a	1.8283392e-13
88	0xaf791a16	-2.2655686e-10
89	0xa8a1e438	-1.7973565e-14
90	0x29b778e1	8.147802e-14
91	0xaa9ce6cd	-2.7871317e-13
92	0x257665ee	2.1371634e-16
93	0xaa120bfc	-1.2971563e-13
94	0xa987fa82	-6.0386605e-14
95	0x28e7f575	2.5752602e-14
96	0x2f572ac7	1.9569334e-10
97	0xa4777c33	-5.3664788e-17
98	0x2c471157	2.8289226e-12
99	0xac65e95c	-3.2672398e-12
100	0xa9e83813	-1.0312597e-13
101	0xa8a68414	-1.8486982e-14
102	0xa719ed1c	-2.1361553e-15
103	0xafaa51f4	-3.098105e-10
104	0x2d88c318	1.5548049e-11
105	0x260ad669	4.816895e-16
106	0x289bc3bd	1.7293345e-14
107	0xaf8f30b7	-2.6046162e-10
108	0x2ddded79	2.523025e-11
109	0x2e06a22d	3.0612114e-11
110	0x2ee9f1de	1.06385775e-10
111	0x2811ca1e	8.092944e-15
112	0xad45e76d	-1.124954e-11
113	0xa79c1eba	-4.333201e-15
114	0x2a68a41f	2.066268e-13
115	0xaf5379e6	-1.9233645e-10
116	0x2b63afb0	8.0890416e-13
117	0x26a0b069	1.1150046e-15
118	0x2e33275d	4.073485e-11
119	0x24405fe1	4.1714576e-17
120	0x254b82b8	1.7651733e-16
121	0x2c00d457	1.8307766e-12
122	0x2d260882	9.437897e-12
123	0x2d43607a	1.1105889e-11
124	0xa4911cf5	-6.293278e-17
125	0x298b8c95	6.197227e-14
126	0x252ba34c	1.4887213e-16
127	0x2a8fb7df	2.552949e-13
128	0x976bfcb7	-7.6251566e-25
129	0x21c5e8ac	1.3410827e-18
130	0x1fc703b5	8.428591e-20
131	0x1c8582be	8.834998e-22
132	0x1d092937	1.8153107e-21
133	0x1ee9fcd3	2.47744e-20
134	0x251ce357	1.3607869e-16
135	0xa1271162	-5.6604807e-19
136	0x1a17456d	3.128215e-23
137	0x1fced511	8.759688e-20
138	0x9f08cb98	-2.896753e-20
139	0x9e4aee33	-1.0743049e-20
140	0x9cb4aba4	-1.1955769e-21
141	0x1b77a1c0	2.0483625e-22
142	0x2166682f	7.8064917e-19
143	0x1f407118	4.075113e-20
144	0x1fff0bcc	1.0801622e-19
145	0x1a14b3a6	3.07508e-23
146	0xa4022673	-2.8221824e-17
147	0x24309017	3.8285965e-17
148	0xa3927ceb	-1.5882257e-17
149	0x9d6c49df	-3.127253e-21
150	0x9fe85850	-9.840192e-20
151	0x9ed00d59	-2.2028377e-20
152	0x22820aa9	3.5247857e-18
153	0x9c0b9a4d	-4.619067e-22
154	0x9ed2d714	-2.2323569e-20
155	0x1cfb4051	1.6626412e-21
156	0x9c008ee4	-4.253633e-22
157	0x1cfa748b	1.6573738e-21
158	0x1f879f71	5.74385e-20
159	0x1faa5487	7.213764e-20
160	0xa573875e	-2.1122754e-16
161	0x188eb45c	3.6888256e-24
162	0x9f781102	-5.253011e-20
163	0x23082d7a	7.382205e-18
164	0x1dd204b9	5.559142e-21
165	0x9b92d22c	-2.4289494e-22
166	0x1d2572a9	2.1896846e-21
167	0x20a0fb63	2.7271408e-19
168	0xa1f7c9bf	-1.6790773e-18
169	0x997f14dd	-1.3187404e-23
170	0x1d3c9a11	2.4961243e-21
171	0x214f186f	7.0166666e-19
172	0x23da0233	2.3636539e-17
173	0x9e9b33d8	-1.6432705e-20
174	0x220c44ec	1.9010025e-18
175	0x9cddcfe2	-1.467829e-21
176	0x237535d7	1.3292878e-17
177	0x1cd07eff	1.3797113e-21
178	0x9e4c8c0d	-1.0828632e-20
179	0x21bf50d3	1.2964057e-18
180	0xa113d605	-5.008879e-19
181	0x1ce8be2c	1.540163e-21
182	0x241b4fe9	3.3677954e-17
183	0x1ab83e36	7.6201124e-23
184	0x9b91f219	-2.414469e-22
185	0x1f3092c1	3.7390842e-20
186	0xa0b0a090	-2.992181e-19
187	0x9e6a70d1	-1.2411187e-20
188	0x973991b2	-5.9960617e-25
189	0x9d127151	-1.9381522e-21
190	0x1a4e861e	4.270814e-23
191	0x1e1d5124	8.32829e-21
192	0x9746aca6	-6.4195163e-25
193	0xa25f279f	-3.024311e-18
194	0x9c8ae972	-9.192418e-22
195	0x1cd96383	1.4385579e-21
196	0x1d28d5f7	2.2345232e-21
197	0x1e8e9c5b	1.5099502e-20
198	0xa42953d7	-3.671705e-17
199	0x1f7edb02	5.396775e-20
200	0x1ae95408	9.65023e-23
201	0xa03475bc	-1.5285548e-19
202	0x9e94c0c7	-1.574984e-20
203	0x20043249	1.1197473e-19
204	0x1d6c7614	3.1295385e-21
205	0x1b17bdae	1.2551716e-22
206	0x231b47c5	8.417765e-18
207	0x1f56a4a9	4.5452466e-20
208	0x1f2a4230	3.605365e-20
209	0x1b1711a1	1.2496123e-22
210	0x230ec458	7.739413e-18
211	0xa2a629d0	-4.503866e-18
212	0xa39d2f71	-1.7042066e-17
213	0x9d63f58d	-3.0170147e-21
214	0xa08805fc	-2.3043256e-19
215	0x20d080c9	3.5321793e-19
216	0x22adf3fa	4.7150064e-18
217	0x9c093386	-4.539609e-22
218	0xa00446f8	-1.1204316e-19
219	0xa00e5a0f	-1.2057666e-19
220	0x9c50a860	-6.9039047e-22
221	0x1d80d052	3.4096716e-21
222	0x1f145560	3.141084e-20
223	0x1decdde5	6.2698113e-21
224	0xa5dc800a	-3.825068e-16
225	0x18f4f6a6	6.3321573e-24
226	0xa0f7ccbb	-4.1978907e-19
227	0xa2b897f2	-5.003418e-18
228	0x1e6c1702	1.2498494e-20
229	0x9c9ca243	-1.0365158e-21
230	0x1d6cab4c	3.1322898e-21
231	0xa262934b	-3.0706688e-18
232	0x2179d9ab	8.4652563e-19
233	0x9a0f70d0	-2.9662836e-23
234	0x1d861546	3.54915e-21
235	0x2176c319	8.360625e-19
236	0x23090e0a	7.429758e-18
237	0xa0331ab9	-1.5170732e-19
238	0x224f3b21	2.8085034e-18
239	0x9cc9e43c	-1.3360061e-21
240	0x23973c9e	1.6397125e-17
241	0x1d4838f5	2.6499226e-21
242	0x9e6fb57a	-1.2690083e-20
243	0x212f98e3	5.949465e-19
244	0xa0d080bd	-3.5321762e-19
245	0x1d26904f	2.2044523e-21
246	0x241f90d6	3.460031e-17
247	0x1a6b8bff	4.870995e-23
248	0x1c6121fd	7.4490184e-22
249	0x1fdc46bd	9.329065e-20
250	0xa124e2b5	-5.5865406e-19
251	0x9fe12664	-9.535472e-20
252	0x989bd9e3	-4.028657e-24
253	0x9d280d9b	-2.2241649e-21
254	0x1aa3e6c9	6.7788073e-23
255	0x9f17fb82	-3.2183536e-20
