LOSO/models/model_without_subj_1.pth (torch, 549103 bytes, 18 tensors)

lstm.weight_ih_l0 f4 [256, 6]
00000000: b398 31ba 4ebe 423b 1644 5cba 20d2 9f3b
00000010: 2a32 673b 297f cdb8 ac26 cd37 365b 803b
00000020: 7c6d 3539 8838 a83b bac0 623b c149 d53a
00000030: 0fa4 29bb 8c94 283a 7a59 02bb 2fe2 8d3a
00000040: f862 583a aade 1fbb e9d2 30bb a9db 7cba
00000050: 33f8 0dbb f523 81ba e932 72ba 8994 0cbb
00000060: 8ea9 9639 5e50 463b e7f9 8e3a 8987 833b
00000070: 8a64 6d3b 78ec efb9 fd22 a938 5ef9 333b
00000080: ef25 f739 ad70 413b 42fd ed3a e509 6f3a
00000090: 18d3 e6ba 7924 373a 564e c7ba 0b53 be3a
000000a0: 92d2 483a 0f5d d4ba d3e6 b6ba f58e 023b
000000b0: bc48 b5ba 8d62 353b 92d8 c23a 96f3 87b9
000000c0: 257e 8bba 8012 16ba fcc3 bdba b3b7 ba3a
000000d0: 79cb 203a 2fab 13bb 9742 0ebb 830e ad3a
000000e0: fde2 90ba 9b3a 903a 7a7e f739 0cc5 19bb
000000f0: fb06 21bb b0dd 0039 f223 99ba 4875 183b
00000100: 68d3 283b 198b 0dba 0e2a 5f3a 92f2 d13b
00000110: 7a74 923b 3811 a33a 6cbc ac3a 70a8 8b3b
00000120: 6bb2 573c 4fa5 57bd 9f1d 243e ca27 2c3d
00000130: 6761 a63c 4082 373e cebe 21ba 38dd 0a3b
00000140: e157 40b8 2bf8 153b 03c7 953a 4f10 68ba
00000150: fb4a 1bbb bafc 97bb b1a1 0e3a 79d0 aeba
00000160: 9b0d 3c3b 1363 c3bb dc17 d1b9 e660 93b9
00000170: c323 98b9 fc3d 56b9 353a 4cb9 74a7 07ba
00000180: 2d96 3cbb def4 18bb a27f f0ba a96b 10bb
00000190: 6806 a1ba d8a0 85bb 4370 77bb fbf3 9fbb
000001a0: dd2f cdba e88a 31bb 0aba d638 da62 e1bb
000001b0: b273 f8b9 4630 edb9 0fce 07ba 82b4 f5b9
000001c0: ecb0 c0b9 62d0 dbb9 b34c 95ba 6fb5 993a
000001d0: 11c9 34ba 24bf 2b3b 7b47 f83a a34f 073a
000001e0: 6ce1 54bb 1690 4cbb aee6 12bb 873a 1cbb
000001f0: 587a b6ba b39a a2bb 2eab 873d 9eea 543d
00000200: 2acb 8a3d 0a23 7a3d 8951 6d3d ce67 d33d
00000210: bc26 c8b8 022b 353b 8606 df39 349a 633b
00000220: 884d 353b c565 b939 617b b937 b2f1 a237
00000230: aad5 e237 c290 a637 00de bf37 ff2e eb37
00000240: 0c88 253d 204f 063d 67be 543d df9e 983d
00000250: 3c92 b53d 9d68 0c3d efae cfba 1e4a 183b
00000260: 1dbb 9bba b03c 7b3b 200d 213b 3123 47ba
00000270: 70c3 46bb 4622 a8bb 5f6a cfb9 4032 09bb
00000280: 6678 a93a 0978 e6bb da9c ceba be7e b63a
00000290: 6119 d7ba 1471 133b 49f9 c53a 97c4 c8ba
000002a0: 4dc6 15bb 478d 1fb8 11b4 afba 5054 993a
000002b0: 15a6 b13a acb1 aeba 3ed8 42ba fd88 41ba
000002c0: 3401 4eba 4fcd 3cba a94b 07ba ddd5 3bba
000002d0: e30e 4bbb 8498 3dbb a38a aeba 252d 23bb
000002e0: 1dbe 88ba 5c41 b4bb a00e 9cba e5b3 1c3a
000002f0: 136f 84b9 1225 a039 f82f 173a 3200 1cba
00000300: 0825 6bba 4641 393b 88a1 f4b9 e111 ad3b
00000310: 3c2e 6d3b 9a6a bcb7 2abf a2ba 7e7e 093a
00000320: 3dae bdba f5db 9b3a 25ef 6f3a 5bf0 54ba
00000330: 49da 15b8 19c0 eab7 78d0 20b8 44dd 00b8
00000340: 54cf 08b8 47e5 e6b7 ffea 1cbb 55c9 963a
00000350: 9def ddba f1a7 243b b7b1 133b 1a99 0abb
00000360: 0ba8 b0b9 4840 573b e4c7 6e3a 9004 2f3b
00000370: d4e8 a33a b494 4b3a 6d90 9ab8 4353 b9b8
00000380: 21a9 c1b8 3d22 78b8 49dd 9eb8 0318 a4b8
00000390: d028 25bb 2808 ffba c8c9 25bb 89e5 00bb
000003a0: 0fbf e6ba b926 0bbb 46e6 17bb dd04 ed39
000003b0: beec dbba 1bd3 ad38 1e23 0cba f7ce 2ebb
000003c0: ef73 abba 3787 643b 6cd8 39b9 2ce3 a73b
000003d0: 4b97 663b 23c9 263a e228 0dbb a2b7 bc3a
000003e0: 0b0a 1abb d84f 523b 2045 213b ae0c 8f3a
000003f0: 1040 883d 1899 403d 2161 133e ec58 d83d
-0.0006774768 0.0029715481 -0.00084024796 0.004877344 0.0035277703 -9.798847e-05 2.4455912e-05 0.003917123
0.00017302291 0.005133692 0.0034599737 0.0016272591 -0.002588514 0.00064308266 -0.0019889758 0.0010824854
0.00082544936 -0.0024394193 -0.002698118 -0.0009645769 -0.002166283 -0.0009852635 -0.00092391536 -0.0021450839
0.00028736558 0.0030260305 0.0010908217 0.00401396 0.0036223256 -0.00045761815 8.065065e-05 0.0027461867
0.00047139774 0.0029516623 0.0018157142 0.0009118601 -0.0017610518 0.0006986331 -0.0015205841 0.0014520598
0.0007660772 -0.001620205 -0.0013954289 0.0019921635 -0.0013830881 0.002767715 0.0014865568 -0.00025930692
-0.0010642452 -0.00057248026 -0.0014477964 0.001424542 0.00061338354 -0.0022532453 -0.002170717 0.0013203177
-0.0011053976 0.0011003794 0.00047205744 -0.0023463396 -0.002457081 0.00012289616 -0.0011683686 0.0023263264
0.0025760774 -0.00053994503 0.00085130415 0.0064070905 0.0044694515 0.0012441045 0.0013178713 0.0042620227
0.013165097 -0.052647885 0.16026925 0.042030133 0.020310117 0.1792078 -0.0006170095 0.0021188986
-4.585821e-05 0.0022883515 0.0011427108 -0.0008852528 -0.0023695815 -0.0046382817 0.0005440964 -0.0013337276
0.0028694633 -0.0059627383 -0.00039881363 -0.0002811022 -0.00029018344 -0.00020431721 -0.0001947664 -0.0005174794
-0.0028776035 -0.0023339312 -0.0018348584 -0.0022036827 -0.0012285234 -0.004078012 -0.0037756122 -0.0048813797
-0.0015654523 -0.0027090851 0.00010238968 -0.006878239 -0.00047388446 -0.0004524013 -0.00051805464 -0.0004686453
-0.0003675291 -0.00041926192 -0.0011390656 0.0011727045 -0.00068964163 0.0026206458 0.0018942201 0.0005161708
-0.0032482995 -0.0031213812 -0.0022415328 -0.0023838596 -0.0013921959 -0.0049622892 0.06624447 0.05198156
0.06777032 0.061068572 0.057939086 0.103225335 -9.543958e-05 0.0027644043 0.00042538735 0.0034729363
0.002766462 0.00035361774 2.2111171e-05 1.9424453e-05 2.7040795e-05 1.985615e-05 2.2872351e-05 2.8036067e-05
0.040412948 0.032790303 0.051939394 0.07452177 0.088657826 0.034279454 -0.0015844981 0.0023237537
-0.0011881326 0.0038335733 0.0024574474 -0.00075964915 -0.0030328892 -0.005131039 -0.0003956137 -0.0020934492
0.0012929558 -0.0070333523 -0.0015763298 0.001392327 -0.0016410762 0.002249782 0.00151042 -0.0015317377
-0.0022853792 -3.804013e-05 -0.0013405104 0.0011698101 0.0013553525 -0.0013328097 -0.00074327353 -0.00073827786
-0.00078584556 -0.0007202224 -0.00051611156 -0.0007165352 -0.0030984215 -0.0028930018 -0.0013316463 -0.0024898734
-0.0010432635 -0.0055009555 -0.0011906214 0.0005977734 -0.0002525976 0.00030545198 0.0005767341 -0.0005950957
-0.00089700567 0.0028267666 -0.00046659657 0.0052816723 0.0036190888 -2.2460987e-05 -0.001241659 0.0005244984
-0.0014471483 0.0011891114 0.0009152762 -0.0008122974 -3.5727662e-05 -2.7984426e-05 -3.8341124e-05 -3.0723648e-05
-3.2618016e-05 -2.7524902e-05 -0.002394378 0.0011504093 -0.0016932372 0.0025124515 0.0022536346 -0.0021148385
-0.00033694538 0.003284471 0.00091087655 0.00267056 0.0012505301 0.0007765994 -7.3701936e-05 -8.836996e-05
-9.23446e-05 -5.9159695e-05 -7.575245e-05 -7.824602e-05 -0.0025201328 -0.0019457387 -0.0025297273 -0.0019668064
-0.0017604547 -0.0021232797 -0.0023178025 0.00045207786 -0.0016778929 8.288604e-05 -0.0005345809 -0.0026673654
-0.0013080816 0.0034870633 -0.00017723598 0.0051235165 0.0035185392 0.0006362369 -0.002153926 0.0014397989
-0.0023504521 0.0032091048 0.0024607852 0.0010913813 0.06652844 0.047021 0.1439252 0.105638355

lstm.weight_hh_l0 f4 [256, 64]
00000000: 9e68 82ba 3b80 5eba a001 86ba a368 383a
00000010: 7e4e 913a 7d13 40ba 0d61 6a3a f368 503a
00000020: c268 31ba 6b20 803a 8bfb 9aba 45ce a83a
00000030: 58ba 19bb 0255 443a 1d65 d1b9 d38a 0939
00000040: 1c75 e3b8 16ba a939 cf46 25b9 f1df 423a
00000050: c489 0cb9 a4d8 42bb e32a 6c3a 1cc9 81b8
00000060: f9a0 a2bb 4bf4 6a3a 792e b239 faa1 64ba
00000070: f31e 783a f29a 82b9 7e86 a7b8 75fe 79ba
00000080: 8e48 85ba eabe 4e3a c737 1438 8696 87ba
00000090: 3ac2 2eba efa4 0c39 a6d4 6fb9 3ec6 62ba
000000a0: 2078 91ba 6619 683a bb57 02bc 1ada f1b5
000000b0: 4c62 14b9 0cb8 d1b9 a594 8a3a 95f7 393a
000000c0: 1429 62ba 5e34 52ba 9a20 cf39 616a 66ba
000000d0: b1ae a2b9 c450 c9b7 4e1b 703a 927b 66ba
000000e0: 2df3 af3a 7fe4 87b9 b048 6e39 45ad 7eb9
000000f0: ddb2 44ba f208 003b 1742 12b8 4469 0c3a
00000100: c0c5 2bba af2e 15ba 6ca2 1eba cbfd 4e39
00000110: 3569 f839 2d1a e7b9 2572 033a 5b14 033a
00000120: 6add 9fb9 445b 073a 4f53 17ba c727 d739
00000130: 88c2 fab9 ca46 dc39 8e13 1eba 3d2c 5437
00000140: 0924 8bb9 95da 023a 2ce1 cbb9 4403 f039
00000150: 0bb7 96b9 4a36 2cbb 0c36 0a3a 2b1f 1eb9
00000160: 0c79 8fbb c750 163a a7a4 083a 4142 11ba
00000170: 0d8c 043a ec41 a4b9 3977 88b9 6d38 d6b9
00000180: 0c7b 2aba 6591 ee39 2219 f438 42c3 24ba
00000190: 403f ddb9 b164 30b6 42a5 ac39 9b21 f0b9
000001a0: 35b5 47ba 6c0c 223a 0d25 dcbb b0e0 8538
000001b0: 5bf3 b2b9 1f5e 20ba c66a 383a c3f0 f039
000001c0: 514d 06ba e1b9 0bba 3fdc 213a a782 15ba
000001d0: dca8 1c39 624d 4cb9 dfd2 1d3a 9c47 14ba
000001e0: dae4 483a da37 2539 83b1 ca39 73b6 dfb9
000001f0: 67e5 09ba 7cb3 893a c7de 2eb9 3b4c 7839
00000200: fd8c 18ba c3a6 eab9 d6c9 2bba 90d5 133a
00000210: 325d 483a f43b e0b9 33a4 0d3a 7aeb f839
00000220: 233c 18ba 019f 2e3a d8a2 49ba 6140 673a
00000230: a86b 0abb d598 083a d79e 003a e681 3939
00000240: c567 c239 c78a f4b9 e67d b5b8 e6f9 df39
00000250: da1b c739 eeb5 9dba 29ca 103a 0851 05b8
00000260: d0ba 30bb d101 183a f992 fab9 1dfe 0bba
00000270: 4569 213a a1f0 87b9 4e24 ea39 fc06 4dba
00000280: e7eb 15ba 637d f739 2f2b d537 ac78 33ba
00000290: ec76 c7b9 582b 1e39 401b 89b9 02e9 1dba
000002a0: bec0 1bba a73a cf39 9978 96bb cf14 21b8
000002b0: acd1 023a a811 023a 7436 233a ec0e dc39
000002c0: dbd8 0eba 5b85 deb9 fb5b 04ba 4fb0 07ba
000002d0: 23a8 65ba 4811 b439 9c6c 0b3a fb85 07ba
000002e0: 8603 593a 7659 a1b9 a86f dcb9 4e5a fd39
000002f0: f8a3 c6b9 fba6 973a 0528 e238 0ed6 d739
00000300: 4cfe 42b9 511e 3ab9 77cb 6ab9 45c7 4639
00000310: 94e4 8a39 e83a 47b9 4bfa 3739 87f5 5039
00000320: cd54 1fb9 1be1 8139 abb6 70b9 553e 9739
00000330: 5a0b 6aba 02e4 8039 e1f6 ef39 fe63 c238
00000340: 03cd 9b39 4620 d6b9 8ba3 1936 760d 4a39
00000350: 828c 9c39 2c3c 1f39 ad1c 4f39 1d45 4b35
00000360: d653 8439 b186 6739 ea0f d9b9 8b03 41b9
00000370: 1608 2739 10d2 6fb8 59a2 ad39 8f6f 7ab9
00000380: 4609 54b9 1e78 2839 4472 b8b7 0f8c 87b9
00000390: 38bb 5fb9 d5af 30b7 e8d4 c1b8 9f03 6eb9
000003a0: 7d9c 34b9 a9aa cd38 3a01 2dba 0f3e 0837
000003b0: 2900 c439 72c2 f139 5223 4b39 b6ff 4c39
000003c0: ef36 56b9 c937 1bb9 d756 f7b9 81d1 41b9
000003d0: a886 0cba 1564 8b39 1c35 4739 0c87 51b9
000003e0: f2ad 8d39 9f9e 42b9 4a8e b8b9 38fe cc39
000003f0: 628a 14b9 be6d a239 c524 2c38 2372 8839
-0.0009949391 -0.0008487736 -0.0010223873 0.0007034635 0.0011086015 -0.0007327123 0.00089408533 0.0007950209
-0.0006767624 0.0009775286 -0.0011824233 0.0012878856 -0.0023457017 0.0007489474 -0.00039938922 0.00013117054
-0.00010846017 0.00032372837 -0.00015762004 0.00074338826 -0.00013402762 -0.0029731179 0.0009009076 -6.188659e-05
-0.004963037 0.0008962794 0.0003398543 -0.0008721646 0.0009465061 -0.00024910975 -7.988232e-05 -0.0009536513
-0.0010168718 0.0007886725 3.5337896e-05 -0.0010344542 -0.0006666515 0.00013412883 -0.00022872034 -0.0008650756
-0.0011098422 0.00088538823 -0.007955487 -1.8019375e-06 -0.00014150998 -0.00040000712 0.0010572864 0.00070940825
-0.0008627337 -0.00080186676 0.00039506407 -0.00087896554 -0.00031029203 -2.3998677e-05 0.0009159342 -0.0008792217
0.0013423912 -0.0002591945 0.00022724527 -0.00024287876 -0.00075034593 0.0019536582 -3.4870664e-05 0.0005356262
-0.00065525994 -0.00056908553 -0.00060514244 0.00019740236 0.0004738063 -0.00044079256 0.0005014262 0.00050002866
-0.0003049181 0.0005163441 -0.0005772607 0.00041037632 -0.00047828653 0.00042014412 -0.00060301356 1.2646485e-05
-0.00026538994 0.00049916777 -0.00038886943 0.000457788 -0.00028746607 -0.0026277476 0.0005272336 -0.00015079665
-0.0043784436 0.00057340827 0.00052125234 -0.00055411836 0.00050562696 -0.00031329633 -0.0002602877 -0.000408593
-0.0006503321 0.00045503225 0.00011639508 -0.0006285199 -0.0004219953 -2.6284654e-06 0.00032929523 -0.00045801405
-0.00076182495 0.00061816606 -0.006718284 6.3837855e-05 -0.0003413212 -0.0006117541 0.00070349535 0.0004595575
-0.00051232154 -0.00053301273 0.0006174482 -0.00057033676 0.00014940224 -0.00019483783 0.0006020497 -0.00056564226
0.0007663496 0.00015756433 0.000386607 -0.0004266981 -0.0005260319 0.0010505761 -0.00016676924 0.00023679521
-0.0005819349 -0.00044756205 -0.0006553208 0.0005639428 0.0007643282 -0.00042769278 0.0005403191 0.0004747769
-0.0005807301 0.00066612667 -0.0007691807 0.0008821544 -0.0021121297 0.0005210762 0.00049064815 0.00017691366
0.00037079878 -0.00046642704 -8.654203e-05 0.00042720063 0.0003797699 -0.0012032369 0.0005523288 -3.1785137e-05
-0.0026966818 0.00057986105 -0.0004779322 -0.0005340295 0.0006157349 -0.0002592849 0.00044659007 -0.000782117
-0.0005719051 0.00047204932 2.5411688e-05 -0.00068462896 -0.00038044841 0.00015084201 -0.0002615098 -0.00060237956
-0.00059415016 0.00039525816 -0.004592013 -3.840477e-05 0.000499035 0.00049617374 0.00062260707 0.00041972788
-0.0005449184 -0.00042442497 -0.00050491065 -0.00051761133 -0.0008760711 0.0003434515 0.0005318613 -0.0005169806
0.0008278418 -0.00030774967 -0.0004204486 0.00048323203 -0.0003788767 0.001157015 0.00010783974 0.0004116748
-0.00018596015 -0.00017749636 -0.00022391776 0.00018956985 0.00026491715 -0.00019000063 0.00017545481 0.00019927892
-0.00015195012 0.00024772514 -0.00022956233 0.00028847405 -0.0008928083 0.00024583942 0.0004576957 9.269266e-05
0.0002971665 -0.00040841306 2.2893971e-06 0.00019269236 0.00029859325 0.00015185837 0.00019751741 7.5723966e-07
0.00025239465 0.00022080053 -0.00041401322 -0.00018407234 0.00015929373 -5.7177676e-05 0.0003311809 -0.00023883417
-0.0002022135 0.00016066476 -2.1987718e-05 -0.00025853558 -0.00021336682 -1.0531357e-05 -9.242614e-05 -0.00022698798
-0.00017224434 9.80695e-05 -0.0006599609 8.120681e-06 0.00037384153 0.00046111975 0.00019372746 0.00019550216
-0.00020429095 -0.00014802733 -0.00047176212 -0.0001848396 -0.00053606415 0.00026586713 0.00018997904 -0.00019982102
0.00027023215 -0.00018560373 -0.00035201228 0.0003909932 -0.00014165931 0.00030980812 4.104224e-05 0.0002602498

lstm.bias_ih_l0 f4 [256]
00000000: 5cc4 053c a997 0a3c f5de 2f3b 4fa4 86ba
00000010: 4a77 df3b 517b a83b 4687 653b 5823 be3b
00000020: ccd7 a03a f806 533b 3707 a33b 947b 183c
00000030: d98f ce3d b283 903b c6e7 98bb 6cc7 edb8
00000040: 5713 b2bb b279 c5bb 5b35 23ba b207 9b3b
00000050: 2db1 b9bb 2dbf 113e a7f0 bc3b 1d95 b737
00000060: 9680 1e3e 6583 ef3b 0081 adbb f76a a33b
00000070: 7ea4 223b 2a7f 83ba 2760 babb ec20 143b
00000080: 7be9 183c 4b35 393b 9cb7 8ab8 db15 b33b
00000090: 95da a73b a0f7 76b9 5eb5 47bb 8ea7 2a3a
000000a0: ad51 0f3c 2587 d13b 1d19 4f3e 8616 28b9
000000b0: f1ef a7bb e45a 90bb 283c 0c3c 8973 b43b
000000c0: 9a23 9c3b 4170 b73b 52c6 88bb c67f f73b
000000d0: 8dc7 9c3b 9dca 77bb ccc5 e43b e6c7 c33b
000000e0: 1688 2c3c 5c1a dc39 fc12 cabb f401 c2bb
000000f0: 91e2 9f3b 2f41 163d 0b37 5eb9 aac8 4c3b
00000100: 24bd ae3b 426f bf3b 7d7a 6b3a f3d4 6dba
00000110: dc68 a53b 561f 5c3b 5613 f33a 71b7 403b
00000120: 5719 183a 586d 133b bb3c 9c3b bfea 2c3c
00000130: f684 d13d 4805 193b 8913 14bc 0572 a6b7
00000140: 4a47 c7bb 4cd0 16bc a4b4 36ba 799e 443b
00000150: 03cb e4bb ac4b fa3d 23bb 8a3b b2ca 4cb6
00000160: 4eab a13e d8e5 843b f1c5 10bc b4c0 e73a
00000170: 09cb 133b 6cc7 8eba 5ba8 e3bb 68e9 3b3b
00000180: 6bbe ba3b 7e9f 983a 166a a2b8 35e3 4f3b
00000190: 9c28 4a3b f47c 82b9 fc69 26bb 5ff0 b539
000001a0: babc d03b 9698 513b b035 a03e 5059 3cb9
000001b0: 7dc5 e6bb 2c42 11bc d42c 9f3b bb11 2f3b
000001c0: 6483 4d3b 38ce 2b3b ccc7 12bc 7c92 a53b
000001d0: 256b 093c 0313 7ebb 0ede 863b 6749 6e3b
000001e0: fcc7 023c 31c6 0c3a 34f6 f9bb 0e70 0fbc
000001f0: 2db3 063b 2a74 3b3d cfde 44b9 6031 dd3a
00000200: 992a b0b7 b14c 2dba 51df 9a3b 4321 d7bb
00000210: 0d63 07bc 80ff 173a 79a2 eeba 055a ac3a
00000220: 4b2e 593c 504e e9bb 5d2f a83b ea99 81bb
00000230: 043c ba3d e17d a4bb d049 26bd 7a81 53bb
00000240: 2698 b0bc 25c8 073d 267a 6b3b ff11 9db8
00000250: baaf c8bc 6a46 07be 6dd2 9db9 a4b1 413b
00000260: b2d6 c3bd 35c9 ebba 365a 143d 1eae 253b
00000270: cfc6 8cbb 5e09 4b3b 2155 c8bc 748b 1f3c
00000280: ad98 163b 041f 16ba 388b 0ebb 9bf2 e03b
00000290: 6c41 993b ec7f bb3b e648 b3ba 6c49 c13b
000002a0: e4bd c33a d255 ec3b 892d 5abc e105 a2bb
000002b0: 2851 e9bc 28c3 27bd 625d 2fba 89d9 d538
000002c0: ccff 2a3a c55c 63ba 5d99 343d 4df5 2c3b
000002d0: 44d6 113d bf1f 96bc 1668 8dbb 4aab a23b
000002e0: 9621 97bb c0e4 f23b c9ab d13c 34af 01bd
000002f0: 3e3d b8ba a0d3 4cbc e8fa 86bb 1de6 b8bb
00000300: 35f6 063c ee22 0c3c 1f14 2e3b 50a6 86ba
00000310: 352a de3b 6272 a93b 65e0 663b 0878 c03b
00000320: 2bd0 933a c0bc 523b fa91 a23b 20ec 163c
00000330: b644 143e d394 913b f221 acbb b511 ebb8
00000340: e18a b4bb eb15 d1bb 2be3 22ba 60a1 9c3b
00000350: f8fd bcbb 9524 0e3e e8aa bd3b aba4 b637
00000360: 3f6e 543e a986 f23b 992f bbbb 23da a43b
00000370: a6ab 223b 1228 83ba 6367 bdbb 177b 0f3b
00000380: ecaf 1a3c dc43 3a3b e79d 8ab8 fdbb b33b
00000390: 3677 a83b df70 77b9 d2ad 47bb 0ecb 293a
000003a0: 858c 103c e96f d43b 10f8 3c3e 09c7 26b9
000003b0: c814 adbb 2748 a5bb d54a 0d3c f0a2 b63b
000003c0: 5512 9e3b c968 b93b b582 9fbb 1c43 f93b
000003d0: 21a6 a13b 5ada 79bb 88ed e53b 7c12 c53b
000003e0: 148f 2b3c b21b dc39 699c cebb 00c4 cbbb
000003f0: d855 a13b 6283 163d 3e91 5cb9 88be 4d3b
0.0081644915 0.00845901 0.0026835774 -0.0010272356 0.0068196403 0.0051416536 0.0035023256 0.005802553
0.0012271344 0.0032200199 0.0049752253 0.009306807 0.100860305 0.0044102306 -0.0046663014 -0.00011338186
-0.0054344344 -0.00602647 -0.0006225907 0.004731142 -0.005666873 0.14233084 0.0057659927 2.1884736e-05
0.15478739 0.0073093646 -0.005294919 0.0049871164 0.0024817283 -0.0010032405 -0.005687732 0.002260263
0.00933301 0.0028260525 -6.614553e-05 0.005465252 0.0051224926 -0.00023552636 -0.0030473094 0.0006509953
0.0087475 0.0063942843 0.20224424 -0.00016030119 -0.005125039 -0.0044053663 0.008559264 0.005506937
0.004764986 0.0055980985 -0.0041740322 0.0075530736 0.0047845305 -0.0037809976 0.006981587 0.0059747575
0.010530492 0.0004198131 -0.006166814 -0.005920643 0.0048793037 0.036683258 -0.00021192075 0.0031247535
0.005332606 0.0058421204 0.0008982791 -0.00090725644 0.0050479006 0.0033588014 0.0018545191 0.0029406215
0.0005802116 0.0022495594 0.004767982 0.010554015 0.102304384 0.0023349095 -0.009037861 -1.9841837e-05
-0.0060814964 -0.009204935 -0.00069696666 0.0030001684 -0.0069822087 0.122214645 0.004233734 -3.0516353e-06
0.31576008 0.00405572 -0.008836255 0.0017681331 0.0022551438 -0.0010893173 -0.00694756 0.0028673057
0.005698969 0.0011644212 -7.744522e-05 0.003172112 0.003084696 -0.0002488863 -0.0025392761 0.000347021
0.006370154 0.0031981817 0.3129096 -0.00017962349 -0.0070425854 -0.008865874 0.004857639 0.002671345
0.0031358832 0.0026215445 -0.008958768 0.0050528627 0.008387362 -0.0038768656 0.0041158265 0.003635967
0.00798225 0.0005370109 -0.0076282267 -0.008754743 0.0020553574 0.04576508 -0.00018775019 0.0016875677
-2.1000671e-05 -0.0006610854 0.0047263284 -0.0065652444 -0.008263362 0.00057982653 -0.001820638 0.0013149387
0.013255666 -0.0071199313 0.0051325993 -0.0039551156 0.09093478 -0.0050198887 -0.040597737 -0.003227322
-0.021556925 0.033149857 0.003593096 -7.4896954e-05 -0.024497855 -0.13210455 -0.00030102153 0.0029555345
-0.09562434 -0.0017989042 0.036218844 0.0025280784 -0.004296161 0.0030980925 -0.024454655 0.009737838
0.0022979185 -0.00057266676 -0.0021750461 0.0068648583 0.0046769883 0.0057220366 -0.0013678342 0.005898645
0.0014933911 0.007212379 -0.0133165205 -0.0049445485 -0.028481081 -0.0409576 -0.00066896353 0.000101971506
0.0006523102 -0.00086731865 0.04409157 0.0026391328 0.03560473 -0.018325685 -0.0043153865 0.004964267
-0.004612158 0.007412523 0.025594609 -0.031661227 -0.0014056338 -0.012501627 -0.004119266 -0.005642666
0.008237411 0.00855325 0.0026562286 -0.0010272954 0.006779934 0.005171106 0.0035228964 0.005873684
0.0011277249 0.003215596 0.0049612494 0.00921157 0.14479336 0.00444279 -0.00525307 -0.000112089714
-0.0055097197 -0.0063807867 -0.000621366 0.0047799796 -0.00576758 0.13881142 0.005788196 2.177277e-05
0.2074518 0.0074013066 -0.005712461 0.0050308867 0.0024821549 -0.0010006449 -0.005780147 0.0021893436
0.009441357 0.0028421795 -6.6097644e-05 0.0054850564 0.005141164 -0.00023597803 -0.0030468595 0.0006477096
0.008822565 0.0064830673 0.18454003 -0.0001590514 -0.0052820183 -0.0050440016 0.008623798 0.005573623
0.0048239627 0.0056582433 -0.0048678764 0.007606877 0.004933134 -0.0038124532 0.0070168413 0.0060141664
0.010471124 0.00041982305 -0.0063052666 -0.0062184334 0.0049235635 0.03674639 -0.00021034942 0.0031394083

lstm.bias_hh_l0 f4 [256]
00000000: 5cc4 053c a997 0a3c f5de 2f3b 4fa4 86ba
00000010: 4a77 df3b 517b a83b 4687 653b 5823 be3b
00000020: ccd7 a03a f806 533b 3707 a33b 947b 183c
00000030: d98f ce3d b283 903b c6e7 98bb 6cc7 edb8
00000040: 5713 b2bb b279 c5bb 5b35 23ba b207 9b3b
00000050: 2db1 b9bb 2dbf 113e a7f0 bc3b 1d95 b737
00000060: 9680 1e3e 6583 ef3b 0081 adbb f76a a33b
00000070: 7ea4 223b 2a7f 83ba 2760 babb ec20 143b
00000080: 7be9 183c 4b35 393b 9cb7 8ab8 db15 b33b
00000090: 95da a73b a0f7 76b9 5eb5 47bb 8ea7 2a3a
000000a0: ad51 0f3c 2587 d13b 1d19 4f3e 8616 28b9
000000b0: f1ef a7bb e45a 90bb 283c 0c3c 8973 b43b
000000c0: 9a23 9c3b 4170 b73b 52c6 88bb c67f f73b
000000d0: 8dc7 9c3b 9dca 77bb ccc5 e43b e6c7 c33b
000000e0: 1688 2c3c 5c1a dc39 fc12 cabb f401 c2bb
000000f0: 91e2 9f3b 2f41 163d 0b37 5eb9 aac8 4c3b
00000100: 24bd ae3b 426f bf3b 7d7a 6b3a f3d4 6dba
00000110: dc68 a53b 561f 5c3b 5613 f33a 71b7 403b
00000120: 5719 183a 586d 133b bb3c 9c3b bfea 2c3c
00000130: f684 d13d 4805 193b 8913 14bc 0572 a6b7
00000140: 4a47 c7bb 4cd0 16bc a4b4 36ba 799e 443b
00000150: 03cb e4bb ac4b fa3d 23bb 8a3b b2ca 4cb6
00000160: 4eab a13e d8e5 843b f1c5 10bc b4c0 e73a
00000170: 09cb 133b 6cc7 8eba 5ba8 e3bb 68e9 3b3b
00000180: 6bbe ba3b 7e9f 983a 166a a2b8 35e3 4f3b
00000190: 9c28 4a3b f47c 82b9 fc69 26bb 5ff0 b539
000001a0: babc d03b 9698 513b b035 a03e 5059 3cb9
000001b0: 7dc5 e6bb 2c42 11bc d42c 9f3b bb11 2f3b
000001c0: 6483 4d3b 38ce 2b3b ccc7 12bc 7c92 a53b
000001d0: 256b 093c 0313 7ebb 0ede 863b 6749 6e3b
000001e0: fcc7 023c 31c6 0c3a 34f6 f9bb 0e70 0fbc
000001f0: 2db3 063b 2a74 3b3d cfde 44b9 6031 dd3a
00000200: 992a b0b7 b14c 2dba 51df 9a3b 4321 d7bb
00000210: 0d63 07bc 80ff 173a 79a2 eeba 055a ac3a
00000220: 4b2e 593c 504e e9bb 5d2f a83b ea99 81bb
00000230: dce7 b63d e17d a4bb d049 26bd 7a81 53bb
00000240: 2698 b0bc 25c8 073d 267a 6b3b ff11 9db8
00000250: baaf c8bc 6a46 07be 6dd2 9db9 a4b1 413b
00000260: 3622 aabd 35c9 ebba 365a 143d 1eae 253b
00000270: cfc6 8cbb 5e09 4b3b 2155 c8bc 748b 1f3c
00000280: ad98 163b 041f 16ba 388b 0ebb 9bf2 e03b
00000290: 6c41 993b ec7f bb3b e648 b3ba 6c49 c13b
000002a0: e4bd c33a d255 ec3b 112f 5abc e105 a2bb
000002b0: 2851 e9bc 28c3 27bd 625d 2fba 89d9 d538
000002c0: ccff 2a3a c55c 63ba 5d99 343d 4df5 2c3b
000002d0: 44d6 113d bf1f 96bc 1668 8dbb 4aab a23b
000002e0: 9621 97bb c0e4 f23b c9ab d13c 34af 01bd
000002f0: 3e3d b8ba a0d3 4cbc e8fa 86bb 1de6 b8bb
00000300: 35f6 063c ee22 0c3c 1f14 2e3b 50a6 86ba
00000310: 352a de3b 6272 a93b 65e0 663b 0878 c03b
00000320: 2bd0 933a c0bc 523b fa91 a23b 20ec 163c
00000330: b644 143e d394 913b f221 acbb b511 ebb8
00000340: e18a b4bb eb15 d1bb 2be3 22ba 60a1 9c3b
00000350: f8fd bcbb 9524 0e3e e8aa bd3b aba4 b637
00000360: 3f6e 543e a986 f23b 992f bbbb 23da a43b
00000370: a6ab 223b 1228 83ba 6367 bdbb 177b 0f3b
00000380: ecaf 1a3c dc43 3a3b e79d 8ab8 fdbb b33b
00000390: 3677 a83b df70 77b9 d2ad 47bb 0ecb 293a
000003a0: 858c 103c e96f d43b 10f8 3c3e 09c7 26b9
000003b0: c814 adbb 2748 a5bb d54a 0d3c f0a2 b63b
000003c0: 5512 9e3b c968 b93b b582 9fbb 1c43 f93b
000003d0: 21a6 a13b 5ada 79bb 88ed e53b 7c12 c53b
000003e0: 148f 2b3c b21b dc39 699c cebb 00c4 cbbb
000003f0: d855 a13b 6283 163d 3e91 5cb9 88be 4d3b
0.0081644915 0.00845901 0.0026835774 -0.0010272356 0.0068196403 0.0051416536 0.0035023256 0.005802553
0.0012271344 0.0032200199 0.0049752253 0.009306807 0.100860305 0.0044102306 -0.0046663014 -0.00011338186
-0.0054344344 -0.00602647 -0.0006225907 0.004731142 -0.005666873 0.14233084 0.0057659927 2.1884736e-05
0.15478739 0.0073093646 -0.005294919 0.0049871164 0.0024817283 -0.0010032405 -0.005687732 0.002260263
0.00933301 0.0028260525 -6.614553e-05 0.005465252 0.0051224926 -0.00023552636 -0.0030473094 0.0006509953
0.0087475 0.0063942843 0.20224424 -0.00016030119 -0.005125039 -0.0044053663 0.008559264 0.005506937
0.004764986 0.0055980985 -0.0041740322 0.0075530736 0.0047845305 -0.0037809976 0.006981587 0.0059747575
0.010530492 0.0004198131 -0.006166814 -0.005920643 0.0048793037 0.036683258 -0.00021192075 0.0031247535
0.005332606 0.0058421204 0.0008982791 -0.00090725644 0.0050479006 0.0033588014 0.0018545191 0.0029406215
0.0005802116 0.0022495594 0.004767982 0.010554015 0.102304384 0.0023349095 -0.009037861 -1.9841837e-05
-0.0060814964 -0.009204935 -0.00069696666 0.0030001684 -0.0069822087 0.122214645 0.004233734 -3.0516353e-06
0.31576008 0.00405572 -0.008836255 0.0017681331 0.0022551438 -0.0010893173 -0.00694756 0.0028673057
0.005698969 0.0011644212 -7.744522e-05 0.003172112 0.003084696 -0.0002488863 -0.0025392761 0.000347021
0.006370154 0.0031981817 0.3129096 -0.00017962349 -0.0070425854 -0.008865874 0.004857639 0.002671345
0.0031358832 0.0026215445 -0.008958768 0.0050528627 0.008387362 -0.0038768656 0.0041158265 0.003635967
0.00798225 0.0005370109 -0.0076282267 -0.008754743 0.0020553574 0.04576508 -0.00018775019 0.0016875677
-2.1000671e-05 -0.0006610854 0.0047263284 -0.0065652444 -0.008263362 0.00057982653 -0.001820638 0.0013149387
0.013255666 -0.0071199313 0.0051325993 -0.0039551156 0.089309424 -0.0050198887 -0.040597737 -0.003227322
-0.021556925 0.033149857 0.003593096 -7.4896954e-05 -0.024497855 -0.13210455 -0.00030102153 0.0029555345
-0.083073065 -0.0017989042 0.036218844 0.0025280784 -0.004296161 0.0030980925 -0.024454655 0.009737838
0.0022979185 -0.00057266676 -0.0021750461 0.0068648583 0.0046769883 0.0057220366 -0.0013678342 0.005898645
0.0014933911 0.007212379 -0.013316886 -0.0049445485 -0.028481081 -0.0409576 -0.00066896353 0.000101971506
0.0006523102 -0.00086731865 0.04409157 0.0026391328 0.03560473 -0.018325685 -0.0043153865 0.004964267
-0.004612158 0.007412523 0.025594609 -0.031661227 -0.0014056338 -0.012501627 -0.004119266 -0.005642666
0.008237411 0.00855325 0.0026562286 -0.0010272954 0.006779934 0.005171106 0.0035228964 0.005873684
0.0011277249 0.003215596 0.0049612494 0.00921157 0.14479336 0.00444279 -0.00525307 -0.000112089714
-0.0055097197 -0.0063807867 -0.000621366 0.0047799796 -0.00576758 0.13881142 0.005788196 2.177277e-05
0.2074518 0.0074013066 -0.005712461 0.0050308867 0.0024821549 -0.0010006449 -0.005780147 0.0021893436
0.009441357 0.0028421795 -6.6097644e-05 0.0054850564 0.005141164 -0.00023597803 -0.0030468595 0.0006477096
0.008822565 0.0064830673 0.18454003 -0.0001590514 -0.0052820183 -0.0050440016 0.008623798 0.005573623
0.0048239627 0.0056582433 -0.0048678764 0.007606877 0.004933134 -0.0038124532 0.0070168413 0.0060141664
0.010471124 0.00041982305 -0.0063052666 -0.0062184334 0.0049235635 0.03674639 -0.00021034942 0.0031394083

lstm.weight_ih_l0_reverse f4 [256, 6]
00000000: f71b 08b4 3518 c9b3 b9a8 17b4 c917 dfb3
00000010: fa16 a8b3 0e00 07b4 83d5 70b7 2f0c 93b7
00000020: 4126 67b7 a934 5cb7 0f29 edb6 240a 68b7
00000030: 1bd3 adb5 290a d1b5 6db0 c0b5 480a aab5
00000040: d6ea 4bb5 8986 a5b5 2ad3 88ba 3a20 acba
00000050: 2ae8 98ba 1fed 79ba 070a eeb9 6960 8cba
00000060: 5b45 27b1 3de1 76b1 6a29 81b0 625e 29b1
00000070: 76fe 00b0 0895 19b1 c250 9dbb d182 d5bb
00000080: 449e 9fbb 35cd 95bb 3740 08bb f120 9bbb
00000090: 6cc4 c9b7 f7c4 13b8 329f b0b7 0831 afb7
000000a0: 54ac b3b6 d1a5 b2b7 f11e 9bb3 276a c1b3
000000b0: a793 8eb3 2963 91b3 4698 15b3 0808 99b3
000000c0: 4a06 a1b3 6e78 97b3 7632 66b3 0a46 9fb3
000000d0: f78d 25b3 b24d 77b3 90ce 9bb3 cc9b bdb3
000000e0: e611 91b3 021d 8ab3 6856 28b3 eba4 96b3
000000f0: 449b dab7 4030 0cb8 9105 d3b7 2bc2 ceb7
00000100: 2e6f 54b7 d9da e2b7 b4ae 03b5 a490 1db5
00000110: 5ff2 01b5 c2ed e8b4 369c 76b4 4777 f3b4
00000120: 0d25 a8ba 3c61 c7ba 8e44 97ba 3703 9cba
00000130: 3daa 45ba 892e a4ba 7f75 4fb1 21a1 75b1
00000140: 10a0 19b1 6a47 40b1 8116 a9b0 d759 29b1
00000150: 59d3 ecb7 19bd 19b8 62fe cfb7 90db d6b7
00000160: 2c2d 35b7 a5b8 dbb7 9ba1 97b8 c406 bcb8
00000170: 06d5 a4b8 8eaf 8bb8 ad25 01b8 6c24 91b8
00000180: 5792 30b8 f979 5bb8 19cd 31b8 afd2 19b8
00000190: 337e a8b7 f860 21b8 567f 5535 e4fc 8f35
000001a0: ab65 bc35 8d1d 1435 d261 1a35 371a 7835
000001b0: dc97 35b3 0f35 16b3 c450 9eb2 3cef 20b3
000001c0: 13ab d0b2 2946 32b3 8604 90b8 7bb1 b0b8
000001d0: fb7e 96b8 4866 82b8 aaa3 0db8 652d 97b8
000001e0: aecd 5aba dcdf 89ba a71a 5cba a059 57ba
000001f0: ddcc fab9 f1d4 57ba 2d66 17b8 5c98 3cb8
00000200: 2350 1bb8 1a58 08b8 77b9 9db7 faf9 1db8
00000210: 96d4 1cbb 32bd 49bb ed08 22bb c098 0dbb
00000220: 8d32 9eba 7ab9 1abb bccb 1032 49e2 ac2f
00000230: 67b6 dc31 90a6 d731 70f6 cb31 70f7 2032
00000240: b2cb f532 0e10 80b3 6084 ae33 a4b7 9332
00000250: fdb5 ba33 926e c832 77d7 efb9 fead 14ba
00000260: 882d e2b9 d1fc e1b9 da26 5ab9 6080 dfb9
00000270: 8174 a2bb 2b78 d5bb 78e0 94bb 42bb 93bb
00000280: e8f0 feba fc1e 9bbb ed93 9eb6 b270 80b6
00000290: 1c71 71b6 f9f1 a7b6 8ac7 9ab6 a2f5 6eb6
000002a0: 0cd0 0837 f834 8336 a568 1737 5099 0837
000002b0: afe6 4837 4807 0937 0feb 0fb5 4d86 3cb5
000002c0: 3cf7 01b5 b2e7 f6b4 4d99 86b4 8d51 0db5
000002d0: 27cb 2f35 cbb2 2bb4 ffc8 8d35 437a 2335
000002e0: 5abc b835 19d5 5335 9f37 0938 b74d 9e37
000002f0: d915 0138 00c9 0538 477e 0838 fbf8 0938
00000300: df67 2db4 2299 59b4 97b8 3cb4 9194 1db4
00000310: 4c73 9ab3 26bf 27b4 50cc 3fae 57fc 69ae
00000320: b7c5 1cae 185f 2aae 1996 33ad cb4e 2eae
00000330: 9230 c72f 08f2 112f 9c29 0130 67ec cc2f
00000340: 04db ec2f edb4 d52f b133 b535 20ca a535
00000350: 7c9b 0336 1f2e 9635 1ee3 ad35 d7b6 ce35
00000360: 909d 81b3 0f29 a0b3 23f1 87b3 a16d 73b3
00000370: 908b f4b2 333f 6ab3 7c8d d637 33ef 9037
00000380: 785e de37 d4ee d337 6253 0b38 90f2 ca37
00000390: 0c7d d6ba 7eae 01bb a050 cfba fef6 c1ba
000003a0: f674 75ba f6cb c9ba ba7e a9bb 3723 d8bb
000003b0: 39f2 93bb c2fe 98bb c7ee e8ba 7179 9fbb
000003c0: f974 5fb7 5382 93b7 525e 21b7 f81f 3fb7
000003d0: 40ae b1b6 f017 44b7 cc7b 0aaf 1cd0 29af
000003e0: f115 09af e6f2 f5ae 9a3e 44ae 35b4 f5ae
000003f0: be2d 4fb3 7959 17b3 9d15 69b3 0a0e 8ab3
-1.267616e-07 -9.364195e-08 -1.4124352e-07 -1.0388573e-07 -7.827289e-08 -1.2572875e-07 -1.4354827e-05 -1.7529439e-05
-1.377758e-05 -1.3125283e-05 -7.0679303e-06 -1.3830639e-05 -1.2950944e-06 -1.557467e-06 -1.4356461e-06 -1.2668979e-06
-7.5965124e-07 -1.2332613e-06 -0.0010438908 -0.0013132163 -0.001166587 -0.000953393 -0.00045402368 -0.0010709885
-2.4341122e-09 -3.5925745e-09 -9.397756e-10 -2.4646387e-09 -4.692774e-10 -2.2349145e-09 -0.004800887 -0.0065158387
-0.0048711617 -0.0045715817 -0.0020790228 -0.0047341515 -2.4052533e-05 -3.523097e-05 -2.1054966e-05 -2.0884458e-05
-5.3546773e-06 -2.1296468e-05 -7.223378e-08 -9.006572e-08 -6.639248e-08 -6.770126e-08 -3.4830258e-08 -7.1260786e-08
-7.498291e-08 -7.0533915e-08 -5.3596942e-08 -7.4167545e-08 -3.8546172e-08 -5.7579832e-08 -7.2553235e-08 -8.8293376e-08
-6.7553444e-08 -6.431402e-08 -3.9194134e-08 -7.014918e-08 -2.6059926e-05 -3.3423537e-05 -2.5155752e-05 -2.464753e-05
-1.2662071e-05 -2.7043208e-05 -4.905553e-07 -5.869754e-07 -4.840894e-07 -4.338636e-07 -2.2967365e-07 -4.5349063e-07
-0.0012828425 -0.0015211473 -0.0011540817 -0.0011902814 -0.0007540321 -0.0012526076 -3.0189253e-09 -3.5743783e-09
-2.2355415e-09 -2.7980271e-09 -1.2302764e-09 -2.4643805e-09 -2.8231809e-05 -3.6654154e-05 -2.479478e-05 -2.561303e-05
-1.0798958e-05 -2.6192816e-05 -7.2303425e-05 -8.965799e-05 -7.859808e-05 -6.660736e-05 -3.0791085e-05 -6.920923e-05
-4.209796e-05 -5.2327265e-05 -4.23911e-05 -3.6674257e-05 -2.0085927e-05 -3.84757e-05 7.953398e-07 1.0727931e-06
1.4036681e-06 5.51773e-07 5.751182e-07 9.2425347e-07 -4.2280462e-08 -3.4972853e-08 -1.8430349e-08 -3.7470485e-08
-2.4292182e-08 -4.1507665e-08 -6.8672976e-05 -8.425392e-05 -7.176209e-05 -6.2179344e-05 -3.3769444e-05 -7.2086965e-05
-0.00083466887 -0.0010518986 -0.00083963055 -0.0008214954 -0.0004783635 -0.000823333 -3.6096364e-05 -4.496459e-05
-3.7029513e-05 -3.2506978e-05 -1.8802222e-05 -3.7664526e-05 -0.0023930422 -0.0030782935 -0.0024724558 -0.0021605939
-0.0012069509 -0.0023609088 8.428227e-09 3.1447403e-10 6.4235794e-09 6.2762595e-09 5.9360943e-09 9.3694865e-09
2.8614384e-08 -5.963385e-08 8.126585e-08 1.7196562e-08 8.6944034e-08 2.3333346e-08 -0.00045746166 -0.0005671679
-0.00043140003 -0.00043103707 -0.00020804573 -0.0004262952 -0.004957736 -0.0065145693 -0.0045433603 -0.004508407
-0.0019450458 -0.0047339182 -4.7259878e-06 -3.8278167e-06 -3.5977637e-06 -5.005157e-06 -4.612787e-06 -3.560774e-06
8.154671e-06 3.9102706e-06 9.024666e-06 8.1419275e-06 1.1974639e-05 8.167532e-06 -5.3613707e-07 -7.023089e-07
-4.841602e-07 -4.598965e-07 -2.5070986e-07 -5.2645265e-07 6.5488206e-07 -1.599066e-07 1.0563816e-06 6.0900146e-07
1.3763886e-06 7.8913723e-07 3.2715147e-05 1.8871257e-05 3.0776344e-05 3.1896867e-05 3.254253e-05 3.2895226e-05
-1.6149669e-07 -2.0265409e-07 -1.7576018e-07 -1.4675813e-07 -7.192156e-08 -1.5622626e-07 -4.3609838e-11 -5.320219e-11
-3.56459e-11 -3.8737985e-11 -1.02083e-11 -3.9633002e-11 3.62324e-10 1.327366e-10 4.6989057e-10 3.7275358e-10
4.308377e-10 3.887303e-10 1.3500595e-06 1.2352284e-06 1.9611025e-06 1.1189294e-06 1.2955604e-06 1.5401409e-06
-6.035691e-08 -7.458049e-08 -6.33029e-08 -5.6677553e-08 -2.8468804e-08 -5.453985e-08 2.5576672e-05 1.7277524e-05
2.6508453e-05 2.5264373e-05 3.321784e-05 2.4193228e-05 -0.0016364171 -0.0019787843 -0.0015816875 -0.0014798341
-0.0009363437 -0.0015395868 -0.0051725777 -0.006595995 -0.004514959 -0.0046690414 -0.0017771357 -0.004866772
-1.3319071e-05 -1.7584453e-05 -9.6183085e-06 -1.13919305e-05 -5.2952964e-06 -1.1688084e-05 -1.2595008e-10 -1.5444396e-10
-1.2467873e-10 -1.11844575e-10 -4.4620842e-11 -1.1173321e-10 -4.8237546e-08 -3.5238802e-08 -5.4269197e-08 -6.4286795e-08

lstm.weight_hh_l0_reverse f4 [256, 64]
00000000: 5e43 132b 6228 fb2c e23e f22a 0427 1a2f
00000010: 5b43 fc29 358e bf2e dda7 71ad 4b75 9b2a
00000020: bdb7 5eac 211c 2f2b 52c8 f52c 5c6d a5ab
00000030: 2da6 9c2e accc 832a 77ea caac 5b07 2f2d
00000040: 0456 be2c 02e5 c92c 3b85 edab c5a3 252e
00000050: bc00 14af 724b 802b 4a85 2fae ba7e 112c
00000060: bd0f 0c2c 650f 1dad 0d4d cc2e b4b0 bf2d
00000070: d67a 5dac 1fa0 92ab 44b8 52ac 0172 bdad
00000080: 632b e8ab c887 6f27 8d6b f2a9 1722 46ac
00000090: 3ef3 662a 5ea7 8f2c 4822 692e 9573 c1ae
000000a0: 26e3 462d 3c07 a9a8 9446 b1ab e4c3 48ae
000000b0: 3516 652b 353f 982b adf0 052e 73ba 12a9
000000c0: 2783 f4ac b914 312c 6209 952f 8c59 aeac
000000d0: bdd3 fe2d 0d9b 112c 5290 762d e62a 792e
000000e0: 00d8 54ad 4627 cf29 473e bc2e 0ffb aead
000000f0: 1df5 94ae 3a11 e5aa 5ecf 6cac d7b7 51ab
00000100: c23c 8b30 4807 1333 21ed 1332 58f3 a434
00000110: 20b0 0730 e5fd 1735 05cf 4ab3 1b27 1531
00000120: 5e51 94b0 84a8 0ab1 aced 1f33 22e9 dbb1
00000130: fa77 b834 620f 2ab0 367f 5433 84df 8d33
00000140: 837b 5033 8e7c 1eb2 8df1 9db0 ff49 8d33
00000150: d29a 73b4 8bb9 4433 a656 cfb4 ccd9 fb2d
00000160: 495a 6331 ee07 41b4 fe9f 1f35 d1d5 df31
00000170: 7377 a1b2 3dd5 ccb1 69c1 6132 8b89 44b2
00000180: 8ec6 83b1 5d7a ba2e 5744 3daf 0be4 0c32
00000190: 35fd 1eb1 95fb efb2 359f bc34 3ba8 0bb5
000001a0: a871 1833 fdbc f9ae e012 b3b0 7e0f d0b3
000001b0: 203e acb0 2553 fab0 1d99 0bb1 c2a6 3fae
000001c0: 5c81 55b2 c6df f431 b653 7835 2e79 deb1
000001d0: cc9c a133 8ff9 6cb1 efc4 e830 4ddc 3cb3
000001e0: 0ae6 3eb2 6623 2e30 50d4 d334 3d91 ac32
000001f0: 02e6 5db5 9222 a531 68ea 6bb2 a8ca 51b4
00000200: 133f a62e ecf6 2a31 2237 2430 3842 ba32
00000210: 600c 1a2e c447 2b33 0b49 66b1 7aa2 282f
00000220: 8225 afae 9f96 1baf 834d 3831 0983 f7af
00000230: 37cd cf32 d8cd 3fae ff68 7031 0e62 9f31
00000240: 6a93 6a31 b1a2 33b0 77bc baae b194 a131
00000250: 7ac9 89b2 e990 5c31 0619 e9b2 7a83 9b2c
00000260: 7a47 812f 1f50 58b2 ce60 3633 4445 0030
00000270: 195f b5b0 d5df ecaf c1e1 7c30 96e6 58b0
00000280: cb8f 95af 9d3a d42c 23fc 5bad 0120 2430
00000290: d384 31af e701 12b1 9584 d332 f8c4 1eb3
000002a0: facc 2f31 bba0 0cad 8637 beae 2d3f efb1
000002b0: 9de2 c1ae 54b6 0baf 44b1 06af 81a8 58ac
000002c0: 8a43 71b0 5825 0830 541f 8c33 2d2c 01b0
000002d0: 5a81 b731 e807 87af 6a7e 022f 3f03 55b1
000002e0: 62de 4fb0 e68a 452e fab1 f232 2700 bf30
000002f0: b6fc 7ab3 e5be bc2f 2e96 8ab0 47e6 6bb2
00000300: 9032 4133 d2a7 de35 f88e d934 7377 7237
00000310: b41a d832 f15c de37 1038 1ab6 f8bf df33
00000320: e77c 64b3 d133 cfb3 6722 f535 f9f0 a1b4
00000330: 4ff3 8837 5d64 f7b2 31a7 1c36 c2bf 4f36
00000340: 51c3 1836 1002 04b5 0cd3 75b3 3a53 5136
00000350: 8e0d 32b7 1d42 1136 cc44 98b7 e495 4731
00000360: e7aa 3e34 c684 0eb7 7e99 ed37 923b be34
00000370: 9de0 84b5 6848 9eb4 85db 2035 1c81 47b5
00000380: 312e 43b4 0986 8a31 744b 20b2 e892 f334
00000390: 0827 e8b3 0211 acb5 1f90 8b37 72f6 cdb7
000003a0: f815 eb35 58c8 b6b1 9df2 49b3 df85 a5b6
000003b0: 2170 52b3 7a48 b9b3 0af1 00b4 cc05 0db1
000003c0: aade 1db5 5314 cb34 0dee 3538 7edf aab4
000003d0: daa3 7536 ca1c 36b4 3adf 2134 529d 10b6
000003e0: 1b54 04b5 3bb1 0033 eb30 9f37 aa2b 7d35
000003f0: 0b88 24b8 cad4 7934 cad4 41b5 61c9 16b7
5.231838e-13 7.1383325e-12 4.303147e-13 1.402008e-10 1.12027324e-13 8.7109354e-11 -1.3736537e-11 2.761492e-13
-3.1650093e-12 6.2211526e-13 6.985559e-12 -1.1754308e-12 7.1235774e-11 2.3412294e-13 -5.767216e-12 9.9492315e-12
5.4096744e-12 5.7381886e-12 -1.6876842e-12 3.7662113e-11 -1.3460782e-10 9.115887e-13 -3.9908778e-11 2.0676087e-12
1.9903933e-12 -8.927835e-12 9.290533e-11 2.1792658e-11 -3.1474177e-12 -1.0418366e-12 -2.9945083e-12 -2.153744e-11
-1.6496634e-12 3.324152e-15 -1.0765616e-13 -2.8156416e-12 2.0512495e-13 4.082886e-12 5.3008514e-11 -8.7971554e-11
1.1305434e-11 -1.8765907e-14 -1.2596196e-12 -4.564872e-11 8.138796e-13 1.0817793e-12 3.0454462e-11 -3.258023e-14
-6.949458e-12 2.5164716e-12 2.710961e-10 -4.955319e-12 2.8970487e-11 2.069181e-12 1.4015527e-11 5.6654147e-11
-1.2098766e-11 9.1994595e-14 8.560313e-11 -1.9893002e-11 -6.773802e-11 -4.0690525e-13 -3.365273e-12 -7.4506845e-13
1.013085e-09 3.4232727e-08 8.610443e-09 3.0724436e-07 4.9363e-10 5.662135e-07 -4.7220073e-08 2.1704583e-09
-1.0791543e-09 -2.0177433e-09 3.7236234e-08 -6.400243e-09 3.4359965e-07 -6.18675e-10 4.9475794e-08 6.6064814e-08
4.8541107e-08 -9.225131e-09 -1.1491906e-09 6.579284e-08 -2.2687462e-07 4.5803557e-08 -3.86198e-07 2.8632118e-11
3.3084169e-09 -1.797741e-07 5.9464935e-07 6.5144623e-09 -1.8797186e-08 -5.961424e-09 1.31407e-08 -1.1439975e-08
-3.835175e-09 8.480037e-11 -1.7213729e-10 8.2009235e-09 -2.3135958e-09 -2.7937668e-08 3.5133567e-07 -5.202634e-07
3.5493628e-08 -1.135678e-10 -1.3029329e-09 -9.688573e-08 -1.2532304e-09 -1.8213525e-09 -2.0314197e-09 -4.3576483e-11
-1.2427645e-08 7.1267747e-09 9.2509015e-07 -6.474827e-09 7.525668e-08 -3.4484378e-09 1.6936194e-09 -4.3972523e-08
-1.111176e-08 6.3351135e-10 3.945629e-07 2.0089482e-08 -8.266362e-07 4.806062e-09 -1.3732098e-08 -1.9538368e-07
7.56001e-11 2.4878615e-09 5.97412e-10 2.1683363e-08 3.5026537e-11 3.987931e-08 -3.3510925e-09 1.5337234e-10
-7.9647414e-11 -1.4150679e-10 2.6819584e-09 -4.5022144e-10 2.4191293e-08 -4.3611198e-11 3.498428e-09 4.6386566e-09
3.4135277e-09 -6.535102e-10 -8.491779e-11 4.702621e-09 -1.604052e-08 3.2096585e-09 -2.713615e-08 4.419962e-12
2.351575e-10 -1.2591072e-08 4.246322e-08 4.666456e-10 -1.3196512e-09 -4.3087192e-10 9.199788e-10 -7.8908025e-10
-2.7205113e-10 6.0319098e-12 -1.2504694e-11 5.970833e-10 -1.6145245e-10 -2.1246878e-09 2.4623924e-08 -3.6966384e-08
2.5582367e-09 -7.993768e-12 -8.6500626e-11 -6.9629977e-09 -8.8168785e-11 -1.2706752e-10 -1.2250206e-10 -3.0788985e-12
-8.777127e-10 4.952958e-10 6.5249566e-08 -4.6992704e-10 5.3407065e-09 -2.4561975e-10 1.1868342e-10 -3.0997425e-09
-7.5622186e-10 4.491598e-11 2.8253442e-08 1.3897122e-09 -5.84375e-08 3.433264e-10 -1.0083505e-09 -1.3731159e-08
4.49823e-08 1.6589131e-06 4.0523423e-07 1.44521355e-05 2.5157853e-08 2.6507741e-05 -2.298042e-06 1.04191656e-07
-5.3198985e-08 -9.648614e-08 1.8263935e-06 -3.0163918e-07 1.6325763e-05 -2.8800224e-08 2.334313e-06 3.0957021e-06
2.2763454e-06 -4.9176833e-07 -5.7235454e-08 3.119187e-06 -1.0612783e-05 2.1645167e-06 -1.8151848e-05 2.9043514e-09
1.7757303e-07 -8.494773e-06 2.8324077e-05 3.54336e-07 -9.900137e-07 -2.9482476e-07 5.992409e-07 -7.4321156e-07
-1.8177595e-07 4.0315666e-09 -9.330382e-09 4.5369165e-07 -1.08104416e-07 -1.2819949e-06 1.6637203e-05 -2.4552664e-05
1.7515258e-06 -5.3196736e-09 -4.7019615e-08 -4.932968e-06 -4.8996416e-08 -8.627917e-08 -1.2008618e-07 -2.0521496e-09
-5.8811077e-07 3.7826484e-07 4.3375465e-05 -3.182758e-07 3.660322e-06 -1.6960544e-07 1.5075503e-07 -2.1549245e-06
-4.929622e-07 2.9963513e-08 1.8977056e-05 9.4313384e-07 -3.9227347e-05 2.3267344e-07 -7.220775e-07 -8.987584e-06

lstm.bias_ih_l0_reverse f4 [256]
00000000: be12 ceb0 46ee 89b7 ec0b e4b5 7837 a7ba
00000010: 3ce6 f8b0 92d8 bebb 1c47 06b8 8127 c9b3
00000020: 68d0 3ab2 d0d1 b0b3 c252 10b8 54e1 1eb5
00000030: deb2 c2ba d786 6bb1 4839 11b8 d25d c6b8
00000040: 7c3a 5db8 c8be ff35 01e1 fbb1 49cb adb8
00000050: 4acc 6aba eba7 44b8 28dc 41bb 699b db32
00000060: ade5 7634 fded 15ba 7607 c1bb 5d72 c6b5
00000070: ce1f 9337 47cc 3eb5 ecb8 1036 3673 7d38
00000080: 8fd6 67b4 dedb 78ae 64c0 5b30 a885 3936
00000090: 8e11 9ab3 c0a3 2138 fdf5 ffba b131 d6bb
000000a0: c8af 67b7 8565 2baf 63a9 52b2 d909 69ba
000000b0: e267 3d33 1c88 62b3 de39 d3b6 0703 73ae
000000c0: 6c6e 2bb6 2bb4 d436 27ea d0bb 48a4 98b5
000000d0: 6ebb acb8 70ee d4b4 9170 9736 450a c7b8
000000e0: 66a2 1737 ebc8 aab1 785a 97bb ff84 6cb6
000000f0: cf34 f7bb 5a3d 2cb5 f39d 1236 299b 56ba
00000100: dba7 d0b2 5c18 5bb7 1d24 91b5 5308 1fba
00000110: c90e 3ab1 34af 5fbb ae21 c0b7 d77c 5bb3
00000120: eac3 0ab3 16c6 73b3 c6df bfb7 f4bb 9eb4
00000130: ca8f 99ba 4dcf 63b1 a963 90b7 9b0d 62b8
00000140: f72d d9b7 4c50 3d34 3bb7 e5b2 3602 24b8
00000150: 0b9a 43ba 92c8 c7b7 1c33 b8ba 85f0 4cb2
00000160: 4831 7db3 199e 55b9 a80f 70bb dffa 01b6
00000170: 160e 2536 b88e 08b5 0219 97b4 f386 6b37
00000180: abff abb3 8d8f 1eae 02c8 992f 8d8a ab34
00000190: 6ab7 22b3 c3b2 2537 791a 89ba e0ea 41bb
000001a0: 4893 83b7 8e08 d3ae 16a4 83b3 c3a7 80b9
000001b0: a8dd 5933 4ef5 04b3 3352 b036 4af7 eaad
000001c0: 0f35 94b5 dc99 1635 cd31 c6bb 8158 fab4
000001d0: a8ed 81b8 5c2b 80b4 0f97 ec34 00db 0eb8
000001e0: 6773 8535 56bd 6db1 f2ed 2cbb 8937 8ab6
000001f0: b142 d8bb 555b 87b4 fe57 a3b5 3168 ccb9
00000200: e08c 5cb8 0e83 59b9 0793 54b7 e849 44bb
00000210: 0d9a 1138 c8bf 4dbb 1844 29ba 7f0d 4c38
00000220: b593 c3b8 6f5f 99b7 71dc a739 32c6 f336
00000230: 0d9e fbb9 1e56 3fb4 420c 2439 c936 93b9
00000240: 08d8 d5b7 43a4 07ba 8a48 f8b7 d48b b2b9
00000250: ae3a 043a 7f71 9c39 0f34 fd3a 95d9 cb38
00000260: b830 d239 34c9 84ba 4a74 02bb 85cf aa3a
00000270: a9b8 26bb 32bf 07b9 f466 2f3a 95ec b0bb
00000280: 8f59 5237 412d f6b4 3c8a cab7 ffd3 573a
00000290: 27da 5a37 192c 60bb 0da8 a3ba 41e5 efb9
000002a0: ecce 8a3a 5706 f834 b45a 2d38 1e70 9dbb
000002b0: af0b 7e39 576e a436 6840 0c38 b7eb a534
000002c0: 241e 25b9 85f1 ae3a 5d13 0abc 036d 00b9
000002d0: 3fbb aa3a 9345 3db8 1863 bd3a cf3f b1ba
000002e0: b26d cfba 161a 8ab5 8273 d639 15b0 1538
000002f0: 2e64 a93b b89c f137 77d7 a9ba a23a 353b
00000300: fda0 80b0 707e 89b7 82dc e3b5 a422 a7ba
00000310: effc f7b0 90ec bebb 8740 06b8 a907 c9b3
00000320: dfbf 38b2 04a2 b0b3 7820 10b8 7dab 1eb5
00000330: 8137 c2ba 9612 6bb1 7f23 11b8 c34b c6b8
00000340: b41a 5db8 4fe2 ff35 2a1e f7b1 158f adb8
00000350: 5b64 6aba 6387 44b8 0eda 41bb ffe6 da32
00000360: 029e 7734 99a5 15ba 6714 c1bb fc34 c6b5
00000370: 3c3f 9337 02b5 3eb5 92b6 1036 3a26 7d38
00000380: 3ab2 67b4 a346 78ae 5a6c 5c30 cd82 3936
00000390: 59ca 99b3 c394 2138 8fd5 ffba 4639 d6bb
000003a0: b67b 67b7 d532 2baf 4add 4bb2 b213 69ba
000003b0: 94b5 3d33 4909 62b3 efd9 d2b6 e2d1 72ae
000003c0: 9e3e 2bb6 c497 d436 683c d1bb b596 98b5
000003d0: 5298 acb8 a884 d4b4 6091 9736 1ce8 c6b8
000003e0: 709a 1737 5161 aab1 3450 97bb 0b7d 6ab6
000003f0: 8770 f7bb 9b2a 2cb5 d27f 1336 5e91 56ba
-1.49938e-09 -1.6442627e-05 -1.6990793e-06 -0.001275762 -1.8109811e-09 -0.005824157 -3.2014315e-05 -9.3669776e-08
-1.0874011e-08 -8.233803e-08 -3.440935e-05 -5.918748e-07 -0.0014854332 -3.4273648e-09 -3.462404e-05 -9.458851e-05
-5.2744974e-05 1.9054505e-06 -7.3306414e-09 -8.287148e-05 -0.0008956833 -4.6886427e-05 -0.0029580686 2.5565628e-08
2.2994091e-07 -0.0005719362 -0.005890782 -1.4785434e-06 1.7538576e-05 -7.107778e-07 2.156531e-06 6.04272e-05
-2.1591607e-07 -5.6583953e-11 7.994514e-10 2.7644946e-06 -7.174377e-08 3.8537895e-05 -0.0019528266 -0.0065366854
-1.38096e-05 -1.5588426e-10 -1.2262123e-08 -0.0008889712 4.4099473e-08 -5.2743516e-08 -6.2950267e-06 -5.5254492e-11
-2.554526e-06 6.3390667e-06 -0.0063755694 -1.1372695e-06 -8.2365106e-05 -3.9661563e-07 4.513255e-06 -9.490972e-05
9.038113e-06 -4.970493e-09 -0.004618939 -3.5244154e-06 -0.007544137 -6.416427e-07 2.1847634e-06 -0.0008186573
-2.4290719e-08 -1.3059089e-05 -1.0813852e-06 -0.0006066609 -2.7074967e-09 -0.0034131529 -2.2903867e-05 -5.1103452e-08
-3.230881e-08 -5.6758005e-08 -2.2873177e-05 -2.9566547e-07 -0.0011715826 -3.3150684e-09 -1.7212546e-05 -5.389527e-05
-2.588982e-05 1.7631208e-07 -2.6742432e-08 -3.9102706e-05 -0.0007461614 -2.3816046e-05 -0.0014053318 -1.1929051e-08
-5.8950974e-08 -0.00020372159 -0.0036630426 -1.9368524e-06 2.4595115e-06 -5.087163e-07 -2.8144137e-07 1.4038512e-05
-8.009314e-08 -3.605254e-11 2.7972652e-10 3.195204e-07 -3.788538e-08 9.876388e-06 -0.001046016 -0.002958946
-1.5685e-05 -9.596689e-11 -6.13001e-08 -0.00024539055 5.0725845e-08 -3.095675e-08 5.254778e-06 -2.6712538e-11
-1.1042301e-06 5.610325e-07 -0.006048417 -4.6630524e-07 -6.195466e-05 -2.3873406e-07 4.4068335e-07 -3.4059398e-05
9.942859e-07 -3.4595664e-09 -0.0026386944 -4.1191856e-06 -0.006599747 -2.5212162e-07 -1.2170055e-06 -0.0003898754
-5.2583287e-05 -0.00020743554 -1.2670417e-05 -0.0029951278 3.4714165e-05 -0.0031394828 -0.0006456985 4.864996e-05
-9.325837e-05 -1.8283461e-05 0.00032016964 7.2650373e-06 -0.00047992208 -1.781959e-07 0.00015644825 -0.00028078843
-2.5492176e-05 -0.0005174318 -2.9597682e-05 -0.00034054986 0.00050441443 0.000298392 0.0019317883 9.720322e-05
0.0004009062 -0.0010130764 -0.001990574 0.0013031816 -0.0025439656 -0.00012945829 0.00066910614 -0.0053992965
1.2537827e-05 -4.5853997e-07 -2.4144647e-05 0.0008233189 1.3044605e-05 -0.0034205972 -0.0012485996 -0.0004575644
0.0010590232 4.6198213e-07 4.1330888e-05 -0.004804625 0.0002422768 4.900426e-06 3.3438584e-05 3.090515e-07
-0.00015746854 0.0013347125 -0.008427468 -0.00012247641 0.0013025774 -4.5125907e-05 0.0014449088 -0.0013523045
-0.0015825538 -1.0289393e-06 0.0004090332 3.5688357e-05 0.005169413 2.8802417e-05 -0.001295789 0.0027653356
-9.358981e-10 -1.639055e-05 -1.6976994e-06 -0.0012751413 -1.8043503e-09 -0.0058265403 -3.2008185e-05 -9.361185e-08
-1.0753836e-08 -8.225109e-08 -3.4362514e-05 -5.9109135e-07 -0.0014817567 -3.4207566e-09 -3.4603752e-05 -9.4554875e-05
-5.2715375e-05 1.9064845e-06 -7.1920754e-09 -8.275934e-05 -0.0008941346 -4.685613e-05 -0.0029579434 2.5483585e-08
2.306115e-07 -0.0005708575 -0.0058923247 -1.476757e-06 1.7553211e-05 -7.1043917e-07 2.1563942e-06 6.03555e-05
-2.157839e-07 -5.645141e-11 8.018951e-10 2.7643284e-06 -7.1614245e-08 3.8523936e-05 -0.0019518601 -0.0065375892
-1.3797477e-05 -1.5570419e-10 -1.18664705e-08 -0.00088911795 4.4170136e-08 -5.262817e-08 -6.2838585e-06 -5.5210843e-11
-2.5517434e-06 6.33576e-06 -0.006385375 -1.1368744e-06 -8.229971e-05 -3.9584597e-07 4.5170746e-06 -9.4846095e-05
9.036259e-06 -4.9587148e-09 -0.0046177153 -3.4941502e-06 -0.007551256 -6.413699e-07 2.1979108e-06 -0.00081851135
