LOSO/models/model_without_subj_4.onnx (onnx, 550191 bytes, 8 tensors)

fc.weight f4 [2, 128]
00000000: a2e1 9c3d 196a fc3c 1c24 0b3d e9d9 ecbc
00000010: 340f d4bc 7836 753d 24fd 38bd 81f0 053d
00000020: 82de 173d 24b5 0a3d 8c57 2bbd 2f58 293d
00000030: 9aa2 173d f088 b63c 9a3e c1bc 58b9 afba
00000040: c327 3e3d 7e3d 28bd 0406 073d 212c 253d
00000050: 06a7 1a3d d405 eaba 49cc 0e3d 211f 1d3d
00000060: f4a7 0a3d f642 ca3c 3bf1 03bd 5253 203d
00000070: 571c b6bb 04a8 93bd 76db ab3c 2186 5dbd
00000080: fee4 a73c e03c 92bd dd78 04bd d360 1a3d
00000090: 7329 7cbd dcbd de3c 98be 4a3d 991a dc3b
000000a0: c96f e1bc df84 be3c df0c 0b3d eec2 1d3d
000000b0: 1b3f 92bc 45c1 17bd 4a12 063d 0a3e a53c
000000c0: 5a7e f4bc 648a a2bc 48cc 833d 1ccc b93c
000000d0: 731b 403d bfaf bbbc 90b4 8d3d 2757 923d
000000e0: aec4 9dbd 6b3b d23c e882 07bd b16c 193d
000000f0: ebfa d5bb e59e 753d c2d1 bb3c 4e25 6cbd
00000100: c1fa 1f3c 2dd2 71bd d37b f33c c8ed 5a3d
00000110: 0314 e83c c056 263d 4b72 5f3d 6dce f2bc
00000120: e0ee 093c 4e3c e8a9 d4fb a7bc e7d5 98bc
00000130: 3ca7 013d e9d0 b43c 0c89 383d 64d6 053d
00000140: 3637 4cb4 1ce6 7b38 0879 c83c 1db3 63bc
00000150: 53ff 30b7 9059 7faf a5db 803c 0264 eb3c
00000160: 92d6 dcbc 974f ff3c e6e3 513d d169 2d30
00000170: 3522 463c b5ff d63c f676 40bd 66d6 6e3b
00000180: f257 293d 0137 f0bc f724 d2bc ba96 073d
00000190: 8a39 6a3b 46c9 d13c aeb5 3f3d f927 45bd
000001a0: 485e 0ebd 7402 3bbd caa6 11bd 73a2 a93a
000001b0: 5906 eb3c 0a7e 353d 84c9 af3c 83db ffbc
000001c0: 9e05 20bd d284 203d c518 be3a 45f9 033d
000001d0: 4bc1 a23c 21b4 4cbd 04ab 1dbd df60 763b
000001e0: 3f6f 2b3d 7ae0 6338 1a95 cc3c c7f2 4e3d
000001f0: 7dfc b0b5 3b0f d43b 2fbd fbbc 515e 813d
00000200: bcff cf3c 520e 3bbd a6d1 fcbc 5ef4 2b3d
00000210: 35c8 f13c 91b0 c5bc db23 e93c 4ea1 3ebd
00000220: 1160 01bd fc4e 2cbd 4bb2 1a3d 19f5 21bd
00000230: 65b8 25bd aabf 80bd a6fe 603d 2928 94bd
00000240: 6d47 08bd 6838 d63c 8658 45bd 42cf 9a3d
00000250: eb95 00bd 9a2a 9f3d ab31 2bbd 96a4 833d
00000260: 2f54 00bd 1a3f 40bd 7568 103d 620e fabc
00000270: a936 8d3d 8dc8 ac3a cfd4 65bd bc24 72bd
00000280: 5d05 54bd 6a53 57bc 9fb8 103d 99f2 20bd
00000290: 8109 80bd 5fa8 52bd 4b8b b5bc eb3c 95bd
000002a0: 55f5 213d b408 913d acf5 f8bc dd8f 18bd
000002b0: bacc 6a3d a50d 0c3d c102 f4bc 63f5 69bd
000002c0: 2d6b 0a3d ba40 4c3d 6902 a2bc 0539 25bd
000002d0: 1ec1 d3bc be84 443d f654 013d 6cf0 3cb9
000002e0: de32 73bc fdad 51bd 9653 cb3c 5910 19bd
000002f0: ca55 93bd 86af 3cbb d718 4abd bc5d 87bd
00000300: 03c9 5bbd 8592 23bd 8cf4 23bd 5118 14bd
00000310: 40c9 20bd 62a9 a5bc 74cb 85bc 551e 843d
00000320: 9554 7cbd 238f 3c29 691d 9c3d 8dc8 443d
00000330: aaed 08bd 7a35 b13d 031b 48bd 5fcb ecbc
00000340: d38d 9cb5 46cd af36 fcc5 4abd c269 a23d
00000350: 8ec4 7eb8 1445 e9af 0142 35bd 7934 02bd
00000360: 5e60 313d 370c 40bd 9147 59bc cdeb 4430
00000370: 880f 6fbd 1acc 04bd 52af d43c 6a63 833b
00000380: d493 fdbc b1b0 843d 2c8b 4a3d 80b6 06bd
00000390: 6659 92bb 7f84 883d ed65 a7bc 166f 013d
000003a0: bfca 4f3d c42b 283d c7e3 8fbd fd01 923d
000003b0: a5da 53bd 8c42 05bc c33b 45bd 5b5d a83c
000003c0: 23a5 f73c a26a efbb a942 723d f5ab cbbc
000003d0: 3141 923d 383d e83c fb93 303d 12b6 55bb
000003e0: e4cd 14bd eeb5 4b36 bca8 83bd 8dd9 8ebc
000003f0: 084e ccb5 1ae3 74bd 84ed 093d 49a6 58bc
0.076602235 0.03081231 0.033969983 -0.028912501 -0.025886156 0.0598664 -0.04516329 0.032700066
0.037077434 0.033864155 -0.041831538 0.041343864 0.037020303 0.022282094 -0.023589421 -0.0013406677
0.04642464 -0.04107427 0.03296472 0.040325288 0.037756942 -0.001785452 0.03486279 0.038359765
0.03385158 0.024690133 -0.032212477 0.03914196 -0.0055575776 -0.07209781 0.02097867 -0.054082993
0.020494934 -0.07140517 -0.032341827 0.037689995 -0.061562967 0.027190141 0.04949817 0.006717038
-0.027519124 0.023256717 0.03394782 0.038515978 -0.017852357 -0.03704955 0.032732286 0.020171184
-0.029845405 -0.01984138 0.06435448 0.022680335 0.046901178 -0.02291095 0.06919205 0.07145529
-0.07703529 0.025663098 -0.033083826 0.03745717 -0.006530156 0.059965987 0.022927169 -0.057652764
0.009764374 -0.05903833 0.02972213 0.053449422 0.028329855 0.040610075 0.054552358 -0.029639447
0.008418769 -1.0313331e-13 -0.020505823 -0.018656684 0.031653628 0.022072272 0.045052573 0.032675162
-1.9019066e-07 6.005737e-05 0.024471775 -0.013897684 -1.0549865e-05 -2.3223934e-10 0.015729735 0.02873421
-0.026957784 0.031165881 0.05124273 6.308741e-10 0.0120931165 0.026244977 -0.04698845 0.003644371
0.041343637 -0.029323103 -0.025652392 0.03310273 0.0035739862 0.02560867 0.046804123 -0.048133824
-0.034757882 -0.045656636 -0.035559453 0.001294209 0.02868955 0.044309653 0.021458395 -0.031232601
-0.039067857 0.039189167 0.0014503232 0.032220144 0.01986756 -0.04997647 -0.03849317 0.003759436
0.04185414 5.4330078e-05 0.02497344 0.0505245 -1.3186506e-06 0.006471542 -0.030729858 0.063168176
0.025390498 -0.045667954 -0.030861687 0.041981094 0.029514411 -0.024132045 0.02845948 -0.04654055
-0.031585757 -0.042067513 0.03776769 -0.039540384 -0.040459055 -0.06286557 0.05493035 -0.072342224
-0.033271242 0.026149943 -0.048180126 0.075590625 -0.031392973 0.077717975 -0.041795414 0.06427877
-0.031330284 -0.04693518 0.035255868 -0.030524436 0.06895191 0.0013182327 -0.056111153 -0.059117064
-0.051762927 -0.013142446 0.03533232 -0.03929386 -0.06251813 -0.051430102 -0.022161147 -0.0728701
0.039540607 0.07081738 -0.030390583 -0.037246574 0.05732415 0.0341927 -0.02978647 -0.057118785
0.033793617 0.049866416 -0.01977654 -0.04033758 -0.025848921 0.047978155 0.031575166 -0.00018018641
-0.014843671 -0.05119132 0.02482013 -0.037369106 -0.07194097 -0.0028791144 -0.049340095 -0.06609675
-0.053658497 -0.039934654 -0.04002814 -0.036156002 -0.039254427 -0.02022237 -0.016332366 0.06451098
-0.0616041 4.1868537e-14 0.07622797 0.048042823 -0.03342978 0.08652778 -0.048853885 -0.028905569
-1.1664182e-06 5.2393034e-06 -0.04950522 0.07930328 -6.0741375e-05 -4.2431536e-10 -0.0442524 -0.031788323
0.043304794 -0.04688665 -0.013261692 7.163948e-10 -0.05836442 -0.03242121 0.025962505 0.004009654
-0.030954279 0.06479014 0.04944913 -0.03288889 -0.0044662235 0.066658966 -0.020434344 0.03160008
0.050730463 0.041057363 -0.07025867 0.071292855 -0.051722188 -0.008133542 -0.048152696 0.020552328
0.03023011 -0.007306413 0.059145603 -0.024862269 0.071413405 0.028349504 0.043109875 -0.0032609743
-0.036329165 3.0355254e-06 -0.06428668 -0.01743772 -1.5221895e-06 -0.059786893 0.03367378 -0.013223239

fc.bias f4 [2]
00000000: 9008 0b3f f4c1 533f
0.5430994 0.82717824

onnx::LSTM_335 f4 [2, 512]
00000000: 9ffd 9f3b 897d 253b d7a7 06b7 c4b5 2fb5
00000010: d83c 883b 8946 44b5 900f 533b 4184 a03b
00000020: 4201 523b 7d93 b538 f974 873b 1a44 b93b
00000030: 90ac 873b 9da9 833b 5e16 b03b d896 723b
00000040: b923 7e3b 3aa6 863b 0cfb c83b 325e 873b
00000050: 0020 86b5 5105 b83b 7012 7b3b 5ed9 423e
00000060: 98d6 b03d d881 b63b 25ea 733b 0af4 993b
00000070: 7f11 883b 0883 493b 42ad de3d 5b67 8b3b
00000080: 1f1b 263b 8d08 813b f090 413b 01b9 703b
00000090: 854e 293e dcae 3ab6 f828 923b b338 b83b
000000a0: e371 6f3b d757 8f34 1813 a33b 5ade b03b
000000b0: 73d3 8a3b 092d aeb6 2113 a03b 6e0d 533d
000000c0: d950 6d3b 173e c43b 894e 9635 b210 4a3b
000000d0: b95a 713b 06a6 61b6 2a6a ae3b 01e1 ccb6
000000e0: c706 b03b 090f 873b 1a1a 1cb4 bfd2 853d
000000f0: 1ce2 c734 edac 743e cc22 3f3e e8be 9f3b
00000100: fd9a a03b c4f9 263b bfa5 06b7 8a1b 2fb5
00000110: 6525 893b eb29 44b5 5dc9 533b 9712 a13b
00000120: a90f 533b d5c1 b538 f746 883b 5210 ba3b
00000130: 27be 883b 074e 843b 35c8 b03b f14f 733b
00000140: d959 7f3b c130 873b f7d4 c93b 5e05 883b
00000150: a6bd 85b5 34cf b83b e0dd 7b3b 9d33 2c3e
00000160: da63 ac3d 0667 b73b 0af2 743b 93b1 9a3b
00000170: 8d70 883b da97 4a3b f462 383e 5105 8c3b
00000180: 93f6 263b 7b78 813b 30aa 423b 6b38 713b
00000190: e13f 503e 6f5d 3ab6 7d14 933b 6955 b93b
000001a0: 0192 703b c814 9034 118e a33b a56d b13b
000001b0: 8854 8b3b b937 aeb6 7ea4 a03b 31ad 523d
000001c0: 235e 6e3b 4303 c53b dace a335 2cc2 4b3b
000001d0: 9c2c 723b 9de5 63b6 732d af3b cc64 ccb6
000001e0: 9c12 b13b 806c 873b 54b7 1eb4 eb88 843d
000001f0: 672f c734 2597 653e ce10 493e ec69 a03b
00000200: 2aa1 7c3b c2ee cd3a 04bc 04b7 0102 3bb5
00000210: 2f02 523b 0222 47b5 0539 203b 8e01 813b
00000220: 9adb 1b3b 66de a538 d2a1 5a3b 7c1c 943b
00000230: 7a19 3d3b fb96 3e3b 96f0 893b a288 3d3b
00000240: 8003 413b c9d8 5b3b d386 a53b 8a0a 4c3b
00000250: b5ea a5b5 7206 913b 6757 3c3b 8366 683e
00000260: a73b 033e 188e 963b 5775 353b 5d6a 803b
00000270: c9c1 5f3b 3169 163b 3bad 9d3e 7c14 733b
00000280: ae93 e63a de04 483b 905d 023b 34bb 503b
00000290: 45bb a33e d87d 42b6 7a39 5b3b 8bd0 833b
000002a0: 7058 2e3b 3630 4034 f756 803b 73a3 943b
000002b0: 9765 563b c50b a6b6 68e9 873b 0017 643d
000002c0: fb33 373b 1f90 a73b a36a 1b33 9f79 0b3b
000002d0: f382 343b d38e 3fb6 7756 863b 0fe1 d6b6
000002e0: 9263 8a3b eb3b 503b 42f2 37b4 3a8d a53d
000002f0: 1d8e be34 e034 1a3e deac 0c3e acb9 733b
00000300: ac8d eb3b f00d 01bc 7a73 6c39 b9f1 bd38
00000310: ad69 233c 2489 6d38 bd44 c33b 146d f6bb
00000320: 5c3c bdbb 31fb c1b9 cb45 d3bb 35f0 cebb
00000330: 7b8c 00bc 648f c13b 0fd2 c4bb c26a 01bc
00000340: 81ef 0e3c e88c fcbb 8e42 b23b d1dc c8bb
00000350: fed0 6fb9 f32c ebbb 98f7 ed3b 2e38 c6bd
00000360: 4d18 303d 96bf e33b c389 ca3b a781 de3b
00000370: ca70 98bb 6918 14bc b8ee 42bd 9e68 dfbb
00000380: 4024 ed3b 7487 ffbb 6244 133c ff05 f73b
00000390: f7d2 b33c 4272 0b38 f86d 1fbc 850a bdbb
000003a0: 300a 16bc 6abd 8337 7895 91bb c734 d03b
000003b0: 7188 e6bb 0c83 bbb8 92b4 d93b 3bb0 fa3c
000003c0: b1ee eb3b 43c6 d9bb 4953 d3b8 3b42 2dbc
000003d0: 14b7 c73b a5b0 083a 6507 c63b 83e0 b9b7
000003e0: c26c f73b d855 b13b 1ba3 ba39 800d 16bd
000003f0: 072d 9139 5cc0 163e 4564 a7bc f580 ec3b
0.004882529 0.0025251827 -8.026101e-06 -6.5457084e-07 0.0041576438 -7.311833e-07 0.003220532 0.0048985784
0.0032044207 8.6582244e-05 0.0041338173 0.0056538703 0.004140444 0.004018022 0.00537376 0.003701618
0.0038778617 0.004109171 0.0061334427 0.004131102 -9.993091e-07 0.005615868 0.003831055 0.19028232
0.086346805 0.005569678 0.0037218418 0.004698281 0.0041524763 0.0030748267 0.1087289 0.0042542643
0.0025345755 0.003937787 0.0029535852 0.0036731365 0.16533859 -2.7817941e-06 0.0044604503 0.0056219934
0.0036536388 2.6699738e-07 0.0049766414 0.0053976 0.0042366325 -5.190847e-06 0.004885093 0.05152648
0.003621152 0.005988847 1.1198728e-06 0.0030832705 0.0036827757 -3.362425e-06 0.0053227143 -6.1058677e-06
0.0053719017 0.0041216654 -1.4538128e-07 0.06534337 3.7231155e-07 0.23894091 0.18665618 0.0048750527
0.0049012885 0.0025478462 -8.025613e-06 -6.5232655e-07 0.004185366 -7.307669e-07 0.0032316067 0.004915546
0.003220538 8.6668566e-05 0.0041588503 0.005678215 0.0041730586 0.004037622 0.0053949603 0.0037126506
0.0038963465 0.004125685 0.0061594206 0.0041510304 -9.964467e-07 0.005639935 0.0038431808 0.16816564
0.08417483 0.005596998 0.0037375712 0.0047208755 0.0041638077 0.0030913264 0.18006498 0.0042730947
0.002547656 0.00395113 0.002970349 0.003680731 0.20336868 -2.7770545e-06 0.0044885264 0.0056559336
0.003670812 2.683721e-07 0.004991301 0.005414682 0.0042520203 -5.192091e-06 0.0049024215 0.0514347
0.0036372028 0.0060123517 1.2204648e-06 0.0031091077 0.0036952859 -3.3959288e-06 0.005345994 -6.091408e-06
0.0054038297 0.0041328073 -1.4781591e-07 0.064714275 3.7101128e-07 0.22420938 0.19635317 0.0048954394
0.003854821 0.0015711414 -7.911589e-06 -6.9665845e-07 0.0032044759 -7.4182765e-07 0.0024448049 0.003936953
0.0023782016 7.909238e-05 0.0033360613 0.004519997 0.0028854297 0.002908169 0.0042095883 0.002892055
0.002945155 0.0033545962 0.0050514727 0.0031134211 -1.2361767e-06 0.004425817 0.002873862 0.22695355
0.12815724 0.0045945756 0.0027688348 0.0039189295 0.0034142605 0.0022950883 0.30796227 0.0037091067
0.0017591619 0.003052048 0.0019892193 0.0031849863 0.31978813 -2.8981503e-06 0.0033451007 0.004022663
0.0026603006 1.7898932e-07 0.003916617 0.004536086 0.003271436 -4.9485557e-06 0.0041476972 0.055685997
0.0027954567 0.005113616 3.6185735e-08 0.0021282209 0.0027543872 -2.8544353e-06 0.004099663 -6.4038973e-06
0.0042232955 0.0031773995 -1.7131336e-07 0.080835775 3.549366e-07 0.15059233 0.13737819 0.0037189526
0.0071885195 -0.007876858 0.00022549732 9.057247e-05 0.009973926 5.6632925e-05 0.005959122 -0.0075203273
-0.0057750177 -0.0003699898 -0.006447529 -0.006315256 -0.007845993 0.005906986 -0.0060064862 -0.007898988
0.008724094 -0.007707227 0.005440063 -0.006129839 -0.00022870672 -0.007176989 0.0072621815 -0.09678684
0.042991925 0.006950329 0.0061809733 0.006790358 -0.0046521174 -0.009039023 -0.04759094 -0.0068178913
0.0072369874 -0.0077981297 0.008988472 0.0075385566 0.021951182 3.3246593e-05 -0.009730808 -0.0057690763
-0.009157702 1.570462e-05 -0.004442867 0.006353948 -0.007035308 -8.941264e-05 0.00664384 0.030601611
0.007200085 -0.006645949 -0.00010076777 -0.010574873 0.0060948227 0.00052143104 0.006043362 -2.2158265e-05
0.0075508067 0.0054118447 0.00035598208 -0.03663397 0.00027690103 0.14721817 -0.020433554 0.0072175213

onnx::LSTM_336 f4 [2, 256, 6]
00000000: c6ee 213b a306 ee3a bc23 643b 42fb 4b3b
00000010: 6ecb 823b b021 1a3b 9c09 c039 1bc5 ce39
00000020: 4aee 9d3a 39ef 8c3a 8673 dc3a 0a19 a238
00000030: 2eae 3eb6 5bd3 aeb5 507f 8fb6 420c eeb5
00000040: b65e 01b6 aba3 5fb6 93ac 23b5 35bb 94b4
00000050: 997f 4eb5 1a03 dcb4 af31 02b5 7ea8 32b5
00000060: aeb6 e53a cd3f 8b3a acf9 153b 37ce 183b
00000070: d6c1 453b 60a1 7d3a 7bd2 ceb4 9721 32b4
00000080: d8c8 f6b4 afc6 8fb4 7652 9ab4 4856 d1b4
00000090: 9ac8 ef3a 2e58 da3a cdd7 193b 56a7 1d3b
000000a0: fd14 4e3b ed4a f03a 2c73 2d3b b469 0d3b
000000b0: 633e 5d3b 3449 513b fa3f 783b 2d26 143b
000000c0: b167 9c3a 44a0 7e3a 5c70 f73a 3531 e03a
000000d0: 4d88 223b 99db 773a fffe 21b8 fbf0 43b8
000000e0: 5473 4cb7 5bb6 44b8 8e46 57b8 5441 15b8
000000f0: f21b f23a 8516 e23a 5a2b 303b 5a0e 1e3b
00000100: adab 463b c518 c63a 6701 4d3b 05a5 083b
00000110: 3cb1 773b e121 683b 814b 863b 6004 243b
00000120: 4242 c33a 1f39 8e3a 3a17 193b f240 0e3b
00000130: 229d 353b e16e 883a ff54 093b f57c c53a
00000140: 1392 353b 453d 343b 1313 553b b7a1 f53a
00000150: 976e 3d3b 6fb7 193b 5f6f 6f3b 3c30 653b
00000160: 50e1 843b a833 263b 400e 0a3b ad9d dc3a
00000170: 0c19 303b d530 2a3b 066e 473b d2cf e33a
00000180: dd99 0d3b e3f5 053b cc38 333b 0c95 2e3b
00000190: 3b85 463b ffcc e23a 98be 0b3b 9d4f cf3a
000001a0: d200 343b ad84 293b 91f6 503b b198 d93a
000001b0: 59af 653b ca82 233b a0b2 8c3b 80df 873b
000001c0: ab82 9c3b f9dc 413b 342b 003b 9b42 a73a
000001d0: 0084 363b 11db 2a3b 16b4 533b d204 cf3a
000001e0: 15d2 69b5 1be1 beb4 24a5 83b5 c97f 05b5
000001f0: 3600 28b5 e1ca 58b5 7491 343b e514 f33a
00000200: 189f 703b ad49 5c3b 2259 8a3b 1071 253b
00000210: daff 0e3b 3276 de3a dab5 2d3b e7c5 2a3b
00000220: 77c2 503b dbe9 f13a 7e05 b03d ffec 983d
00000230: 00ec b53d 0075 113e 085e 773d 2355 f03d
00000240: 017c 133d e80a 143d e1ad 4f3d ce1a 543d
00000250: ebdb 1c3d 25e1 4b3d 97f5 2c3b acb7 e33a
00000260: ec2a 6e3b 6010 4a3b 2fa6 7a3b 0285 073b
00000270: 78e7 f83a 5240 ea3a 5a20 2e3b c6ef 1b3b
00000280: abf1 363b e2f9 d33a 1f39 0f3b c53d 033b
00000290: 879d 433b c772 393b b9a1 713b e398 f53a
000002a0: 5575 0c3b fb85 ad3a a44f 343b c787 273b
000002b0: bb3d 3c3b 1e6b e23a 8f26 f53a 2960 c13a
000002c0: 45c0 0f3b 119f 153b 788d 273b 4042 b73a
000002d0: 7a60 313d 728e ba3d 630f e83d 8d0c 633c
000002e0: 6a04 8e3d e806 913d b612 0b3b a13b 103b
000002f0: 34a6 483b 01c6 3b3b 986b 5b3b 24a2 013b
00000300: 0471 993a fb74 813a 4b38 ca3a 5a61 d53a
00000310: d4ec 0b3b 1aa6 803a 9489 0d3b 6ede dd3a
00000320: 5177 333b 167a 2b3b 5127 3b3b 5bd6 dc3a
00000330: a7d5 a43a 3073 773a 6927 f73a 3aaf de3a
00000340: 931f 1f3b 0cdd 703a 164c 113b c962 df3a
00000350: a7a7 2e3b d613 1e3b ce28 2c3b 7301 d83a
00000360: 3eb8 d33d 8ce0 9a3d 4402 e33d 5ecf 36bd
00000370: 3843 903d c178 c03d 68bc e9b5 6a80 8bb5
00000380: 9852 1bb6 904b bcb5 db9a aab5 9be9 f3b5
00000390: aceb fe3a 0368 ba3a aa06 383b c82a 343b
000003a0: e8cc 6f3b 1809 bb3a f397 283b 5198 db3a
000003b0: 626c 643b a829 483b a6f5 6a3b 6b09 123b
000003c0: 0bb5 ef3a 0add c63a f86a 2a3b ddd0 213b
000003d0: b7c0 453b c133 b53a be4b 3ab5 b549 35b5
000003e0: 2332 0db5 def1 46b5 3a1b 4db5 6d8e 28b5
000003f0: 05a0 373b 2b67 fe3a 50d2 653b 447b 4c3b
0.002470897 0.0018159937 0.0034811338 0.0031125103 0.003991536 0.0023518614 0.00036628253 0.00039438237
0.0012049165 0.0010752446 0.0016819097 7.729426e-05 -2.8413592e-06 -1.3025523e-06 -4.276553e-06 -1.7735949e-06
-1.9277627e-06 -3.3324857e-06 -6.097336e-07 -2.770336e-07 -7.692666e-07 -4.098045e-07 -4.8501073e-07 -6.6555356e-07
0.0017525756 0.0010623873 0.0022884412 0.0023316273 0.003017535 0.0009675231 -3.8523635e-07 -1.6589762e-07
-4.5967204e-07 -2.6780387e-07 -2.8744734e-07 -3.8992061e-07 0.0018294037 0.001665836 0.0023474575 0.0024056039
0.0031445615 0.0018332876 0.0026466353 0.0021577897 0.003375911 0.0031934502 0.003787993 0.0022605762
0.0011932758 0.00097132125 0.001887809 0.0017104509 0.002480048 0.0009455025 -3.8622875e-05 -4.6716053e-05
-1.21861995e-05 -4.6899873e-05 -5.1325704e-05 -3.558521e-05 0.0018471463 0.0017249143 0.0026881308 0.002411744
0.003031473 0.0015113583 0.0031281353 0.0020850312 0.003779485 0.0035420584 0.0040983562 0.0025027022
0.0014897066 0.0010850764 0.0023359791 0.002170619 0.0027712067 0.0010409021 0.0020955203 0.0015067147
0.0027705475 0.002750234 0.003251259 0.0018740211 0.0028905028 0.0023455282 0.0036534888 0.0034971377
0.0040551797 0.002536038 0.0021065623 0.0016831659 0.0026870398 0.0025969048 0.003043057 0.0017380661
0.0021606602 0.002044075 0.0027347086 0.0026639132 0.0030291814 0.0017303525 0.002132332 0.0015816573
0.002746631 0.0025866434 0.0031885246 0.0016601292 0.0035047142 0.0024949783 0.0042937547 0.0041465163
0.004776319 0.0029581173 0.0019557 0.0012760939 0.0027849674 0.0026070515 0.0032303385 0.0015794283
-8.7104974e-07 -3.5554044e-07 -9.808323e-07 -4.9732313e-07 -6.2585184e-07 -8.07615e-07 0.0027552517 0.0018545656
0.003671592 0.003361325 0.0042220512 0.0025244392 0.002181998 0.0016972481 0.0026506097 0.00260579
0.0031854191 0.0018456535 0.085947976 0.074670784 0.08882904 0.14204788 0.06039241 0.117349885
0.03600693 0.036143214 0.050702933 0.051783375 0.038295668 0.04977526 0.00263915 0.0017373464
0.0036341501 0.0030832514 0.0038246026 0.0020678644 0.0018989882 0.0017871952 0.0026569576 0.002379404
0.0027915041 0.0016172493 0.0021854115 0.0020025831 0.0029848532 0.0028297172 0.0036870076 0.001873758
0.002143224 0.0013238782 0.002751329 0.0025563107 0.0028723318 0.0017274355 0.0018703508 0.0014753389
0.002193467 0.0022830407 0.00255665 0.0013981536 0.043304898 0.091092005 0.1133106 0.013857973
0.06934436 0.070813954 0.002122087 0.0022008198 0.0030616643 0.0028651955 0.003348088 0.0019780481
0.0011706655 0.0009876782 0.0015428154 0.0016279623 0.0021350877 0.0009815127 0.0021596896 0.0016927251
0.002738435 0.0026165298 0.002855737 0.0016848551 0.001257588 0.00094394665 0.001885635 0.0016989477
0.0024280294 0.0009188212 0.0022170595 0.001704299 0.0026650222 0.002412071 0.0026269439 0.0016479924
0.10337876 0.0756236 0.110844165 -0.044631355 0.07044071 0.09398032 -1.7414686e-06 -1.039368e-06
-2.3144876e-06 -1.4029083e-06 -1.2711056e-06 -1.8172899e-06 0.0019448898 0.0014221672 0.0028080144 0.002749132
0.003659064 0.0014269678 0.0025725334 0.0016753768 0.003485464 0.0030542407 0.0035851984 0.0022283446
0.0018288208 0.0015172076 0.00260037 0.0024691143 0.0030174681 0.0013824628 -6.940062e-07 -6.753501e-07
-5.259955e-07 -7.411271e-07 -7.640807e-07 -6.2792134e-07 0.0028018963 0.0019409409 0.0035067983 0.0031201402

onnx::LSTM_337 f4 [2, 256, 64]
00000000: 40d3 99b8 0456 2f38 14d3 1037 f94e 9832
00000010: 0581 1e38 791d 8fb5 98db 92b8 c5c4 1638
00000020: cff0 0339 4dfc eeb7 2719 4938 9ad1 9e36
00000030: 092d 34b7 56cf 98b8 307b a438 8ddd 8b38
00000040: 935f c436 9598 0a38 9c37 9bb8 7239 bf38
00000050: dbc6 4ab6 e2e3 1638 d5dc dab6 8022 e1ba
00000060: 15d1 37b9 a163 98b8 ea21 d8b8 05ff 7bb8
00000070: 56c5 3f39 6d61 14b8 b997 423a 19b3 b538
00000080: ddd0 10b8 c5c4 b438 a27e 07b7 aff2 e2b8
00000090: 50e9 91ba 66ee d636 1aeb c6b8 d658 b438
000000a0: cfd5 17b8 d56d 8c36 f0de 5e39 d602 9cb8
000000b0: fa5f 2b38 4666 a3b5 0c85 d3b8 e7dc c7b8
000000c0: 730f 98b8 d69a 8c38 f699 8cb7 c720 1ab9
000000d0: 461a b1b8 a864 84b6 230c 9fb8 2eb5 3eb7
000000e0: 18d9 d5b7 bde1 00b9 13f3 a4b6 f2c5 1d39
000000f0: 4963 db36 07cf 22bc 2b09 023c 1e70 8cb8
00000100: 2df6 de38 2ba9 33b9 5fc0 9f35 c3b8 37b6
00000110: fe18 4939 0232 4db6 0db6 0d39 9882 17b9
00000120: 59c0 03b9 8f2d 32b6 7ac5 6ab9 90ee 8cb9
00000130: 9bf2 80b9 c8fb 3739 1d10 33b9 5bd4 41b8
00000140: cdb3 3d39 b64b 38b9 8b1e 6739 a173 35b9
00000150: fb6f 5cb3 fc43 61b9 bafc 0339 9525 663a
00000160: 890e aeb9 d8b2 4d39 ba34 1c39 acbf 2839
00000170: ccd4 19b8 73a7 35b9 89ab 97b8 5b5c 0db9
00000180: 2e40 1339 48bc e1b8 32dc 1f39 191a 0738
00000190: cbbb fe3a 59d3 cd35 ebcb 83b9 ded7 8db9
000001a0: e3bd 54b9 4f84 e635 f2df 9db8 5fee 4a39
000001b0: 456f efb8 c235 4736 ac37 e838 4fe3 a2b9
000001c0: 49a2 1539 80ee 42b9 9c8b 79b7 0b53 8bb9
000001d0: daa6 0b39 9ab0 60b5 8da4 6a39 556f 17b7
000001e0: 00c8 8f39 57ce 0039 fc6f a7b6 38fa a339
000001f0: 8fe2 b836 3b08 1bbc cb77 e63b e38b 5339
00000200: aa97 6bb4 c140 7e34 56ea 0db1 ac85 02b0
00000210: fff2 87b4 114a 08b1 4c1a 41b4 f1dc 6b34
00000220: bbb4 4134 9224 1a30 7d5d 6b34 3967 7034
00000230: 0116 8534 8612 56b4 9f38 5534 828c 5f34
00000240: fae8 79b4 74e5 6d34 3036 61b4 9b43 5f34
00000250: aa10 8730 9911 7a34 3665 59b4 f3bc f235
00000260: 6720 4e34 bf37 83b4 c3e9 5ab4 525a 74b4
00000270: 1c7f 3134 6163 6334 94bc 1435 97bd 6234
00000280: 1f3d 5ab4 65a1 6434 1c3a 7fb4 a578 44b4
00000290: 677f 7e35 0b22 70af 4e5f 9634 7286 7034
000002a0: 3faf 8834 bb56 ddaf 5487 3a34 73d1 5eb4
000002b0: 3707 5b34 7cab 3bb1 3540 63b4 2ad9 3e34
000002c0: b020 60b4 a7dd 6834 19a3 0db1 e974 9334
000002d0: a616 3bb4 dbc9 822f 9c00 6ab4 6b74 3aaf
000002e0: 1518 7fb4 9cc2 39b4 62a8 c3b0 5ae9 3eb4
000002f0: c632 ea2d adc2 c034 c780 b7b4 c411 61b4
00000300: 7886 19b3 9415 3633 ff62 3630 0cc1 8130
00000310: b524 35b3 6064 ec2e 29ab 0bb3 44ae 1a33
00000320: 178d 0933 01f9 5fb1 f113 2d33 7021 3133
00000330: a6e2 3733 a804 1ab3 cce1 1533 06d6 1233
00000340: 4148 22b3 a51f 2133 e427 22b3 bd8f 1933
00000350: 0fee caaf 32c6 2f33 e205 11b3 412b cf34
00000360: d3cd 8032 eb90 3cb3 3014 19b3 8174 20b3
00000370: c0f2 fe32 2c03 1b33 c702 efb3 e15a 1533
00000380: a604 13b3 fb31 1633 bb7e 28b3 b0b3 feb2
00000390: ca93 ca34 5322 3030 0f58 4833 dca2 2d33
000003a0: 758a 2933 de1a 922f ba11 0333 e347 1bb3
000003b0: 2fff 1033 5b42 abb0 68da 19b3 061a 1333
000003c0: 907d 1cb3 cfbd 2833 8e4b 1bb0 d4bf 3b33
000003d0: 7036 00b3 8c38 8a30 40c9 24b3 5ca0 e9ae
000003e0: d29d 3ab3 0eb2 08b3 2336 0130 0c9d f5b2
000003f0: 8b80 acaf b51d 0eb4 a304 fab3 927f 27b3
-7.334957e-05 4.180336e-05 8.632214e-06 1.7731042e-08 3.7790294e-05 -1.0662908e-06 -7.002725e-05 3.5946043e-05
0.00012582842 -2.8489298e-05 4.794556e-05 4.7331678e-06 -1.0739322e-05 -7.286544e-05 7.843075e-05 6.6693035e-05
5.8523815e-06 3.3043867e-05 -7.401334e-05 9.11829e-05 -3.0216095e-06 3.597502e-05 -6.5226145e-06 -0.001717642
-0.00017530129 -7.266482e-05 -0.000103059996 -6.008057e-05 0.00018288693 -3.5376685e-05 0.0007423121 8.664112e-05
-3.4526794e-05 8.61972e-05 -8.076111e-06 -0.00010821723 -0.0011132155 6.40545e-06 -9.485167e-05 8.599616e-05
-3.620033e-05 4.1851113e-06 0.0002125462 -7.439188e-05 4.0858962e-05 -1.2174212e-06 -0.00010086046 -9.530206e-05
-7.2508024e-05 6.704561e-05 -1.6760994e-05 -0.00014698795 -8.4449115e-05 -3.9456245e-06 -7.5839715e-05 -1.1367067e-05
-2.549267e-05 -0.00012291125 -4.9158784e-06 0.00015046427 6.538267e-06 -0.0099370545 0.007936756 -6.696604e-05
0.00010631639 -0.0001713379 1.190241e-06 -2.737667e-06 0.00019178164 -3.0576489e-06 0.00013514627 -0.00014449132
-0.00012564789 -2.6550586e-06 -0.00022389545 -0.00026880624 -0.00024594818 0.00017546036 -0.00017076773 -4.6212557e-05
0.00018091426 -0.00017575812 0.00022041255 -0.0001730458 -5.1324587e-08 -0.00021482998 0.00012587282 0.0008779404
-0.00033198696 0.00019616948 0.00014896962 0.00016093132 -3.6676225e-05 -0.00017323885 -7.232192e-05 -0.00013481213
0.00014042921 -0.00010763906 0.00015245451 3.2210814e-05 0.0019434629 1.53352e-06 -0.00025138198 -0.0002705445
-0.00020288634 1.7174842e-06 -7.5280564e-05 0.00019353021 -0.00011417134 2.9684602e-06 0.00011072992 -0.00031068406
0.00014270203 -0.0001859013 -1.4874062e-05 -0.00026574018 0.0001331823 -8.370349e-07 0.00022377279 -9.026223e-06
0.00027424097 0.00012283899 -4.9900245e-06 0.0003127621 5.510002e-06 -0.0094624115 0.0070333234 0.0002017464
-2.1941256e-07 2.3679151e-07 -2.0651405e-09 -4.7483684e-10 -2.5322512e-07 -1.9832707e-09 -1.7984092e-07 2.1966459e-07
1.8040275e-07 5.6076843e-10 2.1920091e-07 2.2389294e-07 2.478919e-07 -1.9937042e-07 1.985777e-07 2.081961e-07
-2.3274688e-07 2.215582e-07 -2.0974471e-07 2.0793088e-07 9.827279e-10 2.3289466e-07 -2.024652e-07 1.8085397e-06
1.9197033e-07 -2.4441212e-07 -2.0387874e-07 -2.2757129e-07 1.6530652e-07 2.1177176e-07 5.5408714e-07 2.1116863e-07
-2.0325068e-07 2.129287e-07 -2.3769866e-07 -1.8297813e-07 9.480777e-07 -2.1839967e-10 2.800902e-07 2.2400653e-07
2.5459482e-07 -4.0261292e-10 1.7371832e-07 -2.0751558e-07 2.0398589e-07 -2.730956e-09 -2.1164381e-07 1.7774133e-07
-2.0873517e-07 2.168732e-07 -2.061091e-09 2.7465947e-07 -1.7423972e-07 2.379029e-10 -2.179317e-07 -1.6957961e-10
-2.3757487e-07 -1.7300266e-07 -1.4235975e-09 -1.7780022e-07 2.6625268e-11 3.5904432e-07 -3.4180104e-07 -2.0961221e-07
-3.5745387e-08 4.2394802e-08 6.6351896e-10 9.440853e-10 -4.217573e-08 1.0749868e-10 -3.251913e-08 3.6014413e-08
3.202612e-08 -3.2592313e-09 4.0297838e-08 4.1241435e-08 4.2814143e-08 -3.5860154e-08 3.4897127e-08 3.4187927e-08
-3.778428e-08 3.7514514e-08 -3.7754845e-08 3.5753818e-08 -3.6912737e-10 4.092562e-08 -3.3765794e-08 3.8588226e-07
1.499476e-08 -4.3903963e-08 -3.564145e-08 -3.7358863e-08 2.9679882e-08 3.6091635e-08 -1.112981e-07 3.477442e-08
-3.4230332e-08 3.4970054e-08 -3.923081e-08 -2.9651204e-08 3.7732963e-07 6.4077205e-10 4.6646218e-08 4.042782e-08
3.9474305e-08 2.6576336e-10 3.0516937e-08 -3.615413e-08 3.37597e-08 -1.2460747e-09 -3.5821728e-08 3.4249773e-08
-3.643578e-08 3.9288178e-08 -5.649604e-10 4.3713797e-08 -2.9851833e-08 1.0056893e-09 -3.836726e-08 -1.0624099e-10
-4.3450036e-08 -3.1826907e-08 4.700686e-10 -2.859317e-08 -3.1377953e-10 -1.3235588e-07 -1.16423756e-07 -3.8998742e-08

onnx::LSTM_378 f4 [2, 512]
00000000: 11fc c03a 467a 2b3a a695 9e3a 376c ea3a
00000010: bb06 d339 3456 393b 9706 313b 3918 433b
00000020: 2376 bb3a 03b5 9f3a 5536 243a e4df a53a
00000030: d8d6 743a 7579 8b3b d3be 013b 71b4 683a
00000040: 8deb 103b d896 943a 166c 2c3b c1c2 9e3b
00000050: 1cdc 26b7 92a6 183b 7088 773a c622 943b
00000060: 07d1 a33a b3ca c53a 7df7 513a 2009 2a3a
00000070: bc02 5e3b 07be 553b c1df 213b 43e2 893b
00000080: 3fbd 413a dbad 653b 16e4 90ba 5e97 e53a
00000090: b4f1 e43b b71e 0c3b 9581 3d39 25a1 a13b
000000a0: dd1c 993a eddf 063b ef7c d93a bc23 443a
000000b0: 99d9 b33a fcf1 4d3b f879 153a 8ef1 473b
000000c0: 5509 5b3a ebed f339 796c b23a 36cf 433a
000000d0: eef0 713a c5b2 eb3a c6b3 b33b 0fce 0f3b
000000e0: c632 863b f22d 9e3a dbb2 2339 0984 dc3a
000000f0: 3b55 af3a b167 0c3b c401 b13a 875f ac3b
00000100: 5f9e be3a 5cbb 293a f117 9e3a 9a4f e83a
00000110: d1e9 d139 4e83 393b 0730 303b f3c8 423b
00000120: 70d7 ba3a a1e6 9d3a fbca 213a 9883 a43a
00000130: c0a2 723a b020 8b3b 5ee0 003b 5e9d 673a
00000140: d963 103b e705 943a f1b3 2b3b 264c 9e3b
00000150: 9801 5ab7 e6d5 173b 7c05 753a 55cc 933b
00000160: e13d a33a 2bfa c43a 19ef 4f3a 70ec 293a
00000170: 5741 5d3b 57f3 543b dd26 213b 69a7 893b
00000180: 8807 403a 0792 653b 9570 92ba 400c e53a
00000190: 9488 e43b d8cd 0b3b c346 3139 3527 a13b
000001a0: 062d 973a 797b 063b 17e8 d83a a1db 423a
000001b0: 89e4 b23a 5c89 4d3b 0ebf 133a 1cde 463b
000001c0: bcf3 593a 095c ec39 bce8 b03a a05e 403a
000001d0: b574 703a 1b5d ea3a 0d82 b33b a06b 0f3b
000001e0: 08c6 853b 4afd 9c3a 3bdf 1f39 c4d0 db3a
000001f0: a79d ae3a 385a 0c3b b069 af3a e2f5 ab3b
00000200: 230d b83b 6d6d ee3a 2f7a 093b 8483 453b
00000210: 715a b83a 4b6a 8f3b 34d8 853b 72bb 653b
00000220: 60bb 433b 05f5 053b a0ec ac3a 9bab fe3a
00000230: c085 e33a cabf 983b 0c26 5c3b d0c8 3d3b
00000240: 0cfa 503b 606a 263b aa85 8f3b 996b 133c
00000250: 5a72 433a 8c19 713b 6bab 223b f55b eb3b
00000260: 8a47 1b3b 6c83 043b a5db 173b 38a5 d93a
00000270: 7196 b23b a473 ce3b f9b1 5e3b d0c7 093c
00000280: 8668 823a 6cb3 b83b efc3 2c3a 7506 1a3b
00000290: 53c2 2f3c 7425 423b 4a1d 263b 560a c03b
000002a0: dba3 3b3b c09e 633b 687e 243b 5d3f c03a
000002b0: b511 423b 1887 853b 5265 0a3b d920 8d3b
000002c0: 989c b23a 0fd4 8a3a 89af 3d3b df76 2c3b
000002d0: 749f 5a3b aa2c 433b 03df 123c 8d65 bb3b
000002e0: f88e 0b3c 7e8e 1f3b 5e8a ad3a 4c0f 1e3b
000002f0: 6d3c 383b d141 6c3b 8e19 2d3b a873 243c
00000300: 276d 8039 fc22 2d3b 8a0a 96b9 7c6d b4b9
00000310: dd87 173b 8b1b deba 24b5 e5ba 19b8 d13a
00000320: 3573 f038 115d a0ba 71a4 c339 e511 7fba
00000330: 7472 1dba fa78 513a 8d2e e739 2609 4139
00000340: ddff 723a 733d 263a f914 983b b422 25bb
00000350: 8e77 0bbb 8173 e139 86e4 11bb ca22 2eb9
00000360: b4b8 2c39 cc72 a03a fc54 5aba 688b 36bb
00000370: 4c21 51b9 0436 b9ba ed70 223b d6e4 ae3a
00000380: bd33 c639 7dd6 2bb8 510c 30bb 1c34 ef3a
00000390: 5dec ab3a 874c 013b c851 23b9 300a 933a
000003a0: 8aeb 5d3b 8f2e caba cf1c 1bb9 3885 d83a
000003b0: d264 fbba 4765 27ba c93e 8cba 2a6e 7e3a
000003c0: 73c5 433a 7a9c 143b e6d1 88b9 7149 143a
000003d0: 79c6 923a 836d 23bb 0a84 df3a 65c2 17bb
000003e0: 37eb 9d3a 326f ca3a 7d4a 2abb b566 42bb
000003f0: 8f61 3db9 e093 9cba 52aa 6f3b 1e15 aab9
0.0014723559 0.00065413525 0.0012099042 0.0017885034 0.0004025007 0.002828014 0.0027011984 0.0029769077
0.0014302175 0.0012184683 0.00062641996 0.0012655226 0.00093398755 0.004256422 0.0019797578 0.00088769855
0.0022113055 0.0011336459 0.0026309541 0.004844994 -9.945619e-06 0.0023292643 0.0009442633 0.004520747
0.0012498208 0.0015090316 0.0008009596 0.0006486345 0.0033876142 0.0032614486 0.0024700018 0.0042078807
0.00073905656 0.0035046253 -0.0011054303 0.0017516424 0.006986821 0.0021380612 0.00018072718 0.00493254
0.0011681576 0.0020580248 0.0016593019 0.00074821315 0.0013721465 0.0031424752 0.00057020737 0.0030508968
0.00083555776 0.00046525834 0.001361265 0.00074695365 0.0009229322 0.0017982355 0.005484077 0.002194289
0.004095408 0.0012068136 0.0001561152 0.0016824018 0.0013376841 0.002142411 0.0013504555 0.005260411
0.0014543048 0.0006474757 0.0012061578 0.0017723918 0.00040037793 0.0028307023 0.0026884095 0.0029721826
0.0014254879 0.0012046882 0.0006171909 0.0012551425 0.0009255819 0.00424584 0.0019664983 0.00088354
0.002203217 0.0011293263 0.0026199783 0.004830855 -1.2994184e-05 0.0023168265 0.00093468255 0.0045104423
0.0012454354 0.0015028169 0.00079320517 0.00064820703 0.003376087 0.0032493675 0.0024589815 0.004200865
0.0007325341 0.0035029666 -0.0011172468 0.0017474964 0.006974289 0.002133241 0.00016906396 0.004918004
0.0011533804 0.0020520373 0.001654866 0.000743324 0.0013648431 0.003136239 0.00056360743 0.003034479
0.00083142123 0.00045082 0.0013497095 0.0007338319 0.0009172664 0.0017880531 0.0054781497 0.0021884218
0.004082445 0.0011977341 0.00015246581 0.0016770591 0.001332213 0.002141608 0.0013382938 0.0052478174
0.0056168004 0.001819057 0.0020977368 0.0030138204 0.001406504 0.004376685 0.0040846113 0.0035054353
0.0029866323 0.0020440232 0.0013193078 0.0019429805 0.0017358586 0.004661535 0.0033592014 0.0028958805
0.003188732 0.0025392994 0.0043799477 0.008997821 0.00074556994 0.0036788909 0.0024821411 0.007182593
0.0023693764 0.0020219935 0.002317169 0.0016605025 0.005450063 0.0063004065 0.0033980592 0.008409455
0.0009949363 0.005636623 0.00065904757 0.0023502384 0.010727483 0.0029624375 0.0025347047 0.005860607
0.00286316 0.0034732074 0.0025099758 0.0014667321 0.0029612605 0.0040749423 0.002111752 0.0043068943
0.0013626991 0.0010591763 0.0028943738 0.002631597 0.0033359202 0.002978126 0.008964303 0.005718893
0.008517973 0.0024346407 0.0013240089 0.0024118004 0.0028112188 0.0036049972 0.0026412937 0.01003734
0.00024495387 0.0026418557 -0.00028618082 -0.00034413848 0.0023121752 -0.0016945464 -0.0017525298 0.00160003
0.00011465551 -0.0012234767 0.00037315817 -0.00097301445 -0.00060061296 0.0007990744 0.00044094436 0.00018409322
0.0009269694 0.0006341554 0.004641172 -0.0025197687 -0.0021280977 0.000430014 -0.0022261455 -0.00016606893
0.00016472006 0.0012241243 -0.00083287037 -0.0027854089 -0.00019944197 -0.0014130478 0.0024786547 0.0013343345
0.0003780405 -4.0969335e-05 -0.002686281 0.0018249783 0.0013116706 0.0019729452 -0.00015575357 0.0011218246
0.0033862316 -0.0015425252 -0.00014792684 0.0016519194 -0.0019179827 -0.0006385636 -0.0010699864 0.0009705747
0.0007468082 0.0022676275 -0.00026096328 0.00056566956 0.0011198065 -0.00249371 0.00170529 -0.002315664
0.0012048249 0.0015444516 -0.002598434 -0.002966327 -0.00018060788 -0.0011945926 0.0036570025 -0.0003244066

onnx::LSTM_379 f4 [2, 256, 128]
00000000: 12fe 57b9 d7ab ab39 74ac 20b5 9b08 0fb5
00000010: be63 2fb9 ad96 f734 2c94 84b8 c21b 0039
00000020: c7f7 ac39 c8c3 9e37 19a8 c238 9340 ad37
00000030: 5cbb 6139 5dc4 69b9 b9e1 7a39 229e 8439
00000040: 995d edb8 4b2b 3939 c3e8 b5b5 c616 9839
00000050: b3a6 4db6 a7d8 1439 e49c b1b9 1239 223c
00000060: 3f92 193b 7722 7ab9 5524 25b9 bea1 afb9
00000070: 94fe f238 2f96 7e39 8cba fbba c189 7339
00000080: 22ca 51b9 ef50 a239 2daa dcb9 1b62 d6b8
00000090: 28c2 413c d091 4fb6 89d7 d139 8e82 ca39
000000a0: f03f 063a 33b4 56b5 c642 2c38 0058 01b9
000000b0: 470d 8739 15f6 1036 6c19 fbb8 cc7f 913a
000000c0: 3ec5 c1b9 d75d fcb7 67ca 9936 d081 0f3a
000000d0: 1c02 b1b9 c44c 9f37 7db6 71b9 9657 1436
000000e0: 8567 03b9 413a 68b8 6d1c 8537 6b4e 83ba
000000f0: c4e6 aeb6 5440 90bb 7adb 613b 6572 5cb7
00000100: bdfa 26b5 ad77 f1aa 463c de2f 6a0b a22e
00000110: 21fa 4cb4 f052 00b3 d4fc 8636 2da1 0a32
00000120: 81ad 7930 37df 9bb2 bb5c 6930 d942 0133
00000130: a2e6 392d ee4b 0ea6 7d83 28b7 3c5f 4e33
00000140: 6c16 e632 60a2 19b2 f390 042d 641d 342f
00000150: da03 92b1 3575 9f34 fd63 c8b3 cea3 9938
00000160: 3b22 2eb1 7d77 422a 0218 0db8 2211 5031
00000170: 8bc2 a1b7 dcec 94b8 88db bcb4 2b82 44b3
00000180: b132 352b 7ec0 3636 f6be 9cb8 5ee1 9eae
00000190: 038c 4bb6 d68d 40b4 09b5 41b3 5849 50b1
000001a0: 7842 1933 6373 5fb4 ed10 9030 26db 92b2
000001b0: e3d0 57af 13cc 15b1 d813 40ab 6f2b 3633
000001c0: d650 87a7 c3c5 60b5 236d 40b4 8af1 11ae
000001d0: 6a49 5ab1 2220 e8ab 7f5f 4833 acc5 2db0
000001e0: b717 1db5 1c5d 2cae f662 21b6 2c3b 9fae
000001f0: b79b 1134 e5ff 9c37 3a47 f8b2 c039 1e34
00000200: f482 f6b9 af13 8038 3d80 abb5 ee3f fb35
00000210: 28bb e738 b9fc 5033 07b5 78b9 3a6c 2437
00000220: d545 2438 3728 2ab7 5751 6f37 c648 40b8
00000230: bed3 4039 1006 5c39 8dfb 1b38 f4da a439
00000240: c8f3 6fb8 6a68 cfb8 6e90 35b9 cf02 7d37
00000250: 21a2 1736 8ed0 c438 4d77 2038 c268 bbb9
00000260: 4232 4dba a851 0539 76e0 0ab9 f170 5fb9
00000270: 51ce 6939 5bf1 6338 b896 803b 6301 9738
00000280: 5f5f 9838 8904 5d39 0953 6ab9 9c4f 55b8
00000290: 99eb 063b 9fc7 0636 1a8d dd38 ef92 ffb7
000002a0: 0c2c 48b8 636b 8835 2fc3 0539 bbfe b7b9
000002b0: 0bd2 5939 8c7f bcb6 8867 5438 a6f6 c8b9
000002c0: bf12 90b8 b350 93b7 6365 39b6 93c6 3037
000002d0: 44f2 5c37 95cb a7b6 c8b9 3038 b4cd 6635
000002e0: 0ae2 a939 8ae4 39b8 17be 02b6 783d 3a3a
000002f0: 577d 6f36 617d b3bb 715c b93b cc4e 7038
00000300: 39f4 7635 f6df b2ac a4cc 5930 7877 cdad
00000310: 4a70 0eb4 833f f732 8bea 8d37 93b1 642f
00000320: 2789 00b0 e4c0 28b3 abe3 7630 fd23 c133
00000330: f5aa e12b 0ce8 18a6 582c b037 5349 7732
00000340: a59f 06b2 9dc2 e4b1 00d5 562e 5fb9 1b30
00000350: 617c 1e32 0efd 1734 6f78 7334 542c 8838
00000360: e7c4 0f31 4401 af2b f255 9137 de39 26b4
00000370: 333c b935 64e6 16b8 49fa 2934 8b00 f7b2
00000380: 03cf b7af 2d60 8db6 f369 10b9 1bb0 bdae
00000390: 62cf 93b7 aee3 0a34 a84e 9fb1 58d0 66b4
000003a0: 628a a6b3 6e34 8933 80a4 b430 d9aa 3bb3
000003b0: 2bb0 ad2f d87e a930 830b 33ab 70f5 52b4
000003c0: bbe3 2b28 408d 9bb4 d442 2c35 294d 6fad
000003d0: 0860 62b1 7716 9bab 4ab4 b633 b42a 4831
000003e0: 6965 f2b4 e93d 95ae c5de 0234 6732 1b2e
000003f0: fa9f 2535 cc59 6a37 c8ac b4b2 bacb c233
-0.00020598646 0.00032743692 -5.9855597e-07 -5.3284174e-07 -0.00016726457 4.6116966e-07 -6.32185e-05 0.00012217372
0.00032991005 1.8926235e-05 9.2819515e-05 2.0653277e-05 0.00021527469 -0.00022293763 0.00023925946 0.0002529482
-0.000113184746 0.00017659103 -1.3553293e-06 0.00029008667 -3.0644412e-06 0.00014195089 -0.00033876963 0.009901302
0.0023433117 -0.00023854697 -0.00015749161 -0.00033499108 0.00011586878 0.00024279275 -0.0019205376 0.00023225603
-0.00020007094 0.00030959348 -0.0004208846 -0.00010222589 0.011826076 -3.0930278e-06 0.00040024173 0.00038625713
0.0005121222 -7.9983437e-07 4.1070183e-05 -0.00012335181 0.000257591 2.160091e-06 -0.00011973348 0.0011100709
-0.00036958785 -3.0084439e-05 4.583318e-06 0.00054743607 -0.00033761642 1.8990024e-05 -0.00023051533 2.21047e-06
-0.00012531698 -5.5367364e-05 1.5868072e-05 -0.0010017877 -5.2124687e-06 -0.0044021998 0.0034463094 -1.3139656e-05
-6.220469e-07 -4.2893242e-13 4.0424392e-10 7.3689346e-11 -1.9089977e-07 -2.9877754e-08 4.0229443e-06 8.069304e-09
9.0832236e-10 -1.8145881e-08 8.4896684e-10 3.009595e-08 1.0567243e-11 -4.936905e-16 -1.0044195e-05 4.8049728e-08
2.678572e-08 -8.942692e-09 7.5355165e-12 1.6381346e-10 -4.249597e-09 2.9701337e-07 -9.3314135e-08 7.3261195e-05
-2.533979e-09 1.7272117e-13 -3.363938e-05 3.0277723e-09 -1.9283287e-05 -7.1013084e-05 -3.517746e-07 -4.5753193e-08
6.4374466e-13 2.7232159e-06 -7.474229e-05 -7.2250414e-11 -3.0330855e-06 -1.7932993e-07 -4.5100965e-08 -3.0309675e-09
3.568354e-08 -2.0810471e-07 1.048219e-09 -1.7096294e-08 -1.9628348e-10 -2.1798356e-09 -6.823964e-13 4.241468e-08
-3.755767e-15 -8.3734284e-07 -1.7921097e-07 -3.3183713e-11 -3.1764906e-09 -1.649351e-12 4.6652982e-08 -6.321794e-10
-5.852157e-07 -3.919097e-11 -2.4048472e-06 -7.240994e-11 1.3560826e-07 1.871581e-05 -2.890339e-08 1.4735906e-07
-0.00047018344 6.107182e-05 -1.2777815e-06 1.8719563e-06 0.00011049799 4.8658624e-08 -0.00023718561 9.80036e-06
3.9165683e-05 -1.0142153e-05 1.42644485e-05 -4.5844143e-05 0.00018389427 0.00020983093 3.7189155e-05 0.0003144365
-5.720908e-05 -9.889978e-05 -0.0001731531 1.5080629e-05 2.2595125e-06 9.384855e-05 3.825808e-05 -0.0003574547
-0.00078276184 0.00012714288 -0.00013244324 -0.00021309011 0.0002229747 5.4345797e-05 0.003924217 7.2004994e-05
7.265689e-05 0.00021077892 -0.00022346912 -5.08573e-05 0.0020587204 2.008375e-06 0.000105643834 -3.046679e-05
-4.7724738e-05 1.0164043e-06 0.0001275658 -0.0003509427 0.0002077298 -5.617685e-06 5.064116e-05 -0.0003833074
-6.869947e-05 -1.7561344e-05 -2.7626163e-06 1.0536652e-05 1.3169429e-05 -5.000688e-06 4.2134692e-05 8.5981014e-07
0.00032402604 -4.432028e-05 -1.9482156e-06 0.00071044965 3.5686733e-06 -0.005477593 0.005656772 5.7293844e-05
9.199753e-07 -5.083929e-12 7.923495e-10 -2.3358857e-11 -1.3265631e-07 2.8783466e-08 1.6917727e-05 2.0799566e-10
-4.6761034e-10 -3.929098e-08 8.9817814e-10 8.993809e-08 1.6034662e-12 -5.3050076e-16 2.1001484e-05 1.4393964e-08
-7.8361255e-09 -6.6577983e-09 4.884715e-11 5.66521e-10 9.225091e-09 1.4155032e-07 2.2674952e-07 6.493242e-05
2.0921165e-09 1.2434849e-12 1.7325368e-05 -1.5481007e-07 1.3801094e-06 -3.5977355e-05 1.5830405e-07 -2.8754831e-08
-3.3434597e-10 -4.213324e-06 -0.0001377238 -8.6260075e-11 -1.7620336e-05 1.2935081e-07 -4.6364512e-09 -2.1496214e-07
-7.755149e-08 6.3890965e-08 1.3143477e-09 -4.3694715e-08 3.1593692e-10 1.233242e-09 -6.360955e-13 -1.9647064e-07
9.541788e-15 -2.8973773e-07 6.417224e-07 -1.360271e-11 -3.2941916e-09 -1.1019648e-12 8.50783e-08 2.9128104e-09
-4.5149798e-07 -6.786733e-11 1.2188237e-07 3.5287686e-11 6.1700086e-07 1.3968394e-05 -2.103333e-08 9.0708866e-08

onnx::LSTM_380 f4 [2, 256, 64]
00000000: fb43 2fb9 3c98 8e38 5dc3 1b38 9bea 19b9
00000010: 3044 cdb8 5e1a 28b8 8f25 a6b3 2f7d 7e38
00000020: 6d60 0237 a1a5 3839 6a45 e9b7 0411 9a38
00000030: de3f c138 2ac7 7c39 7cd9 7eb9 957a b839
00000040: 49b0 aa37 8917 0fb8 cad3 2038 81b8 95b9
00000050: dd80 2f38 14ab a7b9 1792 2e39 8ba8 a6b9
00000060: 62cf b538 5a0d 1a39 4d5d f2b7 fde4 fb38
00000070: 7a25 81b9 934e 4f39 7170 2f39 fa2b 6c39
00000080: 0ed0 2839 40bd 0339 0483 8c38 cf6e b338
00000090: 4d58 9f39 0e6b 2e39 8f0f b8b8 e3a2 9e39
000000a0: 3204 67b9 10df 43b9 dad9 7937 5f67 b638
000000b0: 1cfe 4cb9 40dc 80b8 aa20 3638 b997 7e39
000000c0: 241f 9cb8 a126 83b9 09ed e5b8 01f0 1739
000000d0: bf6d 46b8 a4e4 51b9 5838 89b9 6c00 cfb8
000000e0: be2e 3d39 cdd0 3139 3c49 ba38 0f1f 1d39
000000f0: f859 9639 122d b7b8 3e07 c538 4f92 a239
00000100: 658e 4939 64d8 1039 e272 6738 1a8f bbb7
00000110: 681a 5136 a227 d938 0fa0 e0b8 3275 a738
00000120: 4e8f 8f38 33a2 7038 2580 8eb8 e011 6338
00000130: fd47 9238 6c43 e9b7 6a9d 3f37 f802 deb8
00000140: a021 0739 8df5 cdb8 8951 4a38 e29c 6439
00000150: 2c0f 9238 f971 2139 610f 4637 3362 4e39
00000160: faeb f938 4b24 adb7 cdd9 e2b8 52d2 a5b7
00000170: 16e6 dd38 11a2 0eb9 dbcd ca37 90bd 34b9
00000180: 6c34 8637 4d68 2ab9 dc54 acb8 3bab 9938
00000190: c857 19b9 efdc 8738 9967 ef38 8f93 c3b8
000001a0: 9342 3836 b534 e738 d479 ac38 d4a4 4538
000001b0: f945 0838 da8d f4b8 90a1 b038 3980 9cb8
000001c0: 3ced 0eb8 ad6f a537 923d 0139 e315 b837
000001d0: 3185 6938 4f73 06b8 c9bc 7339 4f3d 5539
000001e0: 64ee 40b9 e2a6 4338 5a7c 1db9 28a3 93b7
000001f0: d276 18b9 e81b a838 8ceb ac38 677b 75b9
00000200: 8ec8 1638 1bcb 8fb8 4aea cdb8 cfae 2239
00000210: a126 dd38 bf15 cab8 2ee9 fd38 a4ca deb8
00000220: 8449 f4b8 868a edb8 0c88 b138 dc30 d6b8
00000230: faef d2b8 bf45 1bb9 4f13 2539 5463 fcb8
00000240: badd 68b8 a5fe a738 aa4e 19b9 4013 1d39
00000250: e228 4fb8 77d9 2339 0eea 18b9 965e dc38
00000260: ac1a 91b8 f2eb 0bb9 bfb1 b038 0964 03b9
00000270: d8a7 3d39 bb7b ea36 41b3 12b9 94c1 a8b8
00000280: a995 acb8 3414 4db7 c5f0 e438 e9d1 c6b8
00000290: e084 d2b8 ba9e f8b8 447f 8fb8 6039 34b9
000002a0: 1612 0c39 e3ee d338 b8a9 b8b8 3ece fdb8
000002b0: cf46 1d39 c64f 0039 f306 a7b8 87c3 4ab9
000002c0: 4061 f238 0f97 ba38 d192 5bb8 7d01 22b9
000002d0: 0167 e3b8 4114 1239 516c b738 5eeb 1b38
000002e0: 65ae 34b8 6cd9 f9b8 cbf3 cd37 c373 25b9
000002f0: e1b7 11b9 916d 0ab8 afaf eab8 04c4 0db9
00000300: b1f6 0439 f511 a6b8 550f b6b8 e2bb 4339
00000310: b9a1 1539 5e42 6cb7 1f38 d438 1316 aab8
00000320: 6513 f0b8 f714 e2b8 a46c 9e38 09c9 e0b8
00000330: 3bd5 b7b8 f014 2cb9 b005 3839 dff7 4cb9
00000340: e4cc feb6 f982 8438 420a 5fb9 6741 8a39
00000350: 40a1 1736 0a11 8c39 1be8 49b9 778f 6239
00000360: d387 94b7 fbf9 3db9 7397 a638 c9d9 02b9
00000370: 92da 8939 1db2 85b8 888c 45b9 37c0 38b9
00000380: 0131 b0b8 da37 ecb8 1173 0039 b0ea bdb8
00000390: 70a0 20b9 1613 1eb9 3f33 12b8 f01f 89b9
000003a0: 3b7c 1a39 6a35 1f39 399c 7bb8 4987 13b9
000003b0: 4cf7 7b39 82c5 c938 a298 75b8 7346 7db9
000003c0: 3c3e 0339 8815 ab38 f1e1 21b6 b268 4eb9
000003d0: b7e6 f8b8 6faa 4b39 c0d0 7e39 4be2 1939
000003e0: a659 0ab9 c2ae 08b9 1df3 8bb7 ba45 38b9
000003f0: 3d4d 72b9 07c4 3936 bad0 f7b8 5735 86b9
-0.00016714625 6.7994435e-05 3.7136826e-05 -0.00014678614 -9.787863e-05 -4.0078878e-05 -7.736809e-08 6.0674905e-05
7.771055e-06 0.00017609309 -2.7808088e-05 7.346462e-05 9.214853e-05 0.00024106787 -0.00024304347 0.00035186546
2.0347668e-05 -3.4115776e-05 3.8344217e-05 -0.0002855696 4.1843265e-05 -0.00031980185 0.00016648356 -0.00031787562
8.6693806e-05 0.00014691558 -2.8892095e-05 0.00012011265 -0.0002463272 0.0001977033 0.00016731188 0.00022523096
0.00016099235 0.00012563635 6.700124e-05 8.556025e-05 0.00030392632 0.00016633814 -8.776702e-05 0.00030257468
-0.0002203144 -0.00018679746 1.4892279e-05 8.697691e-05 -0.00019549619 -6.1445404e-05 4.3422602e-05 0.00024279849
-7.44446e-05 -0.00025015048 -0.00010963722 0.0001448989 -4.7309088e-05 -0.00020016968 -0.00026172656 -9.870608e-05
0.00018041857 0.0001695782 8.882812e-05 0.00014984257 0.0002867726 -8.734515e-05 9.395041e-05 0.00031008056
0.000192219 0.00013813522 5.5181685e-05 -2.2358774e-05 3.1158797e-06 0.000103547485 -0.000107109656 7.98501e-05
6.845464e-05 5.737152e-05 -6.7949564e-05 5.4137665e-05 6.9752314e-05 -2.780716e-05 1.1421138e-05 -0.00010586338
0.0001288713 -9.820899e-05 4.823649e-05 0.00021802218 6.9646485e-05 0.00015396615 1.18053e-05 0.00019682273
0.00011917199 -2.0640107e-05 -0.00010817088 -1.976747e-05 0.00010580958 -0.0001360255 2.4176135e-05 -0.00017236755
1.5998456e-05 -0.00016251318 -8.2174054e-05 7.327503e-05 -0.00014623918 6.478454e-05 0.00011415705 -9.3258095e-05
2.7456888e-06 0.00011024756 8.2242914e-05 4.712197e-05 3.2490094e-05 -0.000116612486 8.422427e-05 -7.462543e-05
-3.407638e-05 1.9721536e-05 0.00012325335 2.1944701e-05 5.5675573e-05 -3.205548e-05 0.00023244614 0.00020336102
-0.00018399354 4.6647045e-05 -0.00015019011 -1.7599741e-05 -0.00014540114 8.016062e-05 8.245473e-05 -0.00023410992
3.5949568e-05 -6.856603e-05 -9.8188015e-05 0.00015514645 0.000105452964 -9.636161e-05 0.00012107413 -0.0001062353
-0.0001164852 -0.00011326843 8.4653584e-05 -0.00010213416 -0.000100582794 -0.00014807934 0.00015742819 -0.00012034798
-5.551961e-05 8.010612e-05 -0.00014620522 0.00014979858 -4.939072e-05 0.00015625903 -0.00014583042 0.000105080355
-6.919107e-05 -0.0001334397 8.425442e-05 -0.000125304 0.00018086971 6.9881476e-06 -0.00013990422 -8.046921e-05
-8.2294755e-05 -1.2223656e-05 0.00010916734 -9.4804745e-05 -0.0001003833 -0.00011855127 -6.8424764e-05 -0.00017187512
0.00013358178 0.0001010576 -8.805416e-05 -0.00012102396 0.00014999065 0.00012236749 -7.964475e-05 -0.00019337061
0.000115575735 8.897308e-05 -5.2350402e-05 -0.00015450078 -0.000108433895 0.0001393119 8.7462955e-05 3.7174083e-05
-4.307776e-05 -0.00011913743 2.455143e-05 -0.00015778751 -0.00013896778 -3.3003806e-05 -0.00011190713 -0.0001351983
0.000126804 -7.9188416e-05 -8.681292e-05 0.00018666641 0.00014269994 -1.40821485e-05 0.00010119401 -8.110343e-05
-0.00011447704 -0.00010780425 7.554263e-05 -0.00010718598 -8.765837e-05 -0.00016410998 0.00017549726 -0.00019547295
-7.5936423e-06 6.318646e-05 -0.00021270759 0.0002637014 2.2594613e-06 0.00026715576 -0.0001925532 0.00021606484
-1.7706223e-05 -0.0001811757 7.9437064e-05 -0.00012478897 0.00026293524 -6.3751104e-05 -0.00018839736 -0.00017619213
-8.401462e-05 -0.0001126376 0.00012249897 -9.055936e-05 -0.00015318557 -0.00015075164 -3.485684e-05 -0.00026154472
0.00014732864 0.0001518332 -5.9988557e-05 -0.0001406941 0.0002402935 9.6212156e-05 -5.8554702e-05 -0.00024154205
0.00012516318 8.157926e-05 -2.4122385e-06 -0.00019684693 -0.000118685355 0.0001942308 0.00024301093 0.00014675518
-0.00013194102 -0.00013035073 -1.66833e-05 -0.00017573583 -0.00023107692 2.7681251e-06 -0.00011816756 -0.00025598213
