LOSO/models/model_without_subj_6.onnx (onnx, 550191 bytes, 8 tensors)

fc.weight f4 [2, 128]
0	0xbcfad579	-0.03061937
1	0x3cfe8a4e	0.031071808
2	0x3d168e5c	0.03675686
3	0xbd26b293	-0.040697645
4	0x3d1b6e07	0.037946727
5	0x3d153df6	0.036436044
6	0x3d0c63a6	0.03427472
7	0xbd467b97	-0.04845771
8	0x3d32311e	0.043503873
9	0xbdd60138	-0.10449451
10	0x3d11a085	0.035553474
11	0xbceb41b6	-0.028717857
12	0xbd0de675	-0.03464361
13	0xbd0add44	-0.03390242
14	0xbd196c41	-0.037456755
15	0xbcca2134	-0.024674036
16	0xbdb2fe22	-0.08739878
17	0x3cf9cad8	0.030492231
18	0x3ce7d2a3	0.028298682
19	0xbd1fb4d5	-0.038990814
20	0x3cfaddec	0.030623399
21	0x3dd4fe53	0.10400071
22	0xbd25d319	-0.04048452
23	0x3d14a730	0.036292255
24	0x3d1f82ba	0.03894303
25	0x3ce24b14	0.02762369
26	0x3d12a252	0.035799332
27	0xbde57aa9	-0.11205036
28	0xbdfa4d5b	-0.12221786
29	0xbd205f3b	-0.03915332
30	0xbd1939ae	-0.037408523
31	0xbcf34c75	-0.029699543
32	0xbd01a07e	-0.031647198
33	0x3dc6ed9d	0.0971329
34	0x3d03160a	0.03200344
35	0x3cc66514	0.02421812
36	0x3d03ee4a	0.032209672
37	0xbdac8f55	-0.08425776
38	0x3cdf120e	0.027230289
39	0x3ced0129	0.028931217
40	0x3ccf788f	0.025326042
41	0x3cc1b47f	0.023645638
42	0x3cd27ba1	0.025693716
43	0x3cf36818	0.029712722
44	0xbcf6755c	-0.030085258
45	0x3d1c18a8	0.03810945
46	0x3d046b9b	0.032329183
47	0x3d01ac09	0.031658206
48	0x3cdc83c2	0.026918296
49	0x3d17d644	0.037069574
50	0x3d270a8f	0.040781554
51	0x3d12337e	0.035693638
52	0x3cc59e31	0.024123283
53	0x3d04a865	0.032387156
54	0x3cba76d5	0.022761742
55	0x3cf87255	0.030327955
56	0x3d0e7389	0.03477815
57	0x3de799b6	0.11308615
58	0xbc8b20e1	-0.016983451
59	0xbd18cb66	-0.03730335
60	0xbcc6a926	-0.024250578
61	0x3d1481e2	0.03625668
62	0xbccc5646	-0.024943482
63	0x3ce5aa4c	0.028035305
64	0x38572fa8	5.1304378e-05
65	0xbd4d0722	-0.05005563
66	0x3d3ce2c0	0.046114683
67	0x3d1a78e2	0.03771294
68	0xb62de7fb	-2.591404e-06
69	0x3c77400b	0.015090953
70	0x3a8f940f	0.0010954159
71	0x3cef7124	0.029228754
72	0xbd19857f	-0.037480827
73	0xb23b0035	-1.088488e-08
74	0x3d1327a0	0.03592646
75	0x3d457edb	0.048216682
76	0x3d3b650c	0.045750663
77	0x3d37d633	0.04488201
78	0x3cdd3315	0.027001897
79	0xb43a680e	-1.7360455e-07
80	0x3d422f38	0.047408313
81	0x3d10c580	0.0353446
82	0x3d2ce7f4	0.042213395
83	0xbd18a716	-0.03726872
84	0x3d13be57	0.036070194
85	0xbcd51a34	-0.026013471
86	0xb44a64a4	-1.8849329e-07
87	0xbd250a18	-0.04029283
88	0xbcedcdaa	-0.029028732
89	0x3d2ae5c1	0.041723017
90	0xbd05c806	-0.03266146
91	0xbd2e8608	-0.04260829
92	0xbd094ac0	-0.033518553
93	0xb142b025	-2.8330842e-09
94	0x35a7d4aa	1.2504363e-06
95	0xbd1551d8	-0.036455005
96	0xbd3897c2	-0.045066603
97	0x3d010905	0.031502742
98	0x3d1b18bb	0.03786538
99	0xbaea2d65	-0.0017866312
100	0x3d341818	0.04396829
101	0xbd444c0b	-0.047924083
102	0x36213213	2.4020017e-06
103	0xb2076304	-7.880548e-09
104	0xbd2911e1	-0.041276816
105	0xbd08ce61	-0.033399943
106	0x39be1817	0.00036257572
107	0x3bf7c0f9	0.007560846
108	0x39a866b1	0.00032119968
109	0xbd31122b	-0.043230217
110	0xbd852a10	-0.065021634
111	0x3d2fb420	0.04289639
112	0xbd346bf0	-0.04404825
113	0xbc91b5f0	-0.01778695
114	0x3ceed215	0.02915291
115	0x3d4bcb46	0.049754404
116	0xba2aeadc	-0.0006519982
117	0xbd086b35	-0.033305366
118	0x39d3d78a	0.00040405645
119	0xbd10e0fb	-0.035370808
120	0x3d44aa49	0.04801396
121	0x3adcd1ad	0.0016847156
122	0x38efab96	0.000114283685
123	0x3a156fde	0.00057005684
124	0x26269f4f	5.7808723e-16
125	0x3d3c7107	0.04600623
126	0x3d7222a9	0.059115086
127	0xbd313370	-0.043261945
128	0x3d2d3f27	0.042296555
129	0xbd2475a1	-0.040151242
130	0xbd2a6d2a	-0.041608013
131	0x3d108935	0.0352871
132	0xbcfd9eb2	-0.03095946
133	0xbd1b4157	-0.03790411
134	0xbd2ef666	-0.042715453
135	0x3d39bf9f	0.04534876
136	0xbd22044f	-0.03955489
137	0xbdda4e7d	-0.10659502
138	0xbd4ccc0c	-0.04999928
139	0x3d3d23b8	0.046176642
140	0x3d4a696f	0.049416956
141	0x3d2ca8d1	0.042153183
142	0x3d1bb917	0.038018312
143	0x3d36f138	0.044663638
144	0xbdc0d1e7	-0.09415036
145	0xbd123a7b	-0.035700303
146	0xbd2585a8	-0.040410668
147	0x3d0374b7	0.03209373
148	0xbd398de2	-0.045301326
149	0x3dbc89d4	0.09205976
150	0x3d2e3272	0.042528577
151	0xbd489b82	-0.04897643
152	0xbd260865	-0.04053535
153	0xbd31bc88	-0.043392688
154	0xbd4c2a31	-0.049844924
155	0xbdae9528	-0.08524543
156	0xbdc52154	-0.096254975
157	0x3d466444	0.048435465
158	0x3d3b7b48	0.045771867
159	0x3d09b9c2	0.033624418
160	0x3d45df3a	0.04830859
161	0x3da3515a	0.07974501
162	0xbd623a4a	-0.05523137
163	0xbd43fb82	-0.04784728
164	0xbd4a089b	-0.049324613
165	0xbdc2bc3e	-0.095085606
166	0xbd40b09c	-0.047043428
167	0xbd3c756a	-0.046010412
168	0xbd207a25	-0.039178986
169	0xbd413171	-0.04716629
170	0xbd503b55	-0.050837833
171	0xbd1652dd	-0.03670012
172	0x3d38c657	0.045111027
173	0xbd14b804	-0.036308303
174	0xbd242460	-0.040073752
175	0xbd4a97c2	-0.049461134
176	0xbd471f36	-0.04861375
177	0xbd1c6394	-0.038180903
178	0xbd224b20	-0.039622426
179	0xbd36a831	-0.044593994
180	0xbd4355ae	-0.047689132
181	0xbd3f2503	-0.046666157
182	0xbd3d8295	-0.04626711
183	0xbd25ebad	-0.04050796
184	0xbd07bb27	-0.033137467
185	0x3dc3aac8	0.09554058
186	0x3d38c228	0.045107037
187	0x3d3f852f	0.046757873
188	0x3d16a0a5	0.036774296
189	0xbd2eb446	-0.04265239
190	0x3d416190	0.047212183
191	0xbd3800fb	-0.04492281
192	0x38e60caf	0.00010969617
193	0x3ced6dfe	0.028983112
194	0xbd0d259a	-0.034459688
195	0xbd1400bf	-0.036133524
196	0x33cfafec	9.671189e-08
197	0x3d478c02	0.048717506
198	0x3a39dece	0.00070903904
199	0xbd3e8bdc	-0.0465201
200	0x3d3e7fb1	0.046508495
201	0xb13894be	-2.6860074e-09
202	0xbd411812	-0.047142096
203	0xbd038312	-0.03210742
204	0xbce6c7b5	-0.0281714
205	0xbcada92b	-0.02119883
206	0xbd90f5bc	-0.0707812
207	0xb451aa61	-1.9526625e-07
208	0xbc958f17	-0.018256707
209	0xbc5ca253	-0.0134664355
210	0xbd1dd511	-0.038533274
211	0x3d56deec	0.05245869
212	0xbd86ed22	-0.06588198
213	0x3d884a8c	0.06654844
214	0xb483b52d	-2.4532474e-07
215	0x3d3c9c73	0.04604764
216	0x3d1345f7	0.035955396
217	0xbd4924b9	-0.049107287
218	0x3d102585	0.03519203
219	0x3d26f0fc	0.040757164
220	0x3d125883	0.035728943
221	0xb3db2b04	-1.0205807e-07
222	0x3442e44e	1.8150715e-07
223	0x3d19589f	0.03743803
224	0x3d007516	0.03136166
225	0xbd0f0713	-0.034918856
226	0xbc92df25	-0.01792867
227	0xbb1793ac	-0.002312879
228	0xbc5079f4	-0.012724388
229	0x3c65d2af	0.014027282
230	0x35c265c2	1.4483742e-06
231	0xb1502ae2	-3.029236e-09
232	0x3d61668a	0.05502943
233	0x3d132909	0.035927806
234	0x39a0a10d	0.0003063757
235	0xbb5bb771	-0.0033526088
236	0x39857257	0.00025452927
237	0x3ca97e44	0.020690091
238	0x3c0d1af7	0.008612386
239	0xbc908fb8	-0.017646655
240	0x3d0f8bb4	0.03504534
241	0x3d29a14a	0.041413583
242	0xbcdd533f	-0.027017234
243	0xbcc74a83	-0.024327522
244	0x3982f712	0.00024979614
245	0x3d20c3b4	0.039249137
246	0x3923bd96	0.00015615518
247	0x3d2e05d5	0.04248603
248	0xbc8b68e7	-0.017017795
249	0x3a903ccb	0.0011004446
250	0x3886ac58	6.4217194e-05
251	0x3a408ee1	0.00073455094
252	0x27976cfd	4.2029085e-15
253	0xbc966be9	-0.018362002
254	0xbbb649eb	-0.005563011
255	0x3ce9d7f8	0.028545365

fc.bias f4 [2]
0	0x3f0dc3b9	0.55376774
1	0x3f53d6e5	0.8274978

onnx::LSTM_335 f4 [2, 512]
0	0x3b7cb5b6	0.0038560457
1	0x3b859679	0.0040767756
2	0x3b9f70d6	0.004865746
3	0x3d84bc82	0.064812675
4	0x3b564ec0	0.0032700747
5	0x3ba00a49	0.0048840386
6	0x3d6e6c2e	0.058208637
7	0x3bca7e5a	0.006179613
8	0x3b1781ea	0.0023118206
9	0x3b9bf080	0.0047588944
10	0x3b7bb6e1	0.0038408565
11	0xb5523d3b	-7.83202e-07
12	0x3bb3ed48	0.0054909326
13	0x3ba1f656	0.0049426956
14	0x3b92f8ca	0.0044852244
15	0x3b89ea35	0.004208828
16	0xba47e482	-0.0007625298
17	0x3b89c5ba	0.004204479
18	0x3b29f861	0.00259354
19	0x3bc08ad1	0.005875923
20	0x3b494430	0.003071081
21	0xb6f12702	-7.186901e-06
22	0xb72c7a0f	-1.0280418e-05
23	0x3b6b1b03	0.0035874255
24	0x3b748c0f	0.0037314927
25	0x3b5982a9	0.0033189452
26	0x3b7bc061	0.0038414227
27	0x3ba31862	0.004977272
28	0x3b99cf40	0.0046938956
29	0x3b9a1ee5	0.00470339
30	0x3bba0832	0.0056772465
31	0x3b0f4ce8	0.0021865908
32	0x3b72f080	0.0037069619
33	0x3bad0e90	0.005281277
34	0x3b7ceed2	0.0038594496
35	0x3b80d40e	0.003931529
36	0xb7be64df	-2.2696737e-05
37	0x3b95b507	0.0045686993
38	0x3b9e718a	0.0048353123
39	0x3b81ae95	0.0039575794
40	0x3de86b6b	0.11348613
41	0x3b7943ad	0.0038034723
42	0x3b8872dd	0.0041640834
43	0x3b70df4e	0.0036754194
44	0x3b9e8135	0.00483718
45	0xb8cf9846	-9.898892e-05
46	0xb6ea05c7	-6.974416e-06
47	0x3b9e3c41	0.00482896
48	0x3e6388a0	0.22220087
49	0xba24cc08	-0.00062865065
50	0x3b86a6db	0.004109246
51	0x3b53c3b7	0.00323127
52	0xbaa66c01	-0.0012696983
53	0x3afd2f30	0.0019316431
54	0x3ab651bc	0.0013909857
55	0x3bdbbd89	0.006705944
56	0x3baa2c58	0.0051932745
57	0x3b852293	0.0040629595
58	0x3b8e2b43	0.0043386533
59	0x3b83a1a3	0.0040170713
60	0x3bbdc708	0.0057915486
61	0x3b54f289	0.0032493195
62	0x3b967f56	0.0045928163
63	0x3b9318eb	0.0044890544
64	0x3b7ca29c	0.0038549071
65	0x3b8594cd	0.0040765763
66	0x3b9f61ff	0.004863977
67	0x3d854929	0.06508095
68	0x3b5635a6	0.0032685786
69	0x3b9ffd2a	0.0048824744
70	0x3d6f46a3	0.058416974
71	0x3bca5cec	0.006175628
72	0x3b176d79	0.0023106022
73	0x3b9be2e3	0.0047572716
74	0x3b7ba96d	0.0038400546
75	0xb5520efa	-7.825289e-07
76	0x3bb3f64f	0.0054920088
77	0x3ba1d660	0.0049388856
78	0x3b92d9e8	0.004481543
79	0x3b89d683	0.00420648
80	0xba47e6a4	-0.00076256157
81	0x3b89b13d	0.0042020367
82	0x3b29dcc0	0.002591893
83	0x3bc0885f	0.0058756317
84	0x3b491fca	0.0030689114
85	0xb6f135c9	-7.188621e-06
86	0xb72cfcac	-1.0310829e-05
87	0x3b6af82a	0.0035853484
88	0x3b74626b	0.0037290107
89	0x3b596c9e	0.0033176313
90	0x3b7ba6b9	0.0038398935
91	0x3ba30590	0.0049750283
92	0x3b99c13c	0.004692225
93	0x3b9a1547	0.0047022435
94	0x3bba20a0	0.0056801587
95	0x3b0f4096	0.0021858565
96	0x3b72e8e6	0.0037065088
97	0x3bacf54f	0.0052782665
98	0x3b7cb1f0	0.0038558207
99	0x3b80c826	0.0039301096
100	0xb7be66d1	-2.2697643e-05
101	0x3b95af7a	0.0045680376
102	0x3b9e5b14	0.0048326347
103	0x3b819b60	0.0039552897
104	0x3dfe14c7	0.12406307
105	0x3b7909e1	0.0038000273
106	0x3b885e20	0.004161611
107	0x3b70cdd0	0.0036743768
108	0x3b9e6eab	0.00483497
109	0xb8cf89ca	-9.8961944e-05
110	0xb6e9f2e2	-6.9722164e-06
111	0x3b9e214d	0.004825747
112	0x3e96eb6b	0.29476485
113	0xba24d04f	-0.0006287144
114	0x3b868e5b	0.0041063256
115	0x3b5392da	0.0032283575
116	0xbaa66e01	-0.0012697579
117	0x3afcd1ba	0.0019288578
118	0x3ab62f17	0.0013899532
119	0x3bdb9d40	0.0067020953
120	0x3baa21de	0.0051920256
121	0x3b8520c4	0.004062744
122	0x3b8e36c0	0.004340023
123	0x3b839648	0.0040157177
124	0x3bbdd92f	0.0057937126
125	0x3b54e33d	0.0032484077
126	0x3b9679c2	0.0045921514
127	0x3b931311	0.004488357
128	0x3b39b11f	0.0028334332
129	0x3b62a23f	0.003458157
130	0x3b753c7b	0.0037420082
131	0x3d29cdef	0.04145616
132	0x3b1510c7	0.0022745596
133	0x3b75e6f3	0.003752169
134	0x3d14bb3f	0.036311384
135	0x3bad3ae8	0.005286563
136	0x3ad8706b	0.0016512995
137	0x3b7b0593	0.0038302883
138	0x3b427d64	0.002967679
139	0xb55d5904	-8.245845e-07
140	0x3b98df1f	0.00466527
141	0x3b82ef08	0.00399578
142	0x3b5bfb2e	0.0033566463
143	0x3b4e2232	0.0031453487
144	0xba4a17d3	-0.00077092386
145	0x3b55c4ff	0.003261864
146	0x3b049c10	0.0020234622
147	0x3b94e7a1	0.004544214
148	0x3b071483	0.0020611591
149	0xb7044eca	-7.886158e-06
150	0xb71d8255	-9.3882745e-06
151	0x3b262c03	0.0025355823
152	0x3b350ec0	0.00276272
153	0x3b25c23c	0.0025292775
154	0x3b2d893d	0.0026479505
155	0x3b7777c1	0.0037760588
156	0x3b69fb53	0.003570278
157	0x3b6cc6ba	0.0036129192
158	0x3b9ba575	0.0047499486
159	0x3ac6a40c	0.0015155091
160	0x3b386dc8	0.0028141607
161	0x3b806183	0.0039178743
162	0x3b2b5111	0.0026140849
163	0x3b45438f	0.0030100083
164	0xb7c47bdd	-2.3422699e-05
165	0x3b6cf06c	0.0036154045
166	0x3b81f14e	0.0039655333
167	0x3b33891c	0.0027394956
168	0x3ce8544f	0.028360514
169	0x3b43f2a6	0.0029899268
170	0x3b669180	0.003518194
171	0x3b246efe	0.002509057
172	0x3b864ecd	0.0040987493
173	0xb8d2ea7b	-0.00010057256
174	0xb6eba0e9	-7.022278e-06
175	0x3b7f26cc	0.0038933037
176	0x3eac7bf1	0.3368831
177	0xba243d2c	-0.0006265219
178	0x3b5cb73c	0.0033678552
179	0x3b0a7733	0.0021128177
180	0xbaa48e4b	-0.0012554614
181	0x3a95e753	0.0011436738
182	0x3a0f12d8	0.0005457825
183	0x3bb3e5fb	0.0054900623
184	0x3b816343	0.0039486005
185	0x3b5338a1	0.0032229798
186	0x3b557e18	0.0032576378
187	0x3b505863	0.0031790964
188	0x3ba6f68c	0.0050953086
189	0x3b1dd2b4	0.0024081888
190	0x3b85bba3	0.004081206
191	0x3b7788d7	0.0037770772
192	0x3b2f3e13	0.002673988
193	0x3a32221b	0.0006795243
194	0x3b4472b5	0.0029975597
195	0x3d77674e	0.060401253
196	0x3b7e5684	0.0038808892
197	0x3a235b1e	0.0006231534
198	0xbd6fa848	-0.058510095
199	0xbb03f104	-0.002013267
200	0xbb673352	-0.0035278392
201	0xba365299	-0.0006955057
202	0x3ae4fc14	0.0017470145
203	0x385a0b61	5.1985848e-05
204	0xbaded311	-0.0017000159
205	0xbb48a14d	-0.003061372
206	0xba2d0593	-0.0006600257
207	0x3b2a829f	0.0026017798
208	0x3b95e738	0.0045746826
209	0xbb1a59b0	-0.0023551993
210	0x3ac9a686	0.0015384711
211	0xb994640a	-0.00028303295
212	0xbb48cb2e	-0.0030638683
213	0x39a42073	0.00031304694
214	0xb8258f84	-3.9472725e-05
215	0x3a64ddce	0.0008730561
216	0x3b0574cd	0.0020363808
217	0x3b50fb0d	0.003188792
218	0xbbaa3953	-0.005194822
219	0x3a875919	0.0010326236
220	0xbaf1e0fb	-0.001845389
221	0xbae9a20d	-0.0017824784
222	0x3a8bf569	0.0010677996
223	0x3b27bc9c	0.0025594598
224	0x39768683	0.00023510498
225	0xbb1ed01c	-0.002423293
226	0xbb1ba073	-0.0023746758
227	0xbb8b5f92	-0.004253336
228	0xb9269ea7	-0.00015890096
229	0x3a78623b	0.00094750867
230	0xbb40855d	-0.0029376366
231	0xba7b2f9a	-0.00095819833
232	0xbdc748c0	-0.09730673
233	0x3af9f859	0.0019071206
234	0x3aa56674	0.0012619034
235	0x3b30b545	0.0026963514
236	0x3b0816cc	0.002076554
237	0xbacb7440	-0.0015522316
238	0xb9bb3e12	-0.00035713665
239	0xb913603e	-0.00014054865
240	0x3d8079ad	0.06273208
241	0xbb6ad1c0	-0.0035830587
242	0xbb48a800	-0.0030617714
243	0x3b42db5e	0.0029732804
244	0xb8b22352	-8.49428e-05
245	0x3a837b78	0.0010031303
246	0xbb45dabd	-0.0030190193
247	0xbb32d1b0	-0.0027285628
248	0x3b2b7dcc	0.002616751
249	0x3976ecc2	0.00023548587
250	0x3a45aba5	0.00075405306
251	0xba02162c	-0.00049624103
252	0xbaf68a70	-0.0018809568
253	0xbabfdfe7	-0.0014638872
254	0xbb1cd649	-0.0023931435
255	0xba946d0a	-0.0011324

onnx::LSTM_336 f4 [2, 256, 6]
0	0x3a175a64	0.0005773662
1	0x3a874859	0.0010321244
2	0x394f0049	0.00019741165
3	0x3b228700	0.0024799705
4	0x3b17d786	0.0023169233
5	0x3a60a928	0.0008570128
6	0xb97a0183	-0.00023842421
7	0xb94662f8	-0.0001891962
8	0xba70f1ef	-0.00091913244
9	0x3af4f1d5	0.0018687794
10	0x3b1fc3c3	0.0024378158
11	0x3a4a84fa	0.00077255035
12	0x3a16785e	0.0005739982
13	0x3a83b78c	0.0010049208
14	0x391dbfcb	0.00015044135
15	0x3b36950e	0.002785984
16	0x3b45b712	0.0030168933
17	0x3a926377	0.0011168559
18	0x3caea8d4	0.021320738
19	0x3cd53d83	0.026030308
20	0x3d045f42	0.032317407
21	0x3ce6aff6	0.028160077
22	0x3cd671c1	0.026177289
23	0x3cf62ab1	0.030049654
24	0x399aad7d	0.00029502428
25	0x3a33d697	0.00068602845
26	0x3887661b	6.45632e-05
27	0x3b083748	0.0020784903
28	0x3b0b16cb	0.0021223302
29	0x39d37395	0.00040331171
30	0x39cdcf49	0.00039255086
31	0x3ace6b31	0.0015748498
32	0x393e3dbe	0.00018142813
33	0x3b1f02d9	0.0024263172
34	0x3b2328a0	0.002489604
35	0x3aa91d6d	0.0012902446
36	0x3ca915e5	0.020640323
37	0x3cc7d459	0.024393247
38	0x3ceed12d	0.029152477
39	0x3cd8c27e	0.026459929
40	0x3cca556a	0.024698932
41	0x3ce852df	0.028359829
42	0x3a8cc185	0.0010738826
43	0x3aa7d72d	0.0012805216
44	0x39d04345	0.0003972297
45	0x3b671f94	0.0035266625
46	0x3b76242a	0.0037558177
47	0x3b060d07	0.0020454542
48	0x38920f32	6.964653e-05
49	0x3a0e3e3b	0.0005426143
50	0xb8e79b1d	-0.000110438305
51	0x3ad02360	0.0015879683
52	0x3ac05d3b	0.0014676222
53	0x3934fe9c	0.00017260987
54	0x3a568e74	0.00081846793
55	0x3ab051ae	0.0013452077
56	0x3a08c21a	0.00052169117
57	0x3b383264	0.0028106207
58	0x3b44c2da	0.0030023367
59	0x3abb1a51	0.0014274811
60	0x3a270cc4	0.00063724467
61	0x3aa3716e	0.0012469718
62	0x39f432b1	0.00046577075
63	0x3b2615f2	0.002534267
64	0x3b19c655	0.0023464162
65	0x3a775ffb	0.00094366045
66	0xb4d8f53a	-4.041156e-07
67	0xb44655d0	-1.8471405e-07
68	0xb4d75012	-4.010513e-07
69	0xb4a6cfc3	-3.1071076e-07
70	0xb4b32713	-3.3369778e-07
71	0xb4fe4580	-4.7361755e-07
72	0x3aa36510	0.0012466032
73	0x3ad58773	0.0016290977
74	0x3a833755	0.0010010997
75	0x3b6b701f	0.0035924984
76	0x3b769c91	0.0037629942
77	0x3ae67255	0.0017581681
78	0x3a2d1740	0.0006602891
79	0x3ac679f1	0.0015142543
80	0x3a07e916	0.0005184574
81	0x3b4a2bf1	0.0030848945
82	0x3b4926f8	0.0030693393
83	0x3ab8ad0b	0.0014089657
84	0x39cac8fc	0.00038678187
85	0x3a559e74	0.00081489165
86	0x39342aba	0.00017182055
87	0x3b2c5857	0.0026297772
88	0x3b38ad09	0.002817931
89	0x3aa4e44a	0.0012580242
90	0x3a2c1175	0.00065638806
91	0x3aa5ed23	0.0012659173
92	0x394d47c3	0.00019577057
93	0x3b2e8ca5	0.0026634124
94	0x3b186b5d	0.0023257353
95	0x3a803592	0.000978159
96	0xb9be6cd1	-0.000363207
97	0xb993de37	-0.00028203588
98	0xb9b3cb0c	-0.00034292822
99	0xb9ad06bb	-0.00033002146
100	0xb98e076a	-0.00027089874
101	0xb9e42796	-0.00043517043
102	0x3a604e90	0.00085566286
103	0x3adc0998	0.0016787527
104	0x39f9c33f	0.0004763845
105	0x3b348ad5	0.002754857
106	0x3b2cf09f	0.0026388539
107	0x3a9f4f4b	0.0012154368
108	0x39314274	0.00016904791
109	0x3a17fd06	0.00057978963
110	0x38acbb6f	8.236511e-05
111	0x3adb9560	0.0016752891
112	0x3ae75f5f	0.0017652324
113	0x3a5141a9	0.00079825014
114	0x3a091e7f	0.00052306795
115	0x3a1d4cb1	0.00060005026
116	0xb8168792	-3.5889047e-05
117	0x3b4c65f2	0.0031188694
118	0x3b652729	0.0034965968
119	0x3ac9f648	0.001540848
120	0x38d230cf	0.000100226716
121	0x3a4dc88a	0.0007850012
122	0x38179682	3.6141377e-05
123	0x3af033e7	0.0018326015
124	0x3ad938ec	0.001657275
125	0x399cda43	0.00029917256
126	0xb6734f95	-3.6256145e-06
127	0xb6853033	-3.96932e-06
128	0xb673ec67	-3.6347426e-06
129	0xb664e0da	-3.4105528e-06
130	0xb684ca64	-3.957468e-06
131	0xb698ee0c	-4.5576653e-06
132	0x34e03fb8	4.1769613e-07
133	0x3697e6e8	4.5270317e-06
134	0x356a02a7	8.717565e-07
135	0x35dc6d96	1.6423171e-06
136	0x35256417	6.161294e-07
137	0x32d461c8	2.4724514e-08
138	0x3a1b5755	0.0005925794
139	0x3a97d97e	0.0011585203
140	0x39f5737c	0.00046816084
141	0x3b164036	0.0022926456
142	0x3b0ed78e	0.002179596
143	0x3a5fcaed	0.0008537013
144	0x3a0317c1	0.0005000793
145	0x3aa120d2	0.0012293106
146	0x398d3eed	0.000269405
147	0x3b1aa7d5	0.002359857
148	0x3b12a818	0.0022378024
149	0x3a668b67	0.0008794576
150	0x39ec59fd	0.00045080474
151	0x3a6905f2	0.00088891305
152	0x399e1689	0.00030152898
153	0x3b0a32b5	0.0021087353
154	0x3b03f40b	0.0020134475
155	0x3a30fecc	0.0006751835
156	0x39702de6	0.00022905282
157	0x3a6613e5	0.0008776768
158	0x3983feef	0.00025176207
159	0x3b161131	0.002289843
160	0x3b088572	0.0020831493
161	0x39c5a914	0.0003770074
162	0x3a843128	0.001008545
163	0x3adf6d8d	0.0017046198
164	0x3a44c865	0.0007506668
165	0x3b4498d5	0.0029998322
166	0x3b463203	0.0030242212
167	0x3abe71f7	0.0014529814
168	0x3a94b676	0.0011345882
169	0x3af96401	0.0019026996
170	0x3a6f91d1	0.0009138855
171	0x3b408b31	0.002937984
172	0x3b31a167	0.002710426
173	0x3ab46bf0	0.0013765078
174	0x3712d23d	8.751228e-06
175	0x3a2b31ed	0.0006530572
176	0xb99452d4	-0.00028290472
177	0x3b1a1f3f	0.002351716
178	0x3b299c4f	0.002588052
179	0x3a81b210	0.0009894986
180	0x3a708957	0.00091757387
181	0x3a65c4da	0.000876499
182	0x393dedb5	0.00018112997
183	0x3b4f829c	0.0031663543
184	0x3b5269be	0.0032106484
185	0x3ae198c9	0.0017211671
186	0xba645188	-0.0008709659
187	0xb97ca68d	-0.00024094638
188	0xba83ab12	-0.001004549
189	0x3a76d08d	0.0009415232
190	0x3a821c87	0.0009926715
191	0xb98d480c	-0.00026947295
192	0xb9b85ec5	-0.00035165824
193	0x392521a4	0.00015748158
194	0xba51849c	-0.00079924776
195	0x3ad1f1a2	0.0016017447
196	0x3ae6e5bf	0.0017616077
197	0x39f23620	0.00046198163
198	0x3aab4406	0.0013066537
199	0x3b038a43	0.0020071424
200	0x3a9e8c43	0.0012096245
201	0x3b58c3cf	0.0033075695
202	0x3b4437aa	0.0029940405
203	0x3add517a	0.0016885244
204	0x392f8e01	0.00016742201
205	0x3a82e780	0.0009987205
206	0x3955264a	0.00020327527
207	0x3b121e48	0.002229588
208	0x3b166184	0.0022946307
209	0x3a168c7d	0.000574298
210	0x3a4bad9c	0.0007769705
211	0x3ab06960	0.0013459139
212	0x3a1b8551	0.00059326465
213	0x3b27ae86	0.0025586202
214	0x3b1ab33f	0.0023605374
215	0x3a50de51	0.0007967698
216	0xb7250ebd	-9.838198e-06
217	0xb71c9643	-9.33331e-06
218	0xb72d529c	-1.03308375e-05
219	0xb7137f9d	-8.791595e-06
220	0xb726ffc7	-9.953924e-06
221	0xb74b7f9f	-1.2129457e-05
222	0x3a65782b	0.0008753563
223	0x3ab3124a	0.0013662067
224	0x3a315f87	0.0006766249
225	0x3b3d25de	0.0028861682
226	0x3b330882	0.0027318303
227	0x3a9b9879	0.0011871002
228	0x3a57f514	0.00082381186
229	0x3ab5155a	0.0013815567
230	0x39ff0a93	0.00048645269
231	0x3b3ccef4	0.0028809877
232	0x3b39cc95	0.00283507
233	0x3a9e8843	0.0012095053
234	0xb989f6f1	-0.00026314662
235	0x394936f4	0.00019189325
236	0xb9adb52a	-0.0003313211
237	0x3af8b92a	0.0018976082
238	0x3b02d619	0.0019964038
239	0x395a2a59	0.00020805876
240	0x3d34fc94	0.04418619
241	0x3dcfb7f6	0.1014251
242	0x3e4fd156	0.20294699
243	0x3e1b6329	0.15174545
244	0xbd8d5161	-0.069002874
245	0x3e850322	0.25978953
246	0x3a314856	0.0006762793
247	0x3a8aea72	0.0010598435
248	0x39983f1d	0.00029038722
249	0x3b18056e	0.0023196596
250	0x3b1f89ba	0.0024343566
251	0x3aa45ada	0.0012539283
252	0x3a66ad58	0.0008799634
253	0x3af135ca	0.0018402871
254	0x3a1022bc	0.000549834
255	0x3b2c346f	0.002627637

onnx::LSTM_337 f4 [2, 256, 64]
0	0xb99e892a	-0.00030238304
1	0x399a5429	0.00029435873
2	0xb9a32bed	-0.0003112251
3	0x399ab7cb	0.00029510105
4	0xb9a17572	-0.00030795817
5	0xb9a98508	-0.00032333308
6	0xb9a3b637	-0.00031225543
7	0x39ad9595	0.0003310858
8	0x398cc653	0.00026850644
9	0x39ab7031	0.0003269925
10	0xb9a40fab	-0.0003129219
11	0x3696ac75	4.490425e-06
12	0x39ab0c52	0.0003262484
13	0x39afa225	0.00033499408
14	0x39afe47c	0.00033548835
15	0xb9ab77f1	-0.00032705025
16	0xb97fdd54	-0.00024401146
17	0x39a2d8a6	0.00031060464
18	0xb9a0f4ee	-0.00030700065
19	0xb9acb698	-0.0003294244
20	0x3998b9a9	0.00029130027
21	0x370b1671	8.290271e-06
22	0xb75118a1	-1.2463105e-05
23	0xb9af78e9	-0.00033468686
24	0xb9960da9	-0.00028620407
25	0xb991d2cb	-0.00027813608
26	0x39992b6d	0.0002921479
27	0xb9ad4c3b	-0.00033053927
28	0x39ad75b9	0.00033084842
29	0x39989b63	0.0002910747
30	0x39b6ec0b	0.0003488961
31	0xb9928252	-0.00027944386
32	0x399e2823	0.00030166013
33	0x39b176a8	0.00033848477
34	0x39a88299	0.0003214076
35	0x3994a0f2	0.00028348673
36	0xb79432cd	-1.766663e-05
37	0xb9a9eef1	-0.00032412217
38	0x39a4bc30	0.00031420728
39	0x39a42758	0.0003130983
40	0x3a72bf85	0.0009260106
41	0xb9af8fa7	-0.0003348563
42	0xb9a3e8bd	-0.00031263186
43	0xb9a20529	-0.00030902892
44	0xb999337d	-0.00029220796
45	0x38d339ab	0.000100720055
46	0x37e1c0da	2.6911894e-05
47	0x39a682b4	0.0003175937
48	0x3a50782b	0.0007952477
49	0x3973a997	0.00023237463
50	0x39ac0f99	0.00032818018
51	0xb99cace5	-0.00029883455
52	0x39a77ab5	0.00031944146
53	0xb99ff246	-0.0003050735
54	0x3987f89b	0.00025934432
55	0x39b22cf6	0.00033984304
56	0xb9abbe93	-0.0003275765
57	0xb9aa27ca	-0.00032454572
58	0xb9a8c700	-0.00032191724
59	0x39ad1e38	0.00033019646
60	0x39b16845	0.00033837758
61	0x39a20964	0.00030906044
62	0x39b27f88	0.00034045824
63	0x39a3b570	0.00031224964
64	0xb9d8d99b	-0.0004136086
65	0x39f06d77	0.00045857925
66	0xb9d782ff	-0.00041105595
67	0x3a0324c8	0.0005002734
68	0xb9df0bb1	-0.00042542585
69	0xba02f0ac	-0.00049949693
70	0xba0891f2	-0.0005209736
71	0x3a021d2c	0.00049634534
72	0x39af3e0b	0.00033424827
73	0x3a01e875	0.0004955598
74	0xb9ca145a	-0.00038543605
75	0x36903548	4.297737e-06
76	0x39f20d50	0.00046167755
77	0x39e0a6c6	0.00042848865
78	0x39eacbc5	0.00044783778
79	0xb9ddfd5a	-0.00042341166
80	0xb96a8854	-0.00022366765
81	0x39cb2ffe	0.00038754934
82	0xb9ce9c8f	-0.00039408027
83	0xba1021fb	-0.00054982275
84	0x39c45aca	0.00037451676
85	0x3769c35b	1.3933367e-05
86	0xb76bc066	-1.4051888e-05
87	0xb9e46e5e	-0.0004356978
88	0xb9e7ccb9	-0.00044212284
89	0xb99b6491	-0.00029638832
90	0x39bef890	0.00036424818
91	0xb9fb3833	-0.00047916322
92	0x39f8ac30	0.00047430536
93	0x39ecf189	0.00045193385
94	0x3a0bb0cb	0.00053287734
95	0xb9c555c9	-0.00037638683
96	0x3a03eed4	0.00050328416
97	0x39ecf624	0.00045196817
98	0x39ff57a6	0.00048702693
99	0x39bf9b77	0.0003654619
100	0xb7d39f6f	-2.5227402e-05
101	0xb9e4bd9f	-0.00043628828
102	0x39d34b54	0.0004030118
103	0x39fded91	0.0004843292
104	0x3ae76b45	0.001765587
105	0xb9e5b0d7	-0.0004381004
106	0xb9e8369f	-0.00044291184
107	0xb9e8fc92	-0.00044438668
108	0xb9dbaee3	-0.00041901236
109	0x38c9206f	9.590468e-05
110	0x37d9e1e3	2.5973603e-05
111	0x39ec6fca	0.00045096717
112	0x3b427b7a	0.0029675649
113	0x395ce76b	0.00021067045
114	0x39dcbc60	0.0004210202
115	0xb9db51d5	-0.00041831905
116	0x39c563bf	0.00037649085
117	0xb9e3b3c8	-0.0004343076
118	0x3995424c	0.0002846889
119	0x39f6d026	0.0004707586
120	0xb9f6eb35	-0.0004709602
121	0xb9ffa45b	-0.00048759845
122	0xba08707e	-0.0005204751
123	0x3a07efc5	0.000518557
124	0x3a025685	0.0004971999
125	0x39d51153	0.00040639433
126	0x39f368a9	0.0004642655
127	0x39ea00d7	0.00044632584
128	0xba0b48f3	-0.00053132995
129	0x3a04df09	0.0005068635
130	0xba07d6d0	-0.0005181851
131	0x39eb42e7	0.0004487254
132	0xba07ea4d	-0.0005184755
133	0xba12527a	-0.0005581748
134	0xb9fbd88b	-0.00048035788
135	0x3a168763	0.000574222
136	0x39f1f0d8	0.00046146545
137	0x3a0f939e	0.0005477014
138	0xba0b1f2a	-0.0005307073
139	0x36782794	3.6977917e-06
140	0x3a10dfb6	0.00055264996
141	0x3a115cf1	0.00055451604
142	0x3a137ef8	0.0005626525
143	0xba0f5d57	-0.0005468926
144	0xb94fece7	-0.00019829311
145	0x3a05eff7	0.0005109305
146	0xba040b49	-0.0005037082
147	0xba10ff6a	-0.0005531224
148	0x3a01056e	0.00049217686
149	0x3713c723	8.808248e-06
150	0xb7b82622	-2.1952266e-05
151	0xba0d61df	-0.0005393307
152	0xba01a537	-0.00049455784
153	0xb9f2a2d3	-0.0004627915
154	0x3a03d415	0.0005028856
155	0xba149078	-0.00056672795
156	0x3a0d49e5	0.0005389734
157	0x3a083626	0.0005196057
158	0x3a1a87d6	0.0005894875
159	0xb9fddb3a	-0.00048419257
160	0x3a0575fb	0.0005091128
161	0x3a13faa8	0.00056449557
162	0x3a0ecc44	0.0005447308
163	0x39f9c126	0.00047636888
164	0xb7a2dd9b	-1.9415098e-05
165	0xba0e697c	-0.00054325885
166	0x3a0b0842	0.000530366
167	0x3a0bf347	0.00053386803
168	0x3a40193a	0.0007327978
169	0xba0f07c9	-0.0005456177
170	0xba06e848	-0.0005146307
171	0xba09d2b1	-0.0005257531
172	0xba068cbb	-0.0005132665
173	0x38b5955c	8.658573e-05
174	0x37c22763	2.3144943e-05
175	0x3a0f2709	0.0005460834
176	0x39168c74	0.00014357438
177	0x39499245	0.00019223343
178	0x3a0a7dfa	0.0005283054
179	0xba022f0e	-0.0004966118
180	0x39b5f672	0.00034706626
181	0xba033656	-0.000500535
182	0x39ea6638	0.00044708117
183	0x3a144cd2	0.0005657199
184	0xba14b4cc	-0.0005672693
185	0xba0cfa87	-0.00053779077
186	0xba0d2a4e	-0.0005385027
187	0x3a10eb07	0.0005528186
188	0x3a16c410	0.00057512615
189	0x3a060221	0.00051120116
190	0x3a14bac9	0.0005673585
191	0x3a08f574	0.00052245636
192	0xbaa1a1ca	-0.0012331542
193	0x3a895e60	0.0010480396
194	0xba92a060	-0.0011186711
195	0xba6dd63e	-0.0009072757
196	0xba8d4be8	-0.0010780068
197	0xbae9c8b2	-0.0017836301
198	0x3a318591	0.0006771917
199	0x3abb17c3	0.0014274049
200	0x3a710401	0.0009194017
201	0x3ab87a62	0.0014074559
202	0xba8ffccd	-0.0010985375
203	0xb7072bf5	-8.056862e-06
204	0x3a946bf4	0.0011323676
205	0x3a9766a5	0.0011550976
206	0x3a9b2406	0.0011836297
207	0xbaa44ba2	-0.0012534747
208	0x3a4f6b21	0.0007912387
209	0x3a907928	0.0011022436
210	0xba999b07	-0.0011719175
211	0xbab585ed	-0.0013849117
212	0x3a9884ae	0.0011636221
213	0x3778bfda	1.4826621e-05
214	0xb8cf460b	-9.883576e-05
215	0xbaadc5cd	-0.0013257802
216	0xbaa0b740	-0.0012261644
217	0xba500358	-0.00079350686
218	0x3a875964	0.0010326323
219	0xbac62dde	-0.0015119871
220	0x3ab35dd5	0.001368458
221	0x3aa50789	0.0012590747
222	0x3abfba55	0.0014627675
223	0xba900d7c	-0.0010990347
224	0x3ac04d0b	0.0014671398
225	0x3ac07edb	0.0014686243
226	0x3ab5fa2d	0.0013883762
227	0x3a6ac1fd	0.0008955298
228	0xb7c0cc52	-2.2983328e-05
229	0xbaa1545d	-0.0012308467
230	0x3a9cdebc	0.0011968235
231	0x3ab83962	0.0014055187
232	0x3bbae024	0.005702989
233	0xbab2ae9d	-0.0013632361
234	0xbab4ec34	-0.0013803304
235	0xba9ab070	-0.001180185
236	0xba8ac92d	-0.001058852
237	0xb93e8b50	-0.0001817171
238	0xb84fa94c	-4.9510316e-05
239	0x3ac81570	0.0015265178
240	0x3d3e73b9	0.04649708
241	0xba2aafb9	-0.000651117
242	0x3a989ef0	0.0011644047
243	0xbaac5faa	-0.0013151069
244	0x3a226b48	0.0006195796
245	0xbaa5263b	-0.0012599895
246	0x3a684e85	0.0008861798
247	0x3aa1980a	0.0012328636
248	0xbaa8de1b	-0.0012883575
249	0xbaab14f8	-0.0013052514
250	0xbaae50f2	-0.001329927
251	0x3ab6db94	0.0013950937
252	0x3a911784	0.001106963
253	0x3a896df8	0.0010485044
254	0x3aa5e74d	0.0012657434
255	0x3aa1b3f6	0.0012336958

onnx::LSTM_378 f4 [2, 512]
0	0x390e00b3	0.00013542436
1	0xb98d8375	-0.0002699156
2	0x3af0bfda	0.0018367723
3	0x3a2dd23b	0.0006630753
4	0xb9c3e3ae	-0.00037362933
5	0x3a3926be	0.0007062963
6	0x3b0cd418	0.0021488722
7	0x3b495712	0.0030722064
8	0x3a710b58	0.0009195111
9	0x3c18ace6	0.009318566
10	0x3a572039	0.00082064007
11	0xb9c3ae5c	-0.00037323206
12	0xba48aeef	-0.00076554617
13	0x3aef9214	0.0018277788
14	0x3adac814	0.0016691708
15	0x39cbe86c	0.00038892345
16	0x3c0f60dd	0.008751121
17	0xb874e777	-5.83897e-05
18	0x3a4137ae	0.00073706626
19	0xba8236c1	-0.0009934531
20	0x3a2de65c	0.00066337525
21	0x3be20ac9	0.0068982583
22	0x3a7590bb	0.0009367575
23	0x3ae4b2ad	0.0017448269
24	0x3a3ce226	0.00072053296
25	0x3b18d6c9	0.0023321381
26	0x3b13084a	0.002243536
27	0x3c077678	0.008267991
28	0x3c2ff10a	0.010738621
29	0x3ad6de34	0.0016393126
30	0x3ac1ab4d	0.0014775783
31	0xbb270d40	-0.0025490075
32	0x3b1f9e35	0.0024355773
33	0x3ba2e8b9	0.0049715904
34	0x3b010ee5	0.0019692716
35	0x3a76b64a	0.00094113185
36	0x39aea212	0.00033308618
37	0x3bb05af5	0.0053819367
38	0x3afe3738	0.0019395119
39	0x39af7199	0.00033463238
40	0x3a85b66f	0.0010201464
41	0x399ad8b2	0.0002953462
42	0x3b7738b7	0.0037723014
43	0x3a9090b6	0.0011029455
44	0x39ea1ef8	0.00044655032
45	0x36f0bbaf	7.1744066e-06
46	0xb82c9747	-4.1148884e-05
47	0x3ae7978c	0.0017669066
48	0x39816424	0.00024679408
49	0x3acf5c58	0.0015820367
50	0x3a7a45f3	0.00095471664
51	0x3a8c4acd	0.0010703445
52	0x3b490f3f	0.0030679253
53	0x39d7decf	0.00041174
54	0x3a687ac2	0.000886839
55	0x3951d845	0.0002001236
56	0x399ad87c	0.00029534462
57	0x3c3a5fc9	0.011375376
58	0xbb123d09	-0.0022314212
59	0x3b359fd5	0.0027713676
60	0xbaa1b548	-0.0012337351
61	0x3a74387b	0.00093162776
62	0x3b1e16a0	0.0024122372
63	0x398fba87	0.0002741406
64	0x390c9b50	0.00013409299
65	0xb98f0c76	-0.0002728437
66	0x3af04421	0.0018330851
67	0x3a2d14f4	0.00066025485
68	0xb9c48450	-0.00037482614
69	0x3a38a1c4	0.0007043148
70	0x3b0ca040	0.002145782
71	0x3b4892ad	0.0030605004
72	0x3a6eabf4	0.00091046025
73	0x3c18d464	0.009327982
74	0x3a556298	0.0008139997
75	0xb9c5b2e4	-0.00037708052
76	0xba492bcc	-0.0007674068
77	0x3aef2da5	0.0018247856
78	0x3ada5775	0.0016658144
79	0x39cb857d	0.00038818634
80	0x3c0f6111	0.00875117
81	0xb8795c62	-5.9452264e-05
82	0x3a40e928	0.0007358962
83	0xba828093	-0.0009956531
84	0x3a2d40a0	0.0006609056
85	0x3be226d1	0.0069016
86	0x3a742150	0.0009312825
87	0x3ae43b8f	0.0017412769
88	0x3a3c52c5	0.00071839645
89	0x3b18bcb3	0.0023305833
90	0x3b12c506	0.0022395267
91	0x3c0769f5	0.008265008
92	0x3c3000c4	0.01074237
93	0x3ad66a88	0.0016358653
94	0x3ac17343	0.0014759082
95	0xbb2730ca	-0.0025511258
96	0x3b1f64cc	0.0024321554
97	0x3ba30ccb	0.0049758903
98	0x3b00fcaf	0.001968186
99	0x3a768378	0.00094037456
100	0x39ad3e86	0.00033043715
101	0x3bb045ae	0.0053794
102	0x3afe09bb	0.0019381562
103	0x39af1da3	0.00033400682
104	0x3a8588d7	0.0010187876
105	0x3999fb0f	0.00029369487
106	0x3b770209	0.0037690422
107	0x3a9060ba	0.0011015155
108	0x39e87564	0.0004433795
109	0x36a966d6	5.048564e-06
110	0xb83730c7	-4.3676027e-05
111	0x3ae74b90	0.0017646421
112	0x39818093	0.00024700593
113	0x3acf13e5	0.0015798776
114	0x3a7968ad	0.0009514194
115	0x3a8bf0e6	0.0010676652
116	0x3b491333	0.003068161
117	0x39d82e26	0.00041233114
118	0x3a687cbb	0.0008868684
119	0x3950e773	0.00019922647
120	0x399954d1	0.00029245627
121	0x3c3a6c38	0.01137834
122	0xbb11e6f3	-0.00222629
123	0x3b3570bb	0.00276856
124	0xbaa21534	-0.0012365938
125	0x3a72d96f	0.00092639675
126	0x3b1dfe17	0.0024107748
127	0x398f8a9e	0.00027378363
128	0x3a6d2e3a	0.0009047721
129	0x391425da	0.0001412848
130	0x3ad7ee78	0.0016474267
131	0x3a35e2ee	0.0006938417
132	0xb9f349b5	-0.00046403488
133	0x3a6c930b	0.00090245967
134	0x3b084958	0.002079567
135	0x3b5e2284	0.0033895085
136	0x3ac06214	0.0014677667
137	0x3c0db665	0.008649443
138	0x3a0c0e7b	0.0005342734
139	0x39a38836	0.00031191268
140	0xba02bcec	-0.0004987258
141	0x3adf032f	0.0017014499
142	0x3af4defb	0.0018682176
143	0x3a574ec9	0.0008213339
144	0x3bfe6b32	0.0077642435
145	0x3927e79b	0.00016012641
146	0x3a821e5a	0.0009927258
147	0xba7cbf32	-0.00096415274
148	0x3a898450	0.0010491703
149	0x3b94d9bb	0.004542557
150	0x3a96af2e	0.0011496299
151	0x3b02b3fc	0.0019943705
152	0x3a9c8ac1	0.0011943207
153	0x3b26b155	0.0025435288
154	0x3b3f82bb	0.0029222209
155	0x3be4c88d	0.0069819153
156	0x3bfe0887	0.0077524814
157	0x3b039979	0.002008049
158	0x3acf8539	0.001583255
159	0xbaf61c14	-0.0018776678
160	0x3b74c703	0.0037350066
161	0x3b625812	0.0034537357
162	0x3b3fbbf9	0.0029256328
163	0x3a9ca502	0.0011951032
164	0x39d96db5	0.00041471203
165	0x3b91210c	0.0044289883
166	0x3b0ba539	0.0021308197
167	0x3a76e863	0.00094187836
168	0x3abc04ee	0.0014344731
169	0x3a34fb74	0.00069039245
170	0x3b7b22cc	0.00383203
171	0x3ad86d7c	0.0016512121
172	0x3aa22a5a	0.0012372241
173	0x396cb6d7	0.00022574827
174	0x39c4c945	0.0003753399
175	0x3b13e24f	0.002256531
176	0x3ab5c6e8	0.0013868483
177	0x3abb1ab0	0.0014274921
178	0x3a5876ad	0.000825743
179	0x3ab0e4d9	0.0013495936
180	0x3b806eee	0.003919474
181	0x3aae55c4	0.0013300707
182	0x3accb0b9	0.0015616632
183	0xb8b62d28	-8.686847e-05
184	0x391c4323	0.0001490233
185	0x3bf9c58e	0.0076224273
186	0xba4ef550	-0.0007894831
187	0x3b6c164a	0.0036024028
188	0xb94bfdfe	-0.00019454208
189	0x3a5b0681	0.0008355156
190	0x3b5890cf	0.0033045297
191	0x3a8cf2d6	0.0010753523
192	0x3a5b4246	0.00083640625
193	0x39afd312	0.0003353586
194	0xb9325a92	-0.00017009143
195	0x3a089561	0.00052102475
196	0xbab17064	-0.0013537523
197	0x3abf00db	0.0014572399
198	0x3b109757	0.0022062862
199	0x3abc6460	0.0014373176
200	0xbab870ea	-0.0014071737
201	0x3afc0afc	0.0019229348
202	0xbae1346b	-0.001718176
203	0xbb225dfc	-0.0024775257
204	0xba7ae02e	-0.00095701485
205	0xba21544e	-0.0006154225
206	0xb8da9d55	-0.000104243554
207	0x39fcaa29	0.00048191965
208	0x39ac5a62	0.00032873737
209	0xb9c37371	-0.0003727931
210	0x3a3e20cd	0.00072528125
211	0x3b11fa90	0.002227459
212	0xb8ee54de	-0.00011364532
213	0xb8e1c3a5	-0.00010765278
214	0x3af8d2e1	0.0018983745
215	0x3b2a542b	0.002599011
216	0xbb0fba09	-0.0021930954
217	0x3a51ba28	0.0008000457
218	0x3b2f2ff8	0.0026731472
219	0x3abb5438	0.0014292067
220	0xb89aee98	-7.387734e-05
221	0x3af1b996	0.001844215
222	0x3af4fd38	0.0018691188
223	0x3b3c9ccc	0.0028779982
224	0xbad4dd31	-0.0016240237
225	0x3a98ffcc	0.0011672913
226	0xbaf5827f	-0.0018730907
227	0xba0ddac6	-0.0005411323
228	0xbaab93bc	-0.0013090293
229	0xb8940ad1	-7.059205e-05
230	0xb892f346	-7.007136e-05
231	0x3aa0f58a	0.0012280208
232	0xbaa92aad	-0.0012906395
233	0xbae97c0a	-0.0017813456
234	0xba1fc4e5	-0.0006094708
235	0xbaafd34b	-0.0013414411
236	0xba6cf763	-0.0009039549
237	0x39548d86	0.00020270617
238	0xbb2c9302	-0.002633274
239	0xba88d471	-0.0010439289
240	0x3ae3007d	0.0017318871
241	0xba68100d	-0.00088524894
242	0xb8d57e81	-0.00010180195
243	0x3909b461	0.00013132535
244	0x3af2c007	0.0018520363
245	0x3add23b2	0.00168716
246	0xb88f4c76	-6.833013e-05
247	0xb9e30528	-0.00043300656
248	0xb83cb559	-4.4991586e-05
249	0x3780e08c	1.5363352e-05
250	0x3b374f97	0.0027971023
251	0xbb0053a8	-0.0019581113
252	0x3a788569	0.0009480329
253	0x3a232f0a	0.0006224966
254	0x3a9a86b3	0.0011789411
255	0x3919bb09	0.00014660893

onnx::LSTM_379 f4 [2, 256, 128]
0	0xb8c2325d	-9.260022e-05
1	0x37431d4e	1.1629729e-05
2	0xb9566ebc	-0.00020449882
3	0x39cd6332	0.00039174553
4	0x37532b8a	1.2586717e-05
5	0xb93d480e	-0.00018051287
6	0xba07ec10	-0.00051850174
7	0x3930e1ec	0.0001686883
8	0x393f3b1c	0.000182372
9	0x381b4b24	3.702486e-05
10	0xb9511e43	-0.00019943067
11	0x362c5643	2.5680208e-06
12	0xb769adf0	-1.392838e-05
13	0x3792e150	1.7509476e-05
14	0xb65393c4	-3.152746e-06
15	0x3854772a	5.065572e-05
16	0xb9726238	-0.00023115508
17	0x38072e47	3.2229607e-05
18	0xb75ffd7f	-1.3350857e-05
19	0x3784e297	1.584114e-05
20	0xb8283f7a	-4.011344e-05
21	0x36a95f5b	5.0476933e-06
22	0xb6a9da5f	-5.062014e-06
23	0x3911482f	0.00013855168
24	0xb89f9c3e	-7.610813e-05
25	0x37edf61d	2.8367207e-05
26	0xb8b0a148	-8.422375e-05
27	0x360682f6	2.0043785e-06
28	0x3714c850	8.868126e-06
29	0x38908376	6.8909416e-05
30	0x384a4ab2	4.823012e-05
31	0x37cb8148	2.4259687e-05
32	0x37c2dfbb	2.3230785e-05
33	0xb5e7247f	-1.7221463e-06
34	0x3663d9be	3.3952379e-06
35	0x3923f14c	0.00015634781
36	0xb7268fab	-9.927821e-06
37	0xb919467b	-0.00014617473
38	0x389d66a0	7.505459e-05
39	0x3801baae	3.0929856e-05
40	0x3a721bb4	0.00092356955
41	0x3864f4f2	5.458756e-05
42	0xb923206a	-0.00015556967
43	0x3832f849	4.266974e-05
44	0xb9520149	-0.0002002764
45	0x3886667b	6.4087064e-05
46	0x377e5ba9	1.5160921e-05
47	0x38e7c807	0.00011052196
48	0x3a8de0f3	0.0010824486
49	0x3953c773	0.00020196829
50	0x3641f8b0	2.8903996e-06
51	0xb82721ba	-3.9847313e-05
52	0x395344ae	0.00020148113
53	0xb822c2d0	-3.8805243e-05
54	0x38a51d59	7.8732795e-05
55	0x39843801	0.00025218728
56	0xb5dd24bc	-1.6476474e-06
57	0x3802c3f1	3.11769e-05
58	0x3879d15b	5.9561204e-05
59	0xb8b69ad7	-8.7072774e-05
60	0x38e90b60	0.000111124245
61	0x388d0243	6.723825e-05
62	0x36e33c51	6.772149e-06
63	0x3770fe84	1.4364374e-05
64	0x36d7f3d3	6.435884e-06
65	0xb5b4f91f	-1.3483549e-06
66	0xb3a9659c	-7.8881584e-08
67	0x31286875	2.4506595e-09
68	0x310f48b7	2.0850572e-09
69	0xb7f4d517	-2.9186294e-05
70	0xb6382ce0	-2.7444257e-06
71	0x35885ded	1.0160126e-06
72	0xb7b9f074	-2.2165688e-05
73	0x360ce8db	2.0997165e-06
74	0xb21b7fa1	-9.051207e-09
75	0x3034c300	6.576073e-10
76	0xad266f85	-9.46077e-12
77	0x35edb672	1.7710975e-06
78	0xb7948778	-1.7706057e-05
79	0x361be00d	2.3227215e-06
80	0x35292441	6.301016e-07
81	0xb26c4dee	-1.3754727e-08
82	0xb6c67324	-5.914264e-06
83	0x30141501	5.3871935e-10
84	0xb618072e	-2.2653944e-06
85	0x380cf48b	3.360635e-05
86	0xb60bdeea	-2.0842367e-06
87	0xb61d7338	-2.346189e-06
88	0xb3863d61	-6.251026e-08
89	0x37f6dc42	2.942805e-05
90	0xb34aa426	-4.7181082e-08
91	0xb117eab9	-2.2106816e-09
92	0xb1d7d729	-6.2817844e-09
93	0xb3c2daaf	-9.073607e-08
94	0x377d2723	1.5089087e-05
95	0x2eaac562	7.765767e-11
96	0x35067342	5.008661e-07
97	0x33f98923	1.1619911e-07
98	0xb2602d69	-1.3048841e-08
99	0x37651597	1.365449e-05
100	0xb3072dc0	-3.1473746e-08
101	0x3489217c	2.5542602e-07
102	0x34555cd8	1.9870947e-07
103	0xad25d9da	-9.427537e-12
104	0xb360d4de	-5.2347666e-08
105	0xb20cdbd0	-8.199052e-09
106	0x35f85883	1.85032e-06
107	0xb42f8e35	-1.634988e-07
108	0xb780a31f	-1.5334748e-05
109	0x3626e23c	2.4867613e-06
110	0x3488f95e	2.5513413e-07
111	0xb08cc297	-1.0241646e-09
112	0xb5b03566	-1.3128563e-06
113	0xb5daa92a	-1.6291499e-06
114	0xb396a9e8	-7.015825e-08
115	0xaf5b7254	-1.9958551e-10
116	0x32ce6d40	2.4031237e-08
117	0xb53052af	-6.568543e-07
118	0xb5aba6a9	-1.2788997e-06
119	0x33f18a99	1.1247648e-07
120	0xb21324d7	-8.564903e-09
121	0xb3c28673	-9.058285e-08
122	0x373d9ae6	1.1301343e-05
123	0x32561d1c	1.2463058e-08
124	0xb647734b	-2.972042e-06
125	0x349c465a	2.9108452e-07
126	0xb6adc192	-5.1783363e-06
127	0x34470852	1.8536346e-07
128	0x3883fd45	6.293742e-05
129	0xb893e651	-7.052406e-05
130	0xb843f102	-4.671608e-05
131	0x397fbc68	0.00024388882
132	0x38409148	4.591167e-05
133	0x39475ff6	0.00019013867
134	0xb9a6e73f	-0.0003183428
135	0xb90e8214	-0.00013590633
136	0x382adc42	4.073629e-05
137	0xb95b3fc3	-0.0002090922
138	0xb7cd45ca	-2.4470402e-05
139	0x369c2be8	4.6542737e-06
140	0xb910262d	-0.00013747132
141	0xb98cd6d9	-0.00026862955
142	0xb901c157	-0.00012374423
143	0x3870700a	5.7324803e-05
144	0xb9a286e8	-0.0003099956
145	0xb933a4a6	-0.00017132107
146	0x39832ec6	0.00025021116
147	0x3972ed9d	0.00023167436
148	0xb8b011ab	-8.395625e-05
149	0x37105e5b	8.605038e-06
150	0x36c82d2d	5.9657236e-06
151	0x39b304e3	0.0003414518
152	0x388c1c57	6.680999e-05
153	0x38c5c374	9.430098e-05
154	0xb907f75d	-0.00012966753
155	0x38cda9cf	9.806791e-05
156	0xb9499f1e	-0.0001922813
157	0xb950453a	-0.00019862215
158	0xb815d2e4	-3.5720775e-05
159	0x3964c996	0.00021818871
160	0xb8f483fc	-0.00011659411
161	0xb9343eb9	-0.00017189504
162	0xb98f5ba5	-0.00027343366
163	0x3892091c	6.963519e-05
164	0xb6faa7d2	-7.4701175e-06
165	0xb556dbc9	-8.004104e-07
166	0xb8aafaaa	-8.1529215e-05
167	0xb91db050	-0.00015038368
168	0xba9393c0	-0.0011259243
169	0x3972558f	0.00023110792
170	0x38fc5a81	0.00012033154
171	0x3959ce9c	0.000207717
172	0xb9138b3b	-0.0001407088
173	0x38d75bc4	0.000102690916
174	0x37beeaec	2.2759159e-05
175	0xb8d0c7ca	-9.9554265e-05
176	0xb9a5e71c	-0.00031643442
177	0x39a2ac83	0.0003102758
178	0xb9640456	-0.0002174539
179	0x38d7c3bd	0.00010288458
180	0x396bf081	0.00022500941
181	0x3931c7c8	0.0001695446
182	0x3603e5a1	1.9654183e-06
183	0x38c07825	9.177652e-05
184	0x3903c02e	0.00012564726
185	0x38dd8b68	0.000105640676
186	0x396bdacc	0.00022492855
187	0xb97a32ee	-0.0002386083
188	0x380136f7	3.0807187e-05
189	0x37b7002d	2.1815382e-05
190	0x37a1fc02	1.9310046e-05
191	0xb91ce878	-0.0001496392
192	0x3782edaf	1.5607888e-05
193	0xb66ee76f	-3.5599476e-06
194	0xb36792c0	-5.3917347e-08
195	0x319d93d6	4.5861084e-09
196	0x31a26da1	4.727284e-09
197	0xb85130c7	-4.987491e-05
198	0xb6a2c62f	-4.851048e-06
199	0x35d799db	1.6063526e-06
200	0xb7be76da	-2.270511e-05
201	0x35ea21e5	1.7444223e-06
202	0xb2bbf8e4	-2.1882848e-08
203	0x30a652ac	1.2101586e-09
204	0x300c4c76	5.104036e-10
205	0x36295df6	2.5237655e-06
206	0xb7db8a20	-2.6171154e-05
207	0x36210069	2.3991108e-06
208	0x3552fc64	7.8598373e-07
209	0xb2d8ed3e	-2.5253595e-08
210	0xb6dcb295	-6.5773006e-06
211	0x309254c4	1.064699e-09
212	0xb64513df	-2.9366854e-06
213	0x3894e7cf	7.100368e-05
214	0xb61e91e7	-2.362876e-06
215	0xb68d5941	-4.212518e-06
216	0xb4cd13d9	-3.8198667e-07
217	0x384230ff	4.6298836e-05
218	0xb399b34e	-7.157233e-08
219	0xb19651b5	-4.3748636e-09
220	0xb231ef00	-1.0357098e-08
221	0xb57524fb	-9.1323426e-07
222	0x37acfa49	2.0620546e-05
223	0x2f13d56a	1.3445392e-10
224	0x353aea34	6.963121e-07
225	0x342e3bc8	1.6226761e-07
226	0xb2bb9bbc	-2.1840485e-08
227	0x37aea7d3	2.0820566e-05
228	0xb46e0f5a	-2.2171062e-07
229	0x34f04e51	4.4760466e-07
230	0x348fcd5e	2.678525e-07
231	0x2d10d8ab	8.233562e-12
232	0xb3d7988a	-1.00394644e-07
233	0xb23de56a	-1.1053411e-08
234	0x36285cc7	2.5087954e-06
235	0xb483ad34	-2.4526673e-07
236	0xb8271073	-3.9831222e-05
237	0x36402526	2.8631853e-06
238	0x34b1718a	3.305143e-07
239	0xb0d27144	-1.5311703e-09
240	0xb5ad229f	-1.289958e-06
241	0xb5ec9077	-1.7625415e-06
242	0xb3fd819b	-1.1804806e-07
243	0xafae9393	-3.1755273e-10
244	0x3387399e	6.296908e-08
245	0xb55fc9c6	-8.336759e-07
246	0xb5e5740a	-1.7095601e-06
247	0xb2a311c4	-1.8983776e-08
248	0xb20b2b5c	-8.100724e-09
249	0xb42192b1	-1.504766e-07
250	0x373dba99	1.13087235e-05
251	0x329cb453	1.8242792e-08
252	0xb78fa1ed	-1.7122331e-05
253	0x350d2efe	5.2594976e-07
254	0xb711c4a4	-8.6884575e-06
255	0x34a7ab3d	3.1230766e-07
