LOSO/models/model_without_subj_6.pth (torch, 549103 bytes, 18 tensors)

lstm.weight_ih_l0 f4 [256, 6]
0.0005773662 0.0010321244 0.00019741165 0.0024799705 0.0023169233 0.0008570128 -0.00023842421 -0.0001891962
-0.00091913244 0.0018687794 0.0024378158 0.00077255035 0.0005739982 0.0010049208 0.00015044135 0.002785984
0.0030168933 0.0011168559 0.021320738 0.026030308 0.032317407 0.028160077 0.026177289 0.030049654
0.00029502428 0.00068602845 6.45632e-05 0.0020784903 0.0021223302 0.00040331171 0.00039255086 0.0015748498
0.00018142813 0.0024263172 0.002489604 0.0012902446 0.020640323 0.024393247 0.029152477 0.026459929
0.024698932 0.028359829 0.0010738826 0.0012805216 0.0003972297 0.0035266625 0.0037558177 0.0020454542
6.964653e-05 0.0005426143 -0.000110438305 0.0015879683 0.0014676222 0.00017260987 0.00081846793 0.0013452077
0.00052169117 0.0028106207 0.0030023367 0.0014274811 0.00063724467 0.0012469718 0.00046577075 0.002534267
0.0023464162 0.00094366045 -4.041156e-07 -1.8471405e-07 -4.010513e-07 -3.1071076e-07 -3.3369778e-07 -4.7361755e-07
0.0012466032 0.0016290977 0.0010010997 0.0035924984 0.0037629942 0.0017581681 0.0006602891 0.0015142543
0.0005184574 0.0030848945 0.0030693393 0.0014089657 0.00038678187 0.00081489165 0.00017182055 0.0026297772
0.002817931 0.0012580242 0.00065638806 0.0012659173 0.00019577057 0.0026634124 0.0023257353 0.000978159
-0.000363207 -0.00028203588 -0.00034292822 -0.00033002146 -0.00027089874 -0.00043517043 0.00085566286 0.0016787527
0.0004763845 0.002754857 0.0026388539 0.0012154368 0.00016904791 0.00057978963 8.236511e-05 0.0016752891
0.0017652324 0.00079825014 0.00052306795 0.00060005026 -3.5889047e-05 0.0031188694 0.0034965968 0.001540848
0.000100226716 0.0007850012 3.6141377e-05 0.0018326015 0.001657275 0.00029917256 -3.6256145e-06 -3.96932e-06
-3.6347426e-06 -3.4105528e-06 -3.957468e-06 -4.5576653e-06 4.1769613e-07 4.5270317e-06 8.717565e-07 1.6423171e-06
6.161294e-07 2.4724514e-08 0.0005925794 0.0011585203 0.00046816084 0.0022926456 0.002179596 0.0008537013
0.0005000793 0.0012293106 0.000269405 0.002359857 0.0022378024 0.0008794576 0.00045080474 0.00088891305
0.00030152898 0.0021087353 0.0020134475 0.0006751835 0.00022905282 0.0008776768 0.00025176207 0.002289843
0.0020831493 0.0003770074 0.001008545 0.0017046198 0.0007506668 0.0029998322 0.0030242212 0.0014529814
0.0011345882 0.0019026996 0.0009138855 0.002937984 0.002710426 0.0013765078 8.751228e-06 0.0006530572
-0.00028290472 0.002351716 0.002588052 0.0009894986 0.00091757387 0.000876499 0.00018112997 0.0031663543
0.0032106484 0.0017211671 -0.0008709659 -0.00024094638 -0.001004549 0.0009415232 0.0009926715 -0.00026947295
-0.00035165824 0.00015748158 -0.00079924776 0.0016017447 0.0017616077 0.00046198163 0.0013066537 0.0020071424
0.0012096245 0.0033075695 0.0029940405 0.0016885244 0.00016742201 0.0009987205 0.00020327527 0.002229588
0.0022946307 0.000574298 0.0007769705 0.0013459139 0.00059326465 0.0025586202 0.0023605374 0.0007967698
-9.838198e-06 -9.33331e-06 -1.03308375e-05 -8.791595e-06 -9.953924e-06 -1.2129457e-05 0.0008753563 0.0013662067
0.0006766249 0.0028861682 0.0027318303 0.0011871002 0.00082381186 0.0013815567 0.00048645269 0.0028809877
0.00283507 0.0012095053 -0.00026314662 0.00019189325 -0.0003313211 0.0018976082 0.0019964038 0.00020805876
0.04418619 0.1014251 0.20294699 0.15174545 -0.069002874 0.25978953 0.0006762793 0.0010598435
0.00029038722 0.0023196596 0.0024343566 0.0012539283 0.0008799634 0.0018402871 0.000549834 0.002627637
00000000: 645a 173a 5948 873a 4900 4f39 0087 223b
00000010: 86d7 173b 28a9 603a 8301 7ab9 f862 46b9
00000020: eff1 70ba d5f1 f43a c3c3 1f3b fa84 4a3a
00000030: 5e78 163a 8cb7 833a cbbf 1d39 0e95 363b
00000040: 12b7 453b 7763 923a d4a8 ae3c 833d d53c
00000050: 425f 043d f6af e63c c171 d63c b12a f63c
00000060: 7dad 9a39 97d6 333a 1b66 8738 4837 083b
00000070: cb16 0b3b 9573 d339 49cf cd39 316b ce3a
00000080: be3d 3e39 d902 1f3b a028 233b 6d1d a93a
00000090: e515 a93c 59d4 c73c 2dd1 ee3c 7ec2 d83c
000000a0: 6a55 ca3c df52 e83c 85c1 8c3a 2dd7 a73a
000000b0: 4543 d039 941f 673b 2a24 763b 070d 063b
000000c0: 320f 9238 3b3e 0e3a 1d9b e7b8 6023 d03a
000000d0: 3b5d c03a 9cfe 3439 748e 563a ae51 b03a
000000e0: 1ac2 083a 6432 383b dac2 443b 511a bb3a
000000f0: c40c 273a 6e71 a33a b132 f439 f215 263b
00000100: 55c6 193b fb5f 773a 3af5 d8b4 d055 46b4
00000110: 1250 d7b4 c3cf a6b4 1327 b3b4 8045 feb4
00000120: 1065 a33a 7387 d53a 5537 833a 1f70 6b3b
00000130: 919c 763b 5572 e63a 4017 2d3a f179 c63a
00000140: 16e9 073a f12b 4a3b f826 493b 0bad b83a
00000150: fcc8 ca39 749e 553a ba2a 3439 5758 2c3b
00000160: 09ad 383b 4ae4 a43a 7511 2c3a 23ed a53a
00000170: c347 4d39 a58c 2e3b 5d6b 183b 9235 803a
00000180: d16c beb9 37de 93b9 0ccb b3b9 bb06 adb9
00000190: 6a07 8eb9 9627 e4b9 904e 603a 9809 dc3a
000001a0: 3fc3 f939 d58a 343b 9ff0 2c3b 4b4f 9f3a
000001b0: 7442 3139 06fd 173a 6fbb ac38 6095 db3a
000001c0: 5f5f e73a a941 513a 7f1e 093a b14c 1d3a
000001d0: 9287 16b8 f265 4c3b 2927 653b 48f6 c93a
000001e0: cf30 d238 8ac8 4d3a 8296 1738 e733 f03a
000001f0: ec38 d93a 43da 9c39 954f 73b6 3330 85b6
00000200: 67ec 73b6 dae0 64b6 64ca 84b6 0cee 98b6
00000210: b83f e034 e8e6 9736 a702 6a35 966d dc35
00000220: 1764 2535 c861 d432 5557 1b3a 7ed9 973a
00000230: 7c73 f539 3640 163b 8ed7 0e3b edca 5f3a
00000240: c117 033a d220 a13a ed3e 8d39 d5a7 1a3b
00000250: 18a8 123b 678b 663a fd59 ec39 f205 693a
00000260: 8916 9e39 b532 0a3b 0bf4 033b ccfe 303a
00000270: e62d 7039 e513 663a effe 8339 3111 163b
00000280: 7285 083b 14a9 c539 2831 843a 8d6d df3a
00000290: 65c8 443a d598 443b 0332 463b f771 be3a
000002a0: 76b6 943a 0164 f93a d191 6f3a 318b 403b
000002b0: 67a1 313b f06b b43a 3dd2 1237 ed31 2b3a
000002c0: d452 94b9 3f1f 1a3b 4f9c 293b 10b2 813a
000002d0: 5789 703a dac4 653a b5ed 3d39 9c82 4f3b
000002e0: be69 523b c998 e13a 8851 64ba 8da6 7cb9
000002f0: 12ab 83ba 8dd0 763a 871c 823a 0c48 8db9
00000300: c55e b8b9 a421 2539 9c84 51ba a2f1 d13a
00000310: bfe5 e63a 2036 f239 0644 ab3a 438a 033b
00000320: 438c 9e3a cfc3 583b aa37 443b 7a51 dd3a
00000330: 018e 2f39 80e7 823a 4a26 5539 481e 123b
00000340: 8461 163b 7d8c 163a 9cad 4b3a 6069 b03a
00000350: 5185 1b3a 86ae 273b 3fb3 1a3b 51de 503a
00000360: bd0e 25b7 4396 1cb7 9c52 2db7 9d7f 13b7
00000370: c7ff 26b7 9f7f 4bb7 2b78 653a 4a12 b33a
00000380: 875f 313a de25 3d3b 8208 333b 7998 9b3a
00000390: 14f5 573a 5a15 b53a 930a ff39 f4ce 3c3b
000003a0: 95cc 393b 4388 9e3a f1f6 89b9 f436 4939
000003b0: 2ab5 adb9 2ab9 f83a 19d6 023b 592a 5a39
000003c0: 94fc 343d f6b7 cf3d 56d1 4f3e 2963 1b3e
000003d0: 6151 8dbd 2203 853e 5648 313a 72ea 8a3a
000003e0: 1d3f 9839 6e05 183b ba89 1f3b da5a a43a
000003f0: 58ad 663a ca35 f13a bc22 103a 6f34 2c3b

lstm.weight_hh_l0 f4 [256, 64]
-0.00030238304 0.00029435873 -0.0003112251 0.00029510105 -0.00030795817 -0.00032333308 -0.00031225543 0.0003310858
0.00026850644 0.0003269925 -0.0003129219 4.490425e-06 0.0003262484 0.00033499408 0.00033548835 -0.00032705025
-0.00024401146 0.00031060464 -0.00030700065 -0.0003294244 0.00029130027 8.290271e-06 -1.2463105e-05 -0.00033468686
-0.00028620407 -0.00027813608 0.0002921479 -0.00033053927 0.00033084842 0.0002910747 0.0003488961 -0.00027944386
0.00030166013 0.00033848477 0.0003214076 0.00028348673 -1.766663e-05 -0.00032412217 0.00031420728 0.0003130983
0.0009260106 -0.0003348563 -0.00031263186 -0.00030902892 -0.00029220796 0.000100720055 2.6911894e-05 0.0003175937
0.0007952477 0.00023237463 0.00032818018 -0.00029883455 0.00031944146 -0.0003050735 0.00025934432 0.00033984304
-0.0003275765 -0.00032454572 -0.00032191724 0.00033019646 0.00033837758 0.00030906044 0.00034045824 0.00031224964
-0.0004136086 0.00045857925 -0.00041105595 0.0005002734 -0.00042542585 -0.00049949693 -0.0005209736 0.00049634534
0.00033424827 0.0004955598 -0.00038543605 4.297737e-06 0.00046167755 0.00042848865 0.00044783778 -0.00042341166
-0.00022366765 0.00038754934 -0.00039408027 -0.00054982275 0.00037451676 1.3933367e-05 -1.4051888e-05 -0.0004356978
-0.00044212284 -0.00029638832 0.00036424818 -0.00047916322 0.00047430536 0.00045193385 0.00053287734 -0.00037638683
0.00050328416 0.00045196817 0.00048702693 0.0003654619 -2.5227402e-05 -0.00043628828 0.0004030118 0.0004843292
0.001765587 -0.0004381004 -0.00044291184 -0.00044438668 -0.00041901236 9.590468e-05 2.5973603e-05 0.00045096717
0.0029675649 0.00021067045 0.0004210202 -0.00041831905 0.00037649085 -0.0004343076 0.0002846889 0.0004707586
-0.0004709602 -0.00048759845 -0.0005204751 0.000518557 0.0004971999 0.00040639433 0.0004642655 0.00044632584
-0.00053132995 0.0005068635 -0.0005181851 0.0004487254 -0.0005184755 -0.0005581748 -0.00048035788 0.000574222
0.00046146545 0.0005477014 -0.0005307073 3.6977917e-06 0.00055264996 0.00055451604 0.0005626525 -0.0005468926
-0.00019829311 0.0005109305 -0.0005037082 -0.0005531224 0.00049217686 8.808248e-06 -2.1952266e-05 -0.0005393307
-0.00049455784 -0.0004627915 0.0005028856 -0.00056672795 0.0005389734 0.0005196057 0.0005894875 -0.00048419257
0.0005091128 0.00056449557 0.0005447308 0.00047636888 -1.9415098e-05 -0.00054325885 0.000530366 0.00053386803
0.0007327978 -0.0005456177 -0.0005146307 -0.0005257531 -0.0005132665 8.658573e-05 2.3144943e-05 0.0005460834
0.00014357438 0.00019223343 0.0005283054 -0.0004966118 0.00034706626 -0.000500535 0.00044708117 0.0005657199
-0.0005672693 -0.00053779077 -0.0005385027 0.0005528186 0.00057512615 0.00051120116 0.0005673585 0.00052245636
-0.0012331542 0.0010480396 -0.0011186711 -0.0009072757 -0.0010780068 -0.0017836301 0.0006771917 0.0014274049
0.0009194017 0.0014074559 -0.0010985375 -8.056862e-06 0.0011323676 0.0011550976 0.0011836297 -0.0012534747
0.0007912387 0.0011022436 -0.0011719175 -0.0013849117 0.0011636221 1.4826621e-05 -9.883576e-05 -0.0013257802
-0.0012261644 -0.00079350686 0.0010326323 -0.0015119871 0.001368458 0.0012590747 0.0014627675 -0.0010990347
0.0014671398 0.0014686243 0.0013883762 0.0008955298 -2.2983328e-05 -0.0012308467 0.0011968235 0.0014055187
0.005702989 -0.0013632361 -0.0013803304 -0.001180185 -0.001058852 -0.0001817171 -4.9510316e-05 0.0015265178
0.04649708 -0.000651117 0.0011644047 -0.0013151069 0.0006195796 -0.0012599895 0.0008861798 0.0012328636
-0.0012883575 -0.0013052514 -0.001329927 0.0013950937 0.001106963 0.0010485044 0.0012657434 0.0012336958
00000000: 2a89 9eb9 2954 9a39 ed2b a3b9 cbb7 9a39
00000010: 7275 a1b9 0885 a9b9 37b6 a3b9 9595 ad39
00000020: 53c6 8c39 3170 ab39 ab0f a4b9 75ac 9636
00000030: 520c ab39 25a2 af39 7ce4 af39 f177 abb9
00000040: 54dd 7fb9 a6d8 a239 eef4 a0b9 98b6 acb9
00000050: a9b9 9839 7116 0b37 a118 51b7 e978 afb9
00000060: a90d 96b9 cbd2 91b9 6d2b 9939 3b4c adb9
00000070: b975 ad39 639b 9839 0bec b639 5282 92b9
00000080: 2328 9e39 a876 b139 9982 a839 f2a0 9439
00000090: cd32 94b7 f1ee a9b9 30bc a439 5827 a439
000000a0: 85bf 723a a78f afb9 bde8 a3b9 2905 a2b9
000000b0: 7d33 99b9 ab39 d338 dac0 e137 b482 a639
000000c0: 2b78 503a 97a9 7339 990f ac39 e5ac 9cb9
000000d0: b57a a739 46f2 9fb9 9bf8 8739 f62c b239
000000e0: 93be abb9 ca27 aab9 00c7 a8b9 381e ad39
000000f0: 4568 b139 6409 a239 887f b239 70b5 a339
00000100: 9bd9 d8b9 776d f039 ff82 d7b9 c824 033a
00000110: b10b dfb9 acf0 02ba f291 08ba 2c1d 023a
00000120: 0b3e af39 75e8 013a 5a14 cab9 4835 9036
00000130: 500d f239 c6a6 e039 c5cb ea39 5afd ddb9
00000140: 5488 6ab9 fe2f cb39 8f9c ceb9 fb21 10ba
00000150: ca5a c439 5bc3 6937 66c0 6bb7 5e6e e4b9
00000160: b9cc e7b9 9164 9bb9 90f8 be39 3338 fbb9
00000170: 30ac f839 89f1 ec39 cbb0 0b3a c955 c5b9
00000180: d4ee 033a 24f6 ec39 a657 ff39 779b bf39
00000190: 6f9f d3b7 9fbd e4b9 544b d339 91ed fd39
000001a0: 456b e73a d7b0 e5b9 9f36 e8b9 92fc e8b9
000001b0: e3ae dbb9 6f20 c938 e3e1 d937 ca6f ec39
000001c0: 7a7b 423b 6be7 5c39 60bc dc39 d551 dbb9
000001d0: bf63 c539 c8b3 e3b9 4c42 9539 26d0 f639
000001e0: 35eb f6b9 5ba4 ffb9 7e70 08ba c5ef 073a
000001f0: 8556 023a 5311 d539 a968 f339 d700 ea39
00000200: f348 0bba 09df 043a d0d6 07ba e742 eb39
00000210: 4dea 07ba 7a52 12ba 8bd8 fbb9 6387 163a
00000220: d8f0 f139 9e93 0f3a 2a1f 0bba 9427 7836
00000230: b6df 103a f15c 113a f87e 133a 575d 0fba
00000240: e7ec 4fb9 f7ef 053a 490b 04ba 6aff 10ba
00000250: 6e05 013a 23c7 1337 2226 b8b7 df61 0dba
00000260: 37a5 01ba d3a2 f2b9 15d4 033a 7890 14ba
00000270: e549 0d3a 2636 083a d687 1a3a 3adb fdb9
00000280: fb75 053a a8fa 133a 44cc 0e3a 26c1 f939
00000290: 9bdd a2b7 7c69 0eba 4208 0b3a 47f3 0b3a
000002a0: 3a19 403a c907 0fba 48e8 06ba b1d2 09ba
000002b0: bb8c 06ba 5c95 b538 6327 c237 0927 0f3a
000002c0: 748c 1639 4592 4939 fa7d 0a3a 0e2f 02ba
000002d0: 72f6 b539 5636 03ba 3866 ea39 d24c 143a
000002e0: ccb4 14ba 87fa 0cba 4e2a 0dba 07eb 103a
000002f0: 10c4 163a 2102 063a c9ba 143a 74f5 083a
00000300: caa1 a1ba 605e 893a 60a0 92ba 3ed6 6dba
00000310: e84b 8dba b2c8 e9ba 9185 313a c317 bb3a
00000320: 0104 713a 627a b83a cdfc 8fba f52b 07b7
00000330: f46b 943a a566 973a 0624 9b3a a24b a4ba
00000340: 216b 4f3a 2879 903a 079b 99ba ed85 b5ba
00000350: ae84 983a dabf 7837 0b46 cfb8 cdc5 adba
00000360: 40b7 a0ba 5803 50ba 6459 873a de2d c6ba
00000370: d55d b33a 8907 a53a 55ba bf3a 7c0d 90ba
00000380: 0b4d c03a db7e c03a 2dfa b53a fdc1 6a3a
00000390: 52cc c0b7 5d54 a1ba bcde 9c3a 6239 b83a
000003a0: 24e0 ba3b 9dae b2ba 34ec b4ba 70b0 9aba
000003b0: 2dc9 8aba 508b 3eb9 4ca9 4fb8 7015 c83a
000003c0: b973 3e3d b9af 2aba f09e 983a aa5f acba
000003d0: 486b 223a 3b26 a5ba 854e 683a 0a98 a13a
000003e0: 1bde a8ba f814 abba f250 aeba 94db b63a
000003f0: 8417 913a f86d 893a 4de7 a53a f6b3 a13a

lstm.bias_ih_l0 f4 [256]
0.0038560457 0.0040767756 0.004865746 0.064812675 0.0032700747 0.0048840386 0.058208637 0.006179613
0.0023118206 0.0047588944 0.0038408565 -7.83202e-07 0.0054909326 0.0049426956 0.0044852244 0.004208828
-0.0007625298 0.004204479 0.00259354 0.005875923 0.003071081 -7.186901e-06 -1.0280418e-05 0.0035874255
0.0037314927 0.0033189452 0.0038414227 0.004977272 0.0046938956 0.00470339 0.0056772465 0.0021865908
0.0037069619 0.005281277 0.0038594496 0.003931529 -2.2696737e-05 0.0045686993 0.0048353123 0.0039575794
0.11348613 0.0038034723 0.0041640834 0.0036754194 0.00483718 -9.898892e-05 -6.974416e-06 0.00482896
0.22220087 -0.00062865065 0.004109246 0.00323127 -0.0012696983 0.0019316431 0.0013909857 0.006705944
0.0051932745 0.0040629595 0.0043386533 0.0040170713 0.0057915486 0.0032493195 0.0045928163 0.0044890544
0.0028334332 0.003458157 0.0037420082 0.04145616 0.0022745596 0.003752169 0.036311384 0.005286563
0.0016512995 0.0038302883 0.002967679 -8.245845e-07 0.00466527 0.00399578 0.0033566463 0.0031453487
-0.00077092386 0.003261864 0.0020234622 0.004544214 0.0020611591 -7.886158e-06 -9.3882745e-06 0.0025355823
0.00276272 0.0025292775 0.0026479505 0.0037760588 0.003570278 0.0036129192 0.0047499486 0.0015155091
0.0028141607 0.0039178743 0.0026140849 0.0030100083 -2.3422699e-05 0.0036154045 0.0039655333 0.0027394956
0.028360514 0.0029899268 0.003518194 0.002509057 0.0040987493 -0.00010057256 -7.022278e-06 0.0038933037
0.3368831 -0.0006265219 0.0033678552 0.0021128177 -0.0012554614 0.0011436738 0.0005457825 0.0054900623
0.0039486005 0.0032229798 0.0032576378 0.0031790964 0.0050953086 0.0024081888 0.004081206 0.0037770772
0.002673988 0.0006795243 0.0029975597 0.060401253 0.0038808892 0.0006231534 -0.058510095 -0.002013267
-0.0035278392 -0.0006955057 0.0017470145 5.1985848e-05 -0.0017000159 -0.003061372 -0.0006600257 0.0026017798
0.0045746826 -0.0023551993 0.0015384711 -0.00028303295 -0.0030638683 0.00031304694 -3.9472725e-05 0.0008730561
0.0020363808 0.003188792 -0.005194822 0.0010326236 -0.001845389 -0.0017824784 0.0010677996 0.0025594598
0.00023510498 -0.002423293 -0.0023746758 -0.004253336 -0.00015890096 0.00094750867 -0.0029376366 -0.00095819833
-0.09730673 0.0019071206 0.0012619034 0.0026963514 0.002076554 -0.0015522316 -0.00035713665 -0.00014054865
0.06273208 -0.0035830587 -0.0030617714 0.0029732804 -8.49428e-05 0.0010031303 -0.0030190193 -0.0027285628
0.002616751 0.00023548587 0.00075405306 -0.00049624103 -0.0018809568 -0.0014638872 -0.0023931435 -0.0011324
0.0038549071 0.0040765763 0.004863977 0.06508095 0.0032685786 0.0048824744 0.058416974 0.006175628
0.0023106022 0.0047572716 0.0038400546 -7.825289e-07 0.0054920088 0.0049388856 0.004481543 0.00420648
-0.00076256157 0.0042020367 0.002591893 0.0058756317 0.0030689114 -7.188621e-06 -1.0310829e-05 0.0035853484
0.0037290107 0.0033176313 0.0038398935 0.0049750283 0.004692225 0.0047022435 0.0056801587 0.0021858565
0.0037065088 0.0052782665 0.0038558207 0.0039301096 -2.2697643e-05 0.0045680376 0.0048326347 0.0039552897
0.12406307 0.0038000273 0.004161611 0.0036743768 0.00483497 -9.8961944e-05 -6.9722164e-06 0.004825747
0.29476485 -0.0006287144 0.0041063256 0.0032283575 -0.0012697579 0.0019288578 0.0013899532 0.0067020953
0.0051920256 0.004062744 0.004340023 0.0040157177 0.0057937126 0.0032484077 0.0045921514 0.004488357
00000000: b6b5 7c3b 7996 853b d670 9f3b 82bc 843d
00000010: c04e 563b 490a a03b 2e6c 6e3d 5a7e ca3b
00000020: ea81 173b 80f0 9b3b e1b6 7b3b 3b3d 52b5
00000030: 48ed b33b 56f6 a13b caf8 923b 35ea 893b
00000040: 82e4 47ba bac5 893b 61f8 293b d18a c03b
00000050: 3044 493b 0227 f1b6 0f7a 2cb7 031b 6b3b
00000060: 0f8c 743b a982 593b 61c0 7b3b 6218 a33b
00000070: 40cf 993b e51e 9a3b 3208 ba3b e84c 0f3b
00000080: 80f0 723b 900e ad3b d2ee 7c3b 0ed4 803b
00000090: df64 beb7 07b5 953b 8a71 9e3b 95ae 813b
000000a0: 6b6b e83d ad43 793b dd72 883b 4edf 703b
000000b0: 3581 9e3b 4698 cfb8 c705 eab6 413c 9e3b
000000c0: a088 633e 08cc 24ba dba6 863b b7c3 533b
000000d0: 016c a6ba 302f fd3a bc51 b63a 89bd db3b
000000e0: 582c aa3b 9322 853b 432b 8e3b a3a1 833b
000000f0: 08c7 bd3b 89f2 543b 567f 963b eb18 933b
00000100: 1fb1 393b 3fa2 623b 7b3c 753b efcd 293d
00000110: c710 153b f3e6 753b 3fbb 143d e83a ad3b
00000120: 6b70 d83a 9305 7b3b 647d 423b 0459 5db5
00000130: 1fdf 983b 08ef 823b 2efb 5b3b 3222 4e3b
00000140: d317 4aba ffc4 553b 109c 043b a1e7 943b
00000150: 8314 073b ca4e 04b7 5582 1db7 032c 263b
00000160: c00e 353b 3cc2 253b 3d89 2d3b c177 773b
00000170: 53fb 693b bac6 6c3b 75a5 9b3b 0ca4 c63a
00000180: c86d 383b 8361 803b 1151 2b3b 8f43 453b
00000190: dd7b c4b7 6cf0 6c3b 4ef1 813b 1c89 333b
000001a0: 4f54 e83c a6f2 433b 8091 663b fe6e 243b
000001b0: cd4e 863b 7bea d2b8 e9a0 ebb6 cc26 7f3b
000001c0: f17b ac3e 2c3d 24ba 3cb7 5c3b 3377 0a3b
000001d0: 4b8e a4ba 53e7 953a d812 0f3a fbe5 b33b
000001e0: 4363 813b a138 533b 187e 553b 6358 503b
000001f0: 8cf6 a63b b4d2 1d3b a3bb 853b d788 773b
00000200: 133e 2f3b 1b22 323a b572 443b 4e67 773d
00000210: 8456 7e3b 1e5b 233a 48a8 6fbd 04f1 03bb
00000220: 5233 67bb 9952 36ba 14fc e43a 610b 5a38
00000230: 11d3 deba 4da1 48bb 9305 2dba 9f82 2a3b
00000240: 38e7 953b b059 1abb 86a6 c93a 0a64 94b9
00000250: 2ecb 48bb 7320 a439 848f 25b8 cedd 643a
00000260: cd74 053b 0dfb 503b 5339 aabb 1959 873a
00000270: fbe0 f1ba 0da2 e9ba 69f5 8b3a 9cbc 273b
00000280: 8386 7639 1cd0 1ebb 73a0 1bbb 925f 8bbb
00000290: a79e 26b9 3b62 783a 5d85 40bb 9a2f 7bba
000002a0: c048 c7bd 59f8 f93a 7466 a53a 45b5 303b
000002b0: cc16 083b 4074 cbba 123e bbb9 3e60 13b9
000002c0: ad79 803d c0d1 6abb 00a8 48bb 5edb 423b
000002d0: 5223 b2b8 787b 833a bdda 45bb b0d1 32bb
000002e0: cc7d 2b3b c2ec 7639 a5ab 453a 2c16 02ba
000002f0: 708a f6ba e7df bfba 49d6 1cbb 0a6d 94ba
00000300: 9ca2 7c3b cd94 853b ff61 9f3b 2949 853d
00000310: a635 563b 2afd 9f3b a346 6f3d ec5c ca3b
00000320: 796d 173b e3e2 9b3b 6da9 7b3b fa0e 52b5
00000330: 4ff6 b33b 60d6 a13b e8d9 923b 83d6 893b
00000340: a4e6 47ba 3db1 893b c0dc 293b 5f88 c03b
00000350: ca1f 493b c935 f1b6 acfc 2cb7 2af8 6a3b
00000360: 6b62 743b 9e6c 593b b9a6 7b3b 9005 a33b
00000370: 3cc1 993b 4715 9a3b a020 ba3b 9640 0f3b
00000380: e6e8 723b 4ff5 ac3b f0b1 7c3b 26c8 803b
00000390: d166 beb7 7aaf 953b 145b 9e3b 609b 813b
000003a0: c714 fe3d e109 793b 205e 883b d0cd 703b
000003b0: ab6e 9e3b ca89 cfb8 e2f2 e9b6 4d21 9e3b
000003c0: 6beb 963e 4fd0 24ba 5b8e 863b da92 533b
000003d0: 016e a6ba bad1 fc3a 172f b63a 409d db3b
000003e0: de21 aa3b c420 853b c036 8e3b 4896 833b
000003f0: 2fd9 bd3b 3de3 543b c279 963b 1113 933b

lstm.bias_hh_l0 f4 [256]
0.0038560457 0.0040767756 0.004865746 0.064812675 0.0032700747 0.0048840386 0.058208637 0.006179613
0.0023118206 0.0047588944 0.0038408565 -7.83202e-07 0.0054909326 0.0049426956 0.0044852244 0.004208828
-0.0007625298 0.004204479 0.00259354 0.005875923 0.003071081 -7.186901e-06 -1.0280418e-05 0.0035874255
0.0037314927 0.0033189452 0.0038414227 0.004977272 0.0046938956 0.00470339 0.0056772465 0.0021865908
0.0037069619 0.005281277 0.0038594496 0.003931529 -2.2696737e-05 0.0045686993 0.0048353123 0.0039575794
0.113486126 0.0038034723 0.0041640834 0.0036754194 0.00483718 -9.898892e-05 -6.974416e-06 0.00482896
0.22220056 -0.00062865065 0.004109246 0.00323127 -0.0012696983 0.0019316431 0.0013909857 0.006705944
0.0051932745 0.0040629595 0.0043386533 0.0040170713 0.0057915486 0.0032493195 0.0045928163 0.0044890544
0.0028334332 0.003458157 0.0037420082 0.04145616 0.0022745596 0.003752169 0.036311384 0.005286563
0.0016512995 0.0038302883 0.002967679 -8.245845e-07 0.00466527 0.00399578 0.0033566463 0.0031453487
-0.00077092386 0.003261864 0.0020234622 0.004544214 0.0020611591 -7.886158e-06 -9.3882745e-06 0.0025355823
0.00276272 0.0025292775 0.0026479505 0.0037760588 0.003570278 0.0036129192 0.0047499486 0.0015155091
0.0028141607 0.0039178743 0.0026140849 0.0030100083 -2.3422699e-05 0.0036154045 0.0039655333 0.0027394956
0.028307682 0.0029899268 0.003518194 0.002509057 0.0040987493 -0.00010057256 -7.022278e-06 0.0038933037
0.3368781 -0.0006265219 0.0033678552 0.0021128177 -0.0012554614 0.0011436738 0.0005457825 0.0054900623
0.0039486005 0.0032229798 0.0032576378 0.0031790964 0.0050953086 0.0024081888 0.004081206 0.0037770772
0.002673988 0.0006795243 0.0029975597 0.060397483 0.0038808892 0.0006231534 -0.05850977 -0.002013267
-0.0035278392 -0.0006955057 0.0017470145 5.1985848e-05 -0.0017000159 -0.003061372 -0.0006600257 0.0026017798
0.0045746826 -0.0023551993 0.0015384711 -0.00028303295 -0.0030638683 0.00031304694 -3.9472725e-05 0.0008730561
0.0020363808 0.003188792 -0.005194822 0.0010326236 -0.001845389 -0.0017824784 0.0010677996 0.0025594598
0.00023510498 -0.002423293 -0.0023746758 -0.004253336 -0.00015890096 0.00094750867 -0.0029376366 -0.00095819833
-0.020665986 0.0019071206 0.0012619034 0.0026963514 0.002076554 -0.0015522316 -0.00035713665 -0.00014054865
-0.0076153367 -0.0035830587 -0.0030617714 0.0029732804 -8.49428e-05 0.0010031303 -0.0030190193 -0.0027285628
0.002616751 0.00023548587 0.00075405306 -0.00049624103 -0.0018809568 -0.0014638872 -0.0023931435 -0.0011324
0.0038549071 0.0040765763 0.004863977 0.06508095 0.0032685786 0.0048824744 0.058416974 0.006175628
0.0023106022 0.0047572716 0.0038400546 -7.825289e-07 0.0054920088 0.0049388856 0.004481543 0.00420648
-0.00076256157 0.0042020367 0.002591893 0.0058756317 0.0030689114 -7.188621e-06 -1.0310829e-05 0.0035853484
0.0037290107 0.0033176313 0.0038398935 0.0049750283 0.004692225 0.0047022435 0.0056801587 0.0021858565
0.0037065088 0.0052782665 0.0038558207 0.0039301096 -2.2697643e-05 0.0045680376 0.0048326347 0.0039552897
0.124063134 0.0038000273 0.004161611 0.0036743768 0.00483497 -9.8961944e-05 -6.9722164e-06 0.004825747
0.29476517 -0.0006287144 0.0041063256 0.0032283575 -0.0012697579 0.0019288578 0.0013899532 0.0067020953
0.0051920256 0.004062744 0.004340023 0.0040157177 0.0057937126 0.0032484077 0.0045921514 0.004488357
00000000: b6b5 7c3b 7996 853b d670 9f3b 82bc 843d
00000010: c04e 563b 490a a03b 2e6c 6e3d 5a7e ca3b
00000020: ea81 173b 80f0 9b3b e1b6 7b3b 3b3d 52b5
00000030: 48ed b33b 56f6 a13b caf8 923b 35ea 893b
00000040: 82e4 47ba bac5 893b 61f8 293b d18a c03b
00000050: 3044 493b 0227 f1b6 0f7a 2cb7 031b 6b3b
00000060: 0f8c 743b a982 593b 61c0 7b3b 6218 a33b
00000070: 40cf 993b e51e 9a3b 3208 ba3b e84c 0f3b
00000080: 80f0 723b 900e ad3b d2ee 7c3b 0ed4 803b
00000090: df64 beb7 07b5 953b 8a71 9e3b 95ae 813b
000000a0: 6a6b e83d ad43 793b dd72 883b 4edf 703b
000000b0: 3581 9e3b 4698 cfb8 c705 eab6 413c 9e3b
000000c0: 8b88 633e 08cc 24ba dba6 863b b7c3 533b
000000d0: 016c a6ba 302f fd3a bc51 b63a 89bd db3b
000000e0: 582c aa3b 9322 853b 432b 8e3b a3a1 833b
000000f0: 08c7 bd3b 89f2 543b 567f 963b eb18 933b
00000100: 1fb1 393b 3fa2 623b 7b3c 753b efcd 293d
00000110: c710 153b f3e6 753b 3fbb 143d e83a ad3b
00000120: 6b70 d83a 9305 7b3b 647d 423b 0459 5db5
00000130: 1fdf 983b 08ef 823b 2efb 5b3b 3222 4e3b
00000140: d317 4aba ffc4 553b 109c 043b a1e7 943b
00000150: 8314 073b ca4e 04b7 5582 1db7 032c 263b
00000160: c00e 353b 3cc2 253b 3d89 2d3b c177 773b
00000170: 53fb 693b bac6 6c3b 75a5 9b3b 0ca4 c63a
00000180: c86d 383b 8361 803b 1151 2b3b 8f43 453b
00000190: dd7b c4b7 6cf0 6c3b 4ef1 813b 1c89 333b
000001a0: 83e5 e73c a6f2 433b 8091 663b fe6e 243b
000001b0: cd4e 863b 7bea d2b8 e9a0 ebb6 cc26 7f3b
000001c0: 497b ac3e 2c3d 24ba 3cb7 5c3b 3377 0a3b
000001d0: 4b8e a4ba 53e7 953a d812 0f3a fbe5 b33b
000001e0: 4363 813b a138 533b 187e 553b 6358 503b
000001f0: 8cf6 a63b b4d2 1d3b a3bb 853b d788 773b
00000200: 133e 2f3b 1b22 323a b572 443b 5a63 773d
00000210: 8456 7e3b 1e5b 233a f1a7 6fbd 04f1 03bb
00000220: 5233 67bb 9952 36ba 14fc e43a 610b 5a38
00000230: 11d3 deba 4da1 48bb 9305 2dba 9f82 2a3b
00000240: 38e7 953b b059 1abb 86a6 c93a 0a64 94b9
00000250: 2ecb 48bb 7320 a439 848f 25b8 cedd 643a
00000260: cd74 053b 0dfb 503b 5339 aabb 1959 873a
00000270: fbe0 f1ba 0da2 e9ba 69f5 8b3a 9cbc 273b
00000280: 8386 7639 1cd0 1ebb 73a0 1bbb 925f 8bbb
00000290: a79e 26b9 3b62 783a 5d85 40bb 9a2f 7bba
000002a0: b74b a9bc 59f8 f93a 7466 a53a 45b5 303b
000002b0: cc16 083b 4074 cbba 123e bbb9 3e60 13b9
000002c0: 138a f9bb c0d1 6abb 00a8 48bb 5edb 423b
000002d0: 5223 b2b8 787b 833a bdda 45bb b0d1 32bb
000002e0: cc7d 2b3b c2ec 7639 a5ab 453a 2c16 02ba
000002f0: 708a f6ba e7df bfba 49d6 1cbb 0a6d 94ba
00000300: 9ca2 7c3b cd94 853b ff61 9f3b 2949 853d
00000310: a635 563b 2afd 9f3b a346 6f3d ec5c ca3b
00000320: 796d 173b e3e2 9b3b 6da9 7b3b fa0e 52b5
00000330: 4ff6 b33b 60d6 a13b e8d9 923b 83d6 893b
00000340: a4e6 47ba 3db1 893b c0dc 293b 5f88 c03b
00000350: ca1f 493b c935 f1b6 acfc 2cb7 2af8 6a3b
00000360: 6b62 743b 9e6c 593b b9a6 7b3b 9005 a33b
00000370: 3cc1 993b 4715 9a3b a020 ba3b 9640 0f3b
00000380: e6e8 723b 4ff5 ac3b f0b1 7c3b 26c8 803b
00000390: d166 beb7 7aaf 953b 145b 9e3b 609b 813b
000003a0: d014 fe3d e109 793b 205e 883b d0cd 703b
000003b0: ab6e 9e3b ca89 cfb8 e2f2 e9b6 4d21 9e3b
000003c0: 76eb 963e 4fd0 24ba 5b8e 863b da92 533b
000003d0: 016e a6ba bad1 fc3a 172f b63a 409d db3b
000003e0: de21 aa3b c420 853b c036 8e3b 4896 833b
000003f0: 2fd9 bd3b 3de3 543b c279 963b 1113 933b

lstm.weight_ih_l0_reverse f4 [256, 6]
-3.933056e-06 -3.1241016e-06 -4.183975e-06 -3.358823e-06 -3.2814257e-06 -4.3661444e-06 -2.1190843e-07 -1.8108707e-07
-2.1871054e-07 -2.2503664e-07 -2.4067313e-07 -2.1161335e-07 -1.2527879e-08 8.87953e-09 -7.802165e-09 -5.3968674e-09
4.944702e-09 -1.1744324e-08 -1.239669e-13 1.7870947e-14 -1.5577333e-13 -4.075773e-14 -1.2374402e-13 -1.7038804e-13
-1.6802819e-13 -1.4700674e-13 -1.7936306e-13 -1.6449545e-13 -1.6505646e-13 -1.7953228e-13 -2.255621e-05 -2.3165634e-05
-2.5175967e-05 -2.1723696e-05 -2.2333175e-05 -2.5819467e-05 -1.1276285e-06 -1.2578248e-06 -1.0168706e-06 -1.2548837e-06
-1.1119978e-06 -1.0593473e-06 -3.0567115e-08 -2.7131604e-08 -3.3290167e-08 -2.8512002e-08 -2.9091352e-08 -3.464446e-08
4.277152e-05 -1.2631415e-05 3.7783953e-05 1.6654303e-05 -7.83692e-06 5.687595e-05 -1.3002684e-06 -4.201691e-06
-1.2907608e-06 -3.5687503e-06 -4.6579007e-06 -1.8802667e-06 -7.538631e-12 -6.295336e-12 -7.583882e-12 -6.994895e-12
-5.5629694e-12 -7.712371e-12 -1.6876962e-14 -1.3741148e-14 -1.640278e-14 -1.56754e-14 -1.685489e-14 -1.836936e-14
2.032335e-13 1.286867e-13 2.2603711e-13 1.1188699e-13 3.0282068e-14 2.494943e-13 2.7011792e-08 2.362683e-08
2.267701e-08 1.4819615e-08 -9.53154e-10 2.2540819e-08 4.3373634e-06 -1.7895323e-05 6.742757e-06 -1.2448679e-05
-3.341142e-05 4.602213e-06 -3.84576e-07 -2.7213386e-07 -1.661289e-07 -5.987191e-07 -5.5255657e-07 -3.0001732e-07
-7.0732815e-09 -1.1029452e-08 -8.641936e-09 -1.7429238e-08 -1.9335452e-08 4.000607e-09 -1.5423524e-11 -1.3176507e-11
-1.4451193e-11 -1.4125323e-11 -1.0996887e-11 -1.4810124e-11 -2.82914e-06 -3.760606e-06 -3.1412058e-06 -3.431975e-06
-2.5692245e-06 -1.6103105e-06 -1.2474695e-14 -5.0908438e-15 -9.093054e-15 -9.259853e-15 -1.3648446e-14 -1.480152e-14
-7.6289746e-07 -6.5482345e-07 -7.549298e-07 -7.7483816e-07 -6.813753e-07 -7.6551123e-07 -0.000118945776 -0.00011177506
-0.0001190309 -0.0001222705 -0.00011458737 -0.000116793206 1.1519099e-06 8.5930543e-07 1.0007532e-06 9.866593e-07
7.4235646e-07 8.035641e-07 -8.5205335e-07 -7.8501864e-07 -8.72721e-07 -8.6264646e-07 -7.4739137e-07 -8.621579e-07
5.4478143e-08 -3.5119376e-07 1.2306218e-07 -2.3515842e-07 -4.3740943e-07 1.0791841e-07 2.1101852e-05 3.628337e-05
3.34227e-05 2.5029844e-05 2.2516295e-05 2.1300526e-05 1.4379925e-09 -4.0163364e-10 4.2745907e-10 -6.443404e-11
-1.5401408e-09 5.487604e-10 -1.7357024e-13 -1.5287919e-13 -1.6089856e-13 -1.666763e-13 -1.5638173e-13 -1.7502682e-13
-1.0636713e-12 -1.369195e-12 -1.1384279e-12 -1.1377933e-12 -9.032303e-13 -1.2198238e-12 -7.68205e-08 1.4141835e-07
5.012504e-07 -3.972556e-07 -2.6713698e-07 2.1098467e-07 -6.724531e-05 -5.676728e-05 -6.9698894e-05 -6.138352e-05
-5.9111946e-05 -7.424312e-05 7.658626e-16 6.4895196e-16 7.54594e-16 6.765223e-16 3.124205e-16 6.8395486e-16
-5.336381e-09 -4.4211643e-09 -9.010186e-09 -4.931475e-09 -7.1594597e-09 -7.481184e-09 -1.7261236e-08 -1.7244815e-08
-2.0482046e-08 -1.7115607e-08 -1.3965508e-08 -1.936258e-08 -5.859777e-12 -5.893678e-12 -5.9651064e-12 -5.487257e-12
-4.946044e-12 -6.3453695e-12 -1.0156663e-05 -3.2692657e-05 -1.2749892e-05 -3.3398414e-05 -4.4110835e-05 1.6000599e-06
-1.9255115e-08 1.3365972e-09 -1.479197e-08 -3.991869e-09 -1.1139277e-08 -1.325393e-08 -4.7308584e-09 -1.673236e-08
-5.93586e-09 -1.5402604e-08 -1.5813026e-08 7.233299e-10 -3.2405996e-08 -3.2818726e-08 -3.3076702e-08 -3.3131037e-08
-3.1303593e-08 -3.384338e-08 8.676907e-16 7.489543e-16 8.07817e-16 7.745475e-16 5.3711174e-16 9.351206e-16
-1.448061e-10 -1.1616384e-10 -1.387207e-10 -1.3119339e-10 -1.05472506e-10 -1.4301182e-10 -3.168732e-11 3.4032496e-11
-1.4480268e-11 -1.0339222e-11 3.4895458e-11 -2.5080243e-11 -4.5602994e-07 -4.057099e-07 -3.1957546e-07 -5.156654e-07
00000000: b2f8 83b6 a8a7 51b6 1264 8cb6 2468 61b6
00000010: 7736 5cb6 e580 92b6 f288 63b4 d670 42b4
00000020: b2d6 6ab4 9aa1 71b4 dd35 81b4 d637 63b4
00000030: 323a 57b2 968c 1832 490a 06b2 596f b9b1
00000040: 0fe6 a931 15c4 49b2 0793 0baa 99f7 a028
00000050: 9b62 2faa 778e 37a9 c952 0baa 02d7 3faa
00000060: d42e 3daa cf83 25aa e2f1 49aa 9634 39aa
00000070: 49d6 39aa a822 4aaa 1837 bdb7 d253 c2b7
00000080: fa30 d3b7 483b b6b7 2158 bbb7 e296 d8b7
00000090: 0559 97b5 88d2 a8b5 687b 88b5 7a6d a8b5
000000a0: f43f 95b5 e52e 8eb5 e648 03b3 070f e9b2
000000b0: edfa 0eb3 8eea f4b2 8fe4 f9b2 fdcb 14b3
000000c0: 9265 3338 84eb 53b7 367a 1e38 d8b4 8b37
000000d0: 517b 03b7 168e 6e38 e284 aeb5 40fc 8cb6
000000e0: 343e adb5 aa7e 6fb6 104b 9cb6 795d fcb5
000000f0: fa9e 04ad 597f ddac c56a 05ad 6a1c f6ac
00000100: c6ba c3ac 6ead 07ad a003 98a8 dc89 77a8
00000110: 3cbe 93a8 0331 8da8 bbd0 97a8 dc74 a5a8
00000120: 11d2 642a 6ae3 102a c37e 7e2a 75f2 fb29
00000130: d960 0829 eb73 8c2a 8f07 e832 f3f3 ca32
00000140: 46cb c232 5b99 7e32 2000 83b0 c99f c132
00000150: ab89 9136 ea1d 96b7 d73f e236 abda 50b7
00000160: 3d23 0cb8 b56c 9a36 b977 ceb4 cb19 92b4
00000170: 2a61 32b4 aab7 20b5 6653 14b5 1112 a1b4
00000180: 3e09 f3b1 0b7c 3db2 a377 14b2 4db7 95b2
00000190: 1c17 a6b2 b675 8931 b0aa 87ad b6cd 67ad
000001a0: 633a 7ead cd7e 78ad 9475 41ad 6f45 82ad
000001b0: 41dc 3db6 b85e 7cb6 81cd 52b6 e250 66b6
000001c0: f16a 2cb6 d921 d8b5 60b9 60a8 bf6a b7a7
000001d0: 4fce 23a8 89cf 26a8 59de 75a8 fb51 85a8
000001e0: eac9 4cb5 20c7 2fb5 61a6 4ab5 79fe 4fb5
000001f0: c1e7 36b5 887d 4db5 8772 f9b8 c768 eab8
00000200: 3aa0 f9b8 bd35 00b9 a04e f0b8 e0ee f4b8
00000210: 539b 9a35 05ab 6635 9e51 8635 5b6d 8435
00000220: 5946 4735 81b4 5735 a9b8 64b5 12ba 52b5
00000230: ee44 6ab5 9d90 67b5 58a0 48b5 0a6f 67b5
00000240: 5afb 6933 b48b bcb4 1323 0434 db7f 7cb4
00000250: 18d5 eab4 c6c0 e733 e203 b137 f92e 1838
00000260: 5a2f 0c38 2ef7 d137 60e1 bc37 88ae b237
00000270: dda2 c530 e9cc dcaf 84ff ea2f 24b1 8dae
00000280: e3ac d3b0 95d7 1630 376c 43aa 6d20 2caa
00000290: da27 35aa 2ca9 3baa f711 30aa 0c10 45aa
000002a0: ccb2 95ab 73b2 c0ab 3038 a0ab 5321 a0ab
000002b0: 9a3c 7eab c9ac abab 84f8 a4b3 c8d8 1734
000002c0: aa8d 0635 6546 d5b4 076b 8fb4 068b 6234
000002d0: 0d06 8db8 6719 6eb8 4f2b 92b8 07bb 80b8
000002e0: f8ee 77b8 f9b2 9bb8 afbe 5c26 340c 3b26
000002f0: 367f 5926 89fe 4226 2119 b425 f622 4526
00000300: 4e5b b7b1 f9e8 97b1 38cb 1ab2 b671 a9b1
00000310: 46ff f5b1 9886 00b2 dc45 94b2 c021 94b2
00000320: 7ff0 afb2 9e05 93b2 f4ec 6fb2 c452 a6b2
00000330: 2e2c ceac 885d cfac e7e0 d1ac d110 c1ac
00000340: 0106 aeac 0242 dfac 8966 2ab7 791f 09b8
00000350: 5fe8 55b7 4615 0cb8 a603 39b8 a4c1 d635
00000360: 7266 a5b2 55b3 b730 c61f 7eb2 da28 89b1
00000370: 0f5f 3fb2 67b3 63b2 128d a2b1 d9ba 8fb2
00000380: 60f4 cbb1 af4e 84b2 36d5 87b2 d1d3 4630
00000390: c52e 0bb3 92f4 0cb3 3810 0eb3 f64b 0eb3
000003a0: aa72 06b3 315b 11b3 4618 7a26 13df 5726
000003b0: 60d6 6826 853f 5f26 dacf 1a26 dcc3 8626
000003c0: 4b37 1faf 6e72 ffae 6886 18af a83f 10af
000003d0: beef e7ae 403e 1daf c05c 0bae 2fad 152e
000003e0: 54bd 7ead b7e3 35ad cb78 192e b09b dcad
000003f0: 47d4 f4b4 58d0 d9b4 1e92 abb4 426c 0ab5

lstm.weight_hh_l0_reverse f4 [256, 64]
-7.7236475e-09 -1.6708261e-09 7.1617248e-12 2.7320383e-12 2.2813652e-13 -1.3881699e-08 1.6750985e-09 2.325032e-10
2.8343985e-08 -4.8911306e-09 -3.5484003e-12 -2.6364568e-14 -2.0722632e-12 2.6415106e-10 1.4589328e-08 -3.7107079e-10
6.4394475e-12 -4.412097e-12 6.7882318e-09 1.9109321e-13 8.539307e-11 3.046104e-08 -2.4734703e-10 -1.8720052e-09
-4.7474447e-09 5.879574e-09 -4.0950954e-11 3.7585896e-13 -1.950525e-12 -3.5898762e-10 -2.1457128e-08 -7.093151e-14
-1.2105526e-10 2.2667866e-10 -6.753209e-13 -3.0734512e-08 -6.805644e-11 3.106253e-10 1.8462839e-11 9.543112e-14
-2.0324714e-11 1.0144985e-11 -1.1479918e-10 -1.0940548e-10 -2.0369988e-08 2.6320165e-11 -1.7557174e-10 -1.287655e-12
-2.1546667e-09 1.9660248e-10 2.4774206e-12 -2.2072394e-13 5.3440922e-11 5.6238825e-10 -3.5290446e-09 -5.3374135e-11
4.3760315e-11 3.1290307e-11 -1.1184295e-08 -4.41323e-12 -2.6838617e-08 1.846953e-10 6.2396976e-09 -7.384803e-11
-2.12598e-10 -6.146361e-11 2.9185903e-12 1.0311936e-13 1.6185868e-14 -5.279048e-10 8.206657e-11 1.0540574e-11
1.2356856e-09 -2.4749153e-10 -1.4009658e-13 4.3517406e-15 -7.334062e-14 1.2370243e-11 5.7295324e-10 1.4917248e-11
-4.418837e-13 -1.7528016e-13 2.3494803e-10 1.08722295e-14 3.8594804e-12 1.268388e-09 5.2456308e-12 -8.6825894e-11
-1.7229619e-10 1.4183726e-10 -4.85828e-13 1.1245751e-14 -6.604463e-14 -2.3848394e-11 -7.7530576e-10 -1.8774002e-15
-4.60721e-12 1.0313639e-11 -8.835628e-15 -7.168881e-10 -1.995477e-12 8.936885e-12 1.2309437e-13 2.9304653e-15
-7.828882e-13 5.255809e-13 -8.2593776e-12 -4.461842e-12 -6.308249e-10 -2.6419077e-12 -4.5163743e-12 -4.9918796e-14
-1.07840153e-10 8.791007e-12 -3.516002e-13 -7.893143e-15 2.3683076e-12 2.8399488e-11 -1.1508344e-10 -5.4133187e-12
1.4860006e-12 8.3228964e-13 -6.017811e-10 -2.588123e-13 -1.4279613e-09 5.9274556e-12 3.7779993e-10 -3.5678667e-12
2.7927275e-11 1.4181905e-11 5.051448e-11 9.2337535e-15 1.5082586e-16 -2.60329e-12 -2.6337133e-12 1.673971e-14
3.0311183e-12 8.5140575e-12 -1.3467281e-15 2.1358196e-15 -1.1253701e-14 -2.0889071e-10 4.7419616e-12 1.773372e-11
-1.468304e-10 -3.0093105e-14 -1.9999849e-11 -1.9640636e-16 -1.9589585e-11 3.1760573e-12 -2.1482703e-11 2.0407692e-14
3.1804448e-12 -4.3575746e-12 -3.3081784e-11 -2.520928e-15 -7.743418e-15 2.8506775e-11 -2.3921132e-12 1.9624141e-16
-2.7431763e-12 -1.9433007e-11 -5.5481247e-15 -5.616515e-14 5.179651e-11 -4.774419e-13 -2.0772016e-15 -2.261968e-15
1.3352638e-15 2.8260946e-12 -1.328305e-10 -1.8795159e-12 -1.2699841e-12 -5.646583e-11 -5.0263658e-11 -5.051016e-14
2.7068016e-12 -2.7994487e-11 -5.4977104e-12 -4.8583093e-17 2.4120317e-12 5.2638498e-11 -1.5019216e-13 -1.3525997e-10
7.172773e-15 1.0555758e-15 -4.7007008e-12 -2.8546423e-12 -5.22594e-12 -6.3197505e-13 1.7318008e-12 8.894527e-13
-4.8391e-16 -1.3122864e-16 -7.252324e-18 3.8917604e-19 5.518011e-20 -1.7567381e-15 -6.087002e-17 2.8140698e-17
4.0631603e-15 -4.7343567e-16 -4.430139e-19 2.7881827e-21 -2.5507554e-19 5.349431e-18 3.89796e-15 3.5135557e-16
2.423247e-18 -3.5418351e-19 -1.4817359e-17 6.278731e-20 -2.9851847e-17 3.9106647e-15 2.7002436e-17 -4.605458e-16
-6.659413e-16 -2.705562e-15 2.2747113e-18 3.6600325e-20 7.5517234e-20 -1.32459e-19 -2.908833e-15 5.8379136e-21
1.2233764e-18 1.2055304e-17 3.6921912e-19 -5.382051e-16 -5.354628e-18 7.33272e-17 1.1236183e-17 -1.4207459e-21
-2.5575988e-18 1.3390995e-18 8.9017695e-18 -7.212694e-18 -1.318251e-16 4.792532e-18 -3.488982e-18 -1.2462885e-19
-4.720546e-16 -2.2080662e-17 1.5868487e-17 -2.988789e-20 3.1311427e-18 4.064781e-17 -3.358507e-16 -5.1273994e-18
4.0218282e-18 6.2268135e-19 -2.5328468e-15 1.0097723e-18 -4.913668e-15 2.898489e-18 2.2875366e-15 -1.17118336e-17
00000000: f6b0 04b2 f8a2 e5b0 15fb fb2c 0740 402c
00000010: f06d 802a 5c7c 6eb2 4a39 e630 d5a3 7f2f
00000020: 1579 f332 d70e a8b1 4cb2 79ac 8e78 eda8
00000030: 93d2 11ac f537 912f 8ba4 7a32 92ff cbaf
00000040: 6391 e22c a33c 9bac eb3d e931 de26 572a
00000050: 06c8 bb2e 45d4 0233 00fb 87af aaa4 00b1
00000060: f71e a3b1 4805 ca31 ad1a 34ae fc96 d32a
00000070: 8941 09ac 045b c5af b950 b8b2 3bb9 9fa9
00000080: 071a 05af 5f3c 792f 0016 3eab f400 04b3
00000090: 5fa8 95ae a0c4 aa2f 9e66 a22d 4ce4 d629
000000a0: 30c7 b2ad f378 322d 3172 fcae cf95 f0ae
000000b0: 14fa aeb2 be83 e72d 0d0b 41af a938 b5ab
000000c0: 4c11 14b1 ae2a 582f 3e55 2e2c 5883 78aa
000000d0: 2109 6b2e 8e96 1a30 9c83 72b1 efbd 6aae
000000e0: bc75 402e c19d 092e 0d25 40b2 d846 9bac
000000f0: be8a e6b2 1b13 4b2f f664 d631 bf64 a2ae
00000100: 04c1 69af f028 87ae a660 4d2c 4434 e829
00000110: 12ca 9128 ff1b 11b0 5f77 b42e 866e 392d
00000120: d2d4 a930 560f 88af 17bc 1daa b9c9 9c27
00000130: fd25 a5a9 9f9e 592d 007e 1d30 a836 832d
00000140: 27c2 f8aa 1159 45aa ff29 812f 4fdb 4328
00000150: 1ccb 872c 6f53 ae30 7190 b82c a2ee beae
00000160: 1171 3daf a4f3 1b2f 99bf 08ab df95 4a28
00000170: 23b8 94a9 cfc5 d1ad 4b1d 55b0 ec47 07a7
00000180: 0f1a a2ac 8070 352d 242b 1fa8 840e 45b0
00000190: 516b 0cac 2738 1d2d 8997 0a2a 8b29 5327
000001a0: 0a5d 5cab 18f0 132b ee4c 11ad b3fc 9cac
000001b0: 5b66 2db0 61e8 39ac e2e7 9eac 74d0 60a9
000001c0: 9c24 edae 2da7 1a2d eeee c5aa b230 0ea8
000001d0: a3a7 262c f6cd f92d 3812 fdae d776 beac
000001e0: d022 d12b ca44 6a2b 956a 25b0 c9b2 91aa
000001f0: ec41 c4b0 c68d d02c 9db2 cf2f f910 7bac
00000200: a2a6 f52d 9f7d 792d 402a 5e2e 2c57 2628
00000210: f0e3 2d25 b430 37ac c354 39ac 25c7 9628
00000220: c64b 552c e8c7 152d 7f15 c2a6 ebe6 1927
00000230: 89ba 4aa8 82ad 65af cbd7 a62c cafc 9b2d
00000240: 1571 21af fd86 07a9 a8eb afad ed70 62a5
00000250: d34f acad c37e 5f2c bff6 bcad efd0 b728
00000260: cdcd 5f2c 8b51 99ac c77e 11ae eaa6 35a7
00000270: 367e 0ba8 8dbf fa2d 7b54 28ac 3e40 6225
00000280: ac08 41ac 3eef aaad 6be4 c7a7 02f2 7ca9
00000290: b0cd 632e 5163 06ab 9bad 15a7 f2fd 22a7
000002a0: 8a6e c026 65de 462c 760c 12af 5942 04ac
000002b0: 00bc b2ab df56 78ae d90f 5dae 407a 63a9
000002c0: 6779 3e2c fb3d f6ad f96e c1ac cb0c 60a4
000002d0: 4dbb 292c ae81 672e f119 29aa 4cb8 14af
000002e0: 9436 0128 e01f 9826 2664 a5ac aae0 48ac
000002f0: 15df b7ac 9ae2 31ab b3ba f32b d25b 7a2b
00000300: 417a 0ba6 dc4b 17a5 22c8 05a3 9fba e520
00000310: 544a 821f 322c fda6 515b 8ca4 acc6 0124
00000320: 0a64 9227 6375 08a6 2fc1 02a1 4cab 521d
00000330: ed91 96a0 f35b c522 5670 8c27 ee8a ca25
00000340: d7cd 3222 b312 d1a0 80aa 88a3 9a40 941f
00000350: d7aa 09a4 84e5 8c27 b30d f923 48be 04a6
00000360: cbf1 3fa6 cff4 42a7 15d8 2722 14d7 2c1f
00000370: 5e4f b21f 4761 1ca0 7f9a 51a7 d68c dc1d
00000380: db89 b421 9061 5e23 d1f2 d920 8720 1ba6
00000390: 088d c5a2 bd14 a924 6045 4f23 72b2 d69c
000003a0: adb7 3ca2 c09d c521 6b35 2423 fc0c 05a3
000003b0: e7fb 17a5 2fd0 b022 81b8 80a2 c222 13a0
000003c0: 7b0f 08a6 7da8 cba3 685c 9223 3e24 0d9f
000003d0: 9d09 6722 7774 3b24 d19a c1a5 eb2a bda2
000003e0: 1861 9422 79c8 3721 c782 36a7 1e04 9521
000003f0: 9708 b1a7 e9de 5522 9ad5 2427 920b 58a3

lstm.bias_ih_l0_reverse f4 [256]
-5.398918e-06 -1.6348517e-07 1.1102312e-08 -9.087783e-13 -2.985122e-13 -2.7648834e-05 2.121243e-06 -5.3895583e-08
6.2160296e-05 -7.3346005e-06 -1.6708787e-11 -4.182577e-14 -1.3716112e-13 -1.2885644e-07 1.9827252e-05 9.0246164e-07
-2.275835e-08 -3.377501e-11 6.335245e-06 -7.9153054e-14 -8.5829095e-07 -0.00013338804 1.7978058e-06 2.82227e-07
1.585515e-06 -7.000781e-05 3.7566814e-10 -3.590834e-13 -1.6271985e-12 1.0738177e-06 -4.4277807e-05 -2.7037815e-15
-7.1155515e-10 -1.2879388e-08 -5.8831312e-12 1.670305e-05 1.2455783e-08 4.7510888e-08 -3.0273442e-09 -1.7280237e-15
-3.588103e-10 4.7089953e-11 -2.690591e-07 8.2067064e-10 2.0708025e-05 1.4708665e-07 -1.8321963e-07 1.211419e-13
5.572761e-06 1.5444152e-07 1.8738122e-09 -2.218277e-15 2.514094e-10 -1.2062796e-07 2.0579175e-06 3.426034e-09
-9.328975e-11 2.5595054e-10 -2.4122934e-05 -1.8308771e-10 -0.00031235596 -8.356067e-09 8.906123e-06 -3.5644703e-09
-2.296548e-06 -1.7735432e-07 -9.295971e-09 -7.8031894e-14 -1.2549781e-13 -1.7954544e-05 -9.0149763e-07 -1.8609098e-08
-5.9695874e-05 -6.362247e-06 -4.1492647e-12 -1.26993185e-14 -8.797077e-14 3.6146588e-08 -3.4514625e-05 -5.877144e-07
-1.6570565e-08 -8.38544e-12 -2.0380269e-06 -1.6375295e-14 -6.927476e-07 -9.517562e-05 7.49491e-07 -4.7788166e-07
-7.020033e-07 9.277783e-06 4.2277648e-10 -1.1591261e-13 -8.552661e-13 -4.6995456e-07 -4.0633837e-05 -4.54221e-16
-2.44388e-09 -2.4693646e-08 -3.2203639e-12 -6.268402e-05 -9.655805e-09 -2.0319394e-08 -2.5746546e-08 -6.311133e-17
-7.119291e-11 -4.347937e-11 -5.6449926e-07 -7.2710743e-10 -6.9917594e-05 -2.786212e-07 -1.2443742e-07 -1.144618e-13
-4.5190234e-08 -4.0805523e-07 -1.4499124e-09 7.6070986e-16 -3.804592e-10 -8.9162945e-08 -6.976075e-07 -7.978606e-09
7.025293e-12 -4.9729984e-11 -3.2194792e-05 -1.6065659e-10 4.46109e-05 -1.6013063e-09 -1.30175285e-05 -3.5312016e-09
-0.0002619437 0.0001084938 2.531937e-05 -2.7528468e-08 -9.9592555e-08 0.0009942993 -5.364786e-05 -4.07315e-05
-0.00025524246 -0.00064834004 7.8030325e-07 -1.273669e-08 -4.446685e-08 -0.00013917238 0.00048185588 -0.00011565494
-7.676765e-05 8.4875273e-07 0.00016282362 -1.4534455e-08 0.00042395387 -0.002398457 -0.0011009226 -9.013698e-06
-3.7836282e-05 -0.00082749675 -1.9438383e-05 1.2213194e-07 3.4845664e-07 -0.0008956434 -0.0017634798 -1.4807445e-09
-3.623174e-05 8.23079e-05 7.6348084e-07 2.0056581e-05 -3.8505977e-06 8.4881385e-06 -1.0540933e-05 -3.10042e-09
2.8037402e-06 3.081426e-06 -0.0004984587 -4.6925074e-06 0.0014293496 -0.0006636928 -0.0001696455 -3.1776963e-08
-6.851279e-05 0.0009036824 1.0522888e-05 4.8312696e-09 6.691527e-06 0.00015062814 -0.00012626803 -1.1255391e-05
-1.0078795e-06 3.3004042e-06 1.0517307e-05 -7.900471e-06 0.0018753775 -1.2649555e-05 0.00021449772 -2.9388382e-05
-5.3980216e-06 -1.6354738e-07 1.1033344e-08 -9.0859763e-13 -2.984747e-13 -2.7647393e-05 2.1215287e-06 -5.3893906e-08
6.18783e-05 -7.3357287e-06 -1.670819e-11 -4.1823743e-14 -1.3782022e-13 -1.2934157e-07 1.9765203e-05 9.0322044e-07
-2.2760211e-08 -3.3776704e-11 6.3216557e-06 -7.914984e-14 -8.57828e-07 -0.00013344314 1.7977221e-06 2.829255e-07
1.584125e-06 -7.000177e-05 3.5791414e-10 -3.5919003e-13 -1.6276825e-12 1.0761418e-06 -4.4201322e-05 -2.7057415e-15
-7.077653e-10 -1.2888973e-08 -5.8821637e-12 1.6466107e-05 1.2595632e-08 4.74809e-08 -2.9881533e-09 -1.7255349e-15
-3.588624e-10 4.6806174e-11 -2.6669673e-07 8.200437e-10 2.0654688e-05 1.4683432e-07 -1.8322656e-07 1.2099191e-13
5.567121e-06 1.5489343e-07 1.8677953e-09 -2.208139e-15 2.511226e-10 -1.2060943e-07 2.0573727e-06 3.3266878e-09
-9.3418925e-11 2.5562202e-10 -2.4119823e-05 -1.8316558e-10 -0.00031265154 -8.356506e-09 8.887253e-06 -3.5649688e-09
00000000: 5a28 b5b6 768a 2fb4 7cbc 3e32 61cc 7fab
00000010: 240c a8aa 6bef e7b7 ad5a 0e36 d27a 67b3
00000020: 0e5c 8238 bd1b f6b6 d8f8 92ad d45d 3ca9
00000030: 006e 1aaa ca5b 0ab4 b352 a637 b140 7235
00000040: 247e c3b2 488b 14ae 5793 d436 a13c b2a9
00000050: 4e65 66b5 14de 0bb9 234c f135 fc84 9734
00000060: e1cd d435 28d1 92b8 9786 ce2f 5f25 caaa
00000070: 0102 e5ab 1820 9035 efb6 39b8 f7d3 42a7
00000080: 3e97 43b0 2644 5db2 89fe ceac 871d 8c37
00000090: 1dfd 5532 c60e 4c33 9a09 50b1 d208 f9a6
000000a0: 0f42 c5af 931a 4f2e 3373 90b4 9095 6130
000000b0: 25b6 ad37 dfee 1d34 07bb 44b4 c764 082a
000000c0: a7fd ba36 90d4 2534 74c4 0031 fdd7 1fa7
000000d0: ba36 8a2f f685 01b4 c11a 0a36 6d6f 6b31
000000e0: 7625 cdae d6b5 8c2f 9b5b cab7 9c4e 49af
000000f0: b5c3 a3b9 5f8e 0fb2 826b 1537 d3f2 74b1
00000100: 651e 1ab6 c96e 3eb4 1db4 1fb2 53b6 afa9
00000110: 484c 0daa 179d 96b7 72fe 71b5 d7d9 9fb2
00000120: f561 7ab8 497b d5b6 41fd 91ac 45c5 64a8
00000130: b217 c6a9 983f 1b33 ccc3 10b8 6dc3 1db5
00000140: 0f57 8eb2 aa84 13ad 09c5 08b6 dc7e 93a8
00000150: 41f5 39b5 0699 c7b8 a130 4935 c747 00b5
00000160: 4d71 3cb5 c6a7 1b37 806c e82f 8981 02aa
00000170: 6bbc 70ab 104e fcb4 406e 2ab8 98eb 02a6
00000180: 31f1 27b1 e71d d4b2 eb9c 62ac 3a75 83b8
00000190: aee2 25b2 d28a aeb2 4129 ddb2 5b86 91a4
000001a0: 0c8e 9cae 6b39 3fae 1888 17b5 a3dd 47b0
000001b0: b9a0 92b8 6895 95b4 199d 05b4 5edf 00aa
000001c0: 3017 42b3 af12 dbb4 4246 c7b0 7b42 5b26
000001d0: df28 d1af d979 bfb3 3943 3bb5 4812 09b2
000001e0: 372e f72c fcb6 5aae e508 07b8 cfa4 30af
000001f0: 971c 3b38 f514 dcb0 dc65 5ab7 8ea9 72b1
00000200: 7d55 89b9 2a87 e338 ef64 d437 be77 ecb2
00000210: 96df d5b3 2653 823a f303 61b8 1dd7 2ab8
00000220: 10d2 85b9 5df5 29ba 0876 5135 8ed0 5ab2
00000230: d2fb 3eb3 cdee 11b9 9aa1 fc39 c68b f2b8
00000240: 51fe a0b8 d8d5 6335 a2bb 2a39 36b3 79b2
00000250: 2046 de39 6e2f 1dbb d54c 90ba 8a39 17b7
00000260: 66b2 1eb8 5eec 58ba 9c0f a3b7 5f23 0334
00000270: 8413 bb34 9cc9 6aba 9024 e7ba 1183 cbb0
00000280: 89f7 17b8 b89c ac38 01f2 4c35 2e3f a837
00000290: 6234 81b6 4768 0e37 f6d8 30b7 2a0f 55b1
000002a0: e427 3c36 7fca 4e36 ffaa 02ba 5574 9db6
000002b0: 0459 bb3a abfb 2dba dee2 31b9 247b 08b3
000002c0: 86ae 8fb8 19e5 6c3a 768b 3037 4c00 a631
000002d0: c787 e036 eff1 1d39 d166 04b9 89d5 3cb7
000002e0: 7a46 87b5 837c 5d36 7d73 3037 448c 04b7
000002f0: 3acf f53a 6d39 54b7 cbea 6039 1287 f6b7
00000300: a720 b5b6 909b 2fb4 298d 3d32 5cbf 7fab
00000310: bd06 a8aa 53ec e7b7 965f 0e36 fa78 67b3
00000320: a9c4 8138 6e25 f6b6 80f7 92ad 7e5b 3ca9
00000330: f92b 1baa 24e1 0ab4 73cd a537 d674 7235
00000340: 3c82 c3b2 308d 14ae 9c1e d436 c73a b2a9
00000350: 7e45 66b5 dfec 0bb9 4349 f135 fce4 9734
00000360: 1f9e d435 eacd 92b8 f0c3 c42f bd34 caaa
00000370: 7113 e5ab f36f 9035 cf64 39b8 1ff8 42a7
00000380: 8e8c 42b0 4d6e 5db2 d2f5 ceac b220 8a37
00000390: 2d64 5832 cded 4b33 2658 4db1 00ad f8a6
000003a0: 6549 c5af 11db 4d2e 852e 8fb4 7269 6130
000003b0: 9b43 ad37 83a9 1d34 efbc 44b4 8b39 082a
000003c0: 35cd ba36 c850 2634 9a5a 0031 fa1c 1fa7
000003d0: 5d0e 8a2f de80 01b4 6511 0a36 b69b 6431
000003e0: 2e6e cdae 9a87 8c2f ed54 cab7 8764 49af
000003f0: 61eb a3b9 4d90 0fb2 761a 1537 98fb 74b1
