LOSO/models/model_without_subj_10.pth (torch, 549302 bytes, 18 tensors)

module.lstm.weight_ih_l0 f4 [256, 6]
0	0x3b2794e1	0.0025570916
1	0x3b50355b	0.0031770084
2	0x3b346384	0.0027525136
3	0x3b4b576d	0.0031027452
4	0x3b901e79	0.004398164
5	0x3a166d10	0.00057382975
6	0x3b1ccb89	0.0023925027
7	0x3b34d569	0.0027593023
8	0x3afc533a	0.0019250878
9	0x3b29dabb	0.0025917727
10	0x3b8dc305	0.0043262267
11	0x3a64a496	0.0008722035
12	0x3b65f3c9	0.0035087934
13	0x3b7c11d1	0.0038462768
14	0x3b13b654	0.0022539096
15	0x3b83747c	0.0040116888
16	0x3bb29684	0.0054500718
17	0x3ab1273d	0.0013515722
18	0x3c188a04	0.009310249
19	0x3c18b4b1	0.009320424
20	0x3be63268	0.007025052
21	0x3c32c80d	0.010911954
22	0x3c1eba7c	0.009688016
23	0x3b889cf1	0.0041690995
24	0x3c57e268	0.013176538
25	0x3c48d3c9	0.012257525
26	0x3c35df4c	0.011100601
27	0x3c857443	0.01629079
28	0x3c493875	0.012281527
29	0x3bd314ff	0.006441712
30	0x3acf6a80	0.0015824586
31	0x3aabfa59	0.0013120874
32	0x3ac2bdf8	0.001485764
33	0x3ab8cb30	0.001409864
34	0x3af33c13	0.0018557332
35	0x3b05a67b	0.002039342
36	0x3c823422	0.015894
37	0x3c8c71df	0.017144142
38	0x3cb87d61	0.022520723
39	0x3c80adc7	0.015707863
40	0x3c8da08b	0.017288467
41	0x3ca65713	0.020305192
42	0x3bcd52a1	0.0062659536
43	0x3bd720f2	0.0065652067
44	0x3b9ccc38	0.004785087
45	0x3bf2a230	0.007404588
46	0x3be5e189	0.0070154113
47	0x3b074e59	0.0020646064
48	0x3b67e285	0.003538282
49	0x3b81e16a	0.003963639
50	0x3b358567	0.0027697922
51	0x3b6f7907	0.0036540644
52	0x3bac5b42	0.005259902
53	0x3ab2123f	0.001358576
54	0x3b5e61f5	0.0033932899
55	0x3b7e221c	0.0038777655
56	0x3b40aafd	0.0029398792
57	0x3b70e83e	0.003675952
58	0x3bb9b6e4	0.005667554
59	0x3ac16b66	0.0014756739
60	0x3b1cf8ab	0.0023951929
61	0x3b56667b	0.0032714892
62	0x3b0839a6	0.0020786314
63	0x3b3fd78b	0.002927276
64	0x3b8e1915	0.004336486
65	0x3a016986	0.00049366837
66	0x3b0a8e4e	0.002114195
67	0x3b505977	0.0031791606
68	0x3b51a42f	0.003198873
69	0x3b341880	0.0027480423
70	0x3b813258	0.003942769
71	0x3940c5dd	0.00018384257
72	0x3b3f0c5b	0.0029151652
73	0x3b6ef9b4	0.0036464753
74	0x3b3115bf	0.0027021018
75	0x3b5770d9	0.003287366
76	0x3ba420d1	0.005008795
77	0x3a2bee1c	0.00065586134
78	0x3bb841df	0.005623087
79	0x3bc82e4b	0.006109034
80	0x3b964b52	0.0045866156
81	0x3bd2d646	0.006434235
82	0x3bf64d1d	0.007516517
83	0x3b09c328	0.0021020863
84	0x3b9b86a3	0.0047462746
85	0x3ba92216	0.005161534
86	0x3b788b53	0.003792484
87	0x3ba8ed68	0.005155254
88	0x3be57350	0.0070022717
89	0x3ae17d74	0.0017203526
90	0x3b186260	0.0023251995
91	0x3b34a285	0.002756269
92	0x3aff5095	0.0019478971
93	0x3b2b7168	0.0026160125
94	0x3b8d69b2	0.0043155784
95	0x3a2bfa5b	0.0006560438
96	0x3c27772a	0.010221282
97	0x3c3f712a	0.011684695
98	0x3c77de61	0.015128703
99	0x3c2c0784	0.010499839
100	0x3c3ca4ec	0.01151393
101	0x3c5845af	0.013200208
102	0x3ba36c82	0.0049873004
103	0x3bc6f21e	0.006071343
104	0x3bb4c1fc	0.005516289
105	0x3bcf62e9	0.0063289297
106	0x3bc374ad	0.0059648366
107	0x3a47c472	0.000762052
108	0x3aea5d7d	0.0017880645
109	0x3b12f413	0.0022423312
110	0x3acebace	0.0015772225
111	0x3b08f9ee	0.0020900923
112	0x3b656475	0.0035002504
113	0x391b289d	0.00014797082
114	0x3b2b0b6f	0.0026099344
115	0x3b4a3bcb	0.0030858393
116	0x3b38267f	0.0028099117
117	0x3b282dd1	0.0025662074
118	0x3b9995f5	0.0046870657
119	0x3a92c298	0.001119691
120	0x3be5f70f	0.007017977
121	0x3bf8c73d	0.0075921104
122	0x3bb137fa	0.0054082843
123	0x3c078c09	0.008273133
124	0x3c027a88	0.007963784
125	0x3b34ce39	0.0027588739
126	0x3b564226	0.0032693236
127	0x3b654b18	0.0034987386
128	0x3b21f65b	0.002471349
129	0x3b6a399e	0.003573991
130	0x3ba3ac73	0.004994923
131	0x3a76099f	0.0009385589
132	0x3b486971	0.0030580426
133	0x3b639e45	0.0034731787
134	0x3b1f5855	0.0024314125
135	0x3b574f59	0.0032853691
136	0x3baa8576	0.005203898
137	0x3a9ad268	0.0011811974
138	0x3c3ef37b	0.01165473
139	0x3c2eab3d	0.010660944
140	0x3c25d9c6	0.010122722
141	0x3c6c037c	0.014405128
142	0x3c2ae26a	0.010429958
143	0x3b905351	0.0044044633
144	0x3b1338c8	0.0022464264
145	0x3b2d25be	0.0026420201
146	0x3af6e335	0.0018836024
147	0x3b1755dd	0.002309195
148	0x3b88a334	0.004169846
149	0x3a3c84d4	0.0007191424
150	0x3b6c28e3	0.0036035113
151	0x3b8828c1	0.004155249
152	0x3b273e74	0.0025519403
153	0x3b95132c	0.0045494046
154	0x3bb27ce2	0.005447016
155	0x3a9d6260	0.0012007467
156	0x3b5985f1	0.0033191408
157	0x3b6ea84b	0.0036416228
158	0x3b72f048	0.0037069488
159	0x3b4ffb01	0.0031735303
160	0x3bb17a94	0.005416224
161	0x3b0db509	0.0021622798
162	0x3b18fed9	0.002334526
163	0x3b4265a2	0.0029662629
164	0x3ad565f3	0.0016280994
165	0x3b438c89	0.0029838404
166	0x3b887e00	0.004165411
167	0x3983d172	0.00025142316
168	0x3b19f956	0.0023494563
169	0x3b420ec8	0.002961086
170	0x3b1a29e1	0.0023523497
171	0x3b0f99a3	0.0021911643
172	0x3b9c1a44	0.0047638733
173	0x3a407e41	0.0007343032
174	0x3af89bb6	0.0018967304
175	0x3b17cd56	0.0023163161
176	0x3ab60a79	0.0013888619
177	0x3b11b2c5	0.00222318
178	0x3b7e7538	0.0038827192
179	0x399802c4	0.0002899376
180	0x3aedbb4b	0.0018137483
181	0x3b323f90	0.002719853
182	0x3b214e7c	0.002461343
183	0x3b049509	0.0020230433
184	0x3b7f7c1b	0.0038983885
185	0x39482359	0.00019086654
186	0x3b167e93	0.0022963628
187	0x3b15dc96	0.0022867075
188	0x3aed5e9f	0.0018109864
189	0x3b19be9e	0.0023459564
190	0x3b945f2f	0.0045279483
191	0x3a6fc8be	0.00091470394
192	0x3b25ac46	0.0025279685
193	0x3b4b050a	0.0030978345
194	0x3b05a5d8	0.002039304
195	0x3b36ab1b	0.0027872983
196	0x3b90cb89	0.0044187945
197	0x3a72e56d	0.00092657545
198	0x3cb45dfe	0.022017475
199	0x3ca6dbc4	0.020368464
200	0x3e5c3573	0.21504764
201	0x3e401163	0.18756633
202	0x3cc8194b	0.024426123
203	0x3e4e76b6	0.20162472
204	0x3b2194ae	0.002465527
205	0x3b43361c	0.002978689
206	0x3b2b18ea	0.002610738
207	0x3b3944ed	0.0028269843
208	0x3b9fdc71	0.0048785736
209	0x3a8a275c	0.0010540294
210	0x3b770b36	0.0037695891
211	0x3b5a20f4	0.0033283802
212	0x3b9a0178	0.004699882
213	0x3b5d4d04	0.0033767829
214	0x3b868f6e	0.0041064536
215	0x3b927825	0.0044698888
216	0x3b33acf9	0.0027416332
217	0x3b5514b1	0.0032513554
218	0x3b2690ab	0.0025415819
219	0x3b40e71f	0.0029434634
220	0x3b9a0217	0.004699956
221	0x3a140c67	0.00056476
222	0x3b2380c0	0.0024948567
223	0x3b498f0d	0.003075543
224	0x3af785dc	0.0018884498
225	0x3b206e36	0.0024479753
226	0x3b8ffc99	0.0043941257
227	0x3a64de39	0.00087306235
228	0x3b0eee9b	0.00218097
229	0x3b473838	0.00303985
230	0x3b292ff6	0.002581594
231	0x3b333f71	0.0027351046
232	0x3b858623	0.0040748282
233	0x39d049f5	0.00039727954
234	0x3ad7aa4e	0.0016453953
235	0x3b175518	0.0023091491
236	0x3ac53c96	0.0015047963
237	0x3b18a97f	0.0023294387
238	0x3b588e1d	0.003304369
239	0xb8f862d1	-0.000118439675
240	0x3d7bcde9	0.061475668
241	0x3d19099d	0.037362684
242	0x3d82183c	0.063522786
243	0x3da49425	0.08036069
244	0x3d5402b4	0.05176039
245	0x3c63ccdf	0.013903826
246	0x3b26cdd1	0.0025452266
247	0x3b52d47d	0.003217011
248	0x3b210d43	0.0024574555
249	0x3b3fb28d	0.0029250712
250	0x3b958604	0.004563095
251	0x39e425ac	0.00043515617
252	0x3b5d3271	0.003375199
253	0x3b660eab	0.0035103958
254	0x3b7e42d0	0.0038797148
255	0x3b44219d	0.0029927262

module.lstm.weight_hh_l0 f4 [256, 64]
0	0xb9879d6b	-0.00025866492
1	0x39834603	0.0002503843
2	0xb9cdc923	-0.00039250506
3	0x3a24146d	0.0006259147
4	0xba3b22d2	-0.00071386725
5	0xb83861f0	-4.396023e-05
6	0xb73d74a9	-1.129244e-05
7	0x3a002cf9	0.0004889514
8	0x39b8d9ef	0.00035257588
9	0x39b5489d	0.0003457711
10	0xb9afef73	-0.00033557005
11	0xb949ffe0	-0.00019264175
12	0x39bc627d	0.00035931534
13	0x39fbff8f	0.00048064857
14	0x39d049d5	0.0003972786
15	0xb97e7e6d	-0.00024270425
16	0x36321ca9	2.654075e-06
17	0x39a235f4	0.00030939246
18	0xb966845f	-0.00021983821
19	0x390689d8	0.00012830587
20	0x3a1265e6	0.0005584642
21	0xb9b5be13	-0.00034664627
22	0x39b45dd9	0.00034402197
23	0xba108e86	-0.0005514402
24	0xb931426f	-0.00016904784
25	0xb9e07254	-0.0004280979
26	0x38dcb66f	0.000105243984
27	0xb9b8cd26	-0.00035248062
28	0x3937172f	0.00017460877
29	0xb95a6387	-0.00020827177
30	0x392dc42c	0.00016571645
31	0xb9702e08	-0.00022905332
32	0x39988de7	0.00029097425
33	0x38909b8b	6.895427e-05
34	0x3966552c	0.00021966238
35	0xb7e5a803	-2.7377164e-05
36	0xb95a315a	-0.00020808485
37	0xb93ac13c	-0.00017810328
38	0x39922537	0.00027875017
39	0x3999b70a	0.0002931881
40	0xb699ecf3	-4.58734e-06
41	0xb984bdac	-0.00025318319
42	0xb8c632f7	-9.450869e-05
43	0xb9e7589f	-0.0004412578
44	0xba187a99	-0.00058166083
45	0xb989c70b	-0.00026278975
46	0x38ccba9e	9.762238e-05
47	0x399c5f86	0.0002982581
48	0xbad3c315	-0.0016156161
49	0x39366d6d	0.00017397637
50	0x39b14395	0.00033810423
51	0xb9381e3f	-0.00017558875
52	0x3a01ab40	0.0004946478
53	0xb9a9d418	-0.00032392214
54	0x39ff18c3	0.0004865584
55	0x3990f2bc	0.00027646672
56	0xb9a9d920	-0.00032395963
57	0xb9fe2348	-0.00048472942
58	0xb8b6c600	-8.715317e-05
59	0x393da42f	0.00018085608
60	0x3a1041c3	0.00055029633
61	0x37cad251	2.4178213e-05
62	0xb9cf97c9	-0.00039595205
63	0x3982aec0	0.0002492573
64	0xb9b9ba54	-0.00035424775
65	0x39debac3	0.00042482288
66	0xba117ad2	-0.00055496127
67	0x3a638b9f	0.0008680168
68	0xba885133	-0.0010400176
69	0xb8439225	-4.662773e-05
70	0xb73ff195	-1.1440735e-05
71	0x3a332b46	0.00068347564
72	0x3a029fb0	0.0004982902
73	0x3a02d34e	0.00049905933
74	0xb9f3bde9	-0.00046490066
75	0xb9c4cc63	-0.00037536313
76	0x3a063d66	0.00051208434
77	0x3a2d96ee	0.00066219165
78	0x3a0ddca6	0.00054116023
79	0xb9bde01f	-0.00036215872
80	0xb7fd3813	-3.0186062e-05
81	0x3a061749	0.0005115164
82	0xb9d23b06	-0.00040098297
83	0x39a0858b	0.00030617075
84	0x3a517418	0.00079900166
85	0xba00d517	-0.00049145654
86	0x39fa186c	0.00047701912
87	0xba5f196b	-0.00085105625
88	0xb9b0b033	-0.00033700615
89	0xba179f09	-0.0005783891
90	0x39545656	0.00020250058
91	0xba06b452	-0.0005138564
92	0x396ab93a	0.00022384981
93	0xb9d1b4b4	-0.0003999822
94	0x399f67b5	0.0003040411
95	0xb9d91ca6	-0.0004141081
96	0x39e9851f	0.00044540406
97	0x3ae69e83	0.0017594848
98	0x39c4aa30	0.00037510833
99	0x376cdd8a	1.4118277e-05
100	0xb9b2a027	-0.00034070128
101	0xb9b3ef1b	-0.00034319688
102	0x39ec0167	0.00045014473
103	0x39f70acf	0.00047119564
104	0xbaba5158	-0.0014214916
105	0xb9de4d71	-0.00042400838
106	0xb99fb1f8	-0.0003045944
107	0xba1a3569	-0.00058825925
108	0xba77e228	-0.0009456002
109	0xb9d86e3d	-0.00041280864
110	0x394dab71	0.0001961419
111	0x39f63952	0.00046963483
112	0x3a02d8f2	0.0004991434
113	0x39a55f4f	0.00031542263
114	0x39f6ae5e	0.0004705069
115	0xb9c2c14f	-0.0003714659
116	0x3a311c20	0.0006756205
117	0xb9feea4f	-0.0004862123
118	0x3a2bc6a0	0.000655273
119	0x39f63d76	0.00046966568
120	0xb9ff0569	-0.0004864142
121	0xba2d308a	-0.0006606659
122	0xb9419838	-0.0001846262
123	0x39c6525d	0.00037826868
124	0x3a4658a2	0.0007566308
125	0x389e679b	7.553325e-05
126	0xba0ceb8b	-0.0005375675
127	0x39e8a008	0.0004436972
128	0xb9db49ac	-0.00041825825
129	0x39e7ada1	0.00044189117
130	0xba063405	-0.0005119446
131	0x3a6389e7	0.0008679912
132	0xba7caa8e	-0.0009638452
133	0xb9640c46	-0.00021748347
134	0xb9ae34f6	-0.00033227325
135	0x3a25b14d	0.00063206704
136	0x39fa2fdb	0.0004771937
137	0x39c2c211	0.00037147154
138	0xb9f916ee	-0.00047510065
139	0xb9a14e70	-0.00030766753
140	0x39ec2553	0.00045041236
141	0x3a1b475c	0.0005923414
142	0x3a1b31c1	0.00059201947
143	0xb9edb7a5	-0.00045340988
144	0x394ddeb2	0.00019633284
145	0x3a075d09	0.00051637046
146	0xb9bfa6fb	-0.0003655477
147	0x39c410a5	0.00037396434
148	0x3a52c2d5	0.00080398965
149	0xba097a1b	-0.00052443304
150	0x39c3a5f0	0.0003731693
151	0xba4f81a3	-0.0007915741
152	0xb9e45989	-0.00043554258
153	0xba1eb0a6	-0.00060535443
154	0x39b7183a	0.0003492253
155	0xb9fa60f0	-0.0004775594
156	0x39a21b50	0.00030919397
157	0xb9dd0750	-0.00042157853
158	0x39c7e5fc	0.0003812759
159	0xb9e786d2	-0.00044160202
160	0x39f6293d	0.000469515
161	0x3b04406c	0.002018
162	0x39e90bf2	0.00044450123
163	0xb7947b32	-1.7700342e-05
164	0xb9e37833	-0.0004338637
165	0xb9ced83b	-0.00039452486
166	0x39e5a934	0.0004380435
167	0x39e3c08a	0.00043440267
168	0xbab8442d	-0.0014058404
169	0xb9fb788b	-0.00047964262
170	0xb9a4335c	-0.00031318783
171	0xba1426c9	-0.00056515314
172	0xba60f599	-0.0008581519
173	0xb9f2c575	-0.00046304954
174	0x39b262b0	0.00034024334
175	0x39df66ae	0.00042610377
176	0x3ab5c113	0.0013866745
177	0x398c0187	0.0002670402
178	0x3a07cde3	0.0005180521
179	0xb9e9fafe	-0.00044628227
180	0x3a3c9d72	0.0007195092
181	0xb9cc1eda	-0.00038932898
182	0x3a2882d0	0.0006428184
183	0x39d728ee	0.0004103849
184	0xb9dfca49	-0.0004268459
185	0xba22a1e9	-0.0006203936
186	0xb98bea3b	-0.0002668666
187	0x39d65b50	0.00040885294
188	0x3a30c40c	0.00067430804
189	0x38a784a8	7.98789e-05
190	0xb9d597fd	-0.00040739766
191	0x39c24c59	0.00037059447
192	0xba8b4747	-0.0010626101
193	0x3a8f3965	0.0010927139
194	0xbaab656b	-0.001307649
195	0x3af10ce1	0.0018390679
196	0xbb0427c1	-0.0020165297
197	0xba3eb8a4	-0.00072754384
198	0xbaa3c517	-0.001249465
199	0x3abafcb4	0.0014265985
200	0x3a9aa505	0.0011798447
201	0x3a989f99	0.0011644243
202	0xba91ecd4	-0.0011133202
203	0xba3fec73	-0.00073213055
204	0x3a9c3e7b	0.0011920476
205	0x3aba56a7	0.0014216498
206	0x3aaadf7e	0.0013036577
207	0xba8af6e9	-0.0010602149
208	0x3a55dd2b	0.0008158262
209	0x3a81a939	0.0009892351
210	0xba76ac13	-0.00094097963
211	0x3a7904e1	0.0009499323
212	0x3adb3248	0.0016723359
213	0xbaa1e287	-0.0012350836
214	0x3a91e5be	0.001113109
215	0xbacc6f0a	-0.0015597057
216	0xba85f7d4	-0.0010220953
217	0xbaace36b	-0.0013190334
218	0x3a76a420	0.0009408612
219	0xba9be7c3	-0.0011894632
220	0x3a772c45	0.0009428899
221	0xba89b3db	-0.0010505872
222	0x3a6178fa	0.0008601096
223	0xba9136a8	-0.0011078911
224	0x3a94f52e	0.0011364573
225	0x3b7cf6ad	0.0038599179
226	0x3a8f5981	0.0010936708
227	0xb9de0a1a	-0.00042350666
228	0xba881ac7	-0.0010383957
229	0xba7d0368	-0.00096516917
230	0x3a892960	0.0010464601
231	0x3a8b7c91	0.0010641982
232	0xbb73e7a8	-0.0037216935
233	0xba8e20cb	-0.0010843513
234	0xba5cb0a6	-0.00084186567
235	0xbab27d1b	-0.0013617607
236	0xbadddb7e	-0.0016926376
237	0xba8e108d	-0.0010838673
238	0x3a858676	0.0010187167
239	0x3a91f4e3	0.0011135604
240	0x3b9f061b	0.0048530228
241	0x3a41b888	0.0007389863
242	0x3a9766ca	0.0011551019
243	0xba8fad00	-0.0010961592
244	0x3acb1c37	0.001549608
245	0xba917470	-0.0011097323
246	0x3ac3ee86	0.0014948405
247	0x3a91fb95	0.0011137599
248	0xba96768b	-0.001147942
249	0xbac808bf	-0.0015261396
250	0xba5e4383	-0.0008478688
251	0x3a8ca20b	0.0010729445
252	0x3ad33aff	0.0016115605
253	0x3a15adec	0.00057098153
254	0xbaa1d689	-0.0012347262
255	0x3a8457c3	0.0010096956

module.lstm.bias_ih_l0 f4 [256]
0	0x3bf369dc	0.007428391
1	0x3bd924ec	0.006626716
2	0x3c19c927	0.009386337
3	0x3cc0d985	0.023541221
4	0x3d0dc3ae	0.034610443
5	0x3b41dddc	0.0029581701
6	0x3cfa04f8	0.030519947
7	0x3c87341b	0.016504338
8	0x3c0f7980	0.008756995
9	0x3c0fcc8e	0.008776797
10	0x3befc874	0.007317597
11	0x3bdbbf29	0.0067061377
12	0x3c06fa69	0.008238413
13	0x3c6a0375	0.014283051
14	0x3c4260ff	0.011863946
15	0x3bceb180	0.0063077807
16	0x3c9bfa67	0.0190403
17	0x3c662951	0.014047937
18	0x3bb90656	0.0056465073
19	0x3bc94fa8	0.006143529
20	0x3c94df92	0.018173013
21	0x3c13c28c	0.009018552
22	0x3bfc49af	0.0076992135
23	0x3cf7a802	0.03023148
24	0x3bc3630f	0.0059627364
25	0x3c33e359	0.010979497
26	0x3bdc6194	0.0067254994
27	0x3bfad7c2	0.007655115
28	0x3bccfe85	0.006255927
29	0x3bbeabe3	0.0058188303
30	0x3bb744f4	0.0055929366
31	0x3bd86f6a	0.0066050785
32	0x3be28d4a	0.0069138156
33	0x3e62dbbe	0.22154137
34	0x3bda4265	0.006660747
35	0x3be1b776	0.0068883253
36	0x3bf7ef59	0.0075663743
37	0x3bd2c562	0.0064322213
38	0x3bd9dabd	0.00664839
39	0x3bc6578a	0.006052916
40	0x3e1a16d0	0.15047765
41	0x3bf886f8	0.007584449
42	0x3be83c13	0.0070872395
43	0x3c300365	0.010742997
44	0x3d185770	0.037192762
45	0x3bd52411	0.0065045436
46	0x3bac28ca	0.005253886
47	0x3c1441ab	0.00904886
48	0x3e639d8c	0.22228068
49	0x3b80a831	0.0039263
50	0x3bf9b0ec	0.0076199677
51	0x3bd5ae70	0.0065210387
52	0x3c8128f1	0.015766593
53	0x3bff27ee	0.0077867424
54	0x3c576ff0	0.013149247
55	0x3bdd5833	0.006754899
56	0x3c01f0c7	0.007930941
57	0x3c4a30c2	0.012340726
58	0x3bc4ca01	0.006005526
59	0x3bb95a6d	0.0056565315
60	0x3c9be6b2	0.019030903
61	0x3b3d5b91	0.002889369
62	0x3c267504	0.010159735
63	0x3be0f075	0.006864602
64	0x3bd93170	0.006628208
65	0x3bcd05c3	0.0062567904
66	0x3c0e259f	0.008675962
67	0x3cba2029	0.022720413
68	0x3d14f5f5	0.036367375
69	0x3a8392a4	0.0010038209
70	0x3bbb2d15	0.0057121613
71	0x3c81f5b2	0.015864227
72	0x3c0891cd	0.008335543
73	0x3c03acea	0.008036831
74	0x3bdb1ea2	0.0066870013
75	0x3bb84802	0.0056238184
76	0x3bf62e14	0.007512817
77	0x3c58fc7a	0.013243789
78	0x3c3482c2	0.011017503
79	0x3bc3465b	0.0059593148
80	0x3b8ad3e1	0.0042366837
81	0x3c507e0d	0.012725365
82	0x3ba6b0da	0.0050870003
83	0x3bd2cf51	0.0064334054
84	0x3c8a34ed	0.01687094
85	0x3c053bf5	0.008131971
86	0x3bf3af66	0.0074366806
87	0x3d04b37c	0.032397732
88	0x3bb066cc	0.005383348
89	0x3c21cd96	0.009875676
90	0x3bf2567d	0.007395564
91	0x3becb333	0.0072235106
92	0x3bd01e43	0.0063512637
93	0x3bb188e0	0.005417928
94	0x3bb6de3a	0.0055806907
95	0x3bc2750a	0.0059343623
96	0x3bd848ae	0.006600461
97	0x3e3bc17c	0.18335527
98	0x3bd146fb	0.0063866354
99	0x3b24c2b2	0.0025140462
100	0x3be2264d	0.0069015385
101	0x3bcb8671	0.006211095
102	0x3bc9357c	0.006140409
103	0x3baac079	0.005210933
104	0x3e6a13f6	0.22859177
105	0x3be171d1	0.006880023
106	0x3c03b04f	0.008037641
107	0x3c21ddde	0.009879557
108	0x3d228314	0.039675787
109	0x3bc222af	0.0059245448
110	0x3b9c873d	0.004776864
111	0x3c0afe19	0.008483433
112	0x3ebc1da0	0.36741352
113	0x3b77aef4	0.003779349
114	0x3be46c5c	0.0069709253
115	0x3bc822ca	0.006107663
116	0x3c762e8e	0.015025748
117	0x3bed66a0	0.0072449
118	0x3c44e2e7	0.012016988
119	0x3bd37826	0.006453532
120	0x3bf00db6	0.007325853
121	0x3c347ac0	0.011015594
122	0x3bcdeb7d	0.006284176
123	0x3ba586ca	0.0050514685
124	0x3c96280c	0.018329643
125	0x3b1f39ed	0.0024296
126	0x3c1d4e0d	0.009601128
127	0x3bc9a5e8	0.006153811
128	0x3bda8a00	0.006669283
129	0x3b0aa74b	0.0021156843
130	0xbb7f5723	-0.003896185
131	0x3c8fe06c	0.017563067
132	0xbc85ddc8	-0.016341105
133	0xbcef2aa8	-0.029195145
134	0xbdbae993	-0.09126582
135	0xbbc13256	-0.005895893
136	0x3a96cec7	0.0011505716
137	0x3a2e3ba0	0.0006646458
138	0x3b10ee6a	0.0022114762
139	0x3c903b02	0.017606262
140	0x3b144ab4	0.0022627534
141	0xbbb3510e	-0.005472309
142	0x3b51f8b7	0.0032039115
143	0x3b1d4caa	0.0024001994
144	0x3d921d3d	0.07134483
145	0xbc5697c6	-0.013097709
146	0x3b6006bb	0.00341837
147	0xbab24a09	-0.0013602386
148	0x3c551446	0.013005322
149	0xbbaf659e	-0.00535269
150	0xbaa95c1f	-0.0012921131
151	0xbc0de61b	-0.008660818
152	0xba9529de	-0.0011380275
153	0x3b6201bc	0.0034485897
154	0xba1282e3	-0.00055889616
155	0xbb620bfd	-0.003449201
156	0xbafa0d35	-0.0019077422
157	0xb9b69c08	-0.00034829997
158	0xbc357f2f	-0.011077686
159	0xbb4a20cf	-0.003084231
160	0xbaa1efad	-0.0012354754
161	0xbc5976d2	-0.013272958
162	0x3a535a6f	0.0008062487
163	0xbd235433	-0.03987522
164	0x3ba6ccf8	0.005090352
165	0x396f659a	0.00022830666
166	0xbbdbc30b	-0.0067066005
167	0xbb552c07	-0.0032527463
168	0xbdb7c5a6	-0.08973245
169	0x3b04cbe7	0.0020263137
170	0x3a84a091	0.0010118653
171	0xbbc54b00	-0.0060209036
172	0xbc1430b8	-0.009044819
173	0x39db9cd2	0.00041887775
174	0x3ba16691	0.004925557
175	0xbb73a4c1	-0.0037177058
176	0x3d9e1a88	0.07719904
177	0xbbe91883	-0.0071135177
178	0x3accc23d	0.0015621852
179	0xb9e82eaf	-0.0004428527
180	0x3c268dd7	0.010165653
181	0xba2d4170	-0.0006609177
182	0x3bf146a5	0.007363158
183	0x3a4073e2	0.00073414866
184	0xbb0f4351	-0.0021860192
185	0xbc1b91a2	-0.009495171
186	0x3b9ede77	0.004848297
187	0x3c014d78	0.007892005
188	0x3cb62d43	0.02223838
189	0xbc747db3	-0.014922547
190	0xbb8256c0	-0.0039776266
191	0xbbb9179c	-0.0056485664
192	0x3bf4024f	0.0074465643
193	0x3bd98bda	0.006638986
194	0x3c1a95f5	0.009435167
195	0x3cc5e8d4	0.024158873
196	0x3d149fec	0.036285326
197	0x3b424117	0.0029640847
198	0x3cfa74a3	0.030573195
199	0x3c898646	0.01678766
200	0x3c0fc519	0.008775019
201	0x3c0fca3e	0.008776246
202	0x3bf06b66	0.0073370216
203	0x3bdc7690	0.006728001
204	0x3c075364	0.008259628
205	0x3c6c0ee6	0.014407849
206	0x3c4378e1	0.011930675
207	0x3bcf21a4	0.006321149
208	0x3c9c319b	0.019066622
209	0x3c68d437	0.014210752
210	0x3bba7934	0.005690718
211	0x3bc97247	0.006147656
212	0x3c9793dc	0.018503122
213	0x3c1463b8	0.009056978
214	0x3bfcce0d	0.007714993
215	0x3d00da58	0.03145823
216	0x3bc3a047	0.0059700343
217	0x3c356ef3	0.011073816
218	0x3bdccf6a	0.006738593
219	0x3bfc2c08	0.0076956786
220	0x3bcd11d1	0.0062582274
221	0x3bbeefb1	0.0058269133
222	0x3bb77578	0.00559872
223	0x3bd8db05	0.006617906
224	0x3be304d1	0.0069280644
225	0x3e6bd677	0.2303103
226	0x3bda788a	0.0066672014
227	0x3be1ce2a	0.0068910317
228	0x3bf8d80e	0.007594115
229	0x3bd2f10c	0.0064374264
230	0x3bda7f3b	0.006667999
231	0x3bc6fe06	0.0060727624
232	0x3e332573	0.17494754
233	0x3bf98093	0.007614204
234	0x3be82b65	0.007085251
235	0x3c3113ee	0.010807974
236	0x3d200069	0.03906289
237	0x3bd5ada9	0.006520946
238	0x3bac49e7	0.0052578333
239	0x3c14680f	0.009058013
240	0x3e738e34	0.23784715
241	0x3b7fc16f	0.0039025208
242	0x3bfaa979	0.0076495972
243	0x3bd5f649	0.0065296036
244	0x3c82bf33	0.015960312
245	0x3bff8cad	0.0077987523
246	0x3c59258f	0.013253584
247	0x3bdd81e7	0.0067598703
248	0x3c02116b	0.007938723
249	0x3c4bceee	0.012439473
250	0x3bc4a23a	0.006000784
251	0x3bba7c58	0.0056910925
252	0x3c9f1b0f	0.019422082
253	0x3b3d7764	0.0028910274
254	0x3c271233	0.01019721
255	0x3be09e66	0.00685482

module.lstm.bias_hh_l0 f4 [256]
0	0x3bf369d8	0.007428389
1	0x3bd924e6	0.006626713
2	0x3c19c928	0.009386338
3	0x3cc0d985	0.023541221
4	0x3d0dc3ad	0.03461044
5	0x3b41dde3	0.0029581718
6	0x3cfa04f8	0.030519947
7	0x3c873420	0.016504347
8	0x3c0f7977	0.008756987
9	0x3c0fcc8e	0.008776797
10	0x3befc871	0.0073175956
11	0x3bdbbf25	0.006706136
12	0x3c06fa6a	0.008238414
13	0x3c6a0373	0.014283049
14	0x3c4260ff	0.011863946
15	0x3bceb188	0.0063077845
16	0x3c9bfac9	0.019040482
17	0x3c662951	0.014047937
18	0x3bb90651	0.005646505
19	0x3bc94faa	0.00614353
20	0x3c94df92	0.018173013
21	0x3c13c28c	0.009018552
22	0x3bfc49b5	0.0076992163
23	0x3cf7a801	0.030231478
24	0x3bc36313	0.0059627383
25	0x3c33e35a	0.010979498
26	0x3bdc616e	0.0067254817
27	0x3bfad7d3	0.007655123
28	0x3bccfe80	0.0062559247
29	0x3bbeabba	0.0058188112
30	0x3bb744ef	0.0055929343
31	0x3bd86f6b	0.006605079
32	0x3be28d41	0.0069138114
33	0x3e62cc1b	0.22148173
34	0x3bda4262	0.0066607455
35	0x3be1b781	0.0068883304
36	0x3bf7ef5a	0.0075663747
37	0x3bd2c564	0.006432222
38	0x3bd9dab4	0.006648386
39	0x3bc65790	0.0060529187
40	0x3e1a0651	0.15041472
41	0x3bf8870d	0.0075844587
42	0x3be83c08	0.0070872344
43	0x3c300366	0.010742998
44	0x3d185770	0.037192762
45	0x3bd523fe	0.0065045347
46	0x3bac28b4	0.0052538756
47	0x3c1441b3	0.009048867
48	0x3e5ea822	0.21743825
49	0x3b80a807	0.0039262804
50	0x3bf9b0ec	0.0076199677
51	0x3bd5ae6c	0.006521037
52	0x3c8128f1	0.015766593
53	0x3bff27d5	0.007786731
54	0x3c576ffe	0.01314926
55	0x3bdd5831	0.006754898
56	0x3c01f0ca	0.007930944
57	0x3c4a30c1	0.012340725
58	0x3bc4ca13	0.0060055344
59	0x3bb95ab3	0.005656564
60	0x3c9be6b2	0.019030903
61	0x3b3d5b74	0.0028893622
62	0x3c267502	0.010159733
63	0x3be0f07b	0.006864605
64	0x3bd93170	0.006628208
65	0x3bcd05c7	0.006256792
66	0x3c0e25a0	0.008675963
67	0x3cba2028	0.022720411
68	0x3d14f5f5	0.036367375
69	0x3a83929d	0.0010038201
70	0x3bbb2d9c	0.005712224
71	0x3c81f5b8	0.015864238
72	0x3c0891c4	0.0083355345
73	0x3c03acb9	0.008036786
74	0x3bdb1e8c	0.006686991
75	0x3bb84812	0.005623826
76	0x3bf62deb	0.007512798
77	0x3c58fc77	0.013243786
78	0x3c3482be	0.0110174995
79	0x3bc34655	0.005959312
80	0x3b8ad476	0.004236753
81	0x3c507e0e	0.012725366
82	0x3ba6b0c6	0.005086991
83	0x3bd2cf48	0.0064334013
84	0x3c8a34ed	0.01687094
85	0x3c053bf9	0.008131974
86	0x3bf3afed	0.0074367435
87	0x3d04b37d	0.032397736
88	0x3bb066d7	0.005383353
89	0x3c21cd94	0.009875674
90	0x3bf25677	0.0073955613
91	0x3becb328	0.0072235055
92	0x3bd01e44	0.006351264
93	0x3bb188dd	0.0054179267
94	0x3bb6de35	0.0055806884
95	0x3bc2751b	0.00593437
96	0x3bd848a7	0.0066004577
97	0x3e364e99	0.1780342
98	0x3bd146f8	0.006386634
99	0x3b24c2fc	0.0025140634
100	0x3be2264c	0.006901538
101	0x3bcb8673	0.006211096
102	0x3bc9358c	0.0061404165
103	0x3baac08f	0.005210943
104	0x3e689925	0.2271467
105	0x3be171d3	0.006880024
106	0x3c03b050	0.008037642
107	0x3c21ddde	0.009879557
108	0x3d228314	0.039675787
109	0x3bc222bb	0.0059245504
110	0x3b9c872d	0.0047768564
111	0x3c0afe17	0.008483431
112	0x3ebc0a6f	0.3672671
113	0x3b77aef2	0.0037793485
114	0x3be46c5b	0.006970925
115	0x3bc822af	0.00610765
116	0x3c762e90	0.01502575
117	0x3bed6686	0.0072448878
118	0x3c44e2f3	0.012017
119	0x3bd37833	0.006453538
120	0x3bf00dd6	0.007325868
121	0x3c347ac1	0.011015595
122	0x3bcdeb7f	0.006284177
123	0x3ba586cd	0.00505147
124	0x3c96280c	0.018329643
125	0x3b1f39dc	0.0024295961
126	0x3c1d4e09	0.009601125
127	0x3bc9a5ac	0.006153783
128	0x3bb327be	0.005467384
129	0x3ac44bd9	0.0014976218
130	0xbb6483fc	-0.0034868708
131	0x3c8e3033	0.017356968
132	0xbc69494d	-0.014238668
133	0xbce4b082	-0.027916197
134	0xbdb93a0e	-0.09044276
135	0x3bf9d782	0.0076245675
136	0x3aa92ec1	0.001290761
137	0x3aa32d65	0.0012449442
138	0x3b819f6c	0.003955772
139	0x3cb68b8c	0.022283338
140	0x3b25a69b	0.0025276307
141	0x3bc2322d	0.0059263916
142	0x3b4a7f25	0.0030898538
143	0x3b067428	0.0020516012
144	0x3d945e7c	0.07244584
145	0xbc4dafb9	-0.012554103
146	0x3b4340d1	0.0029793272
147	0xb9c613f0	-0.00037780358
148	0x3c17c7fe	0.00926399
149	0xbbb63ff9	-0.0055618254
150	0x3aef68b0	0.0018265452
151	0x3c232f5a	0.00996002
152	0xba9726e2	-0.0011531974
153	0x3a8536e7	0.0010163457
154	0x3aebaba8	0.0017980235
155	0xbb54de86	-0.0032481267
156	0xbaf4a9e2	-0.0018666352
157	0xb906b2d5	-0.00012845856
158	0xbc08f416	-0.008358976
159	0xbb6b0a60	-0.0035864338
160	0xba92b930	-0.0011194106
161	0xba6ba7dd	-0.0008989552
162	0xba00c25c	-0.00049117743
163	0xbd277b04	-0.0408888
164	0x3ba4b0bc	0.005025951
165	0x39944018	0.00028276513
166	0xbbee420b	-0.0072710565
167	0xbb878d40	-0.0041367114
168	0xbafcecf0	-0.0019296687
169	0x3b2f7d64	0.002677762
170	0x3b3d3a09	0.0028873703
171	0xbbdc4891	-0.006722518
172	0x3c1c5995	0.009542842
173	0x39dbcbac	0.00041922682
174	0x3bb7a4cd	0.0056043626
175	0xbb250fc5	-0.0025186401
176	0xbcc9a762	-0.024615947
177	0xbbf13643	-0.007361205
178	0x3929add5	0.00016181853
179	0xbbd1348a	-0.006384437
180	0x3bf30e98	0.007417511
181	0xba0cdb8d	-0.0005373292
182	0x3be4d442	0.006983311
183	0x3af096e9	0.0018355522
184	0xbb09ba1c	-0.002101547
185	0xbc29639c	-0.01033869
186	0x3bb2f42c	0.0054612365
187	0x3bf99e55	0.0076177516
188	0xbb363a28	-0.002780566
189	0xbc5c75d1	-0.013455824
190	0xbb82478a	-0.0039758133
191	0xbba96898	-0.0051699392
192	0x3bf4024a	0.007446562
193	0x3bd98bd1	0.006638982
194	0x3c1a95f9	0.00943517
195	0x3cc5e8d1	0.024158867
196	0x3d149fed	0.03628533
197	0x3b42411a	0.0029640854
198	0x3cfa74a6	0.0305732
199	0x3c898648	0.016787663
200	0x3c0fc51e	0.008775024
201	0x3c0fca34	0.008776236
202	0x3bf06b59	0.0073370156
203	0x3bdc7693	0.0067280023
204	0x3c075362	0.008259626
205	0x3c6c0eef	0.014407857
206	0x3c4378e3	0.011930677
207	0x3bcf21a8	0.006321151
208	0x3c9c30fe	0.01906633
209	0x3c68d434	0.014210749
210	0x3bba7913	0.0056907027
211	0x3bc97247	0.006147656
212	0x3c9793dc	0.018503122
213	0x3c1463ba	0.00905698
214	0x3bfcce09	0.007714991
215	0x3d00da57	0.031458225
216	0x3bc3a046	0.005970034
217	0x3c356ef6	0.011073818
218	0x3bdccf70	0.0067385957
219	0x3bfc2c35	0.0076956996
220	0x3bcd11d0	0.006258227
221	0x3bbef006	0.005826953
222	0x3bb77575	0.0055987188
223	0x3bd8db49	0.0066179377
224	0x3be304cd	0.0069280625
225	0x3e6babcf	0.23014759
226	0x3bda7890	0.006667204
227	0x3be1ce1a	0.0068910243
228	0x3bf8d80a	0.0075941132
229	0x3bd2f0f5	0.0064374157
230	0x3bda7f3b	0.006667999
231	0x3bc6fdf5	0.0060727545
232	0x3e333d69	0.17503895
233	0x3bf9809d	0.007614209
234	0x3be82b74	0.007085258
235	0x3c3113eb	0.0108079715
236	0x3d200069	0.03906289
237	0x3bd5ada1	0.0065209423
238	0x3bac49e1	0.0052578305
239	0x3c14680a	0.009058008
240	0x3e757547	0.23970519
241	0x3b7fc154	0.0039025145
242	0x3bfaa973	0.0076495945
243	0x3bd5f64b	0.0065296046
244	0x3c82bf32	0.01596031
245	0x3bff8ca9	0.0077987504
246	0x3c59258e	0.013253583
247	0x3bdd81e9	0.0067598713
248	0x3c021166	0.007938718
249	0x3c4bceed	0.012439472
250	0x3bc4a220	0.006000772
251	0x3bba7c35	0.005691076
252	0x3c9f1b11	0.019422086
253	0x3b3d77a7	0.002891043
254	0x3c271232	0.010197209
255	0x3be09e6d	0.0068548233

module.lstm.weight_ih_l0_reverse f4 [256, 6]
0	0x32d816d7	2.5156096e-08
1	0xb2f3ae1c	-2.8368099e-08
2	0x2e3e50ff	4.3272937e-11
3	0x3182f920	3.81182e-09
4	0xb2812b3d	-1.5037239e-08
5	0xb2c59154	-2.2999906e-08
6	0x24880ef5	5.9005936e-17
7	0x24980299	6.592389e-17
8	0x241ffb87	3.469068e-17
9	0x2477010b	5.356047e-17
10	0x24cc8a7e	8.870551e-17
11	0x23e5fced	2.4935348e-17
12	0x30e84c83	1.6901968e-09
13	0xb0aaea72	-1.2435761e-09
14	0x310f5b9c	2.0861313e-09
15	0xafc66e6e	-3.6094455e-10
16	0x2f16654b	1.3678407e-10
17	0x310629f2	1.952341e-09
18	0x26ef6a1a	1.6612715e-15
19	0x258774fa	2.3498033e-16
20	0x273dfee0	2.6367187e-15
21	0x263b5aad	6.5001547e-16
22	0x263fc554	6.6533866e-16
23	0x27001cc1	1.7779156e-15
24	0x2f4ac515	1.844181e-10
25	0x2f3f76fb	1.7413619e-10
26	0x3081988c	9.429342e-10
27	0x2d93782a	1.6765329e-11
28	0x3023a841	5.953816e-10
29	0x3062bb82	8.2484786e-10
30	0x21115db0	4.9251905e-19
31	0x9f906753	-6.115731e-20
32	0x213366ac	6.0783444e-19
33	0x9fc14939	-8.1859816e-20
34	0xa0b6e885	-3.0985868e-19
35	0x20a5c47e	2.8082115e-19
36	0x2eb63565	8.2858866e-11
37	0x2e9fadb1	7.261337e-11
38	0x2ee66905	1.0477844e-10
39	0x2e919401	6.6201274e-11
40	0x2eae68c1	7.931212e-11
41	0x2ebe7573	8.661063e-11
42	0xb98cdfe5	-0.00026869695
43	0xb9362d85	-0.0001737383
44	0xb9ab4d39	-0.00032673197
45	0xb95268a3	-0.00020066141
46	0xb8eefa59	-0.00011395355
47	0xb98b05c2	-0.00026516436
48	0xb8baf9df	-8.915713e-05
49	0xb9e93cde	-0.00044486573
50	0x39d2e0d6	0.00040221837
51	0xb9aedad8	-0.00033350918
52	0xb9d478bd	-0.00040525748
53	0xb6d162f1	-6.2402037e-06
54	0x32a2911e	1.8925274e-08
55	0x31837152	3.825485e-09
56	0x3255c9f5	1.24441515e-08
57	0x332d66e9	4.0373298e-08
58	0x3231a914	1.03412e-08
59	0x32bf73e4	2.2288027e-08
60	0x283ce769	1.04862755e-14
61	0x27455af7	2.7388554e-15
62	0x287a9b78	1.39115e-14
63	0x27a46e47	4.5638707e-15
64	0x27a17450	4.4812583e-15
65	0x2812c9ad	8.1483595e-15
66	0xae32bcdc	-4.0640255e-11
67	0xadcccb1c	-2.3282314e-11
68	0xae7371e5	-5.5352962e-11
69	0xae489694	-4.5608475e-11
70	0xae170588	-3.4338338e-11
71	0xae497e67	-4.5814377e-11
72	0x30853dac	9.694552e-10
73	0x308418e5	9.61134e-10
74	0x309e45dc	1.1515868e-09
75	0x30647c83	8.312286e-10
76	0x3095466a	1.086119e-09
77	0x3082c9b4	9.516072e-10
78	0x96b90599	-2.9891895e-25
79	0x96bc6df9	-3.044244e-25
80	0x967de890	-2.0510561e-25
81	0x96bfccf3	-3.0987055e-25
82	0x96cc354b	-3.299161e-25
83	0x966b683a	-1.9016037e-25
84	0x350fad13	5.352351e-07
85	0xb4c2790f	-3.6223398e-07
86	0x3420d69d	1.4979237e-07
87	0x3282559a	1.5172919e-08
88	0xb48d789f	-2.635106e-07
89	0x351ea885	5.9104815e-07
90	0x372b5059	1.0211102e-05
91	0x376cc44b	1.4112399e-05
92	0xb6c82487	-5.964717e-06
93	0x375ba57d	1.3091948e-05
94	0x373cf651	1.1263023e-05
95	0x367e9874	3.7937689e-06
96	0x9523925b	-3.3033042e-26
97	0x952f5bf5	-3.541351e-26
98	0x94caf1b3	-2.0492121e-26
99	0x9523d05f	-3.3081964e-26
100	0x94eb00e9	-2.3729295e-26
101	0x950f41ba	-2.893047e-26
102	0x345e7813	2.0719044e-07
103	0xb4c3aea9	-3.6448662e-07
104	0x35835c63	9.787149e-07
105	0xb3cbf9b7	-9.498347e-08
106	0xb4104a04	-1.3437972e-07
107	0x34d347ec	3.9354143e-07
108	0xae9959c4	-6.97358e-11
109	0xaf04213c	-1.2017137e-10
110	0xad5bc43b	-1.2492281e-11
111	0xaf0360f7	-1.194883e-10
112	0xaeecb014	-1.0763315e-10
113	0xaeada757	-7.896855e-11
114	0x2ad84dc9	3.8423282e-13
115	0x2a18123e	1.3506641e-13
116	0x2b0a896d	4.9218165e-13
117	0x2a6d7c4c	2.1092953e-13
118	0x29ce5d41	9.164415e-14
119	0x2ab7d4a2	3.2654874e-13
120	0xa3ba9887	-2.0230758e-17
121	0xa3572425	-1.1662827e-17
122	0xa33bf30d	-1.0188758e-17
123	0xa385bcc8	-1.4499841e-17
124	0xa2fb2812	-6.8076112e-18
125	0xa385639c	-1.4462075e-17
126	0x28024672	7.231725e-15
127	0x2813bc71	8.201001e-15
128	0x27acbbba	4.7943124e-15
129	0x2805fea6	7.438201e-15
130	0x280079f5	7.1318726e-15
131	0x281195de	8.081614e-15
132	0xb8eb18a6	-0.00011210264
133	0xb8c83895	-9.5472824e-05
134	0xb8fb89f2	-0.00011994307
135	0xb8ce30e7	-9.831954e-05
136	0xb8c13cd3	-9.2142865e-05
137	0xb906cfd9	-0.00012856665
138	0x268fae6f	9.969899e-16
139	0x26b3dde8	1.2480768e-15
140	0x270522da	1.847635e-15
141	0x26887b7a	9.470364e-16
142	0x26d6b624	1.4898602e-15
143	0x26aef81d	1.2140927e-15
144	0x209510bf	2.5252663e-19
145	0x20a12eba	2.7305382e-19
146	0x212dab2d	5.884123e-19
147	0x207fb11d	2.1657942e-19
148	0x20d74264	3.646635e-19
149	0x2102753a	4.420086e-19
150	0xb80f1cfa	-3.4120843e-05
151	0xb84c41d0	-4.8698683e-05
152	0xb80370d4	-3.1337913e-05
153	0xb8525f2d	-5.015654e-05
154	0xb867605d	-5.5164437e-05
155	0xb8447e2c	-4.684755e-05
156	0x30b9bc28	1.3513999e-09
157	0x30774617	8.995768e-10
158	0x30dd304f	1.6093596e-09
159	0x306bf88a	8.5845697e-10
160	0x3060c354	8.1768303e-10
161	0x30afb3ca	1.2784025e-09
162	0x348ae040	2.5867666e-07
163	0x343dfffb	1.7695122e-07
164	0x34a6c033	3.1059753e-07
165	0x34251058	1.5372768e-07
166	0x34512475	1.9477905e-07
167	0x347fba45	2.381649e-07
168	0x2dad7e8b	1.972402e-11
169	0xae950266	-6.7761616e-11
170	0x2f1ec09c	1.4438445e-10
171	0xaea3be3a	-7.446173e-11
172	0xaecee204	-9.407944e-11
173	0x2cb5ac3a	5.1634504e-12
174	0xb224c637	-9.591125e-09
175	0xb108c9ea	-1.990538e-09
176	0xb22e8d68	-1.0160285e-08
177	0xb21bc018	-9.0658645e-09
178	0xb109f250	-2.0073863e-09
179	0xb24ca2ec	-1.1911407e-08
180	0x34109536	1.3465328e-07
181	0xb2909cc2	-1.6835092e-08
182	0x342135a0	1.5013802e-07
183	0xb16aa60c	-3.4145868e-09
184	0xb3958860	-6.96316e-08
185	0x3427fa59	1.5644163e-07
186	0x18873a8f	3.495581e-24
187	0x96cbf027	-3.2947976e-25
188	0x9823cd49	-2.1170899e-24
189	0x17c58469	1.2764252e-24
190	0x9754cd4c	-6.8760016e-25
191	0x185d10ba	2.8572025e-24
192	0x8c07e488	-1.0468793e-31
193	0x0ae91ab2	2.2447126e-32
194	0x0a29b707	8.1714776e-33
195	0x8b7ad1d0	-4.8306094e-32
196	0x0af829e6	2.3897292e-32
197	0x8c06c752	-1.0382965e-31
198	0xba8c3e72	-0.0010699762
199	0xba4e0f1e	-0.0007860529
200	0xba92a1d1	-0.0011187141
201	0xba690502	-0.0008888991
202	0xba4a4c5d	-0.00077170675
203	0xba9656e1	-0.0011469984
204	0x345e277f	2.068973e-07
205	0x34b0cd14	3.293177e-07
206	0x350ddb78	5.284596e-07
207	0x349ce1ea	2.9221638e-07
208	0x35062e77	4.9986505e-07
209	0x34e31450	4.2296824e-07
210	0x292b17a1	3.7990122e-14
211	0x2829004c	9.381449e-15
212	0x295e171f	4.9313957e-14
213	0x28d75111	2.3904952e-14
214	0x29212ba2	3.5787027e-14
215	0x297261a9	5.38195e-14
216	0x2ec92f71	9.148849e-11
217	0x2f4e91ce	1.8787391e-10
218	0x2f4933cc	1.8299245e-10
219	0x2f1456ba	1.3491333e-10
220	0x2f63fcbf	2.0735323e-10
221	0x2f432e04	1.7751495e-10
222	0x35fcf245	1.8845973e-06
223	0xb58944c2	-1.0227307e-06
224	0x367af675	3.739636e-06
225	0xb615910b	-2.2287156e-06
226	0xb6533246	-3.1470713e-06
227	0x361167a3	2.1667008e-06
228	0x2318e84a	8.289126e-18
229	0x2269da37	3.169291e-18
230	0x247d91b1	5.4984035e-17
231	0x22949c5a	4.0281024e-18
232	0x2413ebd4	3.2075298e-17
233	0x23cda36c	2.2295356e-17
234	0x35693123	8.687077e-07
235	0xb2cbc4d0	-2.372181e-08
236	0x35e37ff3	1.6950056e-06
237	0x34932f4f	2.7415305e-07
238	0x31b05552	5.131974e-09
239	0x35681476	8.645651e-07
240	0x180ac597	1.793584e-24
241	0x17486fba	6.4764504e-25
242	0x18788c55	3.2124098e-24
243	0x17887f13	8.820872e-25
244	0x960c2b07	-1.1322687e-25
245	0x181544fe	1.929263e-24
246	0x3198fdd8	4.452641e-09
247	0xb0dcfc62	-1.6078838e-09
248	0x3219fdeb	8.963506e-09
249	0x305aa774	7.9545903e-10
250	0x3009858f	5.003011e-10
251	0x318e88f0	4.148312e-09
252	0x35f95fa1	1.8579777e-06
253	0x33fc17a7	1.1738967e-07
254	0x36af73de	5.228895e-06
255	0x34282531	1.565975e-07

module.lstm.weight_hh_l0_reverse f4 [256, 64]
0	0xaf7f224d	-2.3204301e-10
1	0x23db0201	2.3744876e-17
2	0x2bed7cc0	1.6874488e-12
3	0x27e2717c	6.285064e-15
4	0xabbf8d3c	-1.3610567e-12
5	0x2540efa4	1.6734539e-16
6	0xaaf5794f	-4.3604917e-13
7	0x300b78ad	5.0739396e-10
8	0xb109e83e	-2.0068138e-09
9	0xad19895c	-8.727543e-12
10	0xa606c7fc	-4.676162e-16
11	0xaadb72ca	-3.8981866e-13
12	0xab9ff7ea	-1.136644e-12
13	0x1fda27d9	9.2392514e-20
14	0xaca6ad85	-4.7372683e-12
15	0x30c37419	1.4221114e-09
16	0x9fd60e25	-9.0655926e-20
17	0xaf37b1ee	-1.6706966e-10
18	0xac832a5e	-3.7279476e-12
19	0x29959f57	6.64457e-14
20	0xa653d78e	-7.349746e-16
21	0xa6a80175	-1.1657737e-15
22	0x31aa52f5	4.9570823e-09
23	0xa66bc914	-8.1804515e-16
24	0x244c1ba1	4.425885e-17
25	0x313a1fe4	2.708469e-09
26	0x2c26eb3b	2.3720598e-12
27	0x2ed8576f	9.838074e-11
28	0x2c0433e7	1.878714e-12
29	0xad8270f4	-1.482945e-11
30	0xae74c99f	-5.5658252e-11
31	0x9f460d41	-4.1939094e-20
32	0x1695996b	2.4169069e-25
33	0x31097b2a	2.0006135e-09
34	0xada8a705	-1.917356e-11
35	0x28a2b5a8	1.8064394e-14
36	0x2b047d5f	4.706981e-13
37	0xae2555ec	-3.759297e-11
38	0xa5678f2c	-2.0084565e-16
39	0x2eac8e79	7.846963e-11
40	0xa0b0a6d1	-2.992595e-19
41	0x2ca93956	4.8096345e-12
42	0x2fa947d5	3.079196e-10
43	0xad895570	-1.5613039e-11
44	0xa1185397	-5.1610233e-19
45	0xab9d7189	-1.1187033e-12
46	0x2c4f27f9	2.9438659e-12
47	0xaca68ef8	-4.7338765e-12
48	0x24b84547	7.991464e-17
49	0x27189de3	2.1179828e-15
50	0xae84cff8	-6.039608e-11
51	0xacc3e096	-5.5671674e-12
52	0xb0b1dd41	-1.2941329e-09
53	0xacd4465e	-6.0332147e-12
54	0x25f23e5b	4.2022562e-16
55	0x2c1a1f8b	2.1902226e-12
56	0x9b3be2b2	-1.5541527e-22
57	0x2cd675ac	6.09531e-12
58	0x30ae0fe2	1.266468e-09
59	0xac9b081b	-4.406265e-12
60	0x1b95aa2d	2.4759956e-22
61	0xad479f23	-1.1347176e-11
62	0xadc7b18a	-2.2702524e-11
63	0x2e2f2087	3.9819283e-11
64	0x9ee8c4f6	-2.4645417e-20
65	0x1801a86d	1.6757893e-24
66	0x1ea61348	1.7583908e-20
67	0x1756801c	6.9308826e-25
68	0x1d4d436e	2.7166384e-21
69	0x14ee8aab	2.4086553e-26
70	0x9b4ea717	-1.709391e-22
71	0xa138edf9	-6.265658e-19
72	0x21a807c7	1.1386181e-18
73	0x9f2285cd	-3.4415512e-20
74	0x16c61531	3.2002e-25
75	0x9c662612	-7.614982e-22
76	0x9c9e947c	-1.0493945e-21
77	0x0fe90bd2	2.2980127e-29
78	0xa0bd71b7	-3.2093096e-19
79	0x20c99fe9	3.4156544e-19
80	0x8ea33d43	-4.0241595e-30
81	0x9f81a124	-5.490021e-20
82	0x9bb2bb9c	-2.956887e-22
83	0x19b4c21a	1.868996e-23
84	0x174f4a51	6.697911e-25
85	0x17e603e7	1.4864387e-24
86	0x213260f6	6.043707e-19
87	0x16ac99fd	2.788528e-25
88	0x13b743db	4.6262605e-27
89	0x2105a607	4.528189e-19
90	0x9d02838f	-1.727337e-21
91	0x1db3f3b2	4.763288e-21
92	0x1b64d4f4	1.8928527e-22
93	0x1dadea9e	4.6035307e-21
94	0xa01b5690	-1.3157652e-19
95	0x0fba6858	1.8381208e-29
96	0x0be22d80	8.7120494e-32
97	0x218adc7d	9.409606e-19
98	0x9e0095cf	-6.807243e-21
99	0x9a4f9212	-4.292459e-23
100	0x1d07808c	1.7933558e-21
101	0xa084e6a1	-2.2514287e-19
102	0x165cc173	1.78325e-25
103	0x1f8817f7	5.763789e-20
104	0x903aa0a1	-3.6805776e-29
105	0x9dafc575	-4.652628e-21
106	0x1ec915a9	2.1290661e-20
107	0x9e608b17	-1.1887224e-20
108	0x91902b46	-2.2745863e-28
109	0x9d3ea4f8	-2.5231577e-21
110	0x1d538b93	2.7997776e-21
111	0xa2189370	-2.0677894e-18
112	0x13c05cd4	4.855915e-27
113	0x17b08378	1.1406921e-24
114	0x2183a01c	8.919286e-19
115	0x9dfcf7f2	-6.6960214e-21
116	0x2028081a	1.4232834e-19
117	0x9cafc6b1	-1.1631889e-21
118	0x97662ae4	-7.4371144e-25
119	0x9d5ce441	-2.9234762e-21
120	0x0d1f0152	4.8997247e-31
121	0x1c9a22d0	1.0199864e-21
122	0xa096e0cc	-2.5559747e-19
123	0x9ec8d5e9	-2.1264295e-20
124	0x0bf5ada1	9.4631815e-32
125	0x1ddf46f0	5.9100956e-21
126	0x9f0526c6	-2.8195918e-20
127	0x1d89b0bb	3.6446333e-21
128	0xaae8cf8c	-4.1355493e-13
129	0x2473ab61	5.283739e-17
130	0x2b792780	8.851739e-13
131	0x245aecc8	4.7471776e-17
132	0xaa69083a	-2.0697411e-13
133	0x21c6ba44	1.3466306e-18
134	0xa649471b	-6.983225e-16
135	0xade40f2a	-2.5927333e-11
136	0xacbec0d6	-5.421534e-12
137	0x2bf138a5	1.7139802e-12
138	0xa43d32ef	-4.1025985e-17
139	0x2944e30a	4.3717668e-14
140	0xa8131422	-8.164505e-15
141	0x9df2aee5	-6.4237703e-21
142	0x2d3af5c7	1.06274494e-11
143	0x2c8d2ff9	4.012787e-12
144	0x9c060379	-4.434137e-22
145	0xac271873	-2.37457e-12
146	0xa86abaac	-1.3030087e-14
147	0xa4e8d3e9	-1.0097295e-16
148	0xa38e3210	-1.5416873e-17
149	0xa5c68789	-3.4439367e-16
150	0x2cd36d94	6.0091463e-12
151	0xa534c7d0	-1.568021e-16
152	0x20c25442	3.2920635e-19
153	0x2d021f83	7.3966415e-12
154	0xa81cfd73	-8.714698e-15
155	0x2ad8eca7	3.8533518e-13
156	0x2879a57e	1.3858162e-14
157	0x2ae8d1f9	4.1357176e-13
158	0x2cca90ab	5.7572467e-12
159	0x1ee4133b	2.4148393e-20
160	0x979cdd93	-1.0137197e-24
161	0x2d719b64	1.3733768e-11
162	0x295249a2	4.6693233e-14
163	0x25a2ed57	2.8263348e-16
164	0x2b0531f0	4.7320394e-13
165	0x2d3ae903	1.0624615e-11
166	0x241fbf89	3.4639866e-17
167	0x268fce75	9.978579e-16
168	0x1bb398c7	2.9711796e-22
169	0x28223df3	9.00624e-15
170	0xab5b0bb9	-7.78207e-13
171	0x2aaf96aa	3.119079e-13
172	0x1ee6f57c	2.4453727e-20
173	0xa8e639f8	-2.556027e-14
174	0x292a1839	3.7768593e-14
175	0x2dc8178f	2.274783e-11
176	0x20884b3e	2.3089087e-19
177	0x2474e1cd	5.3100327e-17
178	0x2e370ed9	4.162257e-11
179	0x2953a0f7	4.6991026e-14
180	0x2d46d49c	1.1302206e-11
181	0xa91f1b65	-3.5328853e-14
182	0xa40de0ee	-3.0765024e-17
183	0x2961e5d8	5.0159394e-14
184	0x9ada7775	-9.035568e-23
185	0x2a08a626	1.2136871e-13
186	0x2ba87d04	1.1971817e-12
187	0x2a6fbf1b	2.1293767e-13
188	0x988cf56d	-3.643697e-24
189	0x29b4828f	8.016254e-14
190	0x2d3ef645	1.0854932e-11
191	0x297defd2	5.6385296e-14
192	0xa15d98f8	-7.5080165e-19
193	0x197a8962	1.2952441e-23
194	0x1f490cc0	4.2573952e-20
195	0x1b94199b	2.4501093e-22
196	0x9d25285d	-2.1858435e-21
197	0x18e78072	5.9841797e-24
198	0x9dcada58	-5.3694717e-21
199	0xa33a9ca6	-1.0116252e-17
200	0xa2e0b07c	-6.090218e-18
201	0x1f72d116	5.1418445e-20
202	0x9bf2e0d0	-4.0180823e-22
203	0x1d7058e2	3.1809687e-21
204	0x9ea76af2	-1.7726044e-20
205	0x9320e373	-2.030698e-27
206	0xa0810f74	-2.1863676e-19
207	0x22637f6a	3.083169e-18
208	0x91017bdc	-1.0214473e-28
209	0x9fec6bcf	-1.0012824e-19
210	0x9f34cdf5	-3.8286846e-20
211	0x9d5944a9	-2.8755207e-21
212	0x1969c12d	1.2084829e-23
213	0x9a59c01e	-4.502974e-23
214	0x23467f1a	1.0760516e-17
215	0x99d46b68	-2.1963667e-23
216	0x16ebfe0b	3.8126621e-25
217	0x2396974e	1.6327113e-17
218	0x2018e37e	1.2950172e-19
219	0x220818cd	1.8444566e-18
220	0x1f9df101	6.6890794e-20
221	0x9e6e33b7	-1.26103095e-20
222	0x20881ae3	2.3057088e-19
223	0x128875c3	8.611837e-28
224	0x8ae6a813	-2.2211417e-32
225	0x24d1b2b9	9.094207e-17
226	0xa012a005	-1.2419627e-19
227	0x9a4d1da5	-4.2416953e-23
228	0x1dbdc6e3	5.0233527e-21
229	0xa082f444	-2.2184498e-19
230	0x98b87d57	-4.7689446e-24
231	0xa28fe7bf	-3.90056e-18
232	0x14115827	7.338014e-27
233	0x20e3aaeb	3.85684e-19
234	0xa312a4b9	-7.949557e-18
235	0xa0309b59	-1.495918e-19
236	0x145c9a28	1.11375635e-26
237	0x9ee6a4c8	-2.4420349e-20
238	0x1e2cdb9a	9.151017e-21
239	0x22043123	1.7915349e-18
240	0x16d93971	3.5094491e-25
241	0x1a0d84ad	2.926529e-23
242	0xa0d51660	-3.609841e-19
243	0x9fd5cc29	-9.0546764e-20
244	0x238a82f2	1.5017447e-17
245	0xa01319fd	-1.2459983e-19
246	0x99845b25	-1.3685293e-23
247	0x9e790ae9	-1.31842064e-20
248	0x8cabd6d7	-2.6476024e-31
249	0x1f4a3e69	4.2826788e-20
250	0xa285daa0	-3.62812e-18
251	0x225acddb	2.9653488e-18
252	0x8c6aa91e	-1.8077596e-31
253	0x9fd19257	-8.875704e-20
254	0x2130d52b	5.9913245e-19
255	0xa012d3fa	-1.2436818e-19
