LOSO/models/model_without_subj_3.pth (torch, 549103 bytes, 18 tensors)

lstm.weight_ih_l0 f4 [256, 6]
0	0x3c1eb7f5	0.009687413
1	0x3c04dfcb	0.008109997
2	0x3c8ee25a	0.017441917
3	0x3c877b69	0.016538339
4	0x3c931b97	0.017957492
5	0x3c9ef7b2	0.01940522
6	0x3aee82b7	0.0018196915
7	0x3b50d3b7	0.0031864473
8	0x3b52af02	0.003214777
9	0x3b93ba0f	0.004508264
10	0x3b125d2b	0.0022333364
11	0x3bb49a2c	0.005511543
12	0x3a041d4b	0.00050397654
13	0x39ea1bac	0.00044652575
14	0x39ce02c8	0.00039293454
15	0x3a0e8e17	0.0005438043
16	0x3a14a318	0.0005670055
17	0x3a1089c8	0.0005513695
18	0x3b0397a2	0.0020079394
19	0x3b6a4d2d	0.0035751567
20	0x3b54aa41	0.0032450112
21	0x3b8ff3b3	0.004393065
22	0x3b02dbaa	0.0019967356
23	0x3bac0cd4	0.0052505527
24	0xb90c4e4d	-0.0001338061
25	0xb8ea8738	-0.00011183176
26	0xb9225caa	-0.00015484044
27	0xb8ea0233	-0.00011158399
28	0xb8f454ea	-0.00011650643
29	0xb91982fd	-0.00014640014
30	0x3a1017c4	0.00054967054
31	0x3b035437	0.002003921
32	0x3af209b2	0.0018466024
33	0x3b3c0184	0.0028687427
34	0x3a6752a4	0.0008824265
35	0x3b5b3833	0.0033450245
36	0x3e089dc4	0.13341433
37	0x3ce3509e	0.027748402
38	0x3d5cda24	0.053918973
39	0x3de0a7b6	0.10969488
40	0x3b6c10d6	0.0036020777
41	0x3e5a0231	0.21289898
42	0x3ad89859	0.0016524895
43	0x3b51fe27	0.0032042356
44	0x3b4e3ce6	0.0031469404
45	0x3b92dffa	0.0044822665
46	0x3adee24c	0.0017004698
47	0x3b9b4edd	0.004739626
48	0x3b0fbf48	0.002193408
49	0x3b806111	0.003917821
50	0x3b6cea8c	0.0036150543
51	0x3b9705bd	0.0046088384
52	0x3b15ac3e	0.002283826
53	0x3bc516e7	0.006014693
54	0x3a549f5e	0.0008110906
55	0x3b17018b	0.0023041691
56	0x3b0ec3b8	0.0021784138
57	0x3b6699b1	0.0035186822
58	0x3a76b9f4	0.00094118644
59	0x3b6ff0f1	0.0036612118
60	0x3b22687c	0.0024781516
61	0x3b84b827	0.004050273
62	0x3b8d519f	0.0043127085
63	0x3bb4adf2	0.0055139
64	0x3b1d431b	0.0023996297
65	0x3bc7e25c	0.006099982
66	0x3aa80c7e	0.0012821106
67	0x3af6ad14	0.0018819892
68	0x3b0cb524	0.0021470273
69	0x3b5f88ed	0.0034108714
70	0x3a9b7d5c	0.0011862922
71	0x3b82d2f4	0.0039924327
72	0xb984210a	-0.00025201618
73	0xb962f2bb	-0.00021643464
74	0xb992cf07	-0.00028001537
75	0xb8e6c7cc	-0.0001100447
76	0xb9154205	-0.00014234342
77	0xb9824068	-0.0002484352
78	0x388e4bab	6.785182e-05
79	0x3ac0201d	0.0014658008
80	0x3a981f83	0.0011606071
81	0x3b21fb35	0.0024716381
82	0x39a2848a	0.00030997797
83	0x3b336a2c	0.0027376516
84	0x3784bfed	1.5824999e-05
85	0x3728cc59	1.0061159e-05
86	0x3783321b	1.563975e-05
87	0x376cffda	1.4126266e-05
88	0x3769b5e4	1.3930232e-05
89	0x37804486	1.5290698e-05
90	0xb78098c5	-1.5329928e-05
91	0xb74a12c1	-1.2044505e-05
92	0xb7a2b5e0	-1.9396597e-05
93	0xb71f7c76	-9.506117e-06
94	0xb72b75fe	-1.0219866e-05
95	0xb7869432	-1.6043054e-05
96	0x3a399375	0.0007079163
97	0x3b06c694	0.002056514
98	0x3b1916b1	0.0023359472
99	0x3b56df35	0.003278685
100	0x3a9712bd	0.001152597
101	0x3b82b2a1	0.0039885794
102	0x3b2784d2	0.0025561345
103	0x3b95d2db	0.004572255
104	0x3b89ccd9	0.004205328
105	0x3baa15bf	0.0051905806
106	0x3b17ead1	0.0023180733
107	0x3bcd67be	0.0062684705
108	0x3a8b1967	0.0010612429
109	0x3b1dfc50	0.0024106689
110	0x3b0f4b46	0.0021864935
111	0x3b5a1c45	0.003328101
112	0x3a807d19	0.0009802907
113	0x3b79940a	0.0038082623
114	0x3e1eb61a	0.15499154
115	0xbb7d5407	-0.003865482
116	0x3deee50b	0.1166478
117	0x3d5f4784	0.054511562
118	0x3e34ebfa	0.17668143
119	0x3e13ff91	0.1445296
120	0x3b574ac8	0.003285097
121	0x3b9e899b	0.004838181
122	0x3ba43a3a	0.005011824
123	0x3bca536f	0.006174497
124	0x3b7b9075	0.0038385664
125	0x3befba23	0.0073158904
126	0x38a0cb5a	7.667272e-05
127	0x38a9423d	8.070886e-05
128	0x3876f2ce	5.88771e-05
129	0x38c36b53	9.318315e-05
130	0x38cd7e57	9.7986944e-05
131	0x38aa2409	8.112944e-05
132	0x3a7b0fb9	0.0009577233
133	0x3b0da681	0.0021614137
134	0x3b17a6ad	0.0023140118
135	0x3b680eb9	0.0035409166
136	0x3ac8eee1	0.001532998
137	0x3b9317bc	0.0044889133
138	0x3acc30a5	0.0015578462
139	0x3b47af88	0.0030469615
140	0x3b2d8c54	0.0026481347
141	0x3b812b96	0.0039419634
142	0x3aac5178	0.0013146838
143	0x3b953a38	0.0045540594
144	0x3aea2f4f	0.0017866882
145	0x3b867ba3	0.004104094
146	0x3b71412a	0.0036812522
147	0x3b9ba252	0.0047495747
148	0x3b1dfb26	0.0024105995
149	0x3bd2d6df	0.006434306
150	0x39a48935	0.00031382745
151	0x396e178d	0.00022706222
152	0x39af16e8	0.00033395668
153	0x3992aba6	0.00027975178
154	0x3991ed94	0.00027833565
155	0x399ffcd7	0.00030515224
156	0xbc8f2a72	-0.017476294
157	0x3d27af8f	0.04093891
158	0x3e21df96	0.15807948
159	0x3cddab28	0.027059153
160	0x3db956a5	0.09049729
161	0x3e12cf0a	0.14336792
162	0x3a8502ca	0.0010147926
163	0x3af60b7c	0.0018771733
164	0x3af79148	0.0018887902
165	0x3b3a2302	0.0028402214
166	0x3a56a6eb	0.0008188325
167	0x3b39791f	0.0028300954
168	0x3a726afc	0.00092475093
169	0x3b052762	0.0020317663
170	0x3b0dc67c	0.0021633198
171	0x3b51e970	0.0032030009
172	0x3ab420e4	0.0013742712
173	0x3b82776d	0.003981522
174	0xb6e4c3e5	-6.8177346e-06
175	0xb6aa317a	-5.0721546e-06
176	0xb7137bc9	-8.790704e-06
177	0xb68d9140	-4.219037e-06
178	0xb68e4a24	-4.240561e-06
179	0xb6f06d34	-7.1652703e-06
180	0x3ae72106	0.0017633743
181	0x3b4cb8dc	0.0031238114
182	0x3b4ae9b8	0.003096206
183	0x3b9d748b	0.004805153
184	0x3b16df49	0.0023021272
185	0x3bb3f676	0.005492027
186	0x3878e0b9	5.9337097e-05
187	0x38dbf61f	0.000104885774
188	0x37ae1a4c	2.0754662e-05
189	0x38d3b4ff	0.00010094977
190	0x3903e6ac	0.00012579066
191	0x38b326fc	8.5426465e-05
192	0xb9a21db1	-0.0003092117
193	0xb98a4643	-0.0002637376
194	0xb9be63b6	-0.00036313914
195	0xb97a85c6	-0.00023891692
196	0xb98447e8	-0.00025230576
197	0xb9a936a1	-0.00032274894
198	0x3b037dca	0.002006399
199	0x3b6486fb	0.0034870494
200	0x3b79bb73	0.0038106113
201	0x3b986ab8	0.0046513937
202	0x3b288fee	0.0025720554
203	0x3bbbcb8d	0.0057310523
204	0xbafc5308	-0.001925082
205	0xbafe6013	-0.0019407294
206	0xbb12699e	-0.0022340785
207	0xbad71c26	-0.0016411587
208	0xbad57e15	-0.0016288186
209	0xbaf9a8fb	-0.0019047552
210	0x3af60261	0.001876902
211	0x3b813dd6	0.003944139
212	0x3b6cdbb3	0.0036141693
213	0x3b926a15	0.0044682124
214	0x3af8ba77	0.0018976469
215	0x3bc739cb	0.0060798875
216	0x3a640890	0.00086987857
217	0x3b145b14	0.0022637295
218	0x3b1ecc1b	0.0024230543
219	0x3b7b348c	0.003833088
220	0x3abeb26a	0.0014549021
221	0x3bb0f445	0.005400213
222	0x36bb5393	5.5827636e-06
223	0x3683df86	3.930126e-06
224	0x369b2683	4.6238433e-06
225	0x36c174d0	5.765447e-06
226	0x36c107b4	5.752745e-06
227	0x36bf0ac8	5.6934987e-06
228	0x3a89e3fa	0.0010520213
229	0x3af7a50a	0.001889379
230	0x3b0b149a	0.0021221996
231	0x3b48dbd0	0.0030648597
232	0x3a99317b	0.001168772
233	0x3b5d90d7	0.0033808255
234	0xb8bfb2d0	-9.140896e-05
235	0xb8b37858	-8.557801e-05
236	0xb8f207ec	-0.00011540935
237	0xb8836959	-6.266189e-05
238	0xb8970d6e	-7.2027426e-05
239	0xb8c94886	-9.5979354e-05
240	0x3a690d7f	0.00088902557
241	0x3b5139a1	0.0031925219
242	0x3b31af0b	0.002711239
243	0x3b808550	0.003922142
244	0x3aa4c13e	0.0012569798
245	0x3ba39291	0.0049918373
246	0x37779c13	1.4758686e-05
247	0x3778fc51	1.4840699e-05
248	0x372295bf	9.690818e-06
249	0x37a590b9	1.9736925e-05
250	0x37a313f2	1.9440402e-05
251	0x378a84c3	1.6512704e-05
252	0xbae694ba	-0.0017591931
253	0xbaca60d4	-0.0015440234
254	0xbb058363	-0.0020372502
255	0xbabfcd6a	-0.0014633362

lstm.weight_hh_l0 f4 [256, 64]
0	0xba418af7	-0.0007383073
1	0xb8fdaf38	-0.00012096617
2	0x39da0d94	0.00041590317
3	0xb8860cdb	-6.3920124e-05
4	0x37c44d16	2.3400917e-05
5	0xb85acf69	-5.2168416e-05
6	0x3c133959	0.008985841
7	0x3871f6bc	5.7688667e-05
8	0x37c2d514	2.3225824e-05
9	0x37d1319a	2.4937839e-05
10	0xb8d84000	-0.000103116035
11	0x38be69b5	9.0795955e-05
12	0x39286793	0.00016060313
13	0x38f09ef0	0.00011473696
14	0xb85a806c	-5.2094852e-05
15	0x38156bb8	3.562469e-05
16	0xb973b829	-0.00023242891
17	0xb866f7af	-5.5066947e-05
18	0x390befdb	0.00013345426
19	0x3b590f3e	0.0033120657
20	0x3805f1b6	3.1934782e-05
21	0xb94e360a	-0.00019665822
22	0x392a31a2	0.00016230953
23	0x390fb7c3	0.00013706
24	0x39133b59	0.00014041121
25	0x3957d559	0.00020583476
26	0x3bd07ed6	0.0063627763
27	0xb89f3d6c	-7.5931515e-05
28	0x39078ab0	0.00012926268
29	0x37b5205f	2.1591955e-05
30	0x37c5eb5f	2.3593833e-05
31	0xb97fa3a8	-0.00024379662
32	0xb75785ef	-1.28461825e-05
33	0x38458943	4.7096295e-05
34	0x39466604	0.00018920755
35	0xb881523f	-6.166519e-05
36	0xb86cd8cf	-5.6468703e-05
37	0xb8493019	-4.796693e-05
38	0xb809fac0	-3.2896874e-05
39	0xb86c4943	-5.6335015e-05
40	0x3767005e	1.3768758e-05
41	0xb8d904f7	-0.00010348291
42	0x388c7fee	6.699549e-05
43	0xb8e4d0c6	-0.00010910774
44	0xb8447c47	-4.6845784e-05
45	0x366cc7a9	3.5282958e-06
46	0xb88071a9	-6.1246865e-05
47	0xb937303a	-0.00017470206
48	0x392af337	0.00016303068
49	0x3930ddfe	0.00016867367
50	0xb7fc5123	-3.0078523e-05
51	0x395e9294	0.00021226174
52	0xb85cf33e	-5.2678624e-05
53	0xb94a0792	-0.00019267041
54	0x390e8bbb	0.00013594229
55	0xb9690ae1	-0.00022224664
56	0xba90dd6b	-0.0011052316
57	0xbc9bf007	-0.019035352
58	0xb8686c51	-5.5413988e-05
59	0xb9f26404	-0.00046232354
60	0xbab273f4	-0.0013614879
61	0xb8d1e9f4	-0.00010009474
62	0x38918d9f	6.940518e-05
63	0xb8e86d45	-0.00011082975
64	0xb9b21cc7	-0.00033972246
65	0xb979b9d4	-0.00023815717
66	0x38c18708	9.228109e-05
67	0xb98ba9d7	-0.00026638687
68	0x37b429df	2.147717e-05
69	0xb98214bd	-0.00024810983
70	0xb9ede88f	-0.00045377432
71	0x398f227b	0.00027300775
72	0xb95f2e2f	-0.00021284142
73	0x39989f5b	0.00029110428
74	0xb9911c0e	-0.00027677458
75	0x3986ea28	0.00025732932
76	0x376fcb64	1.4292866e-05
77	0x398d2c7b	0.00026926756
78	0xb719b501	-9.161654e-06
79	0x3780dabb	1.5360643e-05
80	0xb98fedb7	-0.00027452197
81	0x397a80c4	0.00023889827
82	0x398d5df4	0.00026963616
83	0x3b90a633	0.0044143437
84	0x399aa2b4	0.00029494392
85	0xb842bafc	-4.6427347e-05
86	0x3993304c	0.0002807401
87	0x39828810	0.00024896907
88	0xb96d7744	-0.00022646511
89	0x381170aa	3.467562e-05
90	0x3b887b60	0.004165098
91	0xb978253a	-0.00023664991
92	0x39a11f31	0.00030731552
93	0x36de1a5c	6.619184e-06
94	0x3973f713	0.00023266328
95	0xb8355b7a	-4.3238957e-05
96	0xb722411c	-9.671112e-06
97	0xb970e346	-0.0002297285
98	0x38806f71	6.124273e-05
99	0xb954a851	-0.00020280598
100	0xb97e9eaf	-0.00024282442
101	0xb75207d3	-1.2518797e-05
102	0xb9812184	-0.00024629768
103	0xb732a352	-1.0647653e-05
104	0x395b98e2	0.00020942421
105	0xb7c95613	-2.4001149e-05
106	0xb7366a66	-1.0872818e-05
107	0xb8180cb9	-3.6251473e-05
108	0xb983b93b	-0.00025124275
109	0x397f1ae2	0.0002432871
110	0xb9783450	-0.00023670611
111	0xb992ae64	-0.0002797722
112	0x399446e9	0.00028281592
113	0x39929c33	0.00027963668
114	0xb95f4082	-0.00021290968
115	0x3999f818	0.00029367278
116	0xb97211f8	-0.00023085612
117	0xb99bad42	-0.0002969299
118	0x39a0fe9c	0.00030707277
119	0xb97a1726	-0.00023850481
120	0xba13e652	-0.00056419254
121	0xbb86531e	-0.004099264
122	0x3967cdb3	0.00022106506
123	0xb8e6fe0a	-0.00011014573
124	0xb9e73d2e	-0.00044105336
125	0xb96a70d2	-0.00022358008
126	0x379faff6	1.9036215e-05
127	0xb99de9f2	-0.00030119676
128	0x385f8f28	5.3300668e-05
129	0x383f2eb0	4.558143e-05
130	0xb764336c	-1.3601832e-05
131	0x38397e59	4.4225108e-05
132	0xb626b3f3	-2.4840672e-06
133	0x38253fab	3.939836e-05
134	0x39186ba2	0.00014535946
135	0xb84020d5	-4.5806944e-05
136	0x384ef180	4.933914e-05
137	0xb821faac	-3.8618848e-05
138	0x38350b4a	4.3164277e-05
139	0xb8247e58	-3.9218314e-05
140	0xb69f2e19	-4.7439357e-06
141	0xb8254852	-3.940642e-05
142	0x35e02c7f	1.6702251e-06
143	0xb5cee49e	-1.5414732e-06
144	0x381f7ff9	3.8027738e-05
145	0xb855ddf0	-5.0989853e-05
146	0xb823c765	-3.904793e-05
147	0xb8b59c39	-8.659851e-05
148	0xb8539e83	-5.0453946e-05
149	0x3699b273	4.5805295e-06
150	0xb82a547e	-4.0609848e-05
151	0xb82b3e17	-4.0827403e-05
152	0x38695185	5.562745e-05
153	0xb6db7275	-6.540033e-06
154	0x39c31674	0.00037210027
155	0x3812642d	3.490241e-05
156	0xb8268f0f	-3.9710718e-05
157	0xb5672fce	-8.612377e-07
158	0xb8580e40	-5.1511684e-05
159	0x36d8dcbf	6.463e-06
160	0x366dedb7	3.545412e-06
161	0x38556e76	5.0886032e-05
162	0x35f4a5b1	1.8227639e-06
163	0x38429c0a	4.6398527e-05
164	0x38599a5e	5.1880597e-05
165	0x35be4095	1.4174899e-06
166	0x382c56bb	4.108877e-05
167	0x36771d80	3.682304e-06
168	0xb8520ba2	-5.0078736e-05
169	0x36308670	2.6304297e-06
170	0x370d70f7	8.430557e-06
171	0xb5b70918	-1.3637209e-06
172	0x382b235e	4.0802515e-05
173	0xb849e720	-4.8137386e-05
174	0x3833143f	4.269578e-05
175	0x38184607	3.6304842e-05
176	0xb824a8b6	-3.925777e-05
177	0xb831adf9	-4.2362113e-05
178	0x38611f9b	5.3673615e-05
179	0xb82769de	-3.99145e-05
180	0x3842927c	4.638963e-05
181	0x383c513e	4.4898356e-05
182	0xb82e3d21	-4.1541763e-05
183	0x382e6a13	4.1583622e-05
184	0xb76e92c1	-1.4220074e-05
185	0xb9a4e6c4	-0.0003145245
186	0xb8568eac	-5.115445e-05
187	0x371cc3ff	9.3439585e-06
188	0x38630141	5.4122185e-05
189	0x3838eb87	4.408837e-05
190	0xb6434d65	-2.9102314e-06
191	0x380fbac2	3.426779e-05
192	0xb85ae816	-5.2191397e-05
193	0xb8c81fa9	-9.54264e-05
194	0x38de7eff	0.0001060944
195	0xb8b2c072	-8.523547e-05
196	0x370d81a0	8.434436e-06
197	0xb8ebe4ac	-0.00011248267
198	0xbaaf3563	-0.0013367351
199	0x391e18b8	0.00015077263
200	0xb80de86e	-3.3833487e-05
201	0x39550140	0.00020313729
202	0xb8d86bd6	-0.000103197686
203	0x390c5d91	0.00013386297
204	0x38193892	3.6530728e-05
205	0x393988c1	0.0001769392
206	0xb740d8db	-1.1494582e-05
207	0x3787e60a	1.6200374e-05
208	0xb930f96d	-0.00016877586
209	0x388a55e3	6.5963504e-05
210	0x39290d8f	0.00016122147
211	0x3b737e74	0.003715423
212	0x38f7b2ee	0.00011811206
213	0xb860abe5	-5.356585e-05
214	0x392039de	0.00015280346
215	0x38ed22d1	0.00011307526
216	0xb7dc99af	-2.6297608e-05
217	0x384e2487	4.9148246e-05
218	0x3b8675c1	0.004103393
219	0xb9294e25	-0.00016146207
220	0x39311973	0.00016889516
221	0x3707e608	8.100185e-06
222	0x386090c7	5.3540596e-05
223	0xb869113d	-5.5567583e-05
224	0xb6871778	-4.0260456e-06
225	0xb880033a	-6.1041166e-05
226	0x3843a4db	4.6645157e-05
227	0xb7d35a4a	-2.5195204e-05
228	0xb896210a	-7.1587114e-05
229	0xb7670615	-1.3770089e-05
230	0xb91c5391	-0.0001490845
231	0xb75fd640	-1.334172e-05
232	0x381d9380	3.7569087e-05
233	0xb7ec3b58	-2.8161026e-05
234	0x3814c53a	3.546963e-05
235	0xb80a0bdc	-3.291281e-05
236	0xb90370c2	-0.00012535139
237	0x388e0602	6.772207e-05
238	0xb8d5f35d	-0.000102019614
239	0xb93780d1	-0.00017500228
240	0x39263277	0.00015849793
241	0x38ef4653	0.00011409507
242	0xb70b43d5	-8.300839e-06
243	0x394d95e4	0.00019606162
244	0xb89c5526	-7.45452e-05
245	0xb91acbb6	-0.00014762473
246	0x39493617	0.00019189004
247	0xb8c10d2c	-9.2054106e-05
248	0xba173ca3	-0.00057692284
249	0xbb3ebc36	-0.0029103882
250	0x38908022	6.890322e-05
251	0xb90bd9f6	-0.0001333727
252	0xb85d0105	-5.2691455e-05
253	0xb877279e	-5.8926285e-05
254	0x37bf8390	2.2830238e-05
255	0xb9571826	-0.00020512994

lstm.bias_ih_l0 f4 [256]
0	0x3d03c42b	0.032169502
1	0x3bf15d59	0.0073658642
2	0xb989ed8a	-0.00026307657
3	0x3bee367b	0.007269678
4	0xb97ebcf8	-0.00024293724
5	0x3baefa6f	0.0053399126
6	0x3c082e68	0.008311845
7	0x3bef60c5	0.007305237
8	0x3c010bb6	0.007876327
9	0x3bba1b7a	0.005679545
10	0x3c13db66	0.009024477
11	0x3bc54151	0.006019749
12	0xba53728c	-0.000806608
13	0x3b9c90ce	0.0047780043
14	0x377d93bd	1.5114373e-05
15	0xb8339e28	-4.282422e-05
16	0x3bd1a124	0.0063973833
17	0x3c0fbb3e	0.008772669
18	0x3bbce754	0.005764881
19	0x3e23109f	0.15924309
20	0x3c1eb206	0.009685999
21	0xb8af431d	-8.357151e-05
22	0x3bd3f24d	0.0064680935
23	0x3bd48004	0.006484987
24	0x3c11f1c3	0.008907738
25	0x39b50db8	0.00034533232
26	0x3e71c0c8	0.23608696
27	0x3b959aa3	0.0045655533
28	0x3bc1c3cc	0.0059132334
29	0xb7b1b916	-2.1186232e-05
30	0x3c01d87a	0.007925147
31	0xb9a53b9b	-0.00031515662
32	0xba29cb14	-0.00064770994
33	0x3c00807f	0.007843136
34	0xbb5b8ad4	-0.0033499496
35	0x3c0455de	0.008077113
36	0x3c02c897	0.007982395
37	0xb5099e4f	-5.1266846e-07
38	0x3ba1c3a6	0.004936653
39	0xb99314e7	-0.00028053598
40	0x3bf7e51d	0.007565154
41	0xb7cff1fb	-2.4789004e-05
42	0xbb49bf28	-0.0030784104
43	0xbaaf292e	-0.0013363713
44	0x3be39501	0.006945253
45	0x3c139629	0.009007969
46	0x3bd1b663	0.006399916
47	0x3b943497	0.0045228708
48	0x3beac6ab	0.0071647963
49	0x3bfcb242	0.0077116797
50	0x3c350c8d	0.011050356
51	0x3bccde31	0.006252073
52	0x3bee9441	0.007280857
53	0x3c13a372	0.009011136
54	0x3bf807df	0.0075692977
55	0x3bf60f33	0.007509136
56	0x3e1fad66	0.1559349
57	0x3e09d24f	0.13459133
58	0x3c0dd899	0.008657598
59	0x376e6fd6	1.4211944e-05
60	0x3dba6eb1	0.09103144
61	0x3be977b4	0.0071248654
62	0xb7dba603	-2.618414e-05
63	0x3bb773d0	0.0055985227
64	0x3d0522bb	0.032503825
65	0x3c0b25f7	0.008492938
66	0xb950918a	-0.00019890643
67	0x3c067488	0.008206494
68	0xb97ce470	-0.00024117692
69	0x3bcac624	0.006188171
70	0x3d59413d	0.05304073
71	0x3c094c58	0.008380018
72	0x3c144432	0.009049462
73	0x3bcbcbbf	0.006219357
74	0x3c2718a3	0.010198745
75	0x3be4fe4a	0.0069883214
76	0xba4457bb	-0.00074898795
77	0x3bb967d3	0.0056581288
78	0x3780213a	1.5274261e-05
79	0xb831924a	-4.233633e-05
80	0x3bee030e	0.0072635477
81	0x3c1ec5dc	0.009690728
82	0x3bdf65f1	0.0068175723
83	0x3e239ff6	0.15978989
84	0x3c2dacb5	0.010600259
85	0xb894623f	-7.07549e-05
86	0x3bf6cd9f	0.007531836
87	0x3c00ec46	0.007868832
88	0x3c1e7758	0.009672008
89	0x39b7be64	0.00035046332
90	0x3e5efa8c	0.21775264
91	0x3ba91958	0.005160492
92	0x3bd17bf2	0.0063929493
93	0xb7af167c	-2.0872096e-05
94	0x3c1965aa	0.0093626175
95	0xb99daaf7	-0.00030072752
96	0xba273f66	-0.00063799915
97	0x3c0fef76	0.008785119
98	0xbb57ccdb	-0.00329285
99	0x3c1ba24a	0.009499142
100	0x3c18e9cb	0.009333084
101	0xb38fdd17	-6.6991724e-08
102	0x3bb930a8	0.005651552
103	0xb9911581	-0.00027672577
104	0x3c0d4224	0.008621726
105	0xb7c073df	-2.294214e-05
106	0xbb4769ca	-0.0030428045
107	0xbaae485f	-0.0013296715
108	0x3bfc3b7b	0.0076975203
109	0x3c2f8969	0.0107139135
110	0x3be87626	0.0070941625
111	0x3baa341a	0.0051941993
112	0x3c0a8875	0.008455385
113	0x3c0de250	0.008659914
114	0x3c4cc9b0	0.012499258
115	0x3be82adf	0.0070851888
116	0x3c069b53	0.008215743
117	0x3c285252	0.010273533
118	0x3c0ef4d2	0.008725362
119	0x3c0b8af2	0.008517014
120	0x3e653f93	0.22387533
121	0x3ed5fc74	0.4179417
122	0x3c20df5b	0.009818877
123	0x38165e94	3.585087e-05
124	0x3dc87758	0.09788388
125	0x3c0b2c3f	0.008494436
126	0xb7c4bd54	-2.3453184e-05
127	0x3bd04f79	0.00635713
128	0x3c2f3ccc	0.010695647
129	0xbbe0eb3f	-0.006863981
130	0x3b357435	0.0027687673
131	0xbbd953e6	-0.006632316
132	0xbac774f8	-0.0015217355
133	0xbbec1b3a	-0.007205394
134	0xbbabafe6	-0.0052394746
135	0x3bebb16d	0.0071927817
136	0xbbbe2e72	-0.0058038766
137	0x3bfec582	0.0077750096
138	0xbc1a0da5	-0.009402667
139	0x3bee6a35	0.0072758445
140	0x3883701d	6.2674495e-05
141	0x3be6e304	0.0070461053
142	0xb9c68182	-0.00037861994
143	0xb8f20e0a	-0.00011542074
144	0xbc14332d	-0.009045404
145	0x3bd11ff5	0.0063819834
146	0x3bfd786f	0.007735304
147	0xbd03ccb6	-0.03217765
148	0x3bbcdd4d	0.005763686
149	0xba65b5e2	-0.00087627594
150	0x3bce9935	0.006304885
151	0x3c064b5b	0.008196677
152	0xbb491009	-0.0030679724
153	0x3a97acaa	0.0011571844
154	0xbdc4f12c	-0.096163124
155	0xbc02f0a4	-0.0079919435
156	0x3bda6fa9	0.006666143
157	0xb86f1fd8	-5.7011697e-05
158	0x3bbab828	0.0056982227
159	0xba2ae1e6	-0.0006518647
160	0x3abd3491	0.0014435222
161	0xbba66ec6	-0.005079123
162	0x3b117f2e	0.002220105
163	0xbbc7d5a8	-0.006098468
164	0xbba1b533	-0.0049349307
165	0xb98582fa	-0.00025465322
166	0xbbd41cbd	-0.0064731524
167	0x39ce8330	0.00039389124
168	0x3ba2299a	0.004948807
169	0xba332fdc	-0.00068354397
170	0x3bbb3b51	0.005713858
171	0xbac9baa8	-0.0015390711
172	0xbc0b4a16	-0.00850155
173	0x3c06f91b	0.008238102
174	0xbbccb5e6	-0.00624727
175	0xbbe96bc8	-0.007123444
176	0x3c16637f	0.009178995
177	0x3bfbb157	0.0076810527
178	0xbbd32070	-0.006443076
179	0x3bedfd4d	0.007262862
180	0xbbbe49fb	-0.005807159
181	0xbbdcee17	-0.0067422497
182	0x3c095a43	0.0083833365
183	0xbc046469	-0.00808058
184	0xbdbfb3a6	-0.09360437
185	0xbe0cbf86	-0.13744935
186	0x3bc47ed6	0.0059965653
187	0xbaefe04b	-0.0018301097
188	0x3cf821be	0.030289527
189	0xbc100352	-0.008789854
190	0x3a12b4f9	0.0005596425
191	0xbc201a13	-0.009771842
192	0x3d0471e4	0.032335177
193	0x3bf21737	0.0073880213
194	0xb98a681a	-0.00026398973
195	0x3beedadf	0.007289275
196	0xb97eb8fa	-0.00024292237
197	0x3bafb04f	0.005361594
198	0x3dcafdd3	0.099116944
199	0x3bf00a07	0.007325414
200	0x3c018a05	0.007906442
201	0x3bbadbc3	0.005702467
202	0x3c145a56	0.009054741
203	0x3bc5c847	0.006035838
204	0xba5384af	-0.00080687826
205	0x3b9d43fc	0.004799364
206	0x377d781e	1.5107942e-05
207	0xb833a8f1	-4.2834265e-05
208	0x3bd2206c	0.0064125564
209	0x3c103896	0.008802554
210	0x3bbd74f0	0.0057817623
211	0x3e76bbd2	0.24095085
212	0x3c1f3cd4	0.009719092
213	0xb8b02150	-8.398539e-05
214	0x3bd4d852	0.006495514
215	0x3bd4dd4f	0.0064961086
216	0x3c12cf03	0.008960488
217	0x39b50254	0.00034524745
218	0x3e69b4ac	0.22822827
219	0x3b95dce8	0.004573453
220	0x3bc2e16d	0.005947283
221	0xb7b1c5c0	-2.1192129e-05
222	0x3c023a6b	0.007948498
223	0xb9a5f685	-0.00031654924
224	0xba29cea5	-0.0006477631
225	0x3c00f3a9	0.007870593
226	0xbb5b8cf0	-0.0033500753
227	0x3c04a528	0.008096017
228	0x3c035014	0.008014698
229	0xb50b9600	-5.1999814e-07
230	0x3ba2319f	0.004949763
231	0xb993202a	-0.0002806199
232	0x3bf8f7ae	0.007597885
233	0xb7d02a07	-2.4815103e-05
234	0xbb49c366	-0.0030786633
235	0xbaaf26fc	-0.0013363059
236	0x3be3f43c	0.0069566052
237	0x3c141848	0.009038992
238	0x3bd27303	0.006422402
239	0x3b948f3b	0.004533676
240	0x3beb466f	0.007180027
241	0x3bfd7126	0.0077344356
242	0x3c35a788	0.011087306
243	0x3bcd60b8	0.0062676333
244	0x3bef3f01	0.007301212
245	0x3c1439b6	0.0090469625
246	0x3bf886d2	0.007584431
247	0x3bf68f47	0.007524404
248	0x3e2a8183	0.16650967
249	0x3e94df1e	0.29076475
250	0x3c0e51db	0.008686508
251	0x37644912	1.3606872e-05
252	0x3dbaf9c7	0.091296725
253	0x3be9d1a2	0.007135586
254	0xb7dbdf49	-2.621081e-05
255	0x3bb7eb2f	0.005612753

lstm.bias_hh_l0 f4 [256]
0	0x3d03c42b	0.032169502
1	0x3bf15d59	0.0073658642
2	0xb989ed8a	-0.00026307657
3	0x3bee367b	0.007269678
4	0xb97ebcf8	-0.00024293724
5	0x3baefa6f	0.0053399126
6	0x3c082e65	0.008311843
7	0x3bef60c5	0.007305237
8	0x3c010bb6	0.007876327
9	0x3bba1b7a	0.005679545
10	0x3c13db66	0.009024477
11	0x3bc54151	0.006019749
12	0xba53728c	-0.000806608
13	0x3b9c90ce	0.0047780043
14	0x377d93bd	1.5114373e-05
15	0xb8339e28	-4.282422e-05
16	0x3bd1a124	0.0063973833
17	0x3c0fbb3e	0.008772669
18	0x3bbce754	0.005764881
19	0x3e23109f	0.15924309
20	0x3c1eb206	0.009685999
21	0xb8af431d	-8.357151e-05
22	0x3bd3f24d	0.0064680935
23	0x3bd48004	0.006484987
24	0x3c11f1c3	0.008907738
25	0x39b50db8	0.00034533232
26	0x3e71c0c7	0.23608695
27	0x3b959aa3	0.0045655533
28	0x3bc1c3cc	0.0059132334
29	0xb7b1b916	-2.1186232e-05
30	0x3c01d87a	0.007925147
31	0xb9a53b9b	-0.00031515662
32	0xba29cb14	-0.00064770994
33	0x3c00807f	0.007843136
34	0xbb5b8ad4	-0.0033499496
35	0x3c0455de	0.008077113
36	0x3c02c897	0.007982395
37	0xb5099e4f	-5.1266846e-07
38	0x3ba1c3a6	0.004936653
39	0xb99314e7	-0.00028053598
40	0x3bf7e51d	0.007565154
41	0xb7cff1fb	-2.4789004e-05
42	0xbb49bf28	-0.0030784104
43	0xbaaf292e	-0.0013363713
44	0x3be39501	0.006945253
45	0x3c139629	0.009007969
46	0x3bd1b663	0.006399916
47	0x3b943497	0.0045228708
48	0x3beac6ab	0.0071647963
49	0x3bfcb242	0.0077116797
50	0x3c350c8d	0.011050356
51	0x3bccde31	0.006252073
52	0x3bee9441	0.007280857
53	0x3c13a372	0.009011136
54	0x3bf807df	0.0075692977
55	0x3bf60f33	0.007509136
56	0x3e1fad66	0.1559349
57	0x3e09d256	0.13459143
58	0x3c0dd899	0.008657598
59	0x376e6fd6	1.4211944e-05
60	0x3dba6eb1	0.09103144
61	0x3be977b4	0.0071248654
62	0xb7dba603	-2.618414e-05
63	0x3bb773d0	0.0055985227
64	0x3d0522bb	0.032503825
65	0x3c0b25f7	0.008492938
66	0xb950918a	-0.00019890643
67	0x3c067488	0.008206494
68	0xb97ce470	-0.00024117692
69	0x3bcac624	0.006188171
70	0x3d598448	0.05310467
71	0x3c094c58	0.008380018
72	0x3c144432	0.009049462
73	0x3bcbcbbf	0.006219357
74	0x3c2718a3	0.010198745
75	0x3be4fe4a	0.0069883214
76	0xba4457bb	-0.00074898795
77	0x3bb967d3	0.0056581288
78	0x3780213a	1.5274261e-05
79	0xb831924a	-4.233633e-05
80	0x3bee030e	0.0072635477
81	0x3c1ec5dc	0.009690728
82	0x3bdf65f1	0.0068175723
83	0x3e239fd7	0.15978943
84	0x3c2dacb5	0.010600259
85	0xb894623f	-7.07549e-05
86	0x3bf6cd9f	0.007531836
87	0x3c00ec46	0.007868832
88	0x3c1e7758	0.009672008
89	0x39b7be64	0.00035046332
90	0x3e5eecec	0.21770066
91	0x3ba91958	0.005160492
92	0x3bd17bf2	0.0063929493
93	0xb7af167c	-2.0872096e-05
94	0x3c1965aa	0.0093626175
95	0xb99daaf7	-0.00030072752
96	0xba273f66	-0.00063799915
97	0x3c0fef76	0.008785119
98	0xbb57ccdb	-0.00329285
99	0x3c1ba24a	0.009499142
100	0x3c18e9cb	0.009333084
101	0xb38fdd17	-6.6991724e-08
102	0x3bb930a8	0.005651552
103	0xb9911581	-0.00027672577
104	0x3c0d4224	0.008621726
105	0xb7c073df	-2.294214e-05
106	0xbb4769ca	-0.0030428045
107	0xbaae485f	-0.0013296715
108	0x3bfc3b7b	0.0076975203
109	0x3c2f8969	0.0107139135
110	0x3be87626	0.0070941625
111	0x3baa341a	0.0051941993
112	0x3c0a8875	0.008455385
113	0x3c0de250	0.008659914
114	0x3c4cc9b0	0.012499258
115	0x3be82adf	0.0070851888
116	0x3c069b53	0.008215743
117	0x3c285252	0.010273533
118	0x3c0ef4d2	0.008725362
119	0x3c0b8af2	0.008517014
120	0x3e653f93	0.22387533
121	0x3ed6e519	0.41971663
122	0x3c20df5b	0.009818877
123	0x38165e94	3.585087e-05
124	0x3dc87758	0.09788388
125	0x3c0b2c3f	0.008494436
126	0xb7c4bd54	-2.3453184e-05
127	0x3bd04f79	0.00635713
128	0x3c2e5e18	0.010642551
129	0xbbe0eb43	-0.006863983
130	0x3b357435	0.0027687673
131	0xbbd953a0	-0.0066322833
132	0xbac774f8	-0.0015217355
133	0xbbec1b3c	-0.007205395
134	0xbd9358b2	-0.07194652
135	0x3bebb16d	0.0071927817
136	0xbbbe2e8a	-0.0058038877
137	0x3bfec584	0.0077750105
138	0xbc1a0da6	-0.009402668
139	0x3bee6a37	0.0072758454
140	0x3883701d	6.2674495e-05
141	0x3be6e379	0.00704616
142	0xb9c68182	-0.00037861994
143	0xb8f20e0a	-0.00011542074
144	0xbc14332f	-0.009045406
145	0x3bd12013	0.0063819974
146	0x3bfd7869	0.0077353013
147	0xbd1786fb	-0.03699396
148	0x3bbcdd4d	0.005763686
149	0xba65b5e2	-0.00087627594
150	0x3bce9935	0.006304885
151	0x3c064b59	0.008196675
152	0xbb491009	-0.0030679724
153	0x3a97acaa	0.0011571844
154	0xbdac942c	-0.08426699
155	0xbc02f0a4	-0.0079919435
156	0x3bda6fa8	0.0066661425
157	0xb86f1fd8	-5.7011697e-05
158	0x3bbab828	0.0056982227
159	0xba2ae1e6	-0.0006518647
160	0x3abd3491	0.0014435222
161	0xbba66ec6	-0.005079123
162	0x3b117f2e	0.002220105
163	0xbbc7d5a2	-0.006098465
164	0xbba1b533	-0.0049349307
165	0xb98582fa	-0.00025465322
166	0xbbd41cb9	-0.0064731506
167	0x39ce8330	0.00039389124
168	0x3ba2299a	0.004948807
169	0xba332fdc	-0.00068354397
170	0x3bbb3b51	0.005713858
171	0xbac9baa8	-0.0015390711
172	0xbc0b4a1c	-0.008501556
173	0x3c06f91a	0.008238101
174	0xbbccb5e4	-0.006247269
175	0xbbe96bc8	-0.007123444
176	0x3c16637f	0.009178995
177	0x3bfbb157	0.0076810527
178	0xbbd32072	-0.0064430768
179	0x3bedfd5b	0.0072628683
180	0xbbbe4809	-0.005806927
181	0xbbdcee10	-0.0067422464
182	0x3c095a44	0.008383337
183	0xbc04646d	-0.008080584
184	0xbdbfbceb	-0.09362205
185	0xbcad4363	-0.021150297
186	0x3bc47ef0	0.0059965774
187	0xbaefe04b	-0.0018301097
188	0x3cf9426e	0.030427184
189	0xbc100352	-0.008789854
190	0x3a12b4f9	0.0005596425
191	0xbc201a13	-0.009771842
192	0x3d0471e4	0.032335177
193	0x3bf21737	0.0073880213
194	0xb98a681a	-0.00026398973
195	0x3beedadf	0.007289275
196	0xb97eb8fa	-0.00024292237
197	0x3bafb04f	0.005361594
198	0x3dcafdd1	0.09911693
199	0x3bf00a07	0.007325414
200	0x3c018a05	0.007906442
201	0x3bbadbc3	0.005702467
202	0x3c145a56	0.009054741
203	0x3bc5c847	0.006035838
204	0xba5384af	-0.00080687826
205	0x3b9d43fc	0.004799364
206	0x377d781e	1.5107942e-05
207	0xb833a8f1	-4.2834265e-05
208	0x3bd2206c	0.0064125564
209	0x3c103896	0.008802554
210	0x3bbd74f0	0.0057817623
211	0x3e76bbd2	0.24095085
212	0x3c1f3cd4	0.009719092
213	0xb8b02150	-8.398539e-05
214	0x3bd4d852	0.006495514
215	0x3bd4dd4f	0.0064961086
216	0x3c12cf03	0.008960488
217	0x39b50254	0.00034524745
218	0x3e69b452	0.22822693
219	0x3b95dce8	0.004573453
220	0x3bc2e16d	0.005947283
221	0xb7b1c5c0	-2.1192129e-05
222	0x3c023a6b	0.007948498
223	0xb9a5f685	-0.00031654924
224	0xba29cea5	-0.0006477631
225	0x3c00f3a9	0.007870593
226	0xbb5b8cf0	-0.0033500753
227	0x3c04a528	0.008096017
228	0x3c035014	0.008014698
229	0xb50b9600	-5.1999814e-07
230	0x3ba2319f	0.004949763
231	0xb993202a	-0.0002806199
232	0x3bf8f7ae	0.007597885
233	0xb7d02a07	-2.4815103e-05
234	0xbb49c366	-0.0030786633
235	0xbaaf26fc	-0.0013363059
236	0x3be3f43c	0.0069566052
237	0x3c141848	0.009038992
238	0x3bd27303	0.006422402
239	0x3b948f3b	0.004533676
240	0x3beb466f	0.007180027
241	0x3bfd7126	0.0077344356
242	0x3c35a788	0.011087306
243	0x3bcd60b8	0.0062676333
244	0x3bef3f01	0.007301212
245	0x3c1439b6	0.0090469625
246	0x3bf886d2	0.007584431
247	0x3bf68f47	0.007524404
248	0x3e2a8183	0.16650967
249	0x3e94dedc	0.29076278
250	0x3c0e51db	0.008686508
251	0x37644912	1.3606872e-05
252	0x3dbaf9c7	0.091296725
253	0x3be9d1a2	0.007135586
254	0xb7dbdf49	-2.621081e-05
255	0x3bb7eb2f	0.005612753

lstm.weight_ih_l0_reverse f4 [256, 6]
0	0xb23cf89e	-1.0999569e-08
1	0xb23a4108	-1.0841411e-08
2	0xb28170fc	-1.5068956e-08
3	0xb219ed2e	-8.9597005e-09
4	0xb2371fdc	-1.0659246e-08
5	0xb22fffc4	-1.0244495e-08
6	0xbb638ef2	-0.0034722653
7	0xbb4afc0d	-0.0030972988
8	0xbb6a1f81	-0.0035724344
9	0xbb4056a4	-0.0029348517
10	0xbb4a2035	-0.003084195
11	0xbb7b85c7	-0.0038379298
12	0xaafc1f56	-4.4785936e-13
13	0xab1cbaa7	-5.5681366e-13
14	0xab2c528e	-6.1221243e-13
15	0xaad83d7a	-3.8411966e-13
16	0xab00409c	-4.55644e-13
17	0xaaddf738	-3.9429029e-13
18	0xb0857816	-9.711154e-10
19	0xb06389b8	-8.277783e-10
20	0xb0949c1f	-1.081279e-09
21	0xb05fe023	-8.1445445e-10
22	0xb063556d	-8.2703516e-10
23	0xb08ca87a	-1.0234225e-09
24	0x3061b2af	8.210845e-10
25	0x30673ffc	8.412824e-10
26	0x2fd5423c	3.8791537e-10
27	0x307b93ba	9.15232e-10
28	0x307fdb25	9.307988e-10
29	0x2fe84736	4.2251153e-10
30	0xa85ce89f	-1.2262895e-14
31	0xa86c4536	-1.3115639e-14
32	0xa870ae76	-1.33605065e-14
33	0xa85dd551	-1.231422e-14
34	0xa87c5813	-1.4007908e-14
35	0xa87502aa	-1.360081e-14
36	0xb9a022f1	-0.00030543612
37	0xb965aa37	-0.00021902552
38	0xb9ab3306	-0.00032653677
39	0xb99f5e69	-0.00030397184
40	0xb9bb70ff	-0.00035751608
41	0xb9d8285a	-0.00041228795
42	0xb570dbd4	-8.972686e-07
43	0xb5425f47	-7.240928e-07
44	0xb583219d	-9.770043e-07
45	0xb54bebb7	-7.5966403e-07
46	0xb521edb7	-6.0323094e-07
47	0xb5876cdd	-1.0089967e-06
48	0xa98aec7c	-6.1694546e-14
49	0xa99c188b	-6.932049e-14
50	0xa9a400b2	-7.2831837e-14
51	0xa97edeb4	-5.6592494e-14
52	0xa98cc904	-6.2521196e-14
53	0xa99ba034	-6.9111736e-14
54	0xad8c1dcf	-1.5929395e-11
55	0x2d75aabe	1.396455e-11
56	0xae1b53a6	-3.5317214e-11
57	0xacd9c364	-6.1892037e-12
58	0xae2248ef	-3.6899313e-11
59	0xae2a9e90	-3.8794357e-11
60	0xae2f638f	-3.987882e-11
61	0xae39017e	-4.2065455e-11
62	0xae6538b2	-5.2118927e-11
63	0xae186680	-3.4651837e-11
64	0xae318274	-4.0361006e-11
65	0xae2efb71	-3.9786344e-11
66	0x392eec13	0.00016681878
67	0x39d2dbe6	0.00040218158
68	0xb8ed3a00	-0.00011311844
69	0x39c2f1c6	0.000371827
70	0x3a195735	0.00058494817
71	0x39a5ba01	0.00031609836
72	0xafca2c82	-3.677521e-10
73	0xafcb138b	-3.693937e-10
74	0xaffb0216	-4.5658116e-10
75	0xafaa3790	-3.09623e-10
76	0xafb6f552	-3.3279918e-10
77	0xafbb1d55	-3.4035944e-10
78	0xa9fdb681	-1.12671164e-13
79	0xa9aa18d3	-7.553823e-14
80	0xaa3b5dc8	-1.6641473e-13
81	0xa998397d	-6.7601286e-14
82	0xa9ea3286	-1.0400452e-13
83	0xaa83c387	-2.340595e-13
84	0xa9b3b4d0	-7.980563e-14
85	0xa9c1133f	-8.5742604e-14
86	0xa9f6b85f	-1.0956578e-13
87	0xa97617b3	-5.464353e-14
88	0xa9adaa28	-7.712261e-14
89	0xa9de1dd3	-9.863954e-14
90	0x270dea46	1.969468e-15
91	0x2707da39	1.8853312e-15
92	0x26beb2e7	1.323239e-15
93	0x270b9608	1.9371457e-15
94	0x26f34ef5	1.6882914e-15
95	0x2670f227	8.3594904e-16
96	0xa86689e1	-1.27974625e-14
97	0xa88c27d7	-1.55604e-14
98	0xa899dcc1	-1.7082149e-14
99	0xa8367856	-1.0129123e-14
100	0xa860f784	-1.2488169e-14
101	0xa8436f0e	-1.0848756e-14
102	0xb29986ff	-1.7872933e-08
103	0xb2bf6389	-2.228059e-08
104	0xb2da82df	-2.5438053e-08
105	0xb28106c4	-1.5020653e-08
106	0xb291f59e	-1.6991915e-08
107	0xb2865025	-1.5636099e-08
108	0xadc1fc60	-2.2053637e-11
109	0xadd2b134	-2.395293e-11
110	0xadff6c01	-2.9038107e-11
111	0xada00355	-1.8191374e-11
112	0xadd1e45e	-2.3861964e-11
113	0xad97c962	-1.7256144e-11
114	0x2c54c348	3.0235415e-12
115	0x2cd62e7d	6.087407e-12
116	0x2cf6d56e	7.015436e-12
117	0x2c790512	3.5387843e-12
118	0x2b4f32d7	7.361173e-13
119	0x2c02837d	1.8547102e-12
120	0xa813d034	-8.205286e-15
121	0xa847074b	-1.10483005e-14
122	0xa879da32	-1.386959e-14
123	0xa78e8008	-3.955173e-15
124	0xa823bb40	-9.088921e-15
125	0xa80b946b	-7.748233e-15
126	0xaf4746cf	-1.8124101e-10
127	0xaf4f0c04	-1.8830809e-10
128	0xaf73ca01	-2.2172487e-10
129	0xaf296957	-1.5407885e-10
130	0xaf307007	-1.6046907e-10
131	0xaf36bd16	-1.661998e-10
132	0xacd8a04d	-6.156886e-12
133	0xad17c6c4	-8.627491e-12
134	0xad1d3849	-8.936915e-12
135	0xacb7d805	-5.225156e-12
136	0xacdb157b	-6.226739e-12
137	0xacc1a30a	-5.503491e-12
138	0xa8271ad1	-9.276177e-15
139	0xa837a10d	-1.0193463e-14
140	0xa84b671c	-1.1291122e-14
141	0xa80f2858	-7.946843e-15
142	0xa81b6260	-8.62556e-15
143	0xa812a530	-8.140447e-15
144	0xa9d6ae81	-9.533781e-14
145	0xa9ff5065	-1.1338221e-13
146	0xaa1e5b46	-1.4064886e-13
147	0xa9a55782	-7.342652e-14
148	0xa9c27f75	-8.637441e-14
149	0xaa0bf145	-1.2429387e-13
150	0xbae06052	-0.001711855
151	0xbaa8f219	-0.0012889534
152	0xbb02d29a	-0.0019961954
153	0xbaa8bf97	-0.0012874481
154	0xbaba3d9e	-0.0014209037
155	0xbaecc886	-0.0018065132
156	0xaeafdcc8	-7.997297e-11
157	0xaf254a98	-1.5033164e-10
158	0xaf1442e1	-1.3484282e-10
159	0xaeae4cb0	-7.926226e-11
160	0xaf2268d2	-1.4771054e-10
161	0xaf04c892	-1.2076587e-10
162	0xb0d51aed	-1.5505442e-09
163	0xb0ded515	-1.6213187e-09
164	0xb10358b1	-1.9113424e-09
165	0xb0b1d12d	-1.2937896e-09
166	0xb0b88433	-1.3425335e-09
167	0xb0c2c28c	-1.4170651e-09
168	0xac4abe40	-2.8811536e-12
169	0xac84aaf1	-3.770644e-12
170	0xac83298b	-3.727856e-12
171	0xac3fb04c	-2.7240597e-12
172	0xac67ae6b	-3.2923896e-12
173	0xac86025d	-3.8087714e-12
174	0xae848d66	-6.0277824e-11
175	0xae86262d	-6.100396e-11
176	0xae9fa9a7	-7.260619e-11
177	0xae61b8d4	-5.1323237e-11
178	0xae75874a	-5.582671e-11
179	0xae799a13	-5.675289e-11
180	0xad014731	-7.348609e-12
181	0xaccc1801	-5.8006937e-12
182	0xad0cfcd9	-8.014222e-12
183	0xaccdf79b	-5.85394e-12
184	0xacdc7f10	-6.266883e-12
185	0xad0f4cc8	-8.145658e-12
186	0xa9efb468	-1.06450276e-13
187	0xa9e83954	-1.03128145e-13
188	0xaa16c535	-1.3391096e-13
189	0xa9b7a536	-8.155492e-14
190	0xa9d6e4ae	-9.543179e-14
191	0xaa0b6992	-1.2382307e-13
192	0xb40a6576	-1.2889163e-07
193	0xb41d77bc	-1.4665324e-07
194	0xb436e684	-1.7033932e-07
195	0xb3e9a064	-1.0879083e-07
196	0xb4051d54	-1.239726e-07
197	0xb400732a	-1.1962825e-07
198	0xa6ea0f80	-1.6241213e-15
199	0xa70fdaa5	-1.9963764e-15
200	0xa71ce023	-2.1770854e-15
201	0xa6c7d8b6	-1.3867138e-15
202	0xa6de4e4b	-1.5425566e-15
203	0xa6cff357	-1.4429468e-15
204	0xaa5b8314	-1.9496584e-13
205	0xaa6b1f35	-2.088302e-13
206	0xaa8b1f27	-2.4712976e-13
207	0xaa38c26d	-1.6409938e-13
208	0xaa4d01c3	-1.8208269e-13
209	0xaa586244	-1.9218747e-13
210	0xb3732368	-5.6610048e-08
211	0xb38738a3	-6.2967295e-08
212	0xb39c04f9	-7.2652206e-08
213	0xb35037ce	-4.8479528e-08
214	0xb35a8b73	-5.088391e-08
215	0xb35d1e65	-5.1483216e-08
216	0xb31dabbd	-3.6710606e-08
217	0xb32b80bc	-3.9931123e-08
218	0xb34c84db	-4.7618283e-08
219	0xb302d7fe	-3.0464427e-08
220	0xb316f3c7	-3.514631e-08
221	0xb30c4b26	-3.2664637e-08
222	0xb3130dcc	-3.4238653e-08
223	0xb2f529df	-2.8540795e-08
224	0xb32d8ab4	-4.040585e-08
225	0xb2e43957	-2.6568769e-08
226	0xb309c378	-3.2075576e-08
227	0xb308107d	-3.1679964e-08
228	0xb7f085aa	-2.8672472e-05
229	0xb80b88d0	-3.32676e-05
230	0xb81dcb43	-3.762102e-05
231	0xb7c839ea	-2.3868826e-05
232	0xb7e67b95	-2.7475684e-05
233	0xb7d49d73	-2.5345687e-05
234	0x2e42df17	4.4308637e-11
235	0x2ea5ebc8	7.5452145e-11
236	0x2d202124	9.102306e-12
237	0x2ec71e61	9.054869e-11
238	0xada0da5e	-1.8286869e-11
239	0xae094d8d	-3.1219072e-11
240	0xac63e054	-3.2383167e-12
241	0xac7f82e5	-3.631034e-12
242	0xac8ce9e0	-4.0050047e-12
243	0xac42c07c	-2.7675908e-12
244	0xac654559	-3.2581353e-12
245	0xac3ed6d8	-2.7119886e-12
246	0xb17199cb	-3.5157537e-09
247	0xb18d09a6	-4.104737e-09
248	0xb1a40823	-4.7739532e-09
249	0xb14f9f6f	-3.0213092e-09
250	0xb17221a6	-3.5234762e-09
251	0xb180e27d	-3.751039e-09
252	0xaa2edbd4	-1.5530573e-13
253	0xaa860a4c	-2.3810327e-13
254	0xaa9789a3	-2.6918493e-13
255	0xa9b46270	-8.010682e-14

lstm.weight_hh_l0_reverse f4 [256, 64]
0	0xaae543af	-4.0725537e-13
1	0x2ee3fc26	1.03675554e-10
2	0xa7280c35	-2.33213e-15
3	0xa94b48fe	-4.5138365e-14
4	0x27f084af	6.6757237e-15
5	0xa52956ab	-1.4687778e-16
6	0x2d82a4f3	1.4852541e-11
7	0x29ad69ba	7.701084e-14
8	0xa632fe94	-6.2101173e-16
9	0x27ffd78e	7.1010423e-15
10	0xa921c121	-3.5916694e-14
11	0x2e5e22e3	5.050794e-11
12	0x298ce903	6.25767e-14
13	0xa6ccf8ec	-1.4222814e-15
14	0x26a57205	1.148008e-15
15	0x2529bfb7	1.4723369e-16
16	0x25fc5aed	4.3776645e-16
17	0x2b145fad	5.271294e-13
18	0x289082dc	1.6043963e-14
19	0xa677e1ab	-8.6001177e-16
20	0x2607c028	4.7097954e-16
21	0x29374342	4.06925e-14
22	0xa83c87f0	-1.0465573e-14
23	0xa5bc02e2	-3.2614755e-16
24	0x267c5cc9	8.755581e-16
25	0x2e84a47f	6.0318854e-11
26	0xa9050c61	-2.954267e-14
27	0xaa048fa8	-1.1773796e-13
28	0x2859f93f	1.20999664e-14
29	0xa8a82b9a	-1.8670656e-14
30	0xa737f695	-2.5530024e-15
31	0xa5c9867e	-3.4959077e-16
32	0x2bb0b5d1	1.2556016e-12
33	0xa5308caa	-1.5313225e-16
34	0xa6b2d9c1	-1.2410253e-15
35	0x2b6249e6	8.0393884e-13
36	0xab2c2cc0	-6.116878e-13
37	0xaae888f6	-4.1306514e-13
38	0x2d9a7bfd	1.7562835e-11
39	0xa95d7b99	-4.917906e-14
40	0xa7f55d75	-6.8102487e-15
41	0xaa1ec126	-1.4100231e-13
42	0xa71941fb	-2.1268783e-15
43	0xaa7a348c	-2.2222691e-13
44	0x2e9606b8	6.822404e-11
45	0x2db37632	2.0402433e-11
46	0x2a255d78	1.4687372e-13
47	0x2749d725	2.8010984e-15
48	0x2ed6631e	9.7492e-11
49	0x26e2e100	1.5742887e-15
50	0xa38c8e24	-1.523903e-17
51	0xa586c00e	-2.3375436e-16
52	0x296744ce	5.1351982e-14
53	0xa84da118	-1.1414718e-14
54	0xa4cddfc7	-8.928367e-17
55	0x2889c7e4	1.5296744e-14
56	0xa978b54c	-5.5224312e-14
57	0x26753695	8.5075423e-16
58	0xabe2d26b	-1.6116669e-12
59	0x2c81f267	3.6933126e-12
60	0xa5af7077	-3.043387e-16
61	0xa68455e3	-9.18262e-16
62	0xa5875a4b	-2.3479952e-16
63	0xa650e0e2	-7.246927e-16
64	0x31ff7ef9	7.435912e-09
65	0x38383f6c	4.3928085e-05
66	0x2f3411e9	1.6377268e-10
67	0x328ad5f2	1.6162605e-08
68	0xb1725c93	-3.5268257e-09
69	0xae4275c7	-4.42151e-11
70	0x37927973	1.746111e-05
71	0x33aade4f	7.9566796e-08
72	0x2f2dff0e	1.5824872e-10
73	0x32272439	9.7289155e-09
74	0x317ad20b	3.6499184e-09
75	0x37500eb4	1.2401189e-05
76	0xb0dc11a0	-1.6012116e-09
77	0x2fb18b29	3.2294992e-10
78	0xaf4e8088	-1.8781254e-10
79	0xadcc3f6e	-2.3220283e-11
80	0xae0a4380	-3.143752e-11
81	0xb238b339	-1.075096e-08
82	0x2f26dfbd	1.51771e-10
83	0x311ba213	2.2647597e-09
84	0x2da76030	1.9028418e-11
85	0xb0e4b5e0	-1.6640875e-09
86	0x2fb557ea	3.2986175e-10
87	0x2d084d63	7.747888e-12
88	0xaf7f8c80	-2.324203e-10
89	0x37e0d234	2.6800764e-05
90	0x32824ab1	1.5167958e-08
91	0x327499ed	1.4237668e-08
92	0xb08a9cfe	-1.0085441e-09
93	0x30881390	9.900862e-10
94	0x30c9f215	1.4693479e-09
95	0x2f7b1d1b	2.2838657e-10
96	0xb40edc86	-1.3305007e-07
97	0x2d1d42e2	8.939268e-12
98	0x2f7bb269	2.2891701e-10
99	0x32b19e35	2.0677456e-08
100	0x33143b30	3.4512766e-08
101	0x31f337fa	7.0785946e-09
102	0xb4cc37d6	-3.8038587e-07
103	0x32366c89	1.0618472e-08
104	0x2f23502d	1.4853248e-10
105	0x33353e10	4.2198792e-08
106	0x2f56e131	1.954319e-10
107	0x3218f8bd	8.904121e-09
108	0xb5416dde	-7.205798e-07
109	0xb4a4b7b4	-3.0681042e-07
110	0xb19d820f	-4.5840873e-09
111	0xaf705a03	-2.1859851e-10
112	0xb622b8b2	-2.4247388e-06
113	0x2d399217	1.0548471e-11
114	0x2b28c6ec	5.996165e-13
115	0x2d439905	1.1118444e-11
116	0xb1028464	-1.8992745e-09
117	0x2f865119	2.443208e-10
118	0x2cd3ddef	6.0216203e-12
119	0xafa525b7	-3.0040123e-10
120	0x30aa8812	1.2407801e-09
121	0xadddffcf	-2.5238393e-11
122	0x32c36cae	2.275041e-08
123	0xb3feb408	-1.1860544e-07
124	0x2c7fc5fc	3.6347583e-12
125	0x2f142ab8	1.3475698e-10
126	0x2cf15494	6.859022e-12
127	0xae80f506	-5.864291e-11
128	0xa399a04a	-1.6656178e-17
129	0x27ac7dde	4.7876056e-15
130	0xa0035683	-1.1124756e-19
131	0xa23bd36e	-2.5455156e-18
132	0x21d4573e	1.4388772e-18
133	0x9df9486c	-6.5984634e-21
134	0x2684cc89	9.214779e-16
135	0x2289b05b	3.732065e-18
136	0x9f0c9147	-2.9766324e-20
137	0x211ce2d2	5.315505e-19
138	0xa18048dd	-8.692904e-19
139	0x273de657	2.6353886e-15
140	0x226303c0	3.0766222e-18
141	0x9f377e23	-3.8856095e-20
142	0x1f4dda19	4.3590845e-20
143	0x1e37ff34	9.740714e-21
144	0x1ec1e1c7	2.0528049e-20
145	0x23ea83f9	2.5426223e-17
146	0x2160a12b	7.6107456e-19
147	0x20a5bad0	2.807571e-19
148	0x1eb90d53	1.9593148e-20
149	0x22126162	1.9838244e-18
150	0xa1149928	-5.034705e-19
151	0x9e9672bc	-1.592932e-20
152	0x1f2d299b	3.666859e-20
153	0x2751c3ad	2.9110653e-15
154	0xa1d8d2e3	-1.4692551e-18
155	0xa2d130dd	-5.67013e-18
156	0x20fd05da	4.286374e-19
157	0xa189f1d2	-9.34749e-19
158	0xa016cb37	-1.2772732e-19
159	0x9eb366af	-1.8994831e-20
160	0x24910191	6.288638e-17
161	0x9e04bddc	-7.027284e-21
162	0x9f89681c	-5.819399e-20
163	0x242e3ae0	3.7780105e-17
164	0xa4090494	-2.9711017e-17
165	0xa3c88bf2	-2.1743313e-17
166	0x26761fe4	8.5391615e-16
167	0xa1d282ac	-1.4264742e-18
168	0xa0c57eb8	-3.3456954e-19
169	0xa2e3b4f2	-6.1720057e-18
170	0x9faaa317	-7.226761e-20
171	0xa3399214	-1.0059803e-17
172	0x277031a0	3.3333593e-15
173	0x26905cc8	1.0017156e-15
174	0x22e13d24	6.1051107e-18
175	0x2002c849	1.1077697e-19
176	0x27ab79f3	4.759425e-15
177	0x1fc33c49	8.2685446e-20
178	0x9c644993	-7.5533964e-22
179	0x9e500f54	-1.1014598e-20
180	0x22341bbb	2.440923e-18
181	0xa12594df	-5.6101204e-19
182	0x9d99fa78	-4.075774e-21
183	0x215ae39f	7.4162527e-19
184	0xa2447a6f	-2.662777e-18
185	0x1f46d670	4.210551e-20
186	0xa4b65740	-7.9077725e-17
187	0x254d7e2d	1.7823666e-16
188	0x9e8ae4df	-1.4705977e-20
189	0x9e14bab8	-7.873667e-21
190	0x9e549a0b	-1.1255042e-20
191	0x9f1c753e	-3.3131265e-20
192	0xa8608736	-1.2463817e-14
193	0x2d064f39	7.634609e-12
194	0xa4af884f	-7.612507e-17
195	0xa5d6f1ea	-3.728701e-16
196	0xa79db1e5	-4.3769127e-15
197	0xa2c611b5	-5.3686756e-18
198	0x2c13cf3f	2.1005001e-12
199	0xa956d75b	-4.7704337e-14
200	0xa2e3593c	-6.1622954e-18
201	0x26a382e9	1.134588e-15
202	0xa735447b	-2.515592e-15
203	0x2c85e22d	3.805198e-12
204	0x27065cf7	1.8646632e-15
205	0xa0efcbd5	-4.062306e-19
206	0x239480d9	1.6100761e-17
207	0xa19e1ef1	-1.0714687e-18
208	0x23836b00	1.4248365e-17
209	0x28ac8767	1.9154557e-14
210	0x2627dbd0	5.8237666e-16
211	0x2700388d	1.7794225e-15
212	0x23a87da7	1.8267812e-17
213	0x26b35716	1.2444225e-15
214	0xa5d48a21	-3.6869737e-16
215	0xa340b2d6	-1.0446211e-17
216	0x23492fcc	1.0906353e-17
217	0x2c933210	4.1835493e-12
218	0xa5a39a55	-2.8380572e-16
219	0xa76c794b	-3.2817332e-15
220	0x256513f4	1.9869344e-16
221	0xa5f158a9	-4.1866914e-16
222	0xa4803dd9	-5.5615925e-17
223	0xa2a04d4f	-4.344994e-18
224	0x293c84e7	4.185966e-14
225	0xa2b0e047	-4.794236e-18
226	0xa4193570	-3.322185e-17
227	0x29027f19	2.8976038e-14
228	0xa8af3baa	-1.9454778e-14
229	0xa824c835	-9.147242e-15
230	0x2b226d02	5.770524e-13
231	0xa79592c3	-4.1514927e-15
232	0xa56fd829	-2.0803183e-16
233	0xa681a772	-8.996559e-16
234	0xa442482e	-4.2128183e-17
235	0xa7e98c9d	-6.4822944e-15
236	0x2c158bf3	2.125186e-12
237	0x2b2b8d8c	6.094784e-13
238	0x2811302d	8.059563e-15
239	0x248e9f7e	6.1852874e-17
240	0x2c5d6659	3.1462803e-12
241	0x2497660d	6.565869e-17
242	0xa0ff16b1	-4.3213696e-19
243	0xa30a88f5	-7.509997e-18
244	0x26de204d	1.54131e-15
245	0xa5d038b8	-3.6120682e-16
246	0xa2432ae1	-2.6450128e-18
247	0x2618c58a	5.300331e-16
248	0xa7098124	-1.9082577e-15
249	0x23d2c2e1	2.285078e-17
250	0xa9521cdf	-4.665441e-14
251	0x29fbd134	1.118293e-13
252	0xa3508f6b	-1.13060725e-17
253	0x23742dd1	1.32369685e-17
254	0xa309ced0	-7.470579e-18
255	0xa3fa5112	-2.7139389e-17
