LOSO/models/model_without_subj_1.onnx (onnx, 550191 bytes, 8 tensors)

fc.weight f4 [2, 128]
000000 1d 28 89 bc b5 0a 05 bd 55 61 fd 3c 2e 10 a0 3d
       -0.01674276 -0.032480914 0.0309302 0.07815586
000010 01 f7 d4 bc d6 9c b7 3c 7d ca 93 bc ce 5d e2 3a
       -0.025996687 0.022413652 -0.01804089 0.0017270388
000020 51 08 f1 3c 19 6b 42 3a 9e 5e 96 3c 28 74 f3 3c
       0.02942291 0.00074164715 0.018355664 0.029718474
000030 00 e7 bd 3c 62 5a 42 bc 26 71 8d bc a8 39 f5 bc
       0.023181438 -0.011862369 -0.017265867 -0.02993472
000040 ea f3 a6 bc 91 35 9f 3c 9d 7d b4 3c 7c ef 08 bd
       -0.02037998 0.019434722 0.022032553 -0.033431515
000050 e0 22 83 bc 07 a0 6a 3c 05 a5 b0 3c 82 dc 78 3d
       -0.01600784 0.01432038 0.021563062 0.060757168
000060 f4 97 3b bd 07 fe 87 3c 8c 13 6f bb e0 30 92 3c
       -0.04579921 0.016600622 -0.0036480157 0.017845571
000070 1d dd 2a bc 5f 0c 30 3c 33 0c 07 3c bb 45 64 bc
       -0.010428694 0.010745137 0.008242655 -0.013932641
000080 0b cd c9 bc 02 e5 a7 bc 97 da 83 39 e2 38 c6 bc
       -0.024633905 -0.020494942 0.0002514913 -0.024197046
000090 97 f6 b0 bc 64 50 42 3c 6c ca 25 3c 8e 1d d5 3c
       -0.021601958 0.011859987 0.010119062 0.02601507
0000a0 30 9d 3c bc 34 d2 82 3c 52 7c da 3c 10 e9 eb 3c
       -0.011512086 0.015969373 0.026670609 0.028797656
0000b0 1a ef 76 bc 7b 88 82 bc aa 1b c3 3c a9 94 02 3c
       -0.015071655 -0.01593422 0.023816902 0.007970014
0000c0 28 3e a3 bc b9 ce 84 bc 84 ad 9d 3d 49 82 9e 3c
       -0.0199271 -0.016211854 0.07699111 0.019349234
0000d0 bd 7c b9 bc db aa b9 bc 37 06 14 bd 64 38 2f 3c
       -0.022642488 -0.022664478 -0.03613874 0.010694597
0000e0 79 02 b2 bc 7d 77 4c 3c 0b 18 9e 3c 69 96 b6 bc
       -0.021729695 0.01247966 0.019298574 -0.022288518
0000f0 aa d2 a1 3c 86 d5 8e 3c e6 c3 39 3c f8 1d 32 3c
       0.019753773 0.0174358 0.01133821 0.010871403
000100 ce cc 17 b6 1f 0a 23 3d 1f 6c 59 3a 06 26 a4 b6
       -2.2619965e-06 0.039804574 0.00082940044 -4.8920074e-06
000110 54 e3 1f ba fb 40 9d bc 1c aa 5a 39 6d da ac 38
       -0.0006099243 -0.019196024 0.00020853471 8.242284e-05
000120 0e a3 ac 3c 40 e4 b7 3c 85 16 10 bd 27 b2 5a 3c
       0.021073844 0.022447705 -0.035177726 0.013348139
000130 93 23 0c bd 8e 57 b3 35 42 59 85 3d 9a 64 5f ba
       -0.034213614 1.3362021e-06 0.06511165 -0.00085217657
000140 d4 1d 64 3c 0d 09 f5 37 b5 e4 c7 b8 e7 d6 06 bd
       0.013923127 2.921049e-05 -9.5316595e-05 -0.03291979
000150 b5 a3 63 37 5d 4c 1e bd d9 92 31 39 31 9b e2 3b
       1.356837e-05 -0.038647044 0.0001693474 0.006915473
000160 66 dc bc ba 75 a5 a8 b6 04 44 fe 3c 30 f0 db 39
       -0.0014408946 -5.026052e-06 0.031038292 0.0004194989
000170 20 74 8b b9 45 f7 53 b9 70 c6 9b 3c a0 4b 0f 3b
       -0.00026598666 -0.00020214643 0.01901552 0.0021865144
000180 ef 02 2b 3d 24 62 ff bc 7b 60 bd b8 81 7b 8c 39
       0.041750845 -0.031174727 -9.030193e-05 0.00026794898
000190 ef 29 84 3c cb 26 2b 3d 79 61 56 38 27 05 17 37
       0.016133277 0.041785043 5.1112354e-05 9.001501e-06
0001a0 60 32 ac bc c0 80 a4 b8 d7 d0 e2 b9 9b 11 16 3d
       -0.021020114 -7.844111e-05 -0.00043261677 0.036637884
0001b0 6a 5c 03 bd b4 3d 2d b8 ef 9b 05 bc a5 d7 a9 38
       -0.032070555 -4.130388e-05 -0.008154853 8.098715e-05
0001c0 44 01 f8 b8 ff c3 92 3a 5c e4 cf 34 2c 31 25 bd
       -0.00011825797 0.0011197327 3.8722908e-07 -0.040330097
0001d0 d6 71 7a 38 2a 84 4d 39 b4 9d 7e 3a a0 62 45 ba
       5.9710663e-05 0.00019599558 0.00097128307 -0.000752965
0001e0 05 c5 b7 37 0e b5 5d 3b 44 92 37 bb 23 68 ae b9
       2.1907044e-05 0.003382984 -0.0028010765 -0.00033265454
0001f0 eb 04 2d 3d c3 43 f2 bd 0a 63 2d 39 33 17 cf bc
       0.04224102 -0.11829331 0.0001653546 -0.025279617
000200 1e 1c 81 3c b1 7b c5 3c bd 0b c2 bc 49 ef df 3c
       0.015760478 0.024106832 -0.023687238 0.02733578
000210 9e 78 50 bd 07 90 d6 bc af 24 e0 3c 46 de ed 3a
       -0.05089628 -0.026191724 0.027361242 0.0018147908
000220 4b a4 b5 bc 28 de 74 3c 8b 7f fb bc 4f 8d fb bc
       -0.022173068 0.014945544 -0.030700466 -0.03070703
000230 c3 c8 89 bc 6d 90 8c 3c 01 71 85 3c 1d cc d9 3c
       -0.016819363 0.017158711 0.016289236 0.026586587
000240 19 0a 5c 3c a3 a8 69 bc b5 df 07 bd 89 8a d0 3c
       0.013430142 -0.0142613975 -0.033172328 0.025456684
000250 60 ab cd 3c 86 e8 4f bc 11 1f 1c bd 5c 42 5d bc
       0.025106132 -0.012689715 -0.038115565 -0.013504591
000260 ce 80 50 bd 66 a0 c2 bc 71 0b 22 3b 2c ec 3c bc
       -0.050904088 -0.023758125 0.0024726058 -0.011530917
000270 c6 c0 d6 3c ac a4 0a bd d9 b4 ce bc 90 dd 20 3d
       0.026214968 -0.03384845 -0.02523272 0.0392738
000280 f1 4c 9e 3c 25 8a 01 3d b4 ad de 37 61 ca fa 3c
       0.019323798 0.031625886 2.654535e-05 0.03061408
000290 65 79 cd 3c 11 70 c3 bc 27 2a 9a bc ff fd 53 bc
       0.0250823 -0.023857148 -0.018818928 -0.012938975
0002a0 c4 63 a3 3c d3 85 56 bc 93 ea a0 bc 1b 51 c6 bc
       0.019945033 -0.01309343 -0.019643104 -0.024208596
0002b0 92 e6 c4 3c ad fa c2 3c 36 af 88 bc 8d 2f fa bb
       0.024035726 0.023801172 -0.01668511 -0.007635063
0002c0 47 f6 b7 3c 47 81 83 3c e2 ce c8 3c 17 ca df bc
       0.022456301 0.016052855 0.024512712 -0.027318044
0002d0 66 78 0f 3d 36 d9 21 3d cf cf 8a 3c f0 71 99 bc
       0.03502693 0.03951379 0.016944794 -0.018731087
0002e0 32 0a 3c 3c b0 1d f6 ba bb 2d e7 bc c8 e0 c2 3c
       0.01147704 -0.0018777158 -0.028220048 0.023788825
0002f0 a5 1b f9 bc 65 f7 bb bc 12 47 fe bc ac f2 66 ba
       -0.03040869 -0.022945115 -0.031039748 -0.00088099646
000300 e3 35 0b b6 1c 82 18 bd c1 e2 b3 b9 f6 04 95 b6
       -2.074398e-06 -0.037233457 -0.00034310485 -4.4411236e-06
000310 02 5d 05 b9 82 4c 5b 3d 56 48 55 3a c7 f8 56 39
       -0.00012718517 0.05353976 0.0008136084 0.00020501307
000320 6e b9 0c bc e2 91 23 bd 1e 79 47 3d d8 79 69 bc
       -0.008589132 -0.039934047 0.04869949 -0.014250241
000330 de f8 2c 3d c1 1f cf b8 6f 85 68 bc 3b ff 83 3a
       0.042229526 -9.876444e-05 -0.014191969 0.0010070571
000340 59 82 59 bd a4 e5 ba b7 5f e4 8e b9 1f 5c 1c 3d
       -0.053102825 -2.2279863e-05 -0.000272545 0.03817379
000350 81 4f 85 37 d5 99 46 3d 96 f6 d4 b9 6b 69 1c 3c
       1.5891857e-05 0.04848655 -0.00040619512 0.009546618
000360 46 4c 81 3b 4e c4 00 39 01 84 38 bd 51 cd 6d 3b
       0.00394586 0.0001228016 -0.045047764 0.0036285708
000370 bc fd 87 bb 36 d2 af b8 54 d1 69 bd 01 21 8f 3a
       -0.0041501205 -8.383805e-05 -0.057084396 0.001091987
000380 3c a3 89 bd c6 12 36 3d 4c c5 02 b9 15 c9 02 39
       -0.067205876 0.044451497 -0.00012471265 0.00012472675
000390 de 4e 9b 3d 0e e1 0a bd c7 18 72 38 e7 bd 7b 38
       0.07583402 -0.033906035 5.7720372e-05 6.0019924e-05
0003a0 13 3b 3b 3d 96 ae 83 b9 d3 1b 7e 3a 48 d0 17 bd
       0.045710634 -0.00025116344 0.0009693477 -0.037063867
0003b0 89 4e 6d 3d 30 32 2e 37 9c c5 22 3c fa 2e db 3a
       0.057936225 1.0382893e-05 0.009934809 0.0016722374
0003c0 b3 44 a3 38 cf 33 cd ba a3 31 b9 36 53 70 b7 3c
       7.785242e-05 -0.0015655699 5.519208e-06 0.022392428
0003d0 92 d7 2a b8 f5 1e 13 39 82 db 0a 3b 0f d0 a1 b9
       -4.0731924e-05 0.00014030545 0.0021187966 -0.0003086333
0003e0 cb 04 98 b8 d3 d3 75 bc 4c 61 cf ba 6b 39 50 b8
       -7.2488176e-05 -0.015004116 -0.0015821843 -4.964454e-05
0003f0 21 01 2f bd c5 65 21 bb 09 f2 42 ba 37 af e4 3c
       -0.042725686 -0.002462731 -0.0007436579 0.02791558

fc.bias f4 [2]
000000 82 d0 0d 3f cc cf 54 3f
       0.5539628 0.8312957

onnx::LSTM_335 f4 [2, 512]
000000 5c c4 05 3c a9 97 0a 3c f5 de 2f 3b 4f a4 86 ba
       0.0081644915 0.00845901 0.0026835774 -0.0010272356
000010 4a 77 df 3b 51 7b a8 3b 46 87 65 3b 58 23 be 3b
       0.0068196403 0.0051416536 0.0035023256 0.005802553
000020 cc d7 a0 3a f8 06 53 3b 37 07 a3 3b 94 7b 18 3c
       0.0012271344 0.0032200199 0.0049752253 0.009306807
000030 d9 8f ce 3d b2 83 90 3b c6 e7 98 bb 6c c7 ed b8
       0.100860305 0.0044102306 -0.0046663014 -0.00011338186
000040 57 13 b2 bb b2 79 c5 bb 5b 35 23 ba b2 07 9b 3b
       -0.0054344344 -0.00602647 -0.0006225907 0.004731142
000050 2d b1 b9 bb 2d bf 11 3e a7 f0 bc 3b 1d 95 b7 37
       -0.005666873 0.14233084 0.0057659927 2.1884736e-05
000060 96 80 1e 3e 65 83 ef 3b 00 81 ad bb f7 6a a3 3b
       0.15478739 0.0073093646 -0.005294919 0.0049871164
000070 7e a4 22 3b 2a 7f 83 ba 27 60 ba bb ec 20 14 3b
       0.0024817283 -0.0010032405 -0.005687732 0.002260263
000080 7b e9 18 3c 4b 35 39 3b 9c b7 8a b8 db 15 b3 3b
       0.00933301 0.0028260525 -6.614553e-05 0.005465252
000090 95 da a7 3b a0 f7 76 b9 5e b5 47 bb 8e a7 2a 3a
       0.0051224926 -0.00023552636 -0.0030473094 0.0006509953
0000a0 ad 51 0f 3c 25 87 d1 3b 1d 19 4f 3e 86 16 28 b9
       0.0087475 0.0063942843 0.20224424 -0.00016030119
0000b0 f1 ef a7 bb e4 5a 90 bb 28 3c 0c 3c 89 73 b4 3b
       -0.005125039 -0.0044053663 0.008559264 0.005506937
0000c0 9a 23 9c 3b 41 70 b7 3b 52 c6 88 bb c6 7f f7 3b
       0.004764986 0.0055980985 -0.0041740322 0.0075530736
0000d0 8d c7 9c 3b 9d ca 77 bb cc c5 e4 3b e6 c7 c3 3b
       0.0047845305 -0.0037809976 0.006981587 0.0059747575
0000e0 16 88 2c 3c 5c 1a dc 39 fc 12 ca bb f4 01 c2 bb
       0.010530492 0.0004198131 -0.006166814 -0.005920643
0000f0 91 e2 9f 3b 2f 41 16 3d 0b 37 5e b9 aa c8 4c 3b
       0.0048793037 0.036683258 -0.00021192075 0.0031247535
000100 35 f6 06 3c ee 22 0c 3c 1f 14 2e 3b 50 a6 86 ba
       0.008237411 0.00855325 0.0026562286 -0.0010272954
000110 35 2a de 3b 62 72 a9 3b 65 e0 66 3b 08 78 c0 3b
       0.006779934 0.005171106 0.0035228964 0.005873684
000120 2b d0 93 3a c0 bc 52 3b fa 91 a2 3b 20 ec 16 3c
       0.0011277249 0.003215596 0.0049612494 0.00921157
000130 b6 44 14 3e d3 94 91 3b f2 21 ac bb b5 11 eb b8
       0.14479336 0.00444279 -0.00525307 -0.000112089714
000140 e1 8a b4 bb eb 15 d1 bb 2b e3 22 ba 60 a1 9c 3b
       -0.0055097197 -0.0063807867 -0.000621366 0.0047799796
000150 f8 fd bc bb 95 24 0e 3e e8 aa bd 3b ab a4 b6 37
       -0.00576758 0.13881142 0.005788196 2.177277e-05
000160 3f 6e 54 3e a9 86 f2 3b 99 2f bb bb 23 da a4 3b
       0.2074518 0.0074013066 -0.005712461 0.0050308867
000170 a6 ab 22 3b 12 28 83 ba 63 67 bd bb 17 7b 0f 3b
       0.0024821549 -0.0010006449 -0.005780147 0.0021893436
000180 ec af 1a 3c dc 43 3a 3b e7 9d 8a b8 fd bb b3 3b
       0.009441357 0.0028421795 -6.6097644e-05 0.0054850564
000190 36 77 a8 3b df 70 77 b9 d2 ad 47 bb 0e cb 29 3a
       0.005141164 -0.00023597803 -0.0030468595 0.0006477096
0001a0 85 8c 10 3c e9 6f d4 3b 10 f8 3c 3e 09 c7 26 b9
       0.008822565 0.0064830673 0.18454003 -0.0001590514
0001b0 c8 14 ad bb 27 48 a5 bb d5 4a 0d 3c f0 a2 b6 3b
       -0.0052820183 -0.0050440016 0.008623798 0.005573623
0001c0 55 12 9e 3b c9 68 b9 3b b5 82 9f bb 1c 43 f9 3b
       0.0048239627 0.0056582433 -0.0048678764 0.007606877
0001d0 21 a6 a1 3b 5a da 79 bb 88 ed e5 3b 7c 12 c5 3b
       0.004933134 -0.0038124532 0.0070168413 0.0060141664
0001e0 14 8f 2b 3c b2 1b dc 39 69 9c ce bb 00 c4 cb bb
       0.010471124 0.00041982305 -0.0063052666 -0.0062184334
0001f0 d8 55 a1 3b 62 83 16 3d 3e 91 5c b9 88 be 4d 3b
       0.0049235635 0.03674639 -0.00021034942 0.0031394083
000200 24 bd ae 3b 42 6f bf 3b 7d 7a 6b 3a f3 d4 6d ba
       0.005332606 0.0058421204 0.0008982791 -0.00090725644
000210 dc 68 a5 3b 56 1f 5c 3b 56 13 f3 3a 71 b7 40 3b
       0.0050479006 0.0033588014 0.0018545191 0.0029406215
000220 57 19 18 3a 58 6d 13 3b bb 3c 9c 3b bf ea 2c 3c
       0.0005802116 0.0022495594 0.004767982 0.010554015
000230 f6 84 d1 3d 48 05 19 3b 89 13 14 bc 05 72 a6 b7
       0.102304384 0.0023349095 -0.009037861 -1.9841837e-05
000240 4a 47 c7 bb 4c d0 16 bc a4 b4 36 ba 79 9e 44 3b
       -0.0060814964 -0.009204935 -0.00069696666 0.0030001684
000250 03 cb e4 bb ac 4b fa 3d 23 bb 8a 3b b2 ca 4c b6
       -0.0069822087 0.122214645 0.004233734 -3.0516353e-06
000260 4e ab a1 3e d8 e5 84 3b f1 c5 10 bc b4 c0 e7 3a
       0.31576008 0.00405572 -0.008836255 0.0017681331
000270 09 cb 13 3b 6c c7 8e ba 5b a8 e3 bb 68 e9 3b 3b
       0.0022551438 -0.0010893173 -0.00694756 0.0028673057
000280 6b be ba 3b 7e 9f 98 3a 16 6a a2 b8 35 e3 4f 3b
       0.005698969 0.0011644212 -7.744522e-05 0.003172112
000290 9c 28 4a 3b f4 7c 82 b9 fc 69 26 bb 5f f0 b5 39
       0.003084696 -0.0002488863 -0.0025392761 0.000347021
0002a0 ba bc d0 3b 96 98 51 3b b0 35 a0 3e 50 59 3c b9
       0.006370154 0.0031981817 0.3129096 -0.00017962349
0002b0 7d c5 e6 bb 2c 42 11 bc d4 2c 9f 3b bb 11 2f 3b
       -0.0070425854 -0.008865874 0.004857639 0.002671345
0002c0 64 83 4d 3b 38 ce 2b 3b cc c7 12 bc 7c 92 a5 3b
       0.0031358832 0.0026215445 -0.008958768 0.0050528627
0002d0 25 6b 09 3c 03 13 7e bb 0e de 86 3b 67 49 6e 3b
       0.008387362 -0.0038768656 0.0041158265 0.003635967
0002e0 fc c7 02 3c 31 c6 0c 3a 34 f6 f9 bb 0e 70 0f bc
       0.00798225 0.0005370109 -0.0076282267 -0.008754743
0002f0 2d b3 06 3b 2a 74 3b 3d cf de 44 b9 60 31 dd 3a
       0.0020553574 0.04576508 -0.00018775019 0.0016875677
000300 99 2a b0 b7 b1 4c 2d ba 51 df 9a 3b 43 21 d7 bb
       -2.1000671e-05 -0.0006610854 0.0047263284 -0.0065652444
000310 0d 63 07 bc 80 ff 17 3a 79 a2 ee ba 05 5a ac 3a
       -0.008263362 0.00057982653 -0.001820638 0.0013149387
000320 4b 2e 59 3c 50 4e e9 bb 5d 2f a8 3b ea 99 81 bb
       0.013255666 -0.0071199313 0.0051325993 -0.0039551156
000330 04 3c ba 3d e1 7d a4 bb d0 49 26 bd 7a 81 53 bb
       0.09093478 -0.0050198887 -0.040597737 -0.003227322
000340 26 98 b0 bc 25 c8 07 3d 26 7a 6b 3b ff 11 9d b8
       -0.021556925 0.033149857 0.003593096 -7.4896954e-05
000350 ba af c8 bc 6a 46 07 be 6d d2 9d b9 a4 b1 41 3b
       -0.024497855 -0.13210455 -0.00030102153 0.0029555345
000360 b2 d6 c3 bd 35 c9 eb ba 36 5a 14 3d 1e ae 25 3b
       -0.09562434 -0.0017989042 0.036218844 0.0025280784
000370 cf c6 8c bb 5e 09 4b 3b 21 55 c8 bc 74 8b 1f 3c
       -0.004296161 0.0030980925 -0.024454655 0.009737838
000380 ad 98 16 3b 04 1f 16 ba 38 8b 0e bb 9b f2 e0 3b
       0.0022979185 -0.00057266676 -0.0021750461 0.0068648583
000390 6c 41 99 3b ec 7f bb 3b e6 48 b3 ba 6c 49 c1 3b
       0.0046769883 0.0057220366 -0.0013678342 0.005898645
0003a0 e4 bd c3 3a d2 55 ec 3b 89 2d 5a bc e1 05 a2 bb
       0.0014933911 0.007212379 -0.0133165205 -0.0049445485
0003b0 28 51 e9 bc 28 c3 27 bd 62 5d 2f ba 89 d9 d5 38
       -0.028481081 -0.0409576 -0.00066896353 0.000101971506
0003c0 cc ff 2a 3a c5 5c 63 ba 5d 99 34 3d 4d f5 2c 3b
       0.0006523102 -0.00086731865 0.04409157 0.0026391328
0003d0 44 d6 11 3d bf 1f 96 bc 16 68 8d bb 4a ab a2 3b
       0.03560473 -0.018325685 -0.0043153865 0.004964267
0003e0 96 21 97 bb c0 e4 f2 3b c9 ab d1 3c 34 af 01 bd
       -0.004612158 0.007412523 0.025594609 -0.031661227
0003f0 3e 3d b8 ba a0 d3 4c bc e8 fa 86 bb 1d e6 b8 bb
       -0.0014056338 -0.012501627 -0.004119266 -0.005642666

onnx::LSTM_336 f4 [2, 256, 6]
000000 b3 98 31 ba 4e be 42 3b 16 44 5c ba 20 d2 9f 3b
       -0.0006774768 0.0029715481 -0.00084024796 0.004877344
000010 2a 32 67 3b 29 7f cd b8 ac 26 cd 37 36 5b 80 3b
       0.0035277703 -9.798847e-05 2.4455912e-05 0.003917123
000020 7c 6d 35 39 88 38 a8 3b ba c0 62 3b c1 49 d5 3a
       0.00017302291 0.005133692 0.0034599737 0.0016272591
000030 0f a4 29 bb 8c 94 28 3a 7a 59 02 bb 2f e2 8d 3a
       -0.002588514 0.00064308266 -0.0019889758 0.0010824854
000040 f8 62 58 3a aa de 1f bb e9 d2 30 bb a9 db 7c ba
       0.00082544936 -0.0024394193 -0.002698118 -0.0009645769
000050 33 f8 0d bb f5 23 81 ba e9 32 72 ba 89 94 0c bb
       -0.002166283 -0.0009852635 -0.00092391536 -0.0021450839
000060 8e a9 96 39 5e 50 46 3b e7 f9 8e 3a 89 87 83 3b
       0.00028736558 0.0030260305 0.0010908217 0.00401396
000070 8a 64 6d 3b 78 ec ef b9 fd 22 a9 38 5e f9 33 3b
       0.0036223256 -0.00045761815 8.065065e-05 0.0027461867
000080 ef 25 f7 39 ad 70 41 3b 42 fd ed 3a e5 09 6f 3a
       0.00047139774 0.0029516623 0.0018157142 0.0009118601
000090 18 d3 e6 ba 79 24 37 3a 56 4e c7 ba 0b 53 be 3a
       -0.0017610518 0.0006986331 -0.0015205841 0.0014520598
0000a0 92 d2 48 3a 0f 5d d4 ba d3 e6 b6 ba f5 8e 02 3b
       0.0007660772 -0.001620205 -0.0013954289 0.0019921635
0000b0 bc 48 b5 ba 8d 62 35 3b 92 d8 c2 3a 96 f3 87 b9
       -0.0013830881 0.002767715 0.0014865568 -0.00025930692
0000c0 25 7e 8b ba 80 12 16 ba fc c3 bd ba b3 b7 ba 3a
       -0.0010642452 -0.00057248026 -0.0014477964 0.001424542
0000d0 79 cb 20 3a 2f ab 13 bb 97 42 0e bb 83 0e ad 3a
       0.00061338354 -0.0022532453 -0.002170717 0.0013203177
0000e0 fd e2 90 ba 9b 3a 90 3a 7a 7e f7 39 0c c5 19 bb
       -0.0011053976 0.0011003794 0.00047205744 -0.0023463396
0000f0 fb 06 21 bb b0 dd 00 39 f2 23 99 ba 48 75 18 3b
       -0.002457081 0.00012289616 -0.0011683686 0.0023263264
000100 68 d3 28 3b 19 8b 0d ba 0e 2a 5f 3a 92 f2 d1 3b
       0.0025760774 -0.00053994503 0.00085130415 0.0064070905
000110 7a 74 92 3b 38 11 a3 3a 6c bc ac 3a 70 a8 8b 3b
       0.0044694515 0.0012441045 0.0013178713 0.0042620227
000120 6b b2 57 3c 4f a5 57 bd 9f 1d 24 3e ca 27 2c 3d
       0.013165097 -0.052647885 0.16026925 0.042030133
000130 67 61 a6 3c 40 82 37 3e ce be 21 ba 38 dd 0a 3b
       0.020310117 0.1792078 -0.0006170095 0.0021188986
000140 e1 57 40 b8 2b f8 15 3b 03 c7 95 3a 4f 10 68 ba
       -4.585821e-05 0.0022883515 0.0011427108 -0.0008852528
000150 fb 4a 1b bb ba fc 97 bb b1 a1 0e 3a 79 d0 ae ba
       -0.0023695815 -0.0046382817 0.0005440964 -0.0013337276
000160 9b 0d 3c 3b 13 63 c3 bb dc 17 d1 b9 e6 60 93 b9
       0.0028694633 -0.0059627383 -0.00039881363 -0.0002811022
000170 c3 23 98 b9 fc 3d 56 b9 35 3a 4c b9 74 a7 07 ba
       -0.00029018344 -0.00020431721 -0.0001947664 -0.0005174794
000180 2d 96 3c bb de f4 18 bb a2 7f f0 ba a9 6b 10 bb
       -0.0028776035 -0.0023339312 -0.0018348584 -0.0022036827
000190 68 06 a1 ba d8 a0 85 bb 43 70 77 bb fb f3 9f bb
       -0.0012285234 -0.004078012 -0.0037756122 -0.0048813797
0001a0 dd 2f cd ba e8 8a 31 bb 0a ba d6 38 da 62 e1 bb
       -0.0015654523 -0.0027090851 0.00010238968 -0.006878239
0001b0 b2 73 f8 b9 46 30 ed b9 0f ce 07 ba 82 b4 f5 b9
       -0.00047388446 -0.0004524013 -0.00051805464 -0.0004686453
0001c0 ec b0 c0 b9 62 d0 db b9 b3 4c 95 ba 6f b5 99 3a
       -0.0003675291 -0.00041926192 -0.0011390656 0.0011727045
0001d0 11 c9 34 ba 24 bf 2b 3b 7b 47 f8 3a a3 4f 07 3a
       -0.00068964163 0.0026206458 0.0018942201 0.0005161708
0001e0 6c e1 54 bb 16 90 4c bb ae e6 12 bb 87 3a 1c bb
       -0.0032482995 -0.0031213812 -0.0022415328 -0.0023838596
0001f0 58 7a b6 ba b3 9a a2 bb 2e ab 87 3d 9e ea 54 3d
       -0.0013921959 -0.0049622892 0.06624447 0.05198156
000200 2a cb 8a 3d 0a 23 7a 3d 89 51 6d 3d ce 67 d3 3d
       0.06777032 0.061068572 0.057939086 0.103225335
000210 bc 26 c8 b8 02 2b 35 3b 86 06 df 39 34 9a 63 3b
       -9.543958e-05 0.0027644043 0.00042538735 0.0034729363
000220 88 4d 35 3b c5 65 b9 39 61 7b b9 37 b2 f1 a2 37
       0.002766462 0.00035361774 2.2111171e-05 1.9424453e-05
000230 aa d5 e2 37 c2 90 a6 37 00 de bf 37 ff 2e eb 37
       2.7040795e-05 1.985615e-05 2.2872351e-05 2.8036067e-05
000240 0c 88 25 3d 20 4f 06 3d 67 be 54 3d df 9e 98 3d
       0.040412948 0.032790303 0.051939394 0.07452177
000250 3c 92 b5 3d 9d 68 0c 3d ef ae cf ba 1e 4a 18 3b
       0.088657826 0.034279454 -0.0015844981 0.0023237537
000260 1d bb 9b ba b0 3c 7b 3b 20 0d 21 3b 31 23 47 ba
       -0.0011881326 0.0038335733 0.0024574474 -0.00075964915
000270 70 c3 46 bb 46 22 a8 bb 5f 6a cf b9 40 32 09 bb
       -0.0030328892 -0.005131039 -0.0003956137 -0.0020934492
000280 66 78 a9 3a 09 78 e6 bb da 9c ce ba be 7e b6 3a
       0.0012929558 -0.0070333523 -0.0015763298 0.001392327
000290 61 19 d7 ba 14 71 13 3b 49 f9 c5 3a 97 c4 c8 ba
       -0.0016410762 0.002249782 0.00151042 -0.0015317377
0002a0 4d c6 15 bb 47 8d 1f b8 11 b4 af ba 50 54 99 3a
       -0.0022853792 -3.804013e-05 -0.0013405104 0.0011698101
0002b0 15 a6 b1 3a ac b1 ae ba 3e d8 42 ba fd 88 41 ba
       0.0013553525 -0.0013328097 -0.00074327353 -0.00073827786
0002c0 34 01 4e ba 4f cd 3c ba a9 4b 07 ba dd d5 3b ba
       -0.00078584556 -0.0007202224 -0.00051611156 -0.0007165352
0002d0 e3 0e 4b bb 84 98 3d bb a3 8a ae ba 25 2d 23 bb
       -0.0030984215 -0.0028930018 -0.0013316463 -0.0024898734
0002e0 1d be 88 ba 5c 41 b4 bb a0 0e 9c ba e5 b3 1c 3a
       -0.0010432635 -0.0055009555 -0.0011906214 0.0005977734
0002f0 13 6f 84 b9 12 25 a0 39 f8 2f 17 3a 32 00 1c ba
       -0.0002525976 0.00030545198 0.0005767341 -0.0005950957
000300 08 25 6b ba 46 41 39 3b 88 a1 f4 b9 e1 11 ad 3b
       -0.00089700567 0.0028267666 -0.00046659657 0.0052816723
000310 3c 2e 6d 3b 9a 6a bc b7 2a bf a2 ba 7e 7e 09 3a
       0.0036190888 -2.2460987e-05 -0.001241659 0.0005244984
000320 3d ae bd ba f5 db 9b 3a 25 ef 6f 3a 5b f0 54 ba
       -0.0014471483 0.0011891114 0.0009152762 -0.0008122974
000330 49 da 15 b8 19 c0 ea b7 78 d0 20 b8 44 dd 00 b8
       -3.5727662e-05 -2.7984426e-05 -3.8341124e-05 -3.0723648e-05
000340 54 cf 08 b8 47 e5 e6 b7 ff ea 1c bb 55 c9 96 3a
       -3.2618016e-05 -2.7524902e-05 -0.002394378 0.0011504093
000350 9d ef dd ba f1 a7 24 3b b7 b1 13 3b 1a 99 0a bb
       -0.0016932372 0.0025124515 0.0022536346 -0.0021148385
000360 0b a8 b0 b9 48 40 57 3b e4 c7 6e 3a 90 04 2f 3b
       -0.00033694538 0.003284471 0.00091087655 0.00267056
000370 d4 e8 a3 3a b4 94 4b 3a 6d 90 9a b8 43 53 b9 b8
       0.0012505301 0.0007765994 -7.3701936e-05 -8.836996e-05
000380 21 a9 c1 b8 3d 22 78 b8 49 dd 9e b8 03 18 a4 b8
       -9.23446e-05 -5.9159695e-05 -7.575245e-05 -7.824602e-05
000390 d0 28 25 bb 28 08 ff ba c8 c9 25 bb 89 e5 00 bb
       -0.0025201328 -0.0019457387 -0.0025297273 -0.0019668064
0003a0 0f bf e6 ba b9 26 0b bb 46 e6 17 bb dd 04 ed 39
       -0.0017604547 -0.0021232797 -0.0023178025 0.00045207786
0003b0 be ec db ba 1b d3 ad 38 1e 23 0c ba f7 ce 2e bb
       -0.0016778929 8.288604e-05 -0.0005345809 -0.0026673654
0003c0 ef 73 ab ba 37 87 64 3b 6c d8 39 b9 2c e3 a7 3b
       -0.0013080816 0.0034870633 -0.00017723598 0.0051235165
0003d0 4b 97 66 3b 23 c9 26 3a e2 28 0d bb a2 b7 bc 3a
       0.0035185392 0.0006362369 -0.002153926 0.0014397989
0003e0 0b 0a 1a bb d8 4f 52 3b 20 45 21 3b ae 0c 8f 3a
       -0.0023504521 0.0032091048 0.0024607852 0.0010913813
0003f0 10 40 88 3d 18 99 40 3d 21 61 13 3e ec 58 d8 3d
       0.06652844 0.047021 0.1439252 0.105638355

onnx::LSTM_337 f4 [2, 256, 64]
000000 9e 68 82 ba 3b 80 5e ba a0 01 86 ba a3 68 38 3a
       -0.0009949391 -0.0008487736 -0.0010223873 0.0007034635
000010 7e 4e 91 3a 7d 13 40 ba 0d 61 6a 3a f3 68 50 3a
       0.0011086015 -0.0007327123 0.00089408533 0.0007950209
000020 c2 68 31 ba 6b 20 80 3a 8b fb 9a ba 45 ce a8 3a
       -0.0006767624 0.0009775286 -0.0011824233 0.0012878856
000030 58 ba 19 bb 02 55 44 3a 1d 65 d1 b9 d3 8a 09 39
       -0.0023457017 0.0007489474 -0.00039938922 0.00013117054
000040 1c 75 e3 b8 16 ba a9 39 cf 46 25 b9 f1 df 42 3a
       -0.00010846017 0.00032372837 -0.00015762004 0.00074338826
000050 c4 89 0c b9 a4 d8 42 bb e3 2a 6c 3a 1c c9 81 b8
       -0.00013402762 -0.0029731179 0.0009009076 -6.188659e-05
000060 f9 a0 a2 bb 4b f4 6a 3a 79 2e b2 39 fa a1 64 ba
       -0.004963037 0.0008962794 0.0003398543 -0.0008721646
000070 f3 1e 78 3a f2 9a 82 b9 7e 86 a7 b8 75 fe 79 ba
       0.0009465061 -0.00024910975 -7.988232e-05 -0.0009536513
000080 8e 48 85 ba ea be 4e 3a c7 37 14 38 86 96 87 ba
       -0.0010168718 0.0007886725 3.5337896e-05 -0.0010344542
000090 3a c2 2e ba ef a4 0c 39 a6 d4 6f b9 3e c6 62 ba
       -0.0006666515 0.00013412883 -0.00022872034 -0.0008650756
0000a0 20 78 91 ba 66 19 68 3a bb 57 02 bc 1a da f1 b5
       -0.0011098422 0.00088538823 -0.007955487 -1.8019375e-06
0000b0 4c 62 14 b9 0c b8 d1 b9 a5 94 8a 3a 95 f7 39 3a
       -0.00014150998 -0.00040000712 0.0010572864 0.00070940825
0000c0 14 29 62 ba 5e 34 52 ba 9a 20 cf 39 61 6a 66 ba
       -0.0008627337 -0.00080186676 0.00039506407 -0.00087896554
0000d0 b1 ae a2 b9 c4 50 c9 b7 4e 1b 70 3a 92 7b 66 ba
       -0.00031029203 -2.3998677e-05 0.0009159342 -0.0008792217
0000e0 2d f3 af 3a 7f e4 87 b9 b0 48 6e 39 45 ad 7e b9
       0.0013423912 -0.0002591945 0.00022724527 -0.00024287876
0000f0 dd b2 44 ba f2 08 00 3b 17 42 12 b8 44 69 0c 3a
       -0.00075034593 0.0019536582 -3.4870664e-05 0.0005356262
000100 c0 c5 2b ba af 2e 15 ba 6c a2 1e ba cb fd 4e 39
       -0.00065525994 -0.00056908553 -0.00060514244 0.00019740236
000110 35 69 f8 39 2d 1a e7 b9 25 72 03 3a 5b 14 03 3a
       0.0004738063 -0.00044079256 0.0005014262 0.00050002866
000120 6a dd 9f b9 44 5b 07 3a 4f 53 17 ba c7 27 d7 39
       -0.0003049181 0.0005163441 -0.0005772607 0.00041037632
000130 88 c2 fa b9 ca 46 dc 39 8e 13 1e ba 3d 2c 54 37
       -0.00047828653 0.00042014412 -0.00060301356 1.2646485e-05
000140 09 24 8b b9 95 da 02 3a 2c e1 cb b9 44 03 f0 39
       -0.00026538994 0.00049916777 -0.00038886943 0.000457788
000150 0b b7 96 b9 4a 36 2c bb 0c 36 0a 3a 2b 1f 1e b9
       -0.00028746607 -0.0026277476 0.0005272336 -0.00015079665
000160 0c 79 8f bb c7 50 16 3a a7 a4 08 3a 41 42 11 ba
       -0.0043784436 0.00057340827 0.00052125234 -0.00055411836
000170 0d 8c 04 3a ec 41 a4 b9 39 77 88 b9 6d 38 d6 b9
       0.00050562696 -0.00031329633 -0.0002602877 -0.000408593
000180 0c 7b 2a ba 65 91 ee 39 22 19 f4 38 42 c3 24 ba
       -0.0006503321 0.00045503225 0.00011639508 -0.0006285199
000190 40 3f dd b9 b1 64 30 b6 42 a5 ac 39 9b 21 f0 b9
       -0.0004219953 -2.6284654e-06 0.00032929523 -0.00045801405
0001a0 35 b5 47 ba 6c 0c 22 3a 0d 25 dc bb b0 e0 85 38
       -0.00076182495 0.00061816606 -0.006718284 6.3837855e-05
0001b0 5b f3 b2 b9 1f 5e 20 ba c6 6a 38 3a c3 f0 f0 39
       -0.0003413212 -0.0006117541 0.00070349535 0.0004595575
0001c0 51 4d 06 ba e1 b9 0b ba 3f dc 21 3a a7 82 15 ba
       -0.00051232154 -0.00053301273 0.0006174482 -0.00057033676
0001d0 dc a8 1c 39 62 4d 4c b9 df d2 1d 3a 9c 47 14 ba
       0.00014940224 -0.00019483783 0.0006020497 -0.00056564226
0001e0 da e4 48 3a da 37 25 39 83 b1 ca 39 73 b6 df b9
       0.0007663496 0.00015756433 0.000386607 -0.0004266981
0001f0 67 e5 09 ba 7c b3 89 3a c7 de 2e b9 3b 4c 78 39
       -0.0005260319 0.0010505761 -0.00016676924 0.00023679521
000200 fd 8c 18 ba c3 a6 ea b9 d6 c9 2b ba 90 d5 13 3a
       -0.0005819349 -0.00044756205 -0.0006553208 0.0005639428
000210 32 5d 48 3a f4 3b e0 b9 33 a4 0d 3a 7a eb f8 39
       0.0007643282 -0.00042769278 0.0005403191 0.0004747769
000220 23 3c 18 ba 01 9f 2e 3a d8 a2 49 ba 61 40 67 3a
       -0.0005807301 0.00066612667 -0.0007691807 0.0008821544
000230 a8 6b 0a bb d5 98 08 3a d7 9e 00 3a e6 81 39 39
       -0.0021121297 0.0005210762 0.00049064815 0.00017691366
000240 c5 67 c2 39 c7 8a f4 b9 e6 7d b5 b8 e6 f9 df 39
       0.00037079878 -0.00046642704 -8.654203e-05 0.00042720063
000250 da 1b c7 39 ee b5 9d ba 29 ca 10 3a 08 51 05 b8
       0.0003797699 -0.0012032369 0.0005523288 -3.1785137e-05
000260 d0 ba 30 bb d1 01 18 3a f9 92 fa b9 1d fe 0b ba
       -0.0026966818 0.00057986105 -0.0004779322 -0.0005340295
000270 45 69 21 3a a1 f0 87 b9 4e 24 ea 39 fc 06 4d ba
       0.0006157349 -0.0002592849 0.00044659007 -0.000782117
000280 e7 eb 15 ba 63 7d f7 39 2f 2b d5 37 ac 78 33 ba
       -0.0005719051 0.00047204932 2.5411688e-05 -0.00068462896
000290 ec 76 c7 b9 58 2b 1e 39 40 1b 89 b9 02 e9 1d ba
       -0.00038044841 0.00015084201 -0.0002615098 -0.00060237956
0002a0 be c0 1b ba a7 3a cf 39 99 78 96 bb cf 14 21 b8
       -0.00059415016 0.00039525816 -0.004592013 -3.840477e-05
0002b0 ac d1 02 3a a8 11 02 3a 74 36 23 3a ec 0e dc 39
       0.000499035 0.00049617374 0.00062260707 0.00041972788
0002c0 db d8 0e ba 5b 85 de b9 fb 5b 04 ba 4f b0 07 ba
       -0.0005449184 -0.00042442497 -0.00050491065 -0.00051761133
0002d0 23 a8 65 ba 48 11 b4 39 9c 6c 0b 3a fb 85 07 ba
       -0.0008760711 0.0003434515 0.0005318613 -0.0005169806
0002e0 86 03 59 3a 76 59 a1 b9 a8 6f dc b9 4e 5a fd 39
       0.0008278418 -0.00030774967 -0.0004204486 0.00048323203
0002f0 f8 a3 c6 b9 fb a6 97 3a 05 28 e2 38 0e d6 d7 39
       -0.0003788767 0.001157015 0.00010783974 0.0004116748
000300 4c fe 42 b9 51 1e 3a b9 77 cb 6a b9 45 c7 46 39
       -0.00018596015 -0.00017749636 -0.00022391776 0.00018956985
000310 94 e4 8a 39 e8 3a 47 b9 4b fa 37 39 87 f5 50 39
       0.00026491715 -0.00019000063 0.00017545481 0.00019927892
000320 cd 54 1f b9 1b e1 81 39 ab b6 70 b9 55 3e 97 39
       -0.00015195012 0.00024772514 -0.00022956233 0.00028847405
000330 5a 0b 6a ba 02 e4 80 39 e1 f6 ef 39 fe 63 c2 38
       -0.0008928083 0.00024583942 0.0004576957 9.269266e-05
000340 03 cd 9b 39 46 20 d6 b9 8b a3 19 36 76 0d 4a 39
       0.0002971665 -0.00040841306 2.2893971e-06 0.00019269236
000350 82 8c 9c 39 2c 3c 1f 39 ad 1c 4f 39 1d 45 4b 35
       0.00029859325 0.00015185837 0.00019751741 7.5723966e-07
000360 d6 53 84 39 b1 86 67 39 ea 0f d9 b9 8b 03 41 b9
       0.00025239465 0.00022080053 -0.00041401322 -0.00018407234
000370 16 08 27 39 10 d2 6f b8 59 a2 ad 39 8f 6f 7a b9
       0.00015929373 -5.7177676e-05 0.0003311809 -0.00023883417
000380 46 09 54 b9 1e 78 28 39 44 72 b8 b7 0f 8c 87 b9
       -0.0002022135 0.00016066476 -2.1987718e-05 -0.00025853558
000390 38 bb 5f b9 d5 af 30 b7 e8 d4 c1 b8 9f 03 6e b9
       -0.00021336682 -1.0531357e-05 -9.242614e-05 -0.00022698798
0003a0 7d 9c 34 b9 a9 aa cd 38 3a 01 2d ba 0f 3e 08 37
       -0.00017224434 9.80695e-05 -0.0006599609 8.120681e-06
0003b0 29 00 c4 39 72 c2 f1 39 52 23 4b 39 b6 ff 4c 39
       0.00037384153 0.00046111975 0.00019372746 0.00019550216
0003c0 ef 36 56 b9 c9 37 1b b9 d7 56 f7 b9 81 d1 41 b9
       -0.00020429095 -0.00014802733 -0.00047176212 -0.0001848396
0003d0 a8 86 0c ba 15 64 8b 39 1c 35 47 39 0c 87 51 b9
       -0.00053606415 0.00026586713 0.00018997904 -0.00019982102
0003e0 f2 ad 8d 39 9f 9e 42 b9 4a 8e b8 b9 38 fe cc 39
       0.00027023215 -0.00018560373 -0.00035201228 0.0003909932
0003f0 62 8a 14 b9 be 6d a2 39 c5 24 2c 38 23 72 88 39
       -0.00014165931 0.00030980812 4.104224e-05 0.0002602498

onnx::LSTM_378 f4 [2, 512]
000000 e4 45 a6 bb 5f 34 52 bb d8 8c d4 bb a0 c4 15 3b
       -0.0050742496 -0.0032074673 -0.0064865164 0.0022852793
000010 1c 66 2b bb 05 30 80 bb 9a 1f 5a bb 88 dc 09 b9
       -0.0026153391 -0.0039119744 -0.0033282996 -0.00013147492
000020 93 df b9 3a d7 3e e1 b9 5b 6d a6 bb d4 69 cb bb
       0.001418101 -0.00042962164 -0.005078954 -0.006207684
000030 ad e9 2e ba b0 0b be bb 3f 70 4e bb 1f 0f b1 ba
       -0.00066723936 -0.005799733 -0.003150001 -0.0013508535
000040 a9 76 e1 b9 13 5a 8f bb 0d e7 ea b9 3d 14 a1 ba
       -0.00043003753 -0.0043747514 -0.00044804104 -0.0012289357
000050 73 0d 19 bb 09 06 15 bb 0c 46 24 bb ff 9e d0 3a
       -0.0023353964 -0.0022739193 -0.0025066165 0.0015916525
000060 d2 42 5d 3b 0f aa 92 bb 20 af 59 b9 dc b0 7a bb
       0.0033761752 -0.004475839 -0.00020759972 -0.003825239
000070 2f 1d 45 bb 96 f2 22 bb 41 34 bd ba 7f b1 bd ba
       -0.003007721 -0.002486383 -0.0014435129 -0.0014472454
000080 ad 45 6d bb b0 1c d2 ba 21 99 db b6 d6 30 0e bb
       -0.003620486 -0.0016030278 -6.544535e-06 -0.002169659
000090 65 cf c5 bb c1 45 a7 ba 48 7b 10 bb ae e8 99 39
       -0.0060366862 -0.0012761877 -0.0022046138 0.00029355794
0000a0 f9 01 4e bb fd e7 63 bb 4a 13 a0 bb e8 69 2f bb
       -0.0031434281 -0.0034775727 -0.004885112 -0.0026766006
0000b0 86 71 51 bb 30 ca 69 bb 0c e8 40 bb ff 4d 23 ba
       -0.0031958534 -0.0035673492 -0.0029435186 -0.0006229579
0000c0 5b 16 9f b9 ba ea 0b bb 87 6a c3 3a fa 0e 35 bb
       -0.000303435 -0.0021349625 0.0014909067 -0.0027627335
0000d0 43 81 13 3b 4a b1 b9 bb 99 13 5e bb bb c3 2b bb
       0.0022507466 -0.0056668865 -0.0033886193 -0.0026209194
0000e0 f1 9e 7d bb 1c 13 c4 ba 18 d5 7a bb c3 b6 5f bb
       -0.0038699473 -0.0014959308 -0.0038273986 -0.0034136034
0000f0 54 91 22 ba bf d6 a9 ba 25 c4 a5 bb ea 5e e6 ba
       -0.0006201465 -0.0012957676 -0.0050587826 -0.0017575894
000100 9f 59 a6 bb 47 d4 57 bb ce ad d4 bb 8b f4 15 3b
       -0.0050766016 -0.0032932924 -0.0064904457 0.0022881355
000110 c4 79 2f bb 45 28 81 bb da 9f 5b bb c4 e2 09 b9
       -0.0026775459 -0.003941568 -0.0033512027 -0.00013149815
000120 ee 82 b7 3a 85 df e1 b9 2f 26 a7 bb aa 37 cc bb
       0.0014000812 -0.0004308188 -0.0051009874 -0.0062322216
000130 3c 6e 30 ba fd 9d be bb 2f 2f 4f bb f7 e6 b4 ba
       -0.00067302934 -0.0058171735 -0.0031613817 -0.0013801743
000140 b9 95 e2 b9 bc 9d 8f bb c6 49 fa b9 63 8e a4 ba
       -0.0004321763 -0.004382817 -0.0004773868 -0.0012554642
000150 00 f0 19 bb dd c9 14 bb 81 9e 27 bb 7b ec ce 3a
       -0.0023488998 -0.0022703328 -0.0025576653 0.0015787029
000160 cd 51 5c 3b 3b 14 93 bb 3d a7 59 b9 5c f1 7a bb
       0.0033618093 -0.0044884956 -0.00020757034 -0.0038290834
000170 20 10 46 bb b0 ef 24 bb 7e 85 be ba ed e3 c1 ba
       -0.0030222014 -0.002516728 -0.0014535633 -0.0014792659
000180 1b 80 6d bb d6 e4 d4 ba d0 ea da b6 8d 7e 0f bb
       -0.0036239687 -0.0016242515 -6.524242e-06 -0.0021895499
000190 11 4b c7 bb 2b 3c a8 ba 5d 0f 11 bb 63 87 94 39
       -0.0060819467 -0.0012835314 -0.0022134401 0.0002832963
0001a0 43 30 4e bb 1b 79 64 bb 68 1b a0 bb 1e 9d 30 bb
       -0.0031461872 -0.0034862224 -0.0048860796 -0.0026949118
0001b0 23 a6 52 bb 70 ac 6c bb 56 16 42 bb 00 bd 23 ba
       -0.0032142482 -0.0036113523 -0.0029615364 -0.000624612
0001c0 70 91 a6 b9 b0 10 0c bb 5e c9 c4 3a c3 b0 35 bb
       -0.00031770347 -0.0021372251 0.0015013625 -0.0027723766
0001d0 bc 5d 12 3b 66 69 bb bb 02 e7 5e bb fd b5 2b bb
       0.0022333702 -0.0057193516 -0.0034012203 -0.0026201003
0001e0 92 b4 7e bb 53 0e c4 ba ee 32 7d bb 02 fd 61 bb
       -0.0038864953 -0.0014957882 -0.0038635093 -0.003448308
0001f0 dc 05 26 ba 1c 3e ab ba 54 97 a6 bb d4 59 e6 ba
       -0.00063332706 -0.0013064775 -0.0050839577 -0.0017574378
000200 61 d4 69 bb d4 39 70 3a 2a 66 34 bb d3 1d 7d 3a
       -0.0035679566 0.00091638905 -0.0027526715 0.0009655628
000210 3d db 8b 3b 9d 37 43 bb b4 46 24 bb be ef 58 b8
       0.0042680786 -0.0029787787 -0.0025066556 -5.172169e-05
000220 59 05 51 3b 73 e9 3c b9 54 73 45 bb f8 f7 bc bb
       0.0031894057 -0.00018016044 -0.0030128555 -0.005766865
000230 4d fa b3 b7 63 b6 8b bb 73 bf e3 ba c0 a7 c4 ba
       -2.1455018e-05 -0.0042636856 -0.0017375782 -0.0015003607
000240 09 5a 8a ba 97 49 32 bb 34 99 29 ba 20 11 db b9
       -0.0010555397 -0.0027204507 -0.00064696674 -0.00041783694
000250 2a a5 b8 38 e8 f0 a5 ba dc fe 14 3a 6f 65 23 ba
       8.804568e-05 -0.0012660297 0.0005683729 -0.00062330713
000260 08 b5 0e 3c 38 38 38 bb b0 6f 25 b9 89 94 3f bb
       0.008710153 -0.002810968 -0.00015777233 -0.002923282
000270 a7 01 cf ba 60 f2 93 ba 52 fe bc 39 78 d3 8d 39
       -0.0015793339 -0.0011287443 0.00036047638 0.00027051172
000280 69 ba 7f bb 65 41 bf b9 7a 7d d4 b6 6a a1 69 ba
       -0.0039021021 -0.00036479082 -6.3326997e-06 -0.0008912297
000290 a2 13 55 bb 95 25 eb b9 10 af 71 ba 3a 94 d3 3a
       -0.0032512923 -0.00044850694 -0.0009219507 0.0016142197
0002a0 8d 5f d4 ba d7 1a 3e bb d2 15 9c bb 2a ae 07 bb
       -0.0016202793 -0.0029007697 -0.0047633434 -0.0020703175
0002b0 1f 2c de ba ee 44 27 ba c5 03 84 ba 0e 5e b7 b9
       -0.0016950405 -0.0006380816 -0.0010071924 -0.00034974556
0002c0 b3 3c ae ba 71 59 d3 ba 97 7e 43 3b fd c5 05 b9
       -0.0013293236 -0.0016124678 0.0029830092 -0.00012757625
0002d0 90 3f 73 3b b0 55 31 bb ce 16 88 bb 85 93 e6 ba
       0.0037116744 -0.002705913 -0.004153109 -0.0017591572
0002e0 2b ce 1e bb c4 1e e8 ba e2 50 a6 ba cf b1 b7 ba
       -0.0024231772 -0.0017709364 -0.00126889 -0.0014014783
0002f0 b4 d0 27 3a 26 86 2c 3a ee 17 54 bb 24 1f b2 ba
       0.00064016436 0.0006581269 -0.0032362896 -0.0013589603
000300 18 b9 97 3a 2d 9a c4 3a 30 71 d6 39 35 c9 a5 bb
       0.0011575548 0.0014999561 0.00040901592 -0.005059386
000310 2c 45 05 3c 20 ee 31 3a eb a8 78 3b 33 04 cc ba
       0.008134168 0.00067874976 0.003794248 -0.0015565216
000320 74 54 a9 b9 b8 26 c2 ba 27 49 a8 3b d5 3d e5 3a
       -0.00032297114 -0.0014812564 0.0051356736 0.0017489741
000330 78 35 29 bb e8 6e 40 3a 6c 83 f4 b9 25 2c 8d bb
       -0.0025819223 0.0007340745 -0.00046637224 -0.004308241
000340 a3 60 29 3b 41 39 29 3b dc 48 3f 3b 7a c6 73 3a
       0.0025844953 0.002582148 0.0029187715 0.00092992897
000350 84 23 55 ba f3 be 6f 3b 8b eb d9 3b 75 83 9f bb
       -0.00081305974 0.003658232 0.0066503934 -0.004867966
000360 c6 6a 0f 3c a4 74 73 3a a4 cb 22 3b 40 e5 8b 3b
       0.008753484 0.0009287095 0.0024840618 0.004269272
000370 2c 8f df 3a bb 7c 6f ba 1c 9b a7 3a 7b 4f 41 bb
       0.0017056218 -0.0009135713 0.0012787315 -0.0029496837
000380 71 c8 1c b7 51 75 f4 b9 e9 32 78 39 03 c4 77 ba
       -9.3449935e-06 -0.00046626714 0.00023670089 -0.000945151
000390 07 89 2f 3b b7 34 af 39 4c b6 e7 ba 3e e1 9a bb
       0.0026784556 0.00033417877 -0.001767823 -0.004726558
0003a0 38 a1 5c ba d7 e9 c9 3b 1e 31 39 3b 95 6e 08 bb
       -0.00084163575 0.006161909 0.0028258036 -0.0020817865
0003b0 a8 ad 2e 3b 4b 90 c7 3b 90 f1 8a ba 1b b6 a5 ba
       0.00266538 0.006090199 -0.0010600556 -0.0012642773
0003c0 06 ab c1 bb 9d 81 f1 ba 55 79 3a bc 62 f0 55 bb
       -0.00591028 -0.0018425469 -0.011381467 -0.00326445
0003d0 d8 92 c5 ba 97 b3 9a 3b 0e 87 a4 3b c2 40 4d 3b
       -0.001507367 0.004721116 0.0050209826 0.0031319116
0003e0 c7 34 a0 3b b3 51 3c 3a a2 02 8d bb ad 72 a8 3a
       0.004889104 0.0007183805 -0.0043032924 0.0012851559
0003f0 f3 f2 06 3b 8f 75 58 ba bb e8 af bb d1 71 4f bb
       0.0020591586 -0.00082572637 -0.00536832 -0.0031653533

onnx::LSTM_379 f4 [2, 256, 128]
000000 e0 55 b7 38 b7 5e 51 39 37 cc 7b 39 10 fa 67 38
       8.7421155e-05 0.00019967077 0.00024013301 5.530758e-05
000010 2c c4 ab b8 1d fa 41 39 1f f4 c2 b9 fe 8b 78 b8
       -8.190455e-05 0.00018499089 -0.00037184448 -5.9258186e-05
000020 04 e3 28 39 09 94 43 39 08 8b 85 b8 e0 6f 25 39
       0.00016106298 0.00018651797 -6.367831e-05 0.00015777303
000030 40 f5 38 ba a4 f4 75 38 a4 47 78 3a 23 77 73 b8
       -0.0007055588 5.864039e-05 0.00094711245 -5.804667e-05
000040 1a f5 38 3a 4f 58 35 ba 9a 77 78 b9 f3 3c 46 39
       0.0007055566 -0.0006917761 -0.00023695678 0.00018905457
000050 b5 10 7c 39 45 2b 70 ba 8b d9 48 39 5e 8e b5 b8
       0.00024038817 -0.0009161721 0.00019154527 -8.6572705e-05
000060 6c 27 60 3b 5f 56 be b9 fe b2 aa ba c9 c6 1f 3a
       0.0034203185 -0.00036303976 -0.0013023315 0.000609499
000070 3e d0 e1 36 ad 33 92 b9 28 85 9f 39 d7 9f d8 37
       6.729765e-06 -0.00027885791 0.00030426052 2.5823638e-05
000080 4a 8e f6 39 23 c9 43 b9 a4 ea a3 38 ba ea 28 39
       0.0004702679 -0.00018671578 7.816151e-05 0.00016109171
000090 de f9 37 39 28 b5 47 b8 85 8d 54 39 f6 70 53 39
       0.00017545323 -4.7614012e-05 0.00020270616 0.0002016461
0000a0 d1 05 e3 39 a5 63 03 ba 02 4c 47 b8 21 7a bc 37
       0.00043301148 -0.00050121016 -4.7516085e-05 2.2468217e-05
0000b0 ed f1 35 3a c7 e9 c8 3a dd 0e 90 38 45 f5 4b b7
       0.0006940652 0.001532846 6.8692236e-05 -1.2156849e-05
0000c0 57 4b 1a b9 e5 a9 98 39 a7 ad a7 ba 75 db da 39
       -0.00014714651 0.0002911828 -0.0012792841 0.00041743708
0000d0 29 02 7a ba ba 4a 91 39 54 92 0e b9 5f 7b f1 39
       -0.0009537065 0.0002771223 -0.00013596687 0.0004605902
0000e0 b2 84 a4 39 6e e3 af b7 9d c3 00 ba 4d 75 61 3a
       0.00031379383 -2.096753e-05 -0.0004911961 0.0008600548
0000f0 53 13 4c 39 bd 5a 48 3a af 43 89 38 fe 7c dd b9
       0.00019462155 0.00076429156 6.545276e-05 -0.0004224553
000100 86 28 b3 b5 0d 9b 0a 38 49 67 ac 36 e3 f6 41 39
       -1.3348333e-06 3.3046166e-05 5.1380234e-06 0.00018497887
000110 d6 e0 90 34 c9 c0 88 39 94 54 2a b8 7b ed 4e 35
       2.698568e-07 0.00026083578 -4.0609928e-05 7.708656e-07
000120 9a fe 6e 36 f4 fd 1d b6 96 7b 4a 38 2b bb ad b6
       3.5612961e-06 -2.3542643e-06 4.827565e-05 -5.177591e-06
000130 9b d9 c0 39 2b 87 2b b5 1e 29 81 38 6f 9a 1f 38
       0.00036783222 -6.389916e-07 6.158858e-05 3.805238e-05
000140 19 6f 4f 38 b6 72 20 36 5c dc 09 b6 d7 7d 4e 38
       4.9456114e-05 2.3908628e-06 -2.0542857e-06 4.9231425e-05
000150 c6 cb 7f b9 ea a2 16 38 39 dc 8a b9 8f ad e5 b5
       -0.00024394607 3.5914512e-05 -0.0002648549 -1.7112342e-06
000160 5f 18 02 b4 fe f5 6b b9 33 53 53 3a 1a 3c b2 b7
       -1.211606e-07 -0.00022502986 0.0008061409 -2.124724e-05
000170 c9 79 90 b6 e4 56 31 b6 2d 7c 95 37 c7 ca 7f 36
       -4.305712e-06 -2.6425632e-06 1.7820008e-05 3.8115993e-06
000180 19 a3 3f b6 52 b1 9c 33 69 6d a6 33 fe c6 ab b5
       -2.8556153e-06 7.2965705e-08 7.749879e-08 -1.2798407e-06
000190 34 8e cf b5 ca 1a 1e b8 6c 58 55 39 09 3d 35 ba
       -1.5464088e-06 -3.7695085e-05 0.00020346203 -0.0006913697
0001a0 f6 eb 99 37 da fd b6 b3 ce 46 6b b6 dd ec bb b9
       1.83489e-05 -8.521211e-08 -3.5058943e-06 -0.00035843896
0001b0 85 23 67 b6 20 db a1 b5 13 10 01 b8 3f ad 2d b3
       -3.4442357e-06 -1.2059209e-06 -3.0770967e-05 -4.0437268e-08
0001c0 51 65 ad b6 08 ca 25 b7 80 60 2c 3a 64 91 93 34
       -5.1675966e-06 -9.881805e-06 0.0006575659 2.748667e-07
0001d0 86 a7 80 37 c1 63 a0 b6 63 cb 7e b7 3b 25 a3 b8
       1.5336798e-05 -4.7799845e-06 -1.5186934e-05 -7.7793804e-05
0001e0 9c 12 71 b7 9b aa 26 35 40 7c 10 3a 6e 33 b6 37
       -1.4369052e-05 6.208808e-07 0.0005511679 2.172004e-05
0001f0 87 7e 16 ba 4f 0f ad 36 0f 9a d0 b6 4f 97 6a b9
       -0.00057409 5.157584e-06 -6.216818e-06 -0.00022372346
000200 43 61 81 ba 5a 4f 00 ba 05 d4 cb ba f1 ea c7 3a
       -0.0009870905 -0.0004894637 -0.0015550858 0.0015252513
000210 d6 a4 31 3b a1 f1 a4 ba 95 1d 96 3a f4 28 eb 3a
       0.0027106307 -0.0012584218 0.0011452908 0.0017941282
000220 5b b6 e1 b7 39 03 03 3b 91 10 89 ba d5 2d 0a 3b
       -2.6907006e-05 0.0019990935 -0.0010457208 0.0021084447
000230 7d 0e 45 ba 65 5a 0b 3b 96 36 31 3b 18 96 29 39
       -0.00075171125 0.0021263596 0.0027040592 0.0001617301
000240 3e 1f 29 3a be 26 27 bb ad 2e 02 ba 78 0e 14 3b
       0.0006451494 -0.002550527 -0.00049660617 0.0022591632
000250 ea f7 0b 37 00 0a 9a bb 81 94 fb 3a 3f 33 70 b9
       8.342768e-06 -0.004700899 0.0019194038 -0.00022907274
000260 fe 4d 61 3b f8 cf 08 3b 01 84 27 bb f5 e6 89 ba
       0.0034378762 0.0020875912 -0.0025560858 -0.0010521101
000270 7a 04 fa 39 93 e7 c5 b9 a3 e0 ba b8 57 38 17 bb
       0.0004768705 -0.00037747304 -8.911013e-05 -0.0023074353
000280 a1 70 e6 b9 df cf 8b 3a 15 6b 3f 39 3c bc be ba
       -0.00043952934 0.0010666809 0.0001825507 -0.0014551948
000290 51 47 2d ba 28 6b bf b8 e5 a4 c2 39 23 bf cb ba
       -0.0006610053 -9.127549e-05 0.0003712542 -0.0015544634
0002a0 3a 83 43 ba 1f 72 44 3a cc 53 f6 ba 53 9c 51 39
       -0.0007458214 0.0007493812 -0.0018793284 0.00019990029
0002b0 e8 0a d0 39 6a 38 2c 3b ab c8 cd 3a df a3 25 3b
       0.00039680977 0.0026278743 0.0015700063 0.0025274677
0002c0 e5 40 a8 ba 40 cd 19 ba b2 ec 2d bb b9 0b 99 ba
       -0.0012836723 -0.00058670714 -0.0026538786 -0.0011676467
0002d0 e7 94 07 bb f7 2e cb b9 a4 e5 ca 3a ed 27 7f b9
       -0.0020688118 -0.0003875417 0.0015479815 -0.00024333569
0002e0 68 29 1b 3b ff 06 ae b9 bb 9b 4e ba f7 7a 9c 3a
       0.0023675803 -0.0003319308 -0.0007881482 0.0011938502
0002f0 38 6d d0 ba 0f 87 54 3b c0 b7 08 b8 7f 0b 9b b9
       -0.001590169 0.0032429134 -3.2596057e-05 -0.0002957247
000300 a0 dc 19 b7 cf 74 51 39 68 09 2e 38 1e d8 9e 3a
       -9.170879e-06 0.00019975308 4.1493593e-05 0.0012118851
000310 57 e7 bf 35 ef 58 39 3b a9 58 1a b9 03 d7 f9 36
       1.4297938e-06 0.0028281768 -0.00014719613 7.445809e-06
000320 33 d2 99 37 69 d5 68 b7 ad 7f 89 39 7d 80 04 b8
       1.8336903e-05 -1.3877966e-05 0.00026225802 -3.1590916e-05
000330 31 e2 05 3b 6b 81 7b b6 39 5c ae 39 fe 6a a0 39
       0.002042901 -3.7477246e-06 0.00033256577 0.00030597294
000340 9a 16 95 39 13 1e a3 b7 49 b1 5b b7 30 a2 81 39
       0.00028436334 -1.9445119e-05 -1.3094695e-05 0.00024725636
000350 14 56 9e ba 16 2c 50 39 00 b9 be ba 02 fb 12 b7
       -0.0012080097 0.00019852849 -0.0014550984 -8.76072e-06
000360 6c e8 22 35 b5 56 ac ba 16 66 88 3b 7e e7 26 b9
       6.068792e-07 -0.0013148399 0.00416256 -0.00015917231
000370 57 ed 00 b8 f0 96 87 b7 26 43 7c 38 a7 b2 a8 38
       -3.0738618e-05 -1.616354e-05 6.014402e-05 8.044141e-05
000380 ed 55 34 b7 30 62 f2 34 37 ad 76 34 13 e3 e1 36
       -1.0748842e-05 4.5147453e-07 2.297355e-07 6.7319575e-06
000390 aa 94 49 b7 93 c4 04 b8 d6 ea cf 3a 2a cd 58 bb
       -1.2015147e-05 -3.1654326e-05 0.0015862833 -0.0033081272
0003a0 67 26 d1 38 93 f9 24 b5 05 6d 76 b6 a0 4a f8 ba
       9.9730496e-05 -6.145794e-07 -3.6720314e-06 -0.0018943138
0003b0 cd 9c c3 b7 f4 a7 00 b7 e6 c9 4f b9 20 00 80 b4
       -2.3318828e-05 -7.668499e-06 -0.00019816271 -2.384195e-07
0003c0 f8 39 e8 b7 e0 b8 0e 37 1c 3a 80 3b 28 08 b4 33
       -2.7683549e-05 8.506904e-06 0.003913177 8.383387e-08
0003d0 93 5b b3 38 71 1d e7 b7 65 4d bf b8 a6 07 08 ba
       8.552442e-05 -2.7551056e-05 -9.1220056e-05 -0.0005189128
0003e0 a0 d8 39 b7 33 25 77 36 17 86 43 3b c9 c6 11 39
       -1.1077296e-05 3.682752e-06 0.0029834562 0.00013902331
0003f0 35 4b 86 bb 44 b2 10 38 82 fd 04 b8 7f 36 a5 ba
       -0.004098321 3.44983e-05 -3.170735e-05 -0.0012604742
