LOSO/models/model_without_subj_10.onnx (onnx, 550191 bytes, 8 tensors)

fc.weight f4 [2, 128]
-0.03468638 -0.037432987 0.034454107 -0.047166288 0.036435973 0.035154834 0.03695142 0.048253506
0.03665546 -0.088510975 0.032261956 -0.03224859 -0.0356402 -0.11415347 -0.033566307 -0.030955376
-0.10515533 0.003121055 0.035133593 -0.03666216 0.032797758 0.03968463 0.035756722 0.049121708
0.0386976 -0.03519894 -0.037656207 -0.054395907 -0.041669298 -0.037811954 0.018222706 0.034974463
-0.036810353 0.105191246 0.03273533 0.03564372 -0.08126334 -0.1100381 0.00064892974 -0.10492771
0.033896945 0.0991964 0.044767722 -0.10483767 -0.03764484 0.038291197 -0.107662976 0.0345713
0.034476686 0.03842359 0.03451754 0.038018398 0.031851467 0.03307932 0.033645198 0.034112092
-0.10002249 0.10241116 -0.035870582 -0.03568635 0.09819464 0.03283369 0.035524927 0.036148254
-0.04314925 -0.037269 0.045805648 -0.03837386 0.03263118 -0.043252103 -0.038628962 0.037280593
0.037107635 0.04395593 -0.035766546 0.034145262 0.034664303 0.036656916 0.033545192 -0.03828
0.035456233 0.047186587 -0.03961032 0.04484934 0.04031893 -0.041534755 -0.03326871 -0.04330873
0.041991796 -0.040429614 0.038114168 -0.036740597 -0.04556451 0.03838735 -0.036649685 0.035037138
-0.036197133 -0.040068958 -0.036840934 0.037915148 -0.042705473 0.043815903 -0.04198911 0.04242943
-0.03480355 -0.040155057 0.03962072 -0.03779379 0.04068993 0.04167512 -0.04346237 0.042062547
0.038688924 -0.035144914 -0.039920162 -0.036878005 0.037073918 -0.04148803 0.039609086 -0.03916087
-0.035102252 -0.036847234 -0.044288933 0.041446615 -0.04054801 0.039803505 0.040568464 -0.04143518
0.026989406 0.029423743 -0.02901265 0.03136573 -0.030940235 -0.027863413 -0.022843467 -0.026887706
-0.029857289 -0.0005334306 -0.02648713 0.028002305 0.027322125 -0.101576746 0.029195262 0.029906044
-0.10858171 -0.0011153715 -0.027731696 0.027406417 -0.02816523 -0.030072058 -0.03077358 -0.033823032
-0.026793178 0.029477758 0.032330126 0.02824232 0.03558854 0.029670583 0.09299656 -0.024841353
0.025636213 0.10878519 -0.027262596 -0.025647547 -0.11385842 -0.109581195 -0.0028114212 -0.10768478
-0.03516722 0.026667383 -0.03539446 -0.10447931 0.030676637 -0.02771999 -0.104595825 -0.026033895
-0.029381745 -0.028716045 -0.030471783 -0.029310634 -0.028990038 -0.029320883 -0.026732875 -0.028816963
-0.11387729 0.10955037 0.028692044 0.032467995 0.1008804 -0.038752608 -0.033278085 -0.028548025
0.030499497 0.0324844 -0.032836292 0.029948112 -0.0334956 0.04309051 0.037008114 -0.039984394
-0.028856186 -0.027611073 0.026574383 -0.03044994 -0.0297995 -0.037059538 -0.033083055 0.03494316
-0.026966605 -0.03446685 0.035343852 -0.032431263 -0.036268033 0.042072494 0.03374237 0.036739532
-0.025705941 0.031717066 -0.031575628 0.0345559 0.038646135 -0.039245453 0.031668194 -0.03048836
0.031710226 0.03155146 0.033518262 -0.036515433 0.03334809 -0.031994916 0.04215942 -0.03622888
0.028414523 0.036737252 -0.029925331 0.03741105 -0.03807411 -0.03367213 0.038385097 -0.028620306
-0.03249409 0.032161295 0.028590411 0.02831201 -0.035632193 0.03480151 -0.03836447 0.035346486
0.0319931 0.03297261 0.032631412 -0.032540023 0.032375682 -0.031107128 -0.035155736 0.032465685
00000000: 4e13 0ebd 5553 19bd c01f 0d3d 7031 41bd
00000010: e33d 153d 84fe 0f3d 5f5a 173d 78a5 453d
00000020: 0924 163d 3e45 b5bd 1d25 043d 1917 04bd
00000030: 75fb 11bd 4bc9 e9bd d37c 09bd 2196 fdbc
00000040: ad5b d7bd 9d8a 4c3b 3ee8 0f3d 102b 16bd
00000050: f156 063d 5a8c 223d a475 123d d833 493d
00000060: 6081 1e3d c42c 10bd 653d 1abd 3ece 5ebd
00000070: 6dad 2abd b5e0 1abd c947 953c 6241 0f3d
00000080: 74c6 16bd 826e d73d 7b15 063d 26ff 113d
00000090: 656d a6bd a85b e1bd f01c 2a3a 57e4 d6bd
000000a0: 86d7 0a3d 7b27 cb3d 5c5e 373d 22b5 d6bd
000000b0: 7a31 1abd 3bd7 1c3d 687e dcbd a39a 0d3d
000000c0: 6d37 0d3d 0e62 1d3d 4462 0d3d 2eb9 1b3d
000000d0: af76 023d 2e7e 073d 8ccf 093d 1fb9 0b3d
000000e0: 97d8 ccbd f1bc d13d 08ed 12bd da2b 12bd
000000f0: 451a c93d 9f7c 063d 9682 113d 3110 143d
00000100: 45bd 30bd 61a7 18bd b49e 3b3d e92d 1dbd
00000110: 46a8 053d 1e29 31bd 6739 1ebd 89b3 183d
00000120: 2dfe 173d 220b 343d f17f 12bd e7db 0b3d
00000130: 28fc 0d3d 9025 163d af66 093d 7dcb 1cbd
00000140: 8e3a 113d b946 413d 6e3e 22bd f1b3 373d
00000150: 7625 253d 5920 2abd c544 08bd 7f64 31bd
00000160: 97ff 2b3d 8699 25bd 9a1d 1c3d 4f7d 16bd
00000170: daa1 3abd 0e3c 1d3d fb1d 16bd 1a83 0f3d
00000180: 7243 14bd 591f 24bd 85e6 16bd ea4c 1b3d
00000190: efeb 2ebd 4e78 333d c6fc 2bbd 7bca 2d3d
000001a0: 2b8e 0ebd a179 24bd 5649 223d a9cd 1abd
000001b0: 7caa 263d 88b3 2a3d 9905 32bd c749 2c3d
000001c0: 4778 1e3d 1df4 0fbd 5383 23bd 640d 17bd
000001d0: d2da 173d 5aef 29bd 233d 223d 2667 20bd
000001e0: 61c7 0fbd 20ed 16bd 5068 35bd edc3 293d
000001f0: ac15 26bd 0009 233d 1e2b 263d efb7 29bd
00000200: e318 dd3c 100a f13c f0ab edbc 5a79 003d
00000210: 6076 fdbc d041 e4bc 3922 bbbc 9b43 dcbc
00000220: 4697 f4bc ecd5 0bba 8afb d8bc 1765 e53c
00000230: a6d2 df3c 7807 d0bd e72a ef3c 85fd f43c
00000240: 1660 debd a831 92ba 952d e3bc 6c83 e03c
00000250: c5ba e6bc ad59 f6bc e018 fcbc 058a 0abd
00000260: 5e7d dbbc 577b f13c 986c 043d 705c e73c
00000270: 4ac5 113d b90f f33c fb74 be3d 1880 cbbc
00000280: 0903 d23c c5ca de3d cf55 dfbc ce1a d2bc
00000290: 9a2e e9bd 1b6c e0bd d23f 38bb d789 dcbd
000002a0: 810b 10bd 8e75 da3c c8f9 10bd 40f9 d5bd
000002b0: 924d fb3c 0815 e3bc 5636 d6bd 0945 d5bc
000002c0: fcb1 f0bc e93d ebbc f69f f9bc db1c f0bc
000002d0: 847c edbc 5932 f0bc e7fe dabc 8d11 ecbc
000002e0: 7f38 e9bd f25b e03d 940b eb3c 29fd 043d
000002f0: 629a ce3d 0ebb 1ebd 9a4e 08bd 8cdd e9bc
00000300: 15da f93c 5d0e 053d 597f 06bd be55 f53c
00000310: af32 09bd ad7f 303d d295 173d adc6 23bd
00000320: cf63 ecbc 9e30 e2bc 85b2 d93c 2772 f9bc
00000330: 151e f4bc becb 17bd 1982 07bd 8f20 0f3d
00000340: 12e9 dcbc 1d2d 0dbd b7c4 103d a5d6 04bd
00000350: ca8d 14bd 3554 2c3d 7035 0a3d 317c 163d
00000360: 4495 d2bc c1e9 013d 7255 01bd 7d8a 0d3d
00000370: 694b 1e3d d7bf 20bd 82b6 013d bac2 f9bc
00000380: 95e2 013d 1b3c 013d 724a 093d 3591 15bd
00000390: 0298 083d 1a0d 03bd 5baf 2c3d bc64 14bd
000003a0: 93c5 e83c cd79 163d f825 f5bc 543c 193d
000003b0: 99f3 1bbd caeb 09bd b139 1d3d 2275 eabc
000003c0: 8618 05bd 90bb 033d 7036 ea3c 97ee e73c
000003d0: 10f3 11bd 078c 0e3d 1024 1dbd 7ac7 103d
000003e0: 320b 033d 4a0e 073d 84a8 053d b048 05bd
000003f0: 5d9c 043d 60d4 febc 76ff 0fbd bdfa 043d

fc.bias f4 [2]
0.85766655 0.8612241
00000000: 0990 5b3f 2f79 5c3f

onnx::LSTM_335 f4 [2, 512]
0.007428391 0.006626716 0.009386337 0.023541221 0.034610443 0.0029581701 0.030519947 0.016504338
0.008756995 0.008776797 0.007317597 0.0067061377 0.008238413 0.014283051 0.011863946 0.0063077807
0.0190403 0.014047937 0.0056465073 0.006143529 0.018173013 0.009018552 0.0076992135 0.03023148
0.0059627364 0.010979497 0.0067254994 0.007655115 0.006255927 0.0058188303 0.0055929366 0.0066050785
0.0069138156 0.22154137 0.006660747 0.0068883253 0.0075663743 0.0064322213 0.00664839 0.006052916
0.15047765 0.007584449 0.0070872395 0.010742997 0.037192762 0.0065045436 0.005253886 0.00904886
0.22228068 0.0039263 0.0076199677 0.0065210387 0.015766593 0.0077867424 0.013149247 0.006754899
0.007930941 0.012340726 0.006005526 0.0056565315 0.019030903 0.002889369 0.010159735 0.006864602
0.0074465643 0.006638986 0.009435167 0.024158873 0.036285326 0.0029640847 0.030573195 0.01678766
0.008775019 0.008776246 0.0073370216 0.006728001 0.008259628 0.014407849 0.011930675 0.006321149
0.019066622 0.014210752 0.005690718 0.006147656 0.018503122 0.009056978 0.007714993 0.03145823
0.0059700343 0.011073816 0.006738593 0.0076956786 0.0062582274 0.0058269133 0.00559872 0.006617906
0.0069280644 0.2303103 0.0066672014 0.0068910317 0.007594115 0.0064374264 0.006667999 0.0060727624
0.17494754 0.007614204 0.007085251 0.010807974 0.03906289 0.006520946 0.0052578333 0.009058013
0.23784715 0.0039025208 0.0076495972 0.0065296036 0.015960312 0.0077987523 0.013253584 0.0067598703
0.007938723 0.012439473 0.006000784 0.0056910925 0.019422082 0.0028910274 0.01019721 0.00685482
0.006628208 0.0062567904 0.008675962 0.022720413 0.036367375 0.0010038209 0.0057121613 0.015864227
0.008335543 0.008036831 0.0066870013 0.0056238184 0.007512817 0.013243789 0.011017503 0.0059593148
0.0042366837 0.012725365 0.0050870003 0.0064334054 0.01687094 0.008131971 0.0074366806 0.032397732
0.005383348 0.009875676 0.007395564 0.0072235106 0.0063512637 0.005417928 0.0055806907 0.0059343623
0.006600461 0.18335527 0.0063866354 0.0025140462 0.0069015385 0.006211095 0.006140409 0.005210933
0.22859177 0.006880023 0.008037641 0.009879557 0.039675787 0.0059245448 0.004776864 0.008483433
0.36741352 0.003779349 0.0069709253 0.006107663 0.015025748 0.0072449 0.012016988 0.006453532
0.007325853 0.011015594 0.006284176 0.0050514685 0.018329643 0.0024296 0.009601128 0.006153811
0.006669283 0.0021156843 -0.003896185 0.017563067 -0.016341105 -0.029195145 -0.09126582 -0.005895893
0.0011505716 0.0006646458 0.0022114762 0.017606262 0.0022627534 -0.005472309 0.0032039115 0.0024001994
0.07134483 -0.013097709 0.00341837 -0.0013602386 0.013005322 -0.00535269 -0.0012921131 -0.008660818
-0.0011380275 0.0034485897 -0.00055889616 -0.003449201 -0.0019077422 -0.00034829997 -0.011077686 -0.003084231
-0.0012354754 -0.013272958 0.0008062487 -0.03987522 0.005090352 0.00022830666 -0.0067066005 -0.0032527463
-0.08973245 0.0020263137 0.0010118653 -0.0060209036 -0.009044819 0.00041887775 0.004925557 -0.0037177058
0.07719904 -0.0071135177 0.0015621852 -0.0004428527 0.010165653 -0.0006609177 0.007363158 0.00073414866
-0.0021860192 -0.009495171 0.004848297 0.007892005 0.02223838 -0.014922547 -0.0039776266 -0.0056485664
00000000: dc69 f33b ec24 d93b 27c9 193c 85d9 c03c
00000010: aec3 0d3d dcdd 413b f804 fa3c 1b34 873c
00000020: 8079 0f3c 8ecc 0f3c 74c8 ef3b 29bf db3b
00000030: 69fa 063c 7503 6a3c ff60 423c 80b1 ce3b
00000040: 67fa 9b3c 5129 663c 5606 b93b a84f c93b
00000050: 92df 943c 8cc2 133c af49 fc3b 02a8 f73c
00000060: 0f63 c33b 59e3 333c 9461 dc3b c2d7 fa3b
00000070: 85fe cc3b e3ab be3b f444 b73b 6a6f d83b
00000080: 4a8d e23b bedb 623e 6542 da3b 76b7 e13b
00000090: 59ef f73b 62c5 d23b bdda d93b 8a57 c63b
000000a0: d016 1a3e f886 f83b 133c e83b 6503 303c
000000b0: 7057 183d 1124 d53b ca28 ac3b ab41 143c
000000c0: 8c9d 633e 31a8 803b ecb0 f93b 70ae d53b
000000d0: f128 813c ee27 ff3b f06f 573c 3358 dd3b
000000e0: c7f0 013c c230 4a3c 01ca c43b 6d5a b93b
000000f0: b2e6 9b3c 915b 3d3b 0475 263c 75f0 e03b
00000100: 4f02 f43b da8b d93b f595 1a3c d4e8 c53c
00000110: ec9f 143d 1741 423b a374 fa3c 4686 893c
00000120: 19c5 0f3c 3eca 0f3c 666b f03b 9076 dc3b
00000130: 6453 073c e60e 6c3c e178 433c a421 cf3b
00000140: 9b31 9c3c 37d4 683c 3479 ba3b 4772 c93b
00000150: dc93 973c b863 143c 0dce fc3b 58da 003d
00000160: 47a0 c33b f36e 353c 6acf dc3b 082c fc3b
00000170: d111 cd3b b1ef be3b 7875 b73b 05db d83b
00000180: d104 e33b 77d6 6b3e 8a78 da3b 2ace e13b
00000190: 0ed8 f83b 0cf1 d23b 3b7f da3b 06fe c63b
000001a0: 7325 333e 9380 f93b 652b e83b ee13 313c
000001b0: 6900 203d a9ad d53b e749 ac3b 0f68 143c
000001c0: 348e 733e 6fc1 7f3b 79a9 fa3b 49f6 d53b
000001d0: 33bf 823c ad8c ff3b 8f25 593c e781 dd3b
000001e0: 6b11 023c eece 4b3c 3aa2 c43b 587c ba3b
000001f0: 0f1b 9f3c 6477 3d3b 3312 273c 669e e03b
00000200: 7031 d93b c305 cd3b 9f25 0e3c 2920 ba3c
00000210: f5f5 143d a492 833a 152d bb3b b2f5 813c
00000220: cd91 083c eaac 033c a21e db3b 0248 b83b
00000230: 142e f63b 7afc 583c c282 343c 5b46 c33b
00000240: e1d3 8a3b 0d7e 503c dab0 a63b 51cf d23b
00000250: ed34 8a3c f53b 053c 66af f33b 7cb3 043d
00000260: cc66 b03b 96cd 213c 7d56 f23b 33b3 ec3b
00000270: 431e d03b e088 b13b 3ade b63b 0a75 c23b
00000280: ae48 d83b 7cc1 3b3e fb46 d13b b2c2 243b
00000290: 4d26 e23b 7186 cb3b 7c35 c93b 79c0 aa3b
000002a0: f613 6a3e d171 e13b 4fb0 033c dedd 213c
000002b0: 1483 223d af22 c23b 3d87 9c3b 19fe 0a3c
000002c0: a01d bc3e f4ae 773b 5c6c e43b ca22 c83b
000002d0: 8e2e 763c a066 ed3b e7e2 443c 2678 d33b
000002e0: b60d f03b c07a 343c 7deb cd3b ca86 a53b
000002f0: 0c28 963c ed39 1f3b 0d4e 1d3c e8a5 c93b
00000300: 008a da3b 4ba7 0a3b 2357 7fbb 6ce0 8f3c
00000310: c8dd 85bc a82a efbc 93e9 babd 5632 c1bb
00000320: c7ce 963a a03b 2e3a 6aee 103b 023b 903c
00000330: b44a 143b 0e51 b3bb b7f8 513b aa4c 1d3b
00000340: 3d1d 923d c697 56bc bb06 603b 094a b2ba
00000350: 4614 553c 9e65 afbb 1f5c a9ba 1be6 0dbc
00000360: de29 95ba bc01 623b e382 12ba fd0b 62bb
00000370: 350d faba 089c b6b9 2f7f 35bc cf20 4abb
00000380: adef a1ba d276 59bc 6f5a 533a 3354 23bd
00000390: f8cc a63b 9a65 6f39 0bc3 dbbb 072c 55bb
000003a0: a6c5 b7bd e7cb 043b 91a0 843a 004b c5bb
000003b0: b830 14bc d29c db39 9166 a13b c1a4 73bb
000003c0: 881a 9e3d 8318 e9bb 3dc2 cc3a af2e e8b9
000003d0: d78d 263c 7041 2dba a546 f13b e273 403a
000003e0: 5143 0fbb a291 1bbc 77de 9e3b 784d 013c
000003f0: 432d b63c b37d 74bc c056 82bb 9c17 b9bb

onnx::LSTM_336 f4 [2, 256, 6]
0.0025570916 0.0031770084 0.0027525136 0.0031027452 0.004398164 0.00057382975 0.0023925027 0.0027593023
0.0019250878 0.0025917727 0.0043262267 0.0008722035 0.0035087934 0.0038462768 0.0022539096 0.0040116888
0.0054500718 0.0013515722 0.009310249 0.009320424 0.007025052 0.010911954 0.009688016 0.0041690995
0.013176538 0.012257525 0.011100601 0.01629079 0.012281527 0.006441712 0.0015824586 0.0013120874
0.001485764 0.001409864 0.0018557332 0.002039342 0.015894 0.017144142 0.022520723 0.015707863
0.017288467 0.020305192 0.0062659536 0.0065652067 0.004785087 0.007404588 0.0070154113 0.0020646064
0.003538282 0.003963639 0.0027697922 0.0036540644 0.005259902 0.001358576 0.0033932899 0.0038777655
0.0029398792 0.003675952 0.005667554 0.0014756739 0.0023951929 0.0032714892 0.0020786314 0.002927276
0.004336486 0.00049366837 0.002114195 0.0031791606 0.003198873 0.0027480423 0.003942769 0.00018384257
0.0029151652 0.0036464753 0.0027021018 0.003287366 0.005008795 0.00065586134 0.005623087 0.006109034
0.0045866156 0.006434235 0.007516517 0.0021020863 0.0047462746 0.005161534 0.003792484 0.005155254
0.0070022717 0.0017203526 0.0023251995 0.002756269 0.0019478971 0.0026160125 0.0043155784 0.0006560438
0.010221282 0.011684695 0.015128703 0.010499839 0.01151393 0.013200208 0.0049873004 0.006071343
0.005516289 0.0063289297 0.0059648366 0.000762052 0.0017880645 0.0022423312 0.0015772225 0.0020900923
0.0035002504 0.00014797082 0.0026099344 0.0030858393 0.0028099117 0.0025662074 0.0046870657 0.001119691
0.007017977 0.0075921104 0.0054082843 0.008273133 0.007963784 0.0027588739 0.0032693236 0.0034987386
0.002471349 0.003573991 0.004994923 0.0009385589 0.0030580426 0.0034731787 0.0024314125 0.0032853691
0.005203898 0.0011811974 0.01165473 0.010660944 0.010122722 0.014405128 0.010429958 0.0044044633
0.0022464264 0.0026420201 0.0018836024 0.002309195 0.004169846 0.0007191424 0.0036035113 0.004155249
0.0025519403 0.0045494046 0.005447016 0.0012007467 0.0033191408 0.0036416228 0.0037069488 0.0031735303
0.005416224 0.0021622798 0.002334526 0.0029662629 0.0016280994 0.0029838404 0.004165411 0.00025142316
0.0023494563 0.002961086 0.0023523497 0.0021911643 0.0047638733 0.0007343032 0.0018967304 0.0023163161
0.0013888619 0.00222318 0.0038827192 0.0002899376 0.0018137483 0.002719853 0.002461343 0.0020230433
0.0038983885 0.00019086654 0.0022963628 0.0022867075 0.0018109864 0.0023459564 0.0045279483 0.00091470394
0.0025279685 0.0030978345 0.002039304 0.0027872983 0.0044187945 0.00092657545 0.022017475 0.020368464
0.21504764 0.18756633 0.024426123 0.20162472 0.002465527 0.002978689 0.002610738 0.0028269843
0.0048785736 0.0010540294 0.0037695891 0.0033283802 0.004699882 0.0033767829 0.0041064536 0.0044698888
0.0027416332 0.0032513554 0.0025415819 0.0029434634 0.004699956 0.00056476 0.0024948567 0.003075543
0.0018884498 0.0024479753 0.0043941257 0.00087306235 0.00218097 0.00303985 0.002581594 0.0027351046
0.0040748282 0.00039727954 0.0016453953 0.0023091491 0.0015047963 0.0023294387 0.003304369 -0.000118439675
0.061475668 0.037362684 0.063522786 0.08036069 0.05176039 0.013903826 0.0025452266 0.003217011
0.0024574555 0.0029250712 0.004563095 0.00043515617 0.003375199 0.0035103958 0.0038797148 0.0029927262
00000000: e194 273b 5b35 503b 8463 343b 6d57 4b3b
00000010: 791e 903b 106d 163a 89cb 1c3b 69d5 343b
00000020: 3a53 fc3a bbda 293b 05c3 8d3b 96a4 643a
00000030: c9f3 653b d111 7c3b 54b6 133b 7c74 833b
00000040: 8496 b23b 3d27 b13a 048a 183c b1b4 183c
00000050: 6832 e63b 0dc8 323c 7cba 1e3c f19c 883b
00000060: 68e2 573c c9d3 483c 4cdf 353c 4374 853c
00000070: 7538 493c ff14 d33b 806a cf3a 59fa ab3a
00000080: f8bd c23a 30cb b83a 133c f33a 7ba6 053b
00000090: 2234 823c df71 8c3c 617d b83c c7ad 803c
000000a0: 8ba0 8d3c 1357 a63c a152 cd3b f220 d73b
000000b0: 38cc 9c3b 30a2 f23b 89e1 e53b 594e 073b
000000c0: 85e2 673b 6ae1 813b 6785 353b 0779 6f3b
000000d0: 425b ac3b 3f12 b23a f561 5e3b 1c22 7e3b
000000e0: fdaa 403b 3ee8 703b e4b6 b93b 666b c13a
000000f0: abf8 1c3b 7b66 563b a639 083b 8bd7 3f3b
00000100: 1519 8e3b 8669 013a 4e8e 0a3b 7759 503b
00000110: 2fa4 513b 8018 343b 5832 813b ddc5 4039
00000120: 5b0c 3f3b b4f9 6e3b bf15 313b d970 573b
00000130: d120 a43b 1cee 2b3a df41 b83b 4b2e c83b
00000140: 524b 963b 46d6 d23b 1d4d f63b 28c3 093b
00000150: a386 9b3b 1622 a93b 538b 783b 68ed a83b
00000160: 5073 e53b 747d e13a 6062 183b 85a2 343b
00000170: 9550 ff3a 6871 2b3b b269 8d3b 5bfa 2b3a
00000180: 2a77 273c 2a71 3f3c 61de 773c 8407 2c3c
00000190: eca4 3c3c af45 583c 826c a33b 1ef2 c63b
000001a0: fcc1 b43b e962 cf3b ad74 c33b 72c4 473a
000001b0: 7d5d ea3a 13f4 123b ceba ce3a eef9 083b
000001c0: 7564 653b 9d28 1b39 6f0b 2b3b cb3b 4a3b
000001d0: 7f26 383b d12d 283b f595 993b 98c2 923a
000001e0: 0ff7 e53b 3dc7 f83b fa37 b13b 098c 073c
000001f0: 887a 023c 39ce 343b 2642 563b 184b 653b
00000200: 5bf6 213b 9e39 6a3b 73ac a33b 9f09 763a
00000210: 7169 483b 459e 633b 5558 1f3b 594f 573b
00000220: 7685 aa3b 68d2 9a3a 7bf3 3e3c 3dab 2e3c
00000230: c6d9 253c 7c03 6c3c 6ae2 2a3c 5153 903b
00000240: c838 133b be25 2d3b 35e3 f63a dd55 173b
00000250: 34a3 883b d484 3c3a e328 6c3b c128 883b
00000260: 743e 273b 2c13 953b e27c b23b 6062 9d3a
00000270: f185 593b 4ba8 6e3b 48f0 723b 01fb 4f3b
00000280: 947a b13b 09b5 0d3b d9fe 183b a265 423b
00000290: f365 d53a 898c 433b 007e 883b 72d1 8339
000002a0: 56f9 193b c80e 423b e129 1a3b a399 0f3b
000002b0: 441a 9c3b 417e 403a b69b f83a 56cd 173b
000002c0: 790a b63a c5b2 113b 3875 7e3b c402 9839
000002d0: 4bbb ed3a 903f 323b 7c4e 213b 0995 043b
000002e0: 1b7c 7f3b 5923 4839 937e 163b 96dc 153b
000002f0: 9f5e ed3a 9ebe 193b 2f5f 943b bec8 6f3a
00000300: 46ac 253b 0a05 4b3b d8a5 053b 1bab 363b
00000310: 89cb 903b 6de5 723a fe5d b43c c4db a63c
00000320: 7335 5c3e 6311 403e 4b19 c83c b676 4e3e
00000330: ae94 213b 1c36 433b ea18 2b3b ed44 393b
00000340: 71dc 9f3b 5c27 8a3a 360b 773b f420 5a3b
00000350: 7801 9a3b 044d 5d3b 6e8f 863b 2578 923b
00000360: f9ac 333b b114 553b ab90 263b 1fe7 403b
00000370: 1702 9a3b 670c 143a c080 233b 0d8f 493b
00000380: dc85 f73a 366e 203b 99fc 8f3b 39de 643a
00000390: 9bee 0e3b 3838 473b f62f 293b 713f 333b
000003a0: 2386 853b f549 d039 4eaa d73a 1855 173b
000003b0: 963c c53a 7fa9 183b 1d8e 583b d162 f8b8
000003c0: e9cd 7b3d 9d09 193d 3c18 823d 2594 a43d
000003d0: b402 543d dfcc 633c d1cd 263b 7dd4 523b
000003e0: 430d 213b 8db2 3f3b 0486 953b ac25 e439
000003f0: 7132 5d3b ab0e 663b d042 7e3b 9d21 443b

onnx::LSTM_337 f4 [2, 256, 64]
-0.00025866492 0.0002503843 -0.00039250506 0.0006259147 -0.00071386725 -4.396023e-05 -1.129244e-05 0.0004889514
0.00035257588 0.0003457711 -0.00033557005 -0.00019264175 0.00035931534 0.00048064857 0.0003972786 -0.00024270425
2.654075e-06 0.00030939246 -0.00021983821 0.00012830587 0.0005584642 -0.00034664627 0.00034402197 -0.0005514402
-0.00016904784 -0.0004280979 0.000105243984 -0.00035248062 0.00017460877 -0.00020827177 0.00016571645 -0.00022905332
0.00029097425 6.895427e-05 0.00021966238 -2.7377164e-05 -0.00020808485 -0.00017810328 0.00027875017 0.0002931881
-4.58734e-06 -0.00025318319 -9.450869e-05 -0.0004412578 -0.00058166083 -0.00026278975 9.762238e-05 0.0002982581
-0.0016156161 0.00017397637 0.00033810423 -0.00017558875 0.0004946478 -0.00032392214 0.0004865584 0.00027646672
-0.00032395963 -0.00048472942 -8.715317e-05 0.00018085608 0.00055029633 2.4178213e-05 -0.00039595205 0.0002492573
-0.00035424775 0.00042482288 -0.00055496127 0.0008680168 -0.0010400176 -4.662773e-05 -1.1440735e-05 0.00068347564
0.0004982902 0.00049905933 -0.00046490066 -0.00037536313 0.00051208434 0.00066219165 0.00054116023 -0.00036215872
-3.0186062e-05 0.0005115164 -0.00040098297 0.00030617075 0.00079900166 -0.00049145654 0.00047701912 -0.00085105625
-0.00033700615 -0.0005783891 0.00020250058 -0.0005138564 0.00022384981 -0.0003999822 0.0003040411 -0.0004141081
0.00044540406 0.0017594848 0.00037510833 1.4118277e-05 -0.00034070128 -0.00034319688 0.00045014473 0.00047119564
-0.0014214916 -0.00042400838 -0.0003045944 -0.00058825925 -0.0009456002 -0.00041280864 0.0001961419 0.00046963483
0.0004991434 0.00031542263 0.0004705069 -0.0003714659 0.0006756205 -0.0004862123 0.000655273 0.00046966568
-0.0004864142 -0.0006606659 -0.0001846262 0.00037826868 0.0007566308 7.553325e-05 -0.0005375675 0.0004436972
-0.00041825825 0.00044189117 -0.0005119446 0.0008679912 -0.0009638452 -0.00021748347 -0.00033227325 0.00063206704
0.0004771937 0.00037147154 -0.00047510065 -0.00030766753 0.00045041236 0.0005923414 0.00059201947 -0.00045340988
0.00019633284 0.00051637046 -0.0003655477 0.00037396434 0.00080398965 -0.00052443304 0.0003731693 -0.0007915741
-0.00043554258 -0.00060535443 0.0003492253 -0.0004775594 0.00030919397 -0.00042157853 0.0003812759 -0.00044160202
0.000469515 0.002018 0.00044450123 -1.7700342e-05 -0.0004338637 -0.00039452486 0.0004380435 0.00043440267
-0.0014058404 -0.00047964262 -0.00031318783 -0.00056515314 -0.0008581519 -0.00046304954 0.00034024334 0.00042610377
0.0013866745 0.0002670402 0.0005180521 -0.00044628227 0.0007195092 -0.00038932898 0.0006428184 0.0004103849
-0.0004268459 -0.0006203936 -0.0002668666 0.00040885294 0.00067430804 7.98789e-05 -0.00040739766 0.00037059447
-0.0010626101 0.0010927139 -0.001307649 0.0018390679 -0.0020165297 -0.00072754384 -0.001249465 0.0014265985
0.0011798447 0.0011644243 -0.0011133202 -0.00073213055 0.0011920476 0.0014216498 0.0013036577 -0.0010602149
0.0008158262 0.0009892351 -0.00094097963 0.0009499323 0.0016723359 -0.0012350836 0.001113109 -0.0015597057
-0.0010220953 -0.0013190334 0.0009408612 -0.0011894632 0.0009428899 -0.0010505872 0.0008601096 -0.0011078911
0.0011364573 0.0038599179 0.0010936708 -0.00042350666 -0.0010383957 -0.00096516917 0.0010464601 0.0010641982
-0.0037216935 -0.0010843513 -0.00084186567 -0.0013617607 -0.0016926376 -0.0010838673 0.0010187167 0.0011135604
0.0048530228 0.0007389863 0.0011551019 -0.0010961592 0.001549608 -0.0011097323 0.0014948405 0.0011137599
-0.001147942 -0.0015261396 -0.0008478688 0.0010729445 0.0016115605 0.00057098153 -0.0012347262 0.0010096956
00000000: 6b9d 87b9 0346 8339 23c9 cdb9 6d14 243a
00000010: d222 3bba f061 38b8 a974 3db7 f92c 003a
00000020: efd9 b839 9d48 b539 73ef afb9 e0ff 49b9
00000030: 7d62 bc39 8fff fb39 d549 d039 6d7e 7eb9
00000040: a91c 3236 f435 a239 5f84 66b9 d889 0639
00000050: e665 123a 13be b5b9 d95d b439 868e 10ba
00000060: 6f42 31b9 5472 e0b9 6fb6 dc38 26cd b8b9
00000070: 2f17 3739 8763 5ab9 2cc4 2d39 082e 70b9
00000080: e78d 9839 8b9b 9038 2c55 6639 03a8 e5b7
00000090: 5a31 5ab9 3cc1 3ab9 3725 9239 0ab7 9939
000000a0: f3ec 99b6 acbd 84b9 f732 c6b8 9f58 e7b9
000000b0: 997a 18ba 0bc7 89b9 9eba cc38 865f 9c39
000000c0: 15c3 d3ba 6d6d 3639 9543 b139 3f1e 38b9
000000d0: 40ab 013a 18d4 a9b9 c318 ff39 bcf2 9039
000000e0: 20d9 a9b9 4823 feb9 00c6 b6b8 2fa4 3d39
000000f0: c341 103a 51d2 ca37 c997 cfb9 c0ae 8239
00000100: 54ba b9b9 c3ba de39 d27a 11ba 9f8b 633a
00000110: 3351 88ba 2592 43b8 95f1 3fb7 462b 333a
00000120: b09f 023a 4ed3 023a e9bd f3b9 63cc c4b9
00000130: 663d 063a ee96 2d3a a6dc 0d3a 1fe0 bdb9
00000140: 1338 fdb7 4917 063a 063b d2b9 8b85 a039
00000150: 1874 513a 17d5 00ba 6c18 fa39 6b19 5fba
00000160: 33b0 b0b9 099f 17ba 5656 5439 52b4 06ba
00000170: 3ab9 6a39 b4b4 d1b9 b567 9f39 a61c d9b9
00000180: 1f85 e939 839e e63a 30aa c439 8add 6c37
00000190: 27a0 b2b9 1bef b3b9 6701 ec39 cf0a f739
000001a0: 5851 baba 714d deb9 f8b1 9fb9 6935 1aba
000001b0: 28e2 77ba 3d6e d8b9 71ab 4d39 5239 f639
000001c0: f2d8 023a 4f5f a539 5eae f639 4fc1 c2b9
000001d0: 201c 313a 4fea feb9 a0c6 2b3a 763d f639
000001e0: 6905 ffb9 8a30 2dba 3898 41b9 5d52 c639
000001f0: a258 463a 9b67 9e38 8beb 0cba 08a0 e839
00000200: ac49 dbb9 a1ad e739 0534 06ba e789 633a
00000210: 8eaa 7cba 460c 64b9 f634 aeb9 4db1 253a
00000220: db2f fa39 11c2 c239 ee16 f9b9 704e a1b9
00000230: 5325 ec39 5c47 1b3a c131 1b3a a5b7 edb9
00000240: b2de 4d39 095d 073a fba6 bfb9 a510 c439
00000250: d5c2 523a 1b7a 09ba f0a5 c339 a381 4fba
00000260: 8959 e4b9 a6b0 1eba 3a18 b739 f060 fab9
00000270: 501b a239 5007 ddb9 fce5 c739 d286 e7b9
00000280: 3d29 f639 6c40 043b f20b e939 327b 94b7
00000290: 3378 e3b9 3bd8 ceb9 34a9 e539 8ac0 e339
000002a0: 2d44 b8ba 8b78 fbb9 5c33 a4b9 c926 14ba
000002b0: 99f5 60ba 75c5 f2b9 b062 b239 ae66 df39
000002c0: 13c1 b53a 8701 8c39 e3cd 073a fefa e9b9
000002d0: 729d 3c3a da1e ccb9 d082 283a ee28 d739
000002e0: 49ca dfb9 e9a1 22ba 3bea 8bb9 505b d639
000002f0: 0cc4 303a a884 a738 fd97 d5b9 594c c239
00000300: 4747 8bba 6539 8f3a 6b65 abba e10c f13a
00000310: c127 04bb a4b8 3eba 17c5 a3ba b4fc ba3a
00000320: 05a5 9a3a 999f 983a d4ec 91ba 73ec 3fba
00000330: 7b3e 9c3a a756 ba3a 7edf aa3a e9f6 8aba
00000340: 2bdd 553a 39a9 813a 13ac 76ba e104 793a
00000350: 4832 db3a 87e2 a1ba bee5 913a 0a6f ccba
00000360: d4f7 85ba 6be3 acba 20a4 763a c3e7 9bba
00000370: 452c 773a dbb3 89ba fa78 613a a836 91ba
00000380: 2ef5 943a adf6 7c3b 8159 8f3a 1a0a deb9
00000390: c71a 88ba 6803 7dba 6029 893a 917c 8b3a
000003a0: a8e7 73bb cb20 8eba a6b0 5cba 1b7d b2ba
000003b0: 7edb ddba 8d10 8eba 7686 853a e3f4 913a
000003c0: 1b06 9f3b 88b8 413a ca66 973a 00ad 8fba
000003d0: 371c cb3a 7074 91ba 86ee c33a 95fb 913a
000003e0: 8b76 96ba bf08 c8ba 8343 5eba 0ba2 8c3a
000003f0: ff3a d33a ecad 153a 89d6 a1ba c357 843a

onnx::LSTM_378 f4 [2, 512]
0.0013575718 0.0027766686 0.0006964489 0.0018844273 0.00090629974 0.0010651159 0.0005150504 0.0012745549
0.003267572 0.0040845107 0.00039981937 0.0004956374 0.00010674205 0.014751184 0.0017837026 0.0005583331
0.012163672 0.083170444 0.0011874202 0.0008582198 0.0010471808 0.00061687024 0.002673476 0.0016046658
0.00038231278 0.0020292012 0.0013588875 0.0025344614 0.0026924687 0.0014994306 0.0054525384 0.0009876711
0.0006530597 0.01289449 -4.938324e-05 -2.5696134e-05 0.0115043335 0.014201037 0.1292738 0.013492841
0.0011807124 0.006861512 0.0036515892 0.012041091 0.0008163304 0.00061482907 0.010657566 0.00038090505
0.0005813231 0.0014348379 0.0017212966 0.0016755038 -0.0005085596 0.00096954295 0.00057919824 0.00092796417
0.01378038 0.0141048515 -0.0006826892 0.0008693462 0.013064473 0.001012156 0.0012410992 0.002214031
0.0013485926 0.0025284344 0.0006864246 0.0017484584 0.0009012663 0.0010570951 0.00051501417 0.0012309484
0.0031632697 0.0038907456 0.00038967025 0.00043613053 0.00010116872 0.014758239 0.001782495 0.0005474819
0.011647718 0.0759467 0.0011812405 0.0008514951 0.0010415453 0.0006359102 0.002215511 0.0016916767
0.00037788053 0.0020069885 0.0013003744 0.0025465551 0.002444584 0.0014899481 0.004333502 0.0009823769
0.00065987906 0.012247275 -7.554275e-05 -2.135936e-05 0.01050667 0.01366905 0.08633972 0.012271128
0.0011735974 0.006794171 0.0036480294 0.011494054 0.00080763205 0.0006104836 0.010454636 0.00057880546
0.0005781365 0.0014284335 0.0014947602 0.0016801696 -0.000497426 0.0010191873 0.0006325784 0.00096251303
0.012626259 0.013991948 -0.00049925334 0.0008499513 0.011831134 0.0010030017 0.001241113 0.0022100268
0.0021784597 0.0028178757 0.0012998446 0.0022847243 0.0020386432 0.0015418921 0.0011284028 0.0018221814
0.003918833 0.004481862 0.0007535953 0.0010222758 0.0008571499 0.01003316 0.002215291 0.0011506835
0.008153152 0.13634591 0.001272403 0.0016581741 0.0015330435 0.0016752221 0.0033392468 0.0020151448
0.001519689 0.0025628954 0.0016475081 0.00328029 0.0032933531 0.00219799 0.0031450156 0.0013323661
0.0014411743 0.008732155 0.00042069994 0.00050493114 0.007152531 0.009144975 0.14513226 0.009678189
0.0016248769 0.0062122648 0.004495355 0.007768454 0.001345792 0.0017068562 0.006319772 0.0016883692
0.0015297105 0.00199494 0.002422299 0.002144387 -0.00010143835 0.0014209809 0.0011757377 0.0020004234
0.008730253 0.009987158 8.685398e-05 0.0014816597 0.008142706 0.0012617934 0.0020269398 0.002643516
-0.0011065736 0.0041125705 -0.0051043807 0.01271299 0.0014215528 0.0017789877 0.0010514956 -0.02221511
0.00015242345 0.0070167026 0.0024491358 0.0021295366 0.009675206 0.0127367275 0.0071978252 0.0021996838
-0.001112197 0.04873036 -0.00534726 0.0028048288 0.0040599387 0.0016819506 0.0007849464 0.01048261
0.0029049243 0.0018900986 -0.0013664761 0.009342133 0.0024390626 0.01813841 0.0024388705 0.005303025
0.0013684857 -0.02368955 -0.005440325 0.0003175441 0.0077543384 0.004665092 -0.09749928 0.0084705
0.005150125 -0.019760609 -0.0019031877 0.0067828037 -0.0018993785 8.738684e-05 0.011416631 -0.00036951425
-0.0017702118 0.0087475395 -0.0035273684 -0.0048013474 0.0019987426 0.002491357 -0.0014938094 -0.004828005
-0.004947748 -0.0075207483 0.0001483489 0.0017250733 -0.020402782 0.004927974 0.00085218105 -0.005734681
00000000: 8df0 b13a c5f8 353b e591 363a e3fe f63a
00000010: bf94 6d3a 5c9b 8b3a 7204 073a f70e a73a
00000020: c324 563b 5cd7 853b d99e d139 aaed 013a
00000030: b4da df38 f3ae 713c 21cb e93a 1a5d 123a
00000040: 234a 473c 4455 aa3d 36a3 9b3a 28fa 603a
00000050: 8f41 893a 76b5 213a 7c35 2f3b a653 d23a
00000060: 2771 c839 59fc 043b b31c b23a 3519 263b
00000070: 2174 303b 8b88 c43a 35ab b23b be74 813a
00000080: 1832 2b3a 6943 533c da20 4fb8 078e d7b7
00000090: ac7c 3c3c 77ab 683c 5a60 043e 1411 5d3c
000000a0: 22c2 9a3a 89d6 e03b 804f 6f3b ff47 453c
000000b0: 01ff 553a 7b2c 213a 129d 2e3c 36b4 c739
000000c0: ef63 183a 2c11 bc3a 219d e13a 949c db3a
000000d0: db50 05ba ed28 7e3a 56d5 173a 9f42 733a
000000e0: 1ac7 613c 0918 673c 7ff6 32ba d6e4 633a
000000f0: 5f0c 563c 52aa 843a 61ac a23a 4719 113b
00000100: 42c3 b03a 17b4 253b 2df1 333a 872c e53a
00000110: f542 6c3a 3a8e 8a3a 0402 073a c657 a13a
00000120: dc4e 4f3b e1fb 7e3b a84c cc39 73a8 e439
00000130: 8b2a d438 8acc 713c 9ba2 e93a e384 0f3a
00000140: 12d6 3e3c f289 9b3d dbd3 9a3a de36 5f3a
00000150: 7684 883a 36b3 263a 1b32 113b 40bb dd3a
00000160: 441e c639 ae87 033b 5371 aa3a 1be4 263b
00000170: 5035 203b 5d4a c33a 0d00 8e3b 19c3 803a
00000180: bcfb 2c3a cba8 483c b56c 9eb8 e02c b3b7
00000190: 2b24 2c3c 27f4 5f3c e1d2 b03d d70c 493c
000001a0: 65d3 993a a3a1 de3b c713 6f3b 8f51 3c3c
000001b0: 45b7 533a dc08 203a ec49 2b3c faba 173a
000001c0: 158e 173a 463a bb3a d4eb c33a 2339 dc3a
000001d0: b265 02ba 4096 853a 9ed3 253a 2851 7c3a
000001e0: 5ede 4e3c 7c3e 653c 53e0 02ba 44cf 5e3a
000001f0: 5fd7 413c 2777 833a d7ac a23a 19d6 103b
00000200: 7dc4 0e3b 1cac 383b 8c5f aa3a 50bb 153b
00000210: c29a 053b 5019 ca3a eae6 933a 43d6 ee3a
00000220: 8e69 803b 95dc 923b ed8c 453a e2fd 853a
00000230: 5bb2 603a 2062 243c 6a2e 113b 88d2 963a
00000240: cc94 053c 439e 0b3e c3c6 a63a 1757 d93a
00000250: 67f0 c83a 2093 db3a 44d7 5a3b 8510 043b
00000260: 4d30 c73a 40f6 273b 33f1 d73a 22fa 563b
00000270: 4cd5 573b 270c 103b 9b1c 4e3b caa2 ae3a
00000280: c9e5 bc3a 5011 0f3c 6491 dc39 5b5d 043a
00000290: c75f ea3b ced4 153c 8d9d 143e 4491 1e3c
000002a0: d2f9 d43a 4190 cb3b c54d 933b 848e fe3b
000002b0: 4965 b03a 97b8 df3a 1716 cf3b 454c dd3a
000002c0: 9180 c83a 8abd 023b 6fbf 1e3b d888 0c3b
000002d0: 4dbb d4b8 3540 ba3a 361b 9a3a 8919 033b
000002e0: 5609 0f3c 2da1 233c 6025 b638 4034 c23a
000002f0: fc68 053c c362 a53a 68d6 043b d73e 2d3b
00000300: 730a 91ba bec2 863b a642 a7bb 254a 503c
00000310: 6653 ba3a ec2c e93a 56d2 893a 76fc b5bc
00000320: dcd3 1f39 5eec e53b ae81 203b b28f 0b3b
00000330: c184 1e3c b5ad 503c bcdb eb3b 9228 103b
00000340: 23c7 91ba 7c99 473d 1138 afbb 38d1 373b
00000350: 3c09 853b e674 dc3a dcc4 4d3a 41bf 2b3c
00000360: 8b60 3e3b 2fbd f73a 541b b3ba bf0f 193c
00000370: aed8 1f3b 0197 943c 75d5 1f3b ffc4 ad3b
00000380: c35e b33a 9610 c2bc c144 b2bb 0c7c a639
00000390: 1b18 fe3b a1dd 983b b4ad c7bd dac7 0a3c
000003a0: 61c2 a83b 00e1 a1bc 6274 f9ba 4842 de3b
000003b0: 91f4 f8ba 7443 b738 d20c 3b3c 5dbb c1b9
000003c0: 7406 e8ba d751 0f3c 6c2b 67bb 9f54 9dbb
000003d0: 56fd 023b 0946 233b edcb c3ba 3e34 9ebb
000003e0: b820 a2bb 9c70 f6bb 1b8e 1b39 db1b e23a
000003f0: bc23 a7bc d87a a13b e764 5f3a fee9 bbbb

onnx::LSTM_379 f4 [2, 256, 128]
-0.0007940372 0.00038924656 -0.00058085244 0.0006210895 -0.0007945055 -9.1462316e-05 -8.0525104e-05 0.0007082801
0.0006157313 0.00054990576 -0.0005527994 -0.00037179244 0.00058880175 0.0005537568 0.00054716703 -0.00059575046
-0.00010305933 0.00056986767 -0.00047247493 0.0002813848 0.00069228315 -0.0005438904 0.00068672176 -0.000603793
-0.0005016501 -0.00071621954 0.0003442392 -0.000509493 0.00045315662 -0.0006969095 0.00059254735 -0.00049916015
0.00048732327 0.00028122708 0.0004875925 6.420898e-06 -0.0005374974 -0.00045529308 0.0003541744 0.0006876156
-0.0010868972 -0.00046928713 -0.00040834365 -0.0008291335 -0.0008372731 -0.0005002103 0.00048421934 0.00070164195
0.00091496453 0.00036837568 0.00064574933 -0.00050942815 0.0007788006 -0.0006506084 0.00068805076 0.00060098246
-0.0006146687 -0.00070125854 -0.00038622777 0.0004581297 0.00075983786 0.0002867809 -0.000544247 0.00059120904
-2.636541e-07 2.0394795e-11 4.4389964e-08 -1.1308351e-10 -8.893553e-08 1.6821382e-12 3.3216332e-09 2.9822078e-05
-4.3445943e-05 1.5346447e-07 5.533508e-11 -1.1237067e-08 3.1813205e-08 1.4082984e-15 -1.7177001e-07 -6.409194e-07
-5.2165043e-16 7.5495365e-07 3.542111e-08 2.0926334e-09 -3.0188636e-11 -1.4740004e-10 9.111009e-06 -4.807109e-11
4.7365367e-13 -1.154881e-05 7.2776665e-08 6.5069474e-07 -1.7434745e-08 2.5843835e-07 -1.89986e-08 1.828997e-15
-1.7871144e-19 -4.1248375e-05 -2.0039015e-06 -5.726804e-10 5.5899918e-08 -1.7143141e-06 3.4956343e-11 -4.8815277e-08
-2.013291e-15 2.0369374e-07 6.578601e-06 -9.571921e-07 1.0331376e-15 -1.08137655e-07 1.14920105e-07 -3.6205058e-06
3.1436686e-14 2.268289e-11 -4.452956e-06 2.493815e-07 -5.819518e-05 2.51128e-09 1.745832e-11 8.2053003e-07
1.9921828e-19 4.0886667e-07 5.9606714e-06 6.048402e-07 1.3977483e-19 -1.9486588e-06 -4.6980273e-07 7.329859e-07
-0.000684691 0.00012872886 -6.605811e-05 0.00045381836 -5.3731037e-05 -1.7262504e-05 9.765335e-06 0.00029187338
0.00022177365 -0.00015285029 -0.00035797677 -4.1441748e-05 -7.92744e-05 -2.8818235e-05 0.00041440537 -0.00038815412
-2.5778294e-05 0.00022448663 -7.1625385e-05 0.00020893088 0.00013630299 -0.00016958239 -8.591257e-05 -0.0007228457
-0.00033249625 -0.0007969999 0.00021359211 -7.809669e-05 0.00030614468 -0.00041837804 0.0002921986 -0.00026072696
0.00011969336 0.001101997 0.00024646637 0.00016660617 -0.0003934515 -0.00018284572 0.00015861972 0.00024254598
-0.0006441324 -0.0002303421 -7.917612e-06 -0.00042586177 -0.00080557546 -0.00019640874 0.0003880292 -9.957345e-06
-0.0011260542 3.2595724e-06 0.00045210434 -0.00026846153 0.0005492097 -0.00015785811 6.0417282e-05 -3.9139897e-05
-9.324619e-05 8.783973e-05 -0.00034261582 0.00012548266 -7.213511e-05 0.0002945184 2.3888477e-05 -2.9262375e-05
-5.803047e-07 2.1685776e-11 1.9723842e-08 -9.33454e-11 -9.6992906e-08 -2.3179154e-12 1.3301238e-09 4.485451e-05
-5.265428e-05 5.1096544e-07 1.3850394e-10 -1.8677715e-08 -3.035968e-08 1.4079657e-15 -1.6389069e-07 1.409321e-05
-2.9115744e-16 -1.0898057e-06 4.879056e-08 3.3909592e-10 -2.2299374e-11 -1.8407716e-10 2.8773486e-05 -8.717841e-11
1.7108931e-12 -1.0415653e-05 1.0862917e-07 -7.6424664e-07 -2.3508338e-08 2.944979e-07 2.7391846e-07 4.8310583e-15
-6.354511e-20 -4.7429253e-06 -3.0109984e-06 -7.2324363e-10 7.335183e-08 -2.5062777e-06 5.689642e-11 -2.4279948e-06
-3.6060317e-17 8.479622e-08 5.0407302e-06 -1.6612614e-06 -7.4457025e-15 -2.191217e-07 2.6611784e-07 9.127656e-06
-2.6760693e-13 7.0937214e-11 -6.384227e-06 3.2073856e-07 -7.393753e-05 9.416132e-08 -1.8667847e-12 1.0010287e-06
-5.647329e-19 6.251228e-07 3.0987464e-06 1.5475582e-07 -4.829727e-20 -2.8621296e-06 -4.2672667e-07 4.5397442e-07
00000000: ef26 50ba ca13 cc39 5944 18ba 9cd0 223a
00000010: 5d46 50ba 75cf bfb8 96df a8b8 dfab 393a
00000020: 0769 213a 8d27 103a bde9 10ba 23ed c2b9
00000030: d159 1a3a fd29 113a c26f 0f3a 232c 1cba
00000040: 8e21 d8b8 2c63 153a 83b6 f7b9 d486 9339
00000050: 567a 353a de93 0eba 1e05 343a dd47 1eba
00000060: 2b81 03ba aec0 3bba 017b b439 7f8f 05ba
00000070: a795 ed39 ceb0 36ba 2e55 1b3a 12da 02ba
00000080: 6c7f ff39 a971 9339 8fa3 ff39 1873 d736
00000090: d7e6 0cba 67b4 eeb9 7cb0 b939 1a41 343a
000000a0: 3876 8eba a70a f6b9 f516 d6b9 355a 59ba
000000b0: 727c 5bba 8c20 03ba d2de fd39 65ee 373a
000000c0: 3bda 6f3a 8c22 c139 8147 293a 258b 05ba
000000d0: 6c28 4c3a 978d 2aba 4e5e 343a 408b 1d3a
000000e0: b821 21ba aad4 37ba 9d7e cab9 2131 f039
000000f0: db2f 473a 155b 9639 ccab 0eba 5efb 1a3a
00000100: 588c 8db4 ff64 b32d 48a7 3e33 5bac f8ae
00000110: d3fc beb3 6abd ec2b ca42 6431 6d2a fa37
00000120: ba39 36b8 fec7 2434 c35d 732e 250d 41b2
00000130: fda2 0833 0af5 ca26 c86f 38b4 a50b 2cb5
00000140: 025b 16a6 05a8 4a35 ec21 1833 ffcd 0f31
00000150: 62c5 04ae 6c11 22af 7cdb 1837 3c6b 53ae
00000160: 5852 052b c3c1 41b7 6549 9c33 67ab 2e35
00000170: 69c3 95b2 7fbf 8a34 5d32 a3b2 0acb 0327
00000180: 38fc 52a0 1b02 2db8 c47a 06b6 cd6a 1db0
00000190: 9c16 7033 6217 e6b5 58bd 192e f7a8 51b3
000001a0: aa12 11a7 e9b6 5a34 c1bd dc36 df78 80b5
000001b0: 0de4 9426 4e39 e8b3 ffc9 f633 d1f7 72b6
000001c0: 0894 0d29 5485 c72d 9a6a 95b6 bbe2 8534
000001d0: 9916 74b8 e892 2c31 a490 992d 6542 5c35
000001e0: 0832 6b20 3582 db34 c701 c836 4d5c 2235
000001f0: 5a04 2520 b4c5 02b6 3239 fcb4 68c2 4435
00000200: d67c 33ba 64fb 0639 ae88 8ab8 78ee ed39
00000210: 435d 61b8 f2ce 90b7 cbd5 2337 9506 9939
00000220: e98b 6839 7046 20b9 d4ae bbb9 bdd1 2db8
00000230: 1f40 a6b8 b0be f1b7 8c44 d939 2a81 cbb9
00000240: 773e d8b7 2c64 6b39 9635 96b8 7514 5b39
00000250: 8eec 0e39 edd1 31b9 f62b b4b8 5b7d 3dba
00000260: e452 aeb9 c2ed 50ba b2f7 5f39 d7c7 a3b8
00000270: 0b82 a039 c059 dbb9 3b32 9939 2eb2 88b9
00000280: e203 fb38 e270 903a 2838 8139 01b3 2e39
00000290: 2b48 ceb9 46ba 3fb9 2853 2639 f153 7e39
000002a0: feda 28ba fd87 71b9 e2d5 04b7 3346 dfb9
000002b0: 412d 53ba 12f3 4db9 6670 cb39 790e 27b7
000002c0: 1c98 93ba 07bf 5a36 6b08 ed39 4cc0 8cb9
000002d0: d7f8 0f3a b786 25b9 9068 7d38 252a 24b8
000002e0: 2b8d c3b8 9936 b838 1ea1 b3b9 ff93 0339
000002f0: 3e47 97b8 9769 9a39 1d64 c837 7978 f5b7
00000300: 3cc6 1bb5 07c0 be2d 306d a932 ca44 cdae
00000310: 6a4a d0b3 da1b 23ac 92cf b630 2a22 3c38
00000320: 1ad9 5cb8 4729 0935 6549 182f bb70 a0b2
00000330: d264 02b3 c4e8 ca26 eef9 2fb4 e071 6c37
00000340: 41d7 a7a5 7045 92b5 ca8d 5133 826b ba2f
00000350: ba25 c4ad 1d65 4aaf 975e f137 15b5 bfae
00000360: 6cc9 f02b e4be 2eb7 8547 e933 a126 4db5
00000370: 62ef c9b2 7c1b 9e34 110f 9334 a60e ae27
00000380: a90a 969f 6b25 9fb6 8f10 4ab6 bfcd 46b0
00000390: 9885 9d33 8631 28b6 ad3b 7a2e a2f0 22b6
000003a0: 824c 26a4 3719 b633 8b23 a936 82f8 deb5
000003b0: 3e21 06a8 b747 6bb4 f5de 8e34 fc22 1937
000003c0: 39a6 96aa 1afe 9b2e 1838 d6b6 f931 ac34
000003d0: e90e 9bb8 bc35 ca33 015d 03ac 165b 8635
000003e0: 03ae 26a1 1dce 2735 0ff4 4f36 f52a 2634
000003f0: d113 649f 0313 40b6 de18 e5b4 c5b9 f334

onnx::LSTM_380 f4 [2, 256, 64]
-0.00019350718 -0.00027934441 0.0001345059 -0.00012936121 0.0001242461 0.00017895574 0.00012216144 0.00014492907
0.0001755379 -5.7910933e-05 0.00013905481 -0.00015249295 -0.0001498258 2.9754285e-05 -0.00016868311 -0.00018207252
-6.559348e-05 0.0013687229 0.00012484031 -0.0001964208 0.00017871805 0.0001055751 0.00023759669 0.00017439174
0.00012771867 -0.0002196704 -0.00014262446 -0.0001248597 -0.00024568348 -0.00020502109 4.289115e-07 0.00020555498
-0.00017785904 1.1975754e-05 0.00013288403 0.00017792694 2.634489e-05 3.848744e-05 -0.0003609946 4.2400457e-06
0.0002450978 6.160221e-05 0.00023642284 -3.354191e-06 -0.00018928552 0.00012419351 -2.9823907e-05 0.00016214573
0.0001550601 0.00015958882 0.00023763561 0.00017078304 7.9829e-05 0.0002351719 0.00017756055 0.00013373815
-7.511699e-06 8.981197e-06 -0.00021305299 -9.552183e-05 6.2277313e-06 0.00021155679 0.00018092402 0.00016213823
-8.062585e-05 4.870696e-05 4.9230403e-05 2.961365e-05 0.000108577355 0.00012769907 1.2945208e-05 8.230543e-06
-4.9893583e-07 -2.5998135e-05 -4.1033163e-05 3.492432e-05 -8.497034e-05 -3.686828e-05 -1.6851736e-05 1.0734822e-05
-4.0926865e-05 3.0283012e-05 0.000120622346 1.3862829e-06 0.00010215651 -2.5269135e-05 -6.604982e-05 -1.7838132e-05
0.00015109206 7.2054874e-08 4.1775453e-05 8.937974e-06 2.9010671e-05 1.5628326e-05 3.71958e-05 0.00018023307
-8.159062e-05 4.776335e-05 -5.9669874e-06 -2.6465315e-05 -1.3051661e-05 -1.0083504e-05 -0.0006989382 -1.5310252e-05
3.648461e-05 2.214371e-05 0.0001652509 -4.4389177e-05 1.67982e-05 5.3192012e-05 -2.8647579e-05 -5.062233e-05
-2.514657e-05 0.00013641815 -4.0106625e-05 -5.1303205e-06 3.8589707e-05 -6.308204e-05 -6.0022758e-05 -7.938127e-05
-1.6749349e-05 3.9249157e-05 5.3577554e-05 5.1234605e-05 3.7178113e-05 0.00011642113 -4.1252464e-05 2.9821347e-05
-0.00010011196 -0.00013357447 3.5936468e-05 -4.4096105e-05 1.6625454e-06 9.3518676e-05 7.765763e-05 2.735707e-05
0.00013753668 -4.901241e-05 4.668894e-05 -5.9390197e-05 -4.763031e-05 -7.196233e-05 -2.6786798e-05 -0.00013059449
-0.00010501543 0.0014364693 6.974718e-05 -0.00012815619 0.00014168491 -1.8644823e-05 0.0001259613 2.7445072e-05
-6.2445283e-06 -0.00011189505 -8.304377e-05 -2.731955e-05 -6.738127e-05 -0.00010178782 7.538561e-05 3.9086597e-05
-9.1690665e-05 9.65691e-05 2.5968184e-05 7.9177975e-05 -4.5425342e-05 -5.3804775e-05 -0.00049844134 -5.2343305e-05
6.275681e-05 5.600303e-05 8.128664e-05 -6.990935e-05 -8.745574e-05 0.00010925232 -8.756674e-05 0.000100660014
1.1892719e-05 2.4657924e-05 0.00014883056 3.64233e-05 -3.2786575e-05 0.00017585502 0.00013807564 0.00013880024
-8.1404425e-05 7.2402254e-05 -0.000106085674 -2.8467839e-05 7.225131e-05 5.917963e-05 8.417343e-05 9.617914e-05
-6.78863e-05 -3.295147e-05 3.583635e-05 -1.0632337e-05 0.00012536933 0.00011264921 7.942299e-06 1.8831857e-05
1.5436754e-05 -3.5835877e-05 7.238877e-06 -1.2584379e-05 -6.845566e-05 -9.0811205e-05 -1.9972149e-05 -2.5032345e-05
-3.7628153e-05 0.0005650025 0.00013867946 -2.4275127e-05 0.000104822335 1.0318321e-05 9.096628e-06 1.6218744e-05
0.0001225177 -2.8168486e-05 -8.339803e-07 -1.4266453e-05 -2.8640088e-05 -2.6012742e-05 2.6799591e-05 0.00015132732
-6.514069e-05 5.6390123e-05 1.6067497e-05 2.3318365e-05 -2.6324227e-05 -1.2122521e-05 -0.0005807699 -3.182358e-05
4.966698e-05 4.3132648e-05 0.00014705348 -3.516254e-05 -2.33602e-05 4.3808395e-05 -2.5524167e-05 7.7624145e-06
7.737499e-06 0.00012973399 2.6592163e-05 2.1660098e-05 3.0526317e-05 2.0067475e-05 7.319165e-07 -1.7344526e-05
-2.7353019e-05 3.8078284e-05 -2.1800755e-05 6.5682743e-06 2.921939e-05 8.631436e-05 1.3350781e-05 2.5700121e-05
00000000: 30e8 4ab9 f974 92b9 270a 0d39 23a5 07b9
00000010: 0f48 0239 11a6 3b39 7618 0039 1af8 1739
00000020: 9910 3839 64e5 72b8 3ecf 1139 84e6 1fb9
00000030: 8f1a 1db9 d798 f937 87e0 30b9 b8ea 3eb9
00000040: 3b8f 89b8 b866 b33a 91e7 0239 4ff6 4db9
00000050: 4366 3b39 3368 dd38 6023 7939 eddc 3639
00000060: 38ec 0539 5357 66b9 768d 15b9 c5ec 02b9
00000070: 14cf 80b9 eefa 56b9 2645 e634 3f8a 5739
00000080: ac7f 3ab9 79eb 4837 c956 0b39 e691 3a39
00000090: 38ff dc37 936d 2138 e043 bdb9 b745 8e36
000000a0: 7880 8039 6f30 8138 46e8 7739 9018 61b6
000000b0: f27a 46b9 f139 0239 5a2e fab7 aa05 2a39
000000c0: a197 2239 4c57 2739 d32d 7939 3914 3339
000000d0: de69 a738 7a98 7639 8c2f 3a39 103c 0c39
000000e0: 010d fcb6 f3ad 1637 fa66 5fb9 e452 c8b8
000000f0: cef7 d036 58d5 5d39 6cb6 3d39 a603 2a39
00000100: ac15 a9b8 b34a 4c38 be7c 4e38 d46a f837
00000110: 06b4 e338 f5e6 0539 3f2f 5937 ea15 0a37
00000120: 9cee 05b5 9216 dab7 061b 2cb8 b47b 1238
00000130: 1b32 b2b8 04a3 1ab8 d45c 8db7 b619 3437
00000140: e3a8 2bb8 4608 fe37 a1f6 fc38 5110 ba35
00000150: dc3c d638 0ef9 d3b7 3a84 8ab8 19a3 95b7
00000160: 776e 1e39 96bc 9a33 0d38 2f38 4ef4 1537
00000170: f15b f337 9319 8337 b002 1c38 f2fc 3c39
00000180: a11b abb8 8255 4838 0838 c8b6 d501 deb7
00000190: 75f8 5ab7 522c 29b7 f338 37ba 846e 80b7
000001a0: 0d07 1938 41c1 b937 3347 2d39 842e 3ab8
000001b0: dce9 8c37 7d1a 5f38 3550 f0b7 5053 54b8
000001c0: d9f1 d2b7 780b 0f39 2938 28b8 1e25 acb6
000001d0: 62db 2138 ea4a 84b8 f2c0 7bb8 7f79 a6b8
000001e0: f480 8cb7 769f 2438 76b8 6038 bde4 5638
000001f0: b2ef 1b38 1e27 f438 7f06 2db8 db28 fa37
00000200: 33f3 d1b8 2010 0cb9 7dba 1638 d5f3 38b8
00000210: a024 df35 751f c438 1fdc a238 dc7c e537
00000220: b937 1039 ad92 4db8 ded3 4338 bd19 79b8
00000230: a8c6 47b8 7bea 96b8 36b4 e0b7 31f0 08b9
00000240: bb3b dcb8 e947 bc3a 3b45 9238 aa61 06b9
00000250: 4191 1439 7467 9cb7 7b14 0439 d839 e637
00000260: 1788 d1b6 33a9 eab8 c927 aeb8 492c e5b7
00000270: 0b4f 8db8 eb76 d5b8 5718 9e38 eaf0 2338
00000280: 0d4a c0b8 2485 ca38 40d6 d937 5a0c a638
00000290: 1787 3eb8 70ac 61b8 d5a9 02ba 328b 5bb8
000002a0: 4e9c 8338 cce4 6a38 6f78 aa38 4c9c 92b8
000002b0: 7168 b7b8 651e e538 09a4 b7b8 6f19 d338
000002c0: d786 4737 7dd8 ce37 660f 1c39 38c5 1838
000002d0: 5184 09b8 b965 3839 66c8 1039 e88a 1139
000002e0: abb7 aab8 aad6 9738 507a deb8 38ce eeb7
000002f0: a085 9738 a537 7838 4486 b038 c8b3 c938
00000300: 2e5e 8eb8 5f35 0ab8 fd4e 1638 8a61 32b7
00000310: 9375 0339 163e ec38 ea3f 0537 1bf9 9d37
00000320: 2d7e 8137 7b4e 16b8 7be5 f236 7f21 53b7
00000330: da8f 8fb8 e571 beb8 dd89 a7b7 8dfc d1b7
00000340: ecd2 1db8 ad1c 143a 7c6a 1139 70a2 cbb7
00000350: 10d4 db38 da1c 2d37 b89d 1837 7d0d 8837
00000360: 1878 0039 5d4b ecb7 b1de 5fb5 f359 6fb7
00000370: 1f40 f0b7 f035 dab7 afcf e037 9ead 1e39
00000380: 249c 88b8 6f84 6c38 b0c8 8637 cf9b c337
00000390: d9d2 dcb7 d561 4bb7 cf3e 18ba 4f7a 05b8
000003a0: 8451 5038 54e9 3438 5e32 1a39 7d7b 13b8
000003b0: a6f5 c3b7 e8be 3738 bb1c d6b7 513b 0237
000003c0: 4ed0 0137 3409 0839 3c12 df37 b5b2 b537
000003d0: 6209 0038 9356 a837 eb78 4435 167f 91b7
000003e0: 2974 e5b7 3fb6 1f38 c4e0 b6b7 0c65 dc36
000003f0: 2a1c f537 ab03 b538 2bfd 5f37 9796 d737
