LOSO/models/model_without_subj_5.onnx (onnx, 550191 bytes, 8 tensors)

fc.weight f4 [2, 128]
0.039727297 0.027817795 0.04779064 -0.042014163 -0.055629052 0.04881304 -0.06348294 0.038622692
0.019794548 0.007265029 -0.02478029 -0.03414684 0.050056543 -0.010530718 -0.016861103 0.01260544
0.05673599 -0.05138496 0.025827866 0.0447936 0.04570821 -0.014947113 0.048040126 -0.046226498
0.05775709 0.018419754 -0.0023237544 0.010989877 -0.016577099 -0.014599469 0.024161164 -0.024702692
0.019471291 0.05013317 -0.055673603 0.040579524 0.0148478 0.042040735 0.06540627 -0.00853187
0.050537717 0.030697275 0.058983367 0.030029453 -0.007525976 -0.02177476 -0.03136346 0.029372765
-0.04901457 0.008183401 0.04194061 0.024134528 0.022657806 -0.037583753 -0.047541615 0.053643424
0.008200737 0.0065201586 -0.046204355 0.048929714 0.0051604593 0.040731937 0.03305341 -0.056876298
0.0454232 -0.03785761 6.0519975e-16 0.020041253 0.0038206705 -0.005343897 0.05531304 -0.028167384
-0.022315105 -2.051985e-13 -0.0340345 3.350397e-07 1.0536539e-07 -0.010487953 0.046840712 0.030942654
0.058432955 -0.065034375 -0.0038767033 -0.043068584 0.02444746 -2.6858293e-06 0.01694139 8.546842e-08
9.963624e-15 0.03162506 0.06901924 -0.040776707 0.032663338 0.044386476 -0.0537637 -7.107321e-05
0.03768198 -0.032077726 -0.00012735916 0.04055218 1.3467289e-11 0.008650559 0.030365521 -0.05383168
-4.53688e-05 -0.027064389 0.024122532 -0.008286549 0.010401151 0.0334129 0.013601156 -0.035250675
-0.0010447309 1.0854503e-06 0.010521715 0.016204024 -0.026614647 -0.00010236518 1.7659421e-06 0.04942368
0.024743143 -0.05687048 0.011859926 0.0006416646 -0.065916374 0.010483559 0.035124503 0.057918567
-0.03541605 -0.043246984 -0.030913036 0.04404961 0.009961682 -0.034737766 0.008134988 -0.044329595
-0.044592813 -0.048116572 0.044539794 0.047274277 -0.03418676 -0.054313958 0.050054844 -0.055914417
-0.039281808 0.038812876 -0.050609633 -0.040041845 -0.031846184 0.051950287 -0.039711773 0.03245934
-0.025482357 -0.055222128 0.055833723 -0.037720148 0.04609289 0.052283216 -0.041979223 0.041259218
-0.03586973 -0.0108443815 0.030948771 -0.034026418 -0.04542164 -0.039196026 -0.02091135 0.04957661
-0.01927968 0.035331327 -0.025796153 -0.034568276 0.054014143 0.046216242 0.041709073 -0.049594264
0.03380095 0.048203494 -0.04486829 -0.048226353 -0.043450516 0.045513395 0.04251844 -0.03354693
-0.043904077 -0.04653392 0.02669331 -0.03515735 -0.04354262 -0.041606333 -0.047027454 -0.01977238
-0.037405625 -0.034087397 -8.1917425e-16 -0.053732317 0.0425364 -4.014044e-05 -0.035320204 0.044169307
-0.03657715 6.331736e-14 0.045973644 1.7549466e-08 -1.1822415e-07 0.055314545 -0.005124224 -0.043706864
-0.0383928 0.03419925 -0.042287696 0.051239304 -0.03039242 -3.1926504e-06 -0.039935447 -1.782852e-07
-6.525199e-15 -0.042605057 -0.024979947 0.045068912 -0.043060623 -0.024546355 0.03938934 0.003119723
-0.04091598 0.045346364 0.000103177474 -0.035592154 -2.6083862e-12 0.046316728 -0.04516472 0.043379072
-0.00010048922 0.0526389 -0.045517344 0.056011386 -0.040167782 0.03555322 -0.04291304 0.031583052
-0.00059878756 -1.5831237e-06 0.038324025 -0.057075895 0.048707005 -4.3439495e-06 6.8457466e-06 -0.019898703
-0.056804013 0.02108149 -0.05153173 0.03690309 0.045999564 -0.057811152 -0.0034609532 -0.0153963845
00000000: 17b9 223d 25e2 e33c 1ec0 433d 0b17 2cbd
00000010: 4adb 63bd 2ff0 473d 5803 82bd d432 1e3d
00000020: 2d28 a23c 7b0f ee3b 0900 cbbc 8fdd 0bbd
00000030: 1708 4d3d 0889 2cbc 4c20 8abc 0c87 4e3c
00000040: ff63 683d 0979 52bd f694 d33c 7e79 373d
00000050: 8838 3b3d bce4 74bc b9c5 443d ff57 3dbd
00000060: b392 6c3d 06e5 963c 214a 18bb e30e 343c
00000070: b2cc 87bc 9c32 6fbc a2ed c53c 4d5d cabc
00000080: 4282 9f3c 7058 4d3d 010a 64bd b736 263d
00000090: 3044 733c e832 2c3d b9f3 853d 42c9 0bbc
000000a0: a300 4f3d da78 fb3c 8b98 713d 5400 f63c
000000b0: 769c f6bb fb60 b2bc f976 00bd 279f f03c
000000c0: 80c3 48bd ac13 063c ebc9 2b3d c6b5 c53c
000000d0: dd9c b93c 6cf1 19bd ffba 42bd 35b9 5b3d
000000e0: 625c 063c 0ea7 d53b c740 3dbd 866a 483d
000000f0: 1219 a93b 88d6 263d 0363 073d 1ff7 68bd
00000100: ad0d 3a3d 9510 1bbd dc6f 2e26 8e2d a43c
00000110: 3764 7a3b db1b afbb ed8f 623d 49bf e6bc
00000120: 2bce b6bc 7108 67aa c367 0bbd 81df b334
00000130: 3c45 e233 aad5 2bbc 0cdc 3f3d 737b fd3c
00000140: 6557 6f3d be30 85bd 4a10 7ebb af68 30bd
00000150: 0a46 c83c 323e 34b6 abc8 8a3c c38a b733
00000160: 1b7d 3328 4789 013d f659 8d3d 7a05 27bd
00000170: fec9 053d 98ce 353d 5337 5cbd 240d 95b8
00000180: 6b58 1a3d ef63 03bd b78b 05b9 0b1a 263d
00000190: 47eb 6c2d 13bb 0d3c 1dc1 f83c 9c7e 5cbd
000001a0: 614a 3eb8 23b6 ddbc 9e9c c53c 4ec4 07bc
000001b0: 9769 2a3c f7db 083d 62d7 5e3c 0363 10bd
000001c0: 5aef 88ba caaf 9135 4563 2c3c 4dbe 843c
000001d0: f606 dabc e3ac d6b8 4f05 ed35 7c70 4a3d
000001e0: 22b2 ca3c 05f1 68bd 2350 423c 6235 283a
000001f0: 2aff 86bd 3cc3 2b3c b6de 0f3d 053c 6d3d
00000200: 6c10 11bd c023 31bd 563d fdbc 5d6d 343d
00000210: 5336 233c 3049 0ebd 9d48 053c f392 35bd
00000220: f4a6 36bd e215 45bd 5c6f 363d aca2 413d
00000230: 6b07 0cbd 5078 5ebd 4f06 4d3d 8406 65bd
00000240: f6e5 20bd 40fa 1e3d 0c4c 4fbd eb02 24bd
00000250: 2571 02bd d3c9 543d d0a8 22bd 16f4 043d
00000260: 60c0 d0bc 9930 62bd e7b1 643d 7180 1abd
00000270: e6cb 3c3d ed26 563d 68f2 2bbd 6dff 283d
00000280: 23ec 12bd a2ac 31bc 4788 fd3c 495f 0bbd
00000290: 0b0c 3abd 038c 20bd 484e abbc d810 4b3d
000002a0: 6bf0 9dbc 95b7 103d 7452 d3bc 7797 0dbd
000002b0: ef3d 5d3d 3e4d 3d3d 22d7 2a3d 5b23 4bbd
000002c0: dd72 0a3d 0771 453d d0c7 37bd ff88 45bd
000002d0: 2bf9 31bd 416c 3a3d d127 2e3d 8168 09bd
000002e0: c3d4 33bd 5a9a 3ebd eeab da3c 2701 10bd
000002f0: bf59 32bd 676b 2abd dc9f 40bd b0f9 a1bc
00000300: a436 19bd 3a9f 0bbd 641c 6ca6 6b16 5cbd
00000310: a63a 2e3d 785c 28b8 ebab 10bd e0ea 343d
00000320: ecd1 15bd f993 8e29 dc4e 3c3d afbf 9632
00000330: 6ae2 fdb3 8191 623d 1be9 a7bb f805 33bd
00000340: c541 1dbd 8314 0c3d dd35 2dbd 4ee0 513d
00000350: 86f9 f8bc 5141 56b6 5a93 23bd aa6e 3fb4
00000360: 5718 eba7 a482 2ebd bfa2 ccbc 2e9a 383d
00000370: 5660 30bd 7015 c9bc b756 213d 4474 4c3b
00000380: 8497 27bd 1cbd 393d fc60 d838 14c9 11bd
00000390: 828c 37ac 9cb6 3d3d a4fe 38bd 41ae 313d
000003a0: bdbd d2b8 e39b 573d 6570 3abd 326c 653d
000003b0: f986 24bd 41a0 113d 95c5 2fbd 3b5d 013d
000003c0: f4f7 1cba b77b d4b5 a7f9 1c3d 6ac8 69bd
000003d0: ff80 473d 3ec2 91b6 84b4 e536 9b02 a3bc
000003e0: 53ab 68bd 17b3 ac3c ef12 53bd b227 173d
000003f0: 0a6a 3c3d 63cb 6cbd 29d1 62bb 1e41 7cbc

fc.bias f4 [2]
0.55324686 0.82671094
00000000: 96a1 0d3f 54a3 533f

onnx::LSTM_335 f4 [2, 512]
0.0038660872 0.0030860768 0.0047630705 -1.1988082e-05 0.1642233 0.0029581925 -7.9158e-08 -0.00031958165
-0.0011559359 0.0030748285 0.0023271195 -7.926131e-05 0.0034544147 0.0036817554 0.0044823424 0.0030649884
0.003834028 0.0046210475 0.003547111 -1.1533441e-06 0.004859681 0.004383262 0.004347034 0.0035105837
0.0032515754 0.0043235095 0.003458437 0.0039481604 0.0037610529 0.003213896 0.26183438 -2.8357007e-07
0.0017023355 0.0027434784 0.0025820155 0.003691525 0.12562303 0.002930382 0.004262456 0.004341561
0.0030895532 -1.3381142e-06 0.0047185104 0.004430752 0.004014096 0.0050422032 0.004118647 0.0043501663
0.004768578 0.0048881485 0.0035696612 0.0023413561 0.0027522703 0.003917545 0.0047933846 -2.0649787e-07
0.005242283 0.003153757 -2.3246464e-06 0.0026918151 0.004107458 0.0049253316 0.23687841 0.0040546316
0.0038686558 0.0030911195 0.004767387 -1.2033038e-05 0.15237339 0.002960774 -7.910177e-08 -0.00031949865
-0.0011558407 0.0030797403 0.0023290433 -7.924739e-05 0.003461 0.0036849296 0.0044830185 0.0030671814
0.0038395266 0.0046259733 0.003545086 -1.152841e-06 0.004863535 0.0043913284 0.004352582 0.0035133664
0.0032547272 0.004322083 0.003461561 0.003948066 0.0037630312 0.0032210015 0.28933316 -2.8351155e-07
0.0017042955 0.0027448449 0.0025831198 0.0036935476 0.16112272 0.0029320398 0.0042688204 0.004343383
0.0030896368 -1.3376585e-06 0.0047191954 0.0044302046 0.004018301 0.0050422004 0.00412063 0.0043537198
0.00477006 0.0048900745 0.0035719655 0.0023473862 0.002754128 0.003916977 0.0047973883 -2.0579687e-07
0.0052447687 0.0031540368 -2.3242471e-06 0.0026944207 0.0041097077 0.004929221 0.22461751 0.0040575843
0.003006784 0.0020916604 0.0035516503 -1.0157144e-05 0.22313575 0.0023238328 -8.575859e-08 -0.00031758443
-0.001131408 0.0024430356 0.0017787835 -7.74054e-05 0.002323539 0.0027278678 0.0034540521 0.0023443259
0.0028812336 0.0037503245 0.0025836816 -1.1494839e-06 0.0040227035 0.003396925 0.003463356 0.0027963496
0.002647599 0.0033142115 0.0026218304 0.0032897056 0.0031996842 0.0024180834 0.2937741 -3.3287043e-07
0.0010974598 0.0018916071 0.0017793415 0.0029924796 0.2028923 0.00213032 0.0033469799 0.0030266081
0.0021801756 -1.266881e-06 0.003660616 0.00367426 0.0032402468 0.0044070454 0.00346229 0.003379618
0.004010046 0.004061766 0.002585939 0.0016089275 0.0020118381 0.003258405 0.0036819428 -2.7918372e-07
0.0041994625 0.002420909 -2.2715883e-06 0.0018191232 0.0036172753 0.00392208 0.16736215 0.0029221408
-0.007852136 -0.0076996903 0.0071854456 -0.00025449446 0.058447756 -0.0066349553 -5.4120297e-05 -0.0005192049
0.0020699461 0.008687147 -0.0058998032 0.00041167942 0.00817677 0.0060964 -0.0056570624 -0.0067298193
0.008183976 -0.008051354 0.0042006327 -0.0001423698 -0.006851175 -0.007884279 0.0074736015 0.0061766715
-0.0078107226 0.0050078663 0.006350437 0.005679182 -0.004934296 -0.008392767 -0.00889665 2.9849423e-05
0.0065887403 -0.008163672 0.0067368085 0.008618125 -0.06539222 -0.007054648 -0.008127428 -0.006265904
-0.008233908 -8.444829e-05 -0.0046134773 0.0048073884 -0.0071967104 -0.004030781 0.006961364 -0.005852658
-0.005934056 -0.0057013268 0.0077525056 -0.010001652 0.006380131 0.0044778446 0.006524985 -0.00043111952
0.0067015504 0.00493999 0.00027651776 -0.00795395 -0.005826077 0.006014796 -0.1137958 0.0063482886
00000000: 2e5e 7d3b c73f 4a3b 8813 9c3b 6c20 49b7
00000010: 272a 283e 3cde 413b 92fd a9b3 868d a7b9
00000020: c682 97ba 1083 493b 9682 183b 1739 a6b8
00000030: 7663 623b 9b49 713b 9de0 923b f9dd 483b
00000040: 5144 7b3b 286c 973b a676 683b 9acc 9ab5
00000050: f53d 9f3b 77a1 8f3b 9071 8e3b d211 663b
00000060: 6218 553b 3aac 8d3b f2a6 623b 925f 813b
00000070: ff7b 763b 3aa0 523b 280f 863e 933d 98b4
00000080: e720 df3a eecb 333b 0837 293b 83ed 713b
00000090: 53a3 003e a70b 403b 13ac 8b3b a743 8e3b
000000a0: 1a7a 4a3b 4199 b3b5 bc9d 9a3b d72f 913b
000000b0: ae88 833b 1139 a53b b7f5 863b d78b 8e3b
000000c0: bb41 9c3b c32c a03b faf0 693b 7071 193b
000000d0: 6f5f 343b c05e 803b d311 9d3b b4b9 5db4
000000e0: 75c7 ab3b 43af 4e3b 1f01 1cb6 2a69 303b
000000f0: db97 863b ad64 a13b 4190 723e b7dc 843b
00000100: 4689 7d3b 6194 4a3b be37 9c3b 81e1 49b7
00000110: c507 1c3e 8c09 423b a8de a9b3 6282 a7b9
00000120: 947f 97ba 78d5 493b dda2 183b 9e31 a6b8
00000130: f2d1 623b dc7e 713b 49e6 923b c402 493b
00000140: 91a0 7b3b 7a95 973b ac54 683b 51bb 9ab5
00000150: 4a5e 9f3b 22e5 8f3b 1ba0 8e3b 8240 663b
00000160: 434d 553b 43a0 8d3b 5bdb 623b c75e 813b
00000170: 309d 763b 7017 533b 7a23 943e 8835 98b4
00000180: ab62 df3a dbe2 333b 8f49 293b 720f 723b
00000190: 5bfd 243e 7727 403b 76e1 8b3b f052 8e3b
000001a0: 817b 4a3b 9989 b3b5 7ba3 9a3b 402b 913b
000001b0: f4ab 833b 0b39 a53b 5a06 873b a6a9 8e3b
000001c0: 2a4e 9c3b eb3c a03b a317 6a3b 9bd6 193b
000001d0: 9a7e 343b fc59 803b 6933 9d3b 03f9 5cb4
000001e0: 4fdc ab3b f5b3 4e3b 43fa 1bb6 e194 303b
000001f0: baaa 863b 4d85 a13b 2202 663e 7cf5 843b
00000200: 770d 453b 3d14 093b cec2 683b 9a68 2ab7
00000210: b37d 643e 724b 183b 492a b8b3 7681 a6b9
00000220: c14b 94ba 561b 203b 1226 e93a b554 a2b8
00000230: 8446 183b 07c6 323b 615d 623b 43a3 193b
00000240: 14d3 3c3b 01c8 753b fc52 293b f747 9ab5
00000250: e2d0 833b f29e 5e3b 79f9 623b f642 373b
00000260: 5783 2d3b 3e33 593b 04d3 2b3b 1a98 573b
00000270: cbb1 513b b578 1e3b 8f69 963e 5db5 b2b4
00000280: a4d8 8f3a cdef f73a cb38 e93a 7a1d 443b
00000290: 00c3 4f3e d79c 0b3b 0159 5b3b 0f5a 463b
000002a0: 47e1 0e3b b309 aab5 f2e6 6f3b dbcb 703b
000002b0: 525a 543b fa68 903b 96e7 623b 957c 5d3b
000002c0: b466 833b 9018 853b db78 293b a6e2 d23a
000002d0: 0bd9 033b f78a 553b c04c 713b b8e2 95b4
000002e0: a59b 893b 1da8 1e3b 9771 18b6 a56f ee3a
000002f0: cf0f 6d3b cb84 803b fc60 2b3e 6381 3f3b
00000300: 3fa6 00bc af4d fcbb e373 eb3b ab6d 85b9
00000310: ea66 6f3d 0a6a d9bb 3aff 62b8 401b 08ba
00000320: efa7 073b 8954 0e3c 2353 c1bb add6 d739
00000330: dcf7 053c 4fc4 c73b e15e b9bb d185 dcbb
00000340: 1516 063c d4e9 03bc 76a5 893b 1a49 15b9
00000350: d27f e0bb 102d 01bc 1de5 f43b ad65 ca3b
00000360: 17f1 ffbb 0719 a43b 5417 d03b 6e18 ba3b
00000370: e0af a1bb d181 09bc 41c3 11bc 2665 fa37
00000380: 5ce6 d73b ecc0 05bc 72c0 dc3b 0933 0d3c
00000390: 5bec 85bd ad2a e7bb e728 05bc 3652 cdbb
000003a0: 83e7 06bc d519 b1b8 a72c 97bb 4c87 9d3b
000003b0: 62d2 ebbb a414 84bb 271c e43b a7c7 bfbb
000003c0: 7872 c2bb 32d2 babb bb08 fe3b f8dd 23bc
000003d0: 6b10 d13b e2ba 923b 8bcf d53b e207 e2b9
000003e0: ae98 db3b a4df a13b 96f9 9039 4951 02bc
000003f0: ade8 bebb c417 c53b c60d e9bd 4e05 d03b

onnx::LSTM_336 f4 [2, 256, 6]
0.000118868345 0.0019079612 0.0021622747 0.0019530919 0.0030503222 0.000800684 -0.0008445636 0.0017487161
0.0012973074 0.0011271675 0.0018650091 -0.00017930988 0.00030522252 0.0022896093 0.0024999338 0.0024881861
0.0037429726 0.0011980183 -5.1935112e-05 -2.357606e-05 -4.733547e-05 -4.3564836e-05 -3.8559832e-05 -4.9826485e-05
-0.0002232754 0.101761796 0.121909015 0.07945154 0.07714555 0.08706197 -2.6823102e-05 0.0016301514
0.0014602965 0.001407287 0.0021995779 0.000532945 -7.633117e-08 -5.530831e-08 -7.7505945e-08 -6.339684e-08
-6.0235486e-08 -6.982236e-08 -0.00020118317 -0.00015007732 -0.00021335142 -0.00018646898 -0.00018315982 -0.00020691805
-0.00064240297 -0.00034378676 -0.00066679483 -0.0005917764 -0.0005715473 -0.0006459899 0.0004288169 0.0021137807
0.0018276128 0.0018350093 0.0025623965 0.00061742566 -0.00053164846 0.0016714538 0.0010728823 0.001158115
0.002002307 0.00027930652 -1.2714842e-05 -1.3944696e-05 -2.804218e-05 -7.937659e-06 7.8698747e-07 -1.2686414e-05
-0.00039681344 0.0017589051 0.0016612712 0.0016102835 0.002502869 4.2970394e-05 8.472387e-05 0.0021390824
0.0019196797 0.0020346707 0.0028133271 0.00083687325 0.0007164684 0.0030531455 0.002606548 0.0026339723
0.0034422998 0.0015200037 0.0002336537 0.0019721065 0.0018279133 0.0016638893 0.0022760085 0.00057801855
0.00034636864 0.002860861 0.0021811053 0.0021852716 0.0027913733 0.0008408279 0.0008353295 0.0024616
0.0026702567 0.0025827403 0.0035696365 0.0012675591 -0.00011924928 0.0020857612 0.0018020199 0.0018795725
0.0026585464 0.0008114463 -7.2711435e-07 -5.1880806e-07 -8.476731e-07 -6.6548836e-07 -6.954496e-07 -7.5363005e-07
0.0006724611 0.0029299702 0.0028129662 0.002668497 0.0035768084 0.0013578697 0.0002050194 0.0021797572
0.0022429319 0.0021385143 0.0033689118 0.00088113715 0.00059949845 0.0025511535 0.002448472 0.0024076859
0.003189593 0.0011801795 0.00047201317 0.0022812274 0.0019710676 0.0022408294 0.0031240513 0.001190698
-0.00025209205 0.0016567714 0.0015386109 0.001533035 0.0026285937 0.00030875733 1.8864836e-05 0.002437427
0.0022350026 0.0019631158 0.0029676948 0.0008116476 0.0002752171 0.0024543146 0.0019661284 0.0019151607
0.0025397444 0.0009298208 0.00044703635 0.0027998972 0.0022432643 0.0022914363 0.0032990912 0.0012130776
0.000609643 0.0026437358 0.0022680797 0.0022257308 0.0027248948 0.0011518294 0.00052187784 0.0022015471
0.0019576643 0.0020930236 0.0027132276 0.00083176856 0.1291808 0.10976906 0.15629853 0.06532985
0.12265351 0.100268826 -1.5260346e-07 -8.287096e-08 -1.5463851e-07 -1.2323734e-07 -1.0137539e-07 -1.4816305e-07
-0.0003776811 0.0013759432 0.0008170546 0.000874771 0.0015134141 2.8015698e-05 -0.00024399196 0.001920787
0.001426113 0.0013660005 0.002030429 0.00028288172 -0.00027262056 0.0014572802 0.0012812315 0.0012275062
0.0022263255 0.00036288737 0.0010481878 0.0029445968 0.0025599808 0.0022928573 0.0028004437 0.0012455394
0.026205786 0.026983019 0.119729154 0.15452878 0.05643502 0.19759315 -0.00010025681 0.0016243357
0.0015841011 0.0015367842 0.0023347586 0.00032092992 0.00034985947 0.0023613034 0.0024360502 0.0024396444
0.0036170294 0.0010321107 7.085312e-05 0.0022201135 0.0021861356 0.0020914916 0.003021964 0.0009900752
-3.5504556e-05 0.0022219876 0.0018326858 0.0018293174 0.002704102 0.0004772093 -7.6759875e-07 -5.6818516e-07
-9.1567637e-07 -6.63918e-07 -5.714528e-07 -7.0257266e-07 0.0006517228 0.0034158444 0.002796543 0.0024635214
00000000: f548 f938 8e14 fa3a f3b4 0d3b e4fe ff3a
00000010: eae7 473b fee4 513a b465 5dba 2d35 e53a
00000020: 6a0a aa3a 77bd 933a 5273 f43a 2105 3cb9
00000030: 4606 a039 450d 163b eed5 233b d610 233b
00000040: a94c 753b d306 9d3a e7d4 59b8 34c5 c5b7
00000050: 138a 46b8 63b9 36b8 4ebb 21b8 c8fc 50b8
00000060: 091f 6ab9 7d68 d03d 6fab f93d 7db7 a23d
00000070: 7cfe 9d3d 8c4d b23d 2c02 e1b7 ceaa d53a
00000080: 6b67 bf3a b774 b83a cb26 103b 55b5 0b3a
00000090: 81eb a3b3 218c 6db3 5871 a6b3 c824 88b3
000000a0: cf5a 81b3 40f1 95b3 b2f4 52b9 135e 1db9
000000b0: 16b7 5fb9 e386 43b9 970e 40b9 24f8 58b9
000000c0: ef66 28ba 473e b4b9 d8cb 2eba 7121 1bba
000000d0: e4d3 15ba a657 29ba d4d2 e039 5b87 0a3b
000000e0: 828c ef3a b284 f03a e1ed 273b bcda 213a
000000f0: 535e 0bba af14 db3a f59f 8c3a e4cb 973a
00000100: 2339 033b e36f 9239 d551 55b7 03f4 69b7
00000110: 1f3c ebb7 fc2b 05b7 5e41 5335 bcd7 54b7
00000120: 660b d0b9 108b e63a 03bf d93a 2610 d33a
00000130: 2d07 243b 1c3b 3438 c8ad b138 d92f 0c3b
00000140: c39d fb3a 1c58 053b cc5f 383b 9d61 5b3a
00000150: 61d1 3b3a 4817 483b 9ed2 2a3b b99e 2c3b
00000160: 3598 613b dc3a c73a f000 7539 753e 013b
00000170: 9896 ef3a dc16 da3a 1629 153b 2b86 173a
00000180: d098 b539 487d 3b3b e0f0 0e3b c636 0f3b
00000190: 79ef 363b 016b 5c3a 04fa 5a3a cb52 213b
000001a0: 79ff 2e3b 3143 293b 90f0 693b 3a24 a63a
000001b0: 7815 fab8 44b1 083b c131 ec3a fd5b f63a
000001c0: 023b 2e3b 3db7 543a eb2e 43b5 3844 0bb5
000001d0: a78b 63b5 03a4 32b5 efae 3ab5 104d 4ab5
000001e0: 1a48 303a be04 403b be59 383b f3e1 2e3b
000001f0: e368 6a3b 8cfa b13a 7afa 5639 42da 0e3b
00000200: 27fe 123b 5126 0c3b f6c8 5c3b 1dfc 663a
00000210: a927 1d3a 4131 273b 8b76 203b 44ca 1d3b
00000220: 7e08 513b 41b0 9a3a 8978 f739 a580 153b
00000230: 072d 013b e1da 123b e2bc 4c3b 3211 9c3a
00000240: 392b 84b9 0628 d93a 37ab c93a 1ef0 c83a
00000250: 7c44 2c3b b5e0 a139 ed3f 9e37 3dbd 1f3b
00000260: 1f79 123b 9ea7 003b a87d 423b c0c4 543a
00000270: 044b 9039 91d8 203b 29da 003b 2106 fb3a
00000280: d771 263b 38bf 733a 3460 ea39 7b7e 373b
00000290: bb03 133b ec2b 163b 9135 583b 2100 9f3a
000002a0: 73d0 1f3a 8742 2d3b 10a4 143b 91dd 113b
000002b0: 2694 323b fbf8 963a a1ce 083a d547 103b
000002c0: 284c 003b 1c2b 093b 68d0 313b 0b0b 5a3a
000002d0: f947 043e 9ace e03d b90c 203e a8cb 853d
000002e0: c331 fb3d be59 cd3d 52db 23b4 cbf6 b1b3
000002f0: b60a 26b4 3953 04b4 b6b3 d9b3 c016 1fb4
00000300: 8003 c6b9 fe58 b43a 9b2f 563a e350 653a
00000310: c05d c63a 4103 eb37 18d8 7fb9 ebc2 fb3a
00000320: 69ec ba3a 5f0b b33a f210 053b be4f 9439
00000330: 83ee 8eb9 3602 bf3a ffee a73a 46e4 a03a
00000340: 8be7 113b eb41 be39 5963 893a 23fa 403b
00000350: 5ac5 273b c343 163b a687 373b 5e41 a33a
00000360: 84ad d63c 7e0b dd3c 8f34 f53d cb3c 1e3e
00000370: 6828 673d dc55 4a3e f740 d2b8 a9e7 d43a
00000380: 9da1 cf3a ec6d c93a c002 193b 7c42 a839
00000390: 586d b739 19c0 1a3b 24a6 1f3b 71e2 1f3b
000003a0: af0b 6d3b e347 873a fb96 9438 537f 113b
000003b0: 4545 0f3b 6811 093b 250c 463b 69c5 813a
000003c0: baea 14b8 c49e 113b bb36 f03a b5c5 ef3a
000003d0: 4e37 313b f331 fa39 fc0c 4eb5 6385 18b5
000003e0: cdcc 75b5 1938 32b5 f065 19b5 6d98 3cb5
000003f0: 60d8 2a3a 5cdc 5f3b 3546 373b 0873 213b

onnx::LSTM_337 f4 [2, 256, 64]
-0.00031769575 -0.00024792107 0.0003172484 4.721354e-06 -0.001658439 -0.00024279974 4.5541864e-07 -7.662816e-05
0.00025740117 0.00028472734 -0.0002304766 -4.3403743e-05 0.00032968348 0.00030564176 -0.00027754283 -0.00027476755
0.0002911027 -0.0003163028 0.0002540871 2.2658271e-07 -0.00029528703 -0.00029587667 0.00032449892 0.0002715406
-0.00030649075 0.00022641492 0.00024009793 0.0002613464 -0.00020391765 -0.00031514978 -0.0010542708 2.6204303e-08
0.00023982166 -0.00026213998 0.00027685627 0.00023904906 -0.0011707664 -0.00028846765 -0.0003265983 -0.00026709994
-0.0002865683 6.4613723e-06 -0.00018747692 0.000209754 -0.0002862439 -0.00019766812 0.00023780517 -0.00029813033
-0.00028465365 -0.0002807217 0.0003257205 -0.0003528526 0.00025465232 0.00023457769 0.00027350348 4.92188e-06
0.00029671975 0.00019151274 -9.0489425e-07 -0.00028604254 -0.00022839944 0.00023062174 -0.0012017619 0.00025666913
-0.00029863615 -0.0002428846 0.0003200075 8.446835e-06 -0.0016829086 -0.00024208368 1.6817369e-06 -7.073309e-05
0.00027066737 0.00023805551 -0.00026063307 -5.305685e-05 0.00030257824 0.00030835933 -0.00030321474 -0.0002706079
0.00026901043 -0.00028523218 0.00031300422 -9.501338e-07 -0.00029711917 -0.00026563968 0.00030471614 0.00027733593
-0.00029225802 0.00027145457 0.00024020075 0.00029773635 -0.00022239887 -0.00026123622 -0.0012687808 -2.454069e-07
0.00022140863 -0.0002523169 0.00027275347 0.0002199305 -0.00013265469 -0.0002934145 -0.00027967544 -0.00029341242
-0.00027074336 5.2711994e-06 -0.00024118947 0.00025390915 -0.00026581963 -0.0002609287 0.00024601523 -0.00030106862
-0.00030594022 -0.0002950081 0.00033153244 -0.00026805617 0.00026850228 0.0002686911 0.00028304296 6.8697773e-06
0.00031461698 0.00023796053 7.4024445e-07 -0.00026350637 -0.00025799777 0.00024600627 -0.0007205047 0.0002891129
-0.00020393192 -0.00014349323 0.00019115637 -1.2698808e-06 -0.0018260285 -0.00015395565 1.4505188e-06 -9.157892e-05
0.00033124984 0.0001773878 -0.00016065306 -4.8590853e-05 0.00019670866 0.0002023783 -0.00019934155 -0.00021274338
0.00018199132 -0.00019922318 0.00019132107 -1.7786355e-06 -0.0001880037 -0.00016417097 0.00022450915 0.00018060984
-0.00020183141 0.00016081818 0.00015262509 0.00019237163 -0.00013942602 -0.00018388122 -0.00023733692 -3.963434e-07
0.00015839939 -0.00018752922 0.00017491412 0.00016916929 -0.0015457572 -0.00020378943 -0.0001948631 -0.00016953063
-0.00018949354 6.0843804e-06 -0.00015435652 0.00015165943 -0.00019509303 -0.00014188819 0.00017575943 -0.00019686557
-0.00019994934 -0.00018524862 0.0002126515 -0.00020589892 0.00017407797 0.0001941255 0.00017771534 6.5149343e-06
0.0001883618 0.0001490415 1.5575608e-06 -0.00017665423 -0.00017219294 0.00015405829 -0.0010142905 0.0001867715
-1.3001105e-06 -1.3809092e-06 1.4715184e-06 5.8296666e-07 1.4260132e-07 -1.0965226e-06 2.1340819e-08 -3.2460022e-08
-2.0203382e-07 8.6485727e-07 -1.3102107e-06 -5.0242636e-07 1.2758859e-06 1.4304497e-06 -1.81054e-06 -9.991903e-07
1.5963324e-06 -1.4124048e-06 1.5866473e-06 1.1192821e-08 -1.6210405e-06 -1.1571309e-06 9.361329e-07 1.320197e-06
-1.3683581e-06 1.7210134e-06 1.3668754e-06 1.7386934e-06 -1.0806601e-06 -9.853848e-07 -2.0843003e-05 6.72365e-10
1.1653316e-06 -1.5718138e-06 1.3775826e-06 1.1343842e-06 -1.9839159e-05 -1.4717352e-06 -1.1927095e-06 -1.9302554e-06
-1.8256086e-06 -1.4956646e-08 -1.8015027e-06 2.0771713e-06 -9.141473e-07 -1.7898193e-06 1.3868017e-06 -1.5881608e-06
-1.3668647e-06 -1.765251e-06 1.4451075e-06 -7.2483425e-07 9.800149e-07 1.441547e-06 1.6314642e-06 2.1280306e-08
1.5675214e-06 1.3533374e-06 -5.491414e-09 -1.3132017e-06 -9.4810196e-07 1.4096814e-06 -5.4691423e-06 1.5664548e-06
00000000: 6790 a6b9 67fb 81b9 5c54 a639 1f6c 9e36
00000010: fb5f d9ba 0f98 7eb9 4380 f434 6eb3 a0b8
00000020: cdf3 8639 7547 9539 17ac 71b9 6a0c 36b8
00000030: 5ed9 ac39 8b3e a039 2b83 91b9 ad0e 90b9
00000040: 259f 9839 71d5 a5b9 fe36 8539 954a 7334
00000050: c1d0 9ab9 e51f 9bb9 8221 aa39 905d 8e39
00000060: 7eb0 a0b9 cb69 6d39 ccc2 7b39 5205 8939
00000070: bad2 55b9 b03a a5b9 752f 8aba df17 e132
00000080: a378 7b39 d56f 89b9 0527 9139 3ea9 7a39
00000090: 6774 99ba 793d 97b9 483b abb9 8c09 8cb9
000000a0: 8c3e 96b9 c4ce d836 7495 44b9 69f1 5b39
000000b0: 0213 96b9 2245 4fb9 575b 7939 604e 9cb9
000000c0: 913d 95b9 d42d 93b9 77c5 aa39 13ff b8b9
000000d0: db82 8539 f8f8 7539 0465 8f39 a126 a536
000000e0: 0d91 9b39 cfd0 4839 dce7 72b5 fbf7 95b9
000000f0: 827e 6fb9 0dd3 7139 7084 9dba 8c91 8639
00000100: 4492 9cb9 d7ae 7eb9 aec6 a739 e1b6 0d37
00000110: 0b95 dcba d8d7 7db9 0ab8 e135 8a56 94b8
00000120: 5ce8 8d39 8a9e 7939 94a5 88b9 5c89 5eb8
00000130: 5da3 9e39 4aab a139 cbf8 9eb9 61e0 8db9
00000140: f809 8d39 378b 95b9 b71a a439 b30c 7fb5
00000150: a9c6 9bb9 8e45 8bb9 4fc2 9f39 6667 9139
00000160: 353a 99b9 0452 8e39 66de 7b39 7f19 9c39
00000170: be33 69b9 88f6 88b9 384d a6ba 78c0 83b4
00000180: ed29 6839 6749 84b9 5a00 8f39 259d 6639
00000190: 3919 0bb9 6dd5 99b9 67a1 92b9 26d5 99b9
000001a0: 8ff2 8db9 42df b036 cee7 7cb9 1c1f 8539
000001b0: b55d 8bb9 42cd 88b9 9bfb 8039 bfd8 9db9
000001c0: 9a66 a0b9 51ab 9ab9 88d1 ad39 e489 8cb9
000001d0: c4c5 8c39 1cdf 8c39 6265 9439 f082 e636
000001e0: 2df3 a439 0b85 7939 36b5 4635 3a27 8ab9
000001f0: e043 87b9 67fa 8039 40e0 3cba 1494 9739
00000200: 8fd6 55b9 ac76 16b9 2671 4839 c670 aab5
00000210: 5957 efba 286f 21b9 72af c235 0f0e c0b8
00000220: 9aab ad39 2d01 3a39 fa74 28b9 08ce 4bb8
00000230: 9443 4e39 8335 5439 5706 51b9 de13 5fb9
00000240: ecd4 3e39 91e6 50b9 5c9d 4839 73b9 eeb5
00000250: dc22 45b9 4f25 2cb9 376a 6b39 1662 3d39
00000260: b5a2 53b9 4da1 2839 fc09 2039 5eb7 4939
00000270: e332 12b9 3dd0 40b9 a5dd 78b9 06c9 d4b4
00000280: 0318 2639 7ea3 44b9 2769 3739 0963 3139
00000290: 019b caba 4fb0 55b9 2a54 4cb9 08c4 31b9
000002a0: c9b2 46b9 6e28 cc36 c3da 21b9 c506 1f39
000002b0: e391 4cb9 d2c7 14b9 104c 3839 b36d 4eb9
000002c0: 7ea9 51b9 4c3f 42b9 34fb 5e39 92e6 57b9
000002d0: b388 3639 2b8e 4b39 1959 3a39 dc9a da36
000002e0: fc82 4539 0648 1c39 620d d135 423c 39b9
000002f0: b18e 34b9 b58a 2139 f1f1 84ba 18d8 4339
00000300: 757f aeb5 ae57 b9b5 fd80 c535 2a7d 1c35
00000310: f41d 1934 3b2c 93b5 f550 b732 2c6a 0bb3
00000320: a2ee 58b4 8a28 6835 7fda afb5 7ade 06b5
00000330: 1b3f ab35 e1fd bf35 ae01 f3b5 eb1b 86b5
00000340: 9041 d635 dc91 bdb5 c9f4 d435 8c4a 4032
00000350: 8792 d9b5 b74e 9bb5 904a 7b35 a031 b135
00000360: 6da8 b7b5 92fd e635 7b75 b735 0d5d e935
00000370: 330b 91b5 9041 84b5 02d8 aeb7 7bd1 3830
00000380: 7d68 9c35 1cf7 d2b5 61e5 b835 2541 9835
00000390: 456c a6b7 7088 c5b5 3015 a0b5 8989 01b6
000003a0: 6f07 f5b5 037a 80b2 29cb f1b5 8865 0b36
000003b0: b963 75b5 b939 f0b5 2522 ba35 ca28 d5b5
000003c0: 1d75 b7b5 90ed ecb5 84f5 c135 3b92 42b5
000003d0: 0e89 8335 2e7b c135 aff8 da35 e3cb b632
000003e0: a063 d235 52a4 b535 fdae bcb1 4441 b0b5
000003f0: 1281 7eb5 4934 bd35 9383 b7b6 fa3e d235

onnx::LSTM_378 f4 [2, 512]
-7.0089845e-05 0.0010232466 0.0016721701 0.0016604163 0.001947864 0.0019793224 0.0025782047 0.0025186262
0.00082512636 0.00048782787 0.0013572661 0.0009853174 0.0011711593 0.004678782 0.001169529 0.0015969749
0.0030522116 0.0018065283 0.002026987 0.0016681269 0.0005538738 0.001415792 -0.00031161995 0.00035284422
0.0026749698 0.00087248493 0.004521708 -0.00012555414 0.0021935895 0.0021923387 0.0016659368 0.0015949393
0.0001799799 0.0011501736 0.000108606684 0.0010329105 0.00078410417 0.00019778968 -0.00024500012 0.001295312
0.0012615711 0.0023021116 0.0024104763 0.00013341615 0.0012593984 0.0027809166 0.0013503763 0.0025658575
0.001818411 0.00084955536 0.0014542658 0.0013561129 0.0006002718 0.0016004685 0.0016222774 0.0025759588
0.0014914573 0.00045911808 0.0004677964 0.0006431015 0.00097136444 0.0022747866 0.001477342 0.0017083815
-7.126949e-05 0.0010193906 0.0016724141 0.0016578005 0.0019493374 0.0019783988 0.00258062 0.002514264
0.00081887544 0.00047472544 0.0013494395 0.0009821915 0.0011704781 0.0046631857 0.0011588959 0.0015789475
0.0030503995 0.0018068409 0.0020134521 0.0016637094 0.00055335945 0.0014061722 -0.00031158995 0.00035013366
0.0026763184 0.00086098193 0.004506319 -0.00012881104 0.0021837251 0.002185195 0.0016614366 0.0015905959
0.00017690804 0.0011532141 0.00010781503 0.0010313655 0.0007767012 0.00019442644 -0.00024178882 0.001284877
0.0012667162 0.0022997356 0.002412166 0.0001299815 0.0012489848 0.0027764358 0.0013473701 0.0025566616
0.0018184067 0.0008420051 0.0014514365 0.0013499898 0.00059077714 0.0015970881 0.0016209745 0.002577375
0.0014857881 0.00044933887 0.00046751177 0.00064425264 0.0009633393 0.0022730073 0.0014701829 0.0017191791
-1.7443075e-05 0.0024863677 0.0018798688 0.002172387 0.0028831891 0.0022937844 0.0036538977 0.0034177364
0.0028224988 0.0034555548 0.0025840458 0.0011474134 0.0015040438 0.009524451 0.003691395 0.0056189387
0.0031723666 0.0010386469 0.004259958 0.002843341 0.0008073563 0.0039654006 -0.00016649686 0.0014813326
0.0025589077 0.0027791644 0.008909906 0.0015585521 0.0049240836 0.0041359263 0.002514517 0.0035088758
0.0011869525 0.0024841793 0.00063908263 0.0014950472 0.0031338362 0.0008413583 0.0017191584 0.0039005452
0.0024528068 0.005818953 0.002382412 0.0008583239 0.004578727 0.004108692 0.0025083781 0.004317534
0.0014972968 0.0042507877 0.0019115905 0.0030648955 0.0027693985 0.0021061713 0.0013949138 0.0023834736
0.0039010756 0.003867588 0.00041944638 0.00059254194 0.0035162275 0.002658078 0.0026880098 0.0061763255
-0.00030822397 0.0022622305 -0.00037807954 6.936495e-05 0.0017502332 2.7591536e-06 0.00076324755 0.00068963546
-0.000170832 0.0026697635 -0.00087091833 -0.00072450226 -0.0024670148 0.002503595 0.0012700844 -0.0008471651
0.00081159547 0.0012634209 0.0045232377 0.00075412117 -0.0013878954 -0.00046301255 -0.0021693988 -0.0003122345
-0.0002814173 0.002472898 -0.0027609798 -0.0032843868 7.448313e-05 -0.002312647 0.0011297989 0.002215735
0.0006585214 -0.0019791625 -0.00043860343 0.0011563426 -0.00030211007 0.00047549157 -0.00075320253 -0.0016512518
-0.004822658 -0.002341446 -0.0012016371 0.00037274687 -0.002624738 -0.00076841906 2.8719185e-05 -0.0002031921
0.0011815499 0.0020759003 0.00089116197 -0.00032357563 0.0020438216 -0.0007683684 -0.0025512502 0.00030158286
0.0034174519 0.0019863262 -0.0015621643 -0.0030083123 0.0007103885 0.0005700611 0.0013643196 0.0013428166
00000000: 33fd 92b8 751e 863a b82c db3a 53a2 d93a
00000010: 784f ff3a 85b7 013b 19f7 283b 890f 253b
00000020: 4b4d 583a 26c3 ff39 4be6 b13a c425 813a
00000030: 9681 993a 7850 993b e24a 993a 9651 d13a
00000040: 9d07 483b 08c9 ec3a 33d7 043b 0da5 da3a
00000050: d731 113a 1992 b93a ec60 a3b9 f3fd b839
00000060: 8c4e 2f3b 79b7 643a d62a 943b 2fa7 03b9
00000070: 53c2 0f3b 57ad 0f3b 905b da3a 480d d13a
00000080: fdb8 3c39 6cc1 963a c5c3 e338 ba62 873a
00000090: 578c 4d3a c365 4f39 5c73 80b9 75c7 a93a
000000a0: 4d5b a53a 06df 163b 15f9 1d3b a0e5 0b39
000000b0: 6612 a53a 0a40 363b 1cff b03a f227 283b
000000c0: c057 ee3a b2b4 5e3a 109d be3a 99bf b13a
000000d0: 8f5b 1d3a d0c6 d13a 99a2 d43a 6bd1 283b
000000e0: 017d c33a c9b5 f039 9242 f539 d095 283a
000000f0: 2aa3 7e3a 9614 153b 5fa3 c13a c5eb df3a
00000100: 8476 95b8 139d 853a e834 db3a 8e4a d93a
00000110: e980 ff3a 06a8 013b 9f1f 293b 5ac6 243b
00000120: cda9 563a 92e4 f839 addf b03a e1bc 803a
00000130: ba6a 993a a3cd 983b 18e6 973a b0f4 ce3a
00000140: 36e9 473b 85d3 ec3a 1ff4 033b d310 da3a
00000150: 530f 113a 4f4f b83a e55c a3b9 2592 b739
00000160: 2c65 2f3b 85b3 613a bea9 933b 7311 07b9
00000170: d41c 0f3b 7d35 0f3b 90c4 d93a 8b7b d03a
00000180: 6480 3939 7227 973a c11a e238 e22e 873a
00000190: 899b 4b3a f3de 4b39 b188 7db9 5169 a83a
000001a0: f107 a63a 29b7 163b 6e15 1e3b a54b 0839
000001b0: fab4 a33a ddf4 353b 3d9a b03a aa8d 273b
000001c0: 9b57 ee3a 01ba 5c3a 213e be3a 24f2 b03a
000001d0: 62de 1a3a 6255 d13a e176 d43a 2de9 283b
000001e0: c7be c23a 3e95 eb39 5e1c f539 10e3 283a
000001f0: 9b88 7c3a bcf6 143b 27b3 c03a 1456 e13a
00000200: b852 92b7 54f2 223b ee65 f63a 9b5e 0e3b
00000210: e3f3 3c3b 5153 163b 3b76 6f3b 1afc 5f3b
00000220: acf9 383b 9776 623b 1859 293b ce64 963a
00000230: 5623 c53a 710c 1c3c 55eb 713b 131f b83b
00000240: 7be7 4f3b 3523 883a 1e97 8b3b 5957 3a3b
00000250: c4a4 533a 31f0 813b a995 2eb9 4629 c23a
00000260: 59b3 273b a422 363b dbfa 113c 5548 cc3a
00000270: 355a a13b aa86 873b 98ca 243b 2bf5 653b
00000280: 8493 9b3a 9dcd 223b 1c88 273a 76f5 c33a
00000290: 0c61 4d3b 9a8e 5c3a 6255 e13a 4aa0 7f3b
000002a0: 45bf 203b eaac be3b 3e22 1c3b 2401 613a
000002b0: 2509 963b 35a2 863b 9a63 243b 1a7a 8d3b
000002c0: f240 c43a 314a 8b3b 558e fa3a 6adc 483b
000002d0: cc7e 353b b107 0a3b 8ad5 b63a 0d34 1c3b
000002e0: 30a9 7f3b 5c77 7d3b 24e9 db39 d154 1b3a
000002f0: 8270 663b 2633 2e3b 5229 303b c662 ca3b
00000300: 1f99 a1b9 ee41 143b fa38 c6b9 0678 9138
00000310: 1568 e53a e629 3936 ad14 483a a7c8 343a
00000320: 5e21 33b9 33f7 2e3b 574e 64ba 86ec 3dba
00000330: a4ad 21bb 5b13 243b f678 a63a 4a14 5eba
00000340: 40c1 543a 5f99 a53a ab37 943b 37b0 453a
00000350: 0bea b5ba 7ec0 f2b9 792c 0ebb 68b3 a3b9
00000360: 318b 93b9 5810 223b 8ef1 34bb de3e 57bb
00000370: d333 9c38 c78f 17bb c315 943a dd35 113b
00000380: a0a0 2c3a d6b4 01bb 5bf4 e5b9 6b90 973a
00000390: 8764 9eb9 664b f939 9172 45ba d16e d8ba
000003a0: 6307 9ebb f272 19bb 4080 9dba 3d6d c339
000003b0: cc03 2cbb bb6f 49ba fbe9 f037 f70f 55b9
000003c0: 3cde 9a3a d40b 083b de9c 693a 96a5 a9b9
000003d0: a3f1 053b 556c 49ba e032 27bb c41d 9e39
000003e0: 54f7 5f3b 062d 023b 89c1 ccba 1b27 45bb
000003f0: 5d39 3a3a 2770 153a f8d2 b23a 7301 b03a

onnx::LSTM_379 f4 [2, 256, 128]
-9.03175e-05 -0.00016327693 0.00010211822 6.519625e-06 -0.0013784162 -0.00014298827 3.3897064e-07 -1.13544775e-05
6.292073e-05 1.7067803e-05 -0.00013138806 -2.044182e-05 0.0001277252 0.00017022695 -0.00019717589 -0.00018785456
0.00010905438 -0.00011357985 0.00013669858 7.9096644e-08 -0.00012485633 -0.00014756987 0.0001793677 0.00021475132
-0.00020072889 0.00014417424 0.00014304802 0.00014245788 -0.00017017031 -5.4125943e-05 -0.00028315448 4.3906303e-07
0.000104181505 -6.5706656e-05 7.104678e-05 0.00020988188 0.0011146849 -0.00023584126 -4.73064e-05 -0.0001853483
-0.00023594828 2.0573505e-06 -0.00021349096 2.7775977e-05 -0.00012831288 -5.9882783e-05 0.00018539412 -0.00014909956
-9.475345e-05 -0.00021329959 0.0001390186 -0.00010427426 0.00021222711 -2.5481619e-05 0.00025411003 3.7265513e-06
0.00023232319 0.00015008193 1.6641621e-07 -0.00010867214 -1.4531519e-05 0.00012728956 -0.0005890778 0.00033329127
2.3688859e-14 -1.3054178e-07 8.9327403e-07 -1.041487e-15 -2.826582e-15 -3.153221e-10 5.6404523e-13 9.073144e-16
-1.661158e-08 -8.475915e-08 2.7209628e-08 4.048034e-06 -2.1122321e-11 1.7970137e-17 5.2698873e-08 -3.6504515e-14
-9.529657e-09 1.7747935e-11 5.4841625e-05 1.7215412e-05 -9.135938e-09 3.1355019e-10 -2.894724e-07 4.3630293e-06
-6.861935e-17 -1.3811268e-07 -5.2370697e-10 7.4649165e-10 2.3184471e-07 2.6678622e-15 6.861314e-08 4.5884625e-09
-8.825826e-06 -2.8070692e-08 3.963226e-08 2.8636894e-06 -1.2738522e-07 -1.3327775e-06 2.8101446e-16 -9.0789186e-08
-3.27982e-16 1.4357413e-09 -6.220011e-08 -5.5162045e-11 2.4640399e-11 7.0628786e-08 2.5433189e-16 -7.923802e-09
9.946582e-16 -2.3528858e-11 4.0719365e-16 3.926809e-12 1.7645785e-05 9.486961e-12 3.8353382e-16 -3.4080494e-13
-1.1757038e-16 9.65666e-10 1.4348076e-12 -3.8064947e-09 8.7130254e-11 -1.6850362e-17 -3.057873e-06 -3.6317666e-10
-9.812857e-05 -0.00016726756 0.00010945153 3.208985e-05 -0.0017674443 -0.000106271335 1.1729849e-06 -1.1598132e-05
8.057495e-05 4.2305488e-05 -0.00024816793 -5.5880057e-05 0.00019446068 0.0004996335 -0.000277441 -0.00016874434
0.00025493 -0.00031025353 0.00024180663 2.6262987e-07 -0.00032191453 -0.00022907177 0.0003239454 0.00019560677
-0.00035529482 0.0005108618 0.00024691146 0.00014271014 -0.00017187357 -0.00010050015 0.00013519928 -2.63377e-07
0.00026725832 -6.883175e-05 9.502957e-06 0.0003241902 -0.00014597202 -0.00036892007 -0.00017838813 -0.00031279985
-0.00020657203 3.098932e-06 -0.00030096155 1.306979e-06 -0.00017868183 -8.1452825e-05 0.000104911225 -0.00025958876
-0.00029998942 -0.00032187178 8.752796e-05 -0.00020244866 0.0003241063 -1.6761169e-05 0.00043844365 7.298474e-06
0.0005482551 0.00020351897 -3.582788e-07 -9.075095e-05 -9.780844e-05 8.830206e-05 -0.0009984825 0.00033286505
3.2556003e-14 -2.1704581e-07 6.0741104e-07 -5.3246803e-15 5.2470546e-16 -6.989696e-10 1.1311862e-12 1.4441693e-15
5.116636e-08 -2.1657991e-08 -1.2867053e-08 4.299781e-06 -2.825051e-11 2.9186724e-17 7.2459635e-08 2.4542563e-14
-3.9198156e-09 1.5429774e-11 6.7087116e-05 3.4174613e-05 -1.2811569e-08 3.1988823e-10 -3.4962653e-07 5.8197993e-06
-6.5670656e-17 -6.1099166e-07 -3.5675365e-09 1.5111302e-09 8.539416e-07 2.9598012e-15 1.8016576e-07 4.6360405e-08
-4.4663834e-06 -1.9809436e-08 3.506164e-08 2.7451172e-06 4.5542556e-08 -2.6285142e-07 3.0329336e-16 -2.4374836e-07
-2.0039354e-16 1.8582061e-09 -7.924617e-08 -8.894625e-11 5.3695152e-11 1.1238976e-07 7.4283826e-16 4.18122e-09
1.1835876e-15 -1.1867397e-10 7.69417e-16 2.335369e-12 2.7380012e-05 4.104778e-11 3.78178e-15 -4.479221e-13
-3.764199e-16 1.2056742e-09 7.921349e-13 -5.9249405e-09 1.3094537e-10 7.2469384e-18 -1.9375805e-06 -5.8389865e-10
00000000: d768 bdb8 5135 2bb9 4d28 d638 27c3 da36
00000010: f9ab b4ba 1fef 15b9 c5fb b534 1c7f 3eb7
00000020: 4ff4 8338 d42c 8f37 37c5 09b9 797a abb7
00000030: f9ed 0539 f37e 3239 00c1 4eb9 d3fa 44b9
00000040: 20b4 e438 b831 eeb8 bf56 0f39 d7db a933
00000050: deeb 02b9 fcbc 1ab9 a614 3c39 de2e 6139
00000060: c07a 52b9 7a2d 1739 29ff 1539 bf60 1539
00000070: bf6f 32b9 4a05 63b8 5a74 94b9 5db8 eb34
00000080: 057c da38 fecb 89b8 f3fe 9438 bd13 5c39
00000090: 9e1a 923a 284c 77b9 dc6a 46b8 0e5a 42b9
000000a0: e268 77b9 0311 0a36 8bdc 5fb9 7500 e937
000000b0: ba8b 06b9 a62a 7bb8 5b66 4239 9c57 1cb9
000000c0: 5fb6 c6b8 2ca9 5fb9 85c5 1139 d1ad dab8
000000d0: 4889 5e39 5cc1 d5b7 123a 8539 aa15 7a36
000000e0: c89b 7339 505f 1d39 24b0 3234 e9e6 e3b8
000000f0: 66cc 73b7 0879 0539 586c 1aba 99bd ae39
00000100: ca5e d528 0d2b 0cb4 53c9 6f35 1718 96a6
00000110: 3cad 4ba7 a459 adaf bec3 1e2b fec1 8226
00000120: 40b1 8eb2 d604 b6b3 9bba e932 59d4 8736
00000130: 3dcb b9ad c9be a523 0657 6233 d766 24a9
00000140: e0b7 23b2 cc1c 9c2d bf05 6638 d169 9037
00000150: 48f4 1cb2 4460 ac2f c968 9bb4 2366 9236
00000160: b739 9ea4 204c 14b4 9af4 0fb0 ae31 4d30
00000170: fdf0 7834 5f3d 4027 7958 9333 8ba8 9d31
00000180: a212 14b7 1b20 f1b2 2138 2a33 cf2d 4036
00000190: 62c7 08b4 e3e1 b2b5 6afe a125 e2f7 c2b3
000001a0: 9a11 bda5 a853 c530 df92 85b3 f19a 72ae
000001b0: 3fbd d82d 96ac 9733 c39c 9225 4021 08b2
000001c0: 6958 8f26 47f6 cead 2dbb ea25 8d29 8a2c
000001d0: 0906 9437 79e5 262d 9a17 dd25 2bdb bfaa
000001e0: a78c 07a5 5ab8 8430 64ee c92b 48ca 82b1
000001f0: f999 bf2e cb6a 9ba3 dc35 4db6 92a8 c7af
00000200: 60ca cdb8 8b64 2fb9 5889 e538 3798 0638
00000210: 97a9 e7ba fddd deb8 746f 9d35 9995 42b7
00000220: 59fa a838 2c71 3138 891c 82b9 c160 6ab8
00000230: 24e8 4b39 d6f9 023a 8075 91b9 f7f0 30b9
00000240: 20a8 8539 86a9 a2b9 798d 7d39 93ff 8c34
00000250: a3c6 a8b9 fc32 70b9 37d7 a939 cb1b 4d39
00000260: dd46 bab9 5beb 053a e573 8139 76a4 1539
00000270: f638 34b9 9bc3 d2b8 48c4 0d39 4266 8db4
00000280: ce1e 8c39 c459 90b8 e46e 1f37 12f8 a939
00000290: 1110 19b9 9d6b c1b9 b30d 3bb9 49ff a3b9
000002a0: 429b 58b9 3ff7 4f36 60ca 9db9 756b af35
000002b0: 8a5c 3bb9 a7d1 aab8 c903 dc38 6a19 88b9
000002c0: e647 9db9 e6c0 a8b9 378f b738 6648 54b9
000002d0: d0ec a939 569a 8cb7 e9de e539 6ae5 f436
000002e0: c7b8 0f3a b567 5539 7759 c0b4 8c51 beb8
000002f0: 821e cdb8 cf2e b938 83df 82ba 6484 ae39
00000300: 849e 1229 190d 69b4 f80c 2335 82d7 bfa7
00000310: 6e3c 1726 9d21 40b0 4733 9f2b 7120 d026
00000320: 02c2 5b33 6d0a bab2 e60d 5db2 d646 9036
00000330: 7e7e f8ad 9a99 0624 1b9b 9b33 4c0f dd28
00000340: 10af 86b1 c3b8 872d 1fb1 8c38 b656 0f38
00000350: e019 5cb2 44dc af2f 4eb4 bbb4 b247 c336
00000360: 1d6d 97a4 0703 24b5 c428 75b1 2bb0 cf30
00000370: 6b3a 6535 b246 5527 9673 4134 ce1d 4733
00000380: f1dd 95b6 6929 aab2 ae96 1633 c138 3836
00000390: 929a 4333 061e 8db4 33d6 ae25 85dc 82b4
000003a0: bc09 67a5 d163 ff30 0b2e aab3 4a98 c3ae
000003b0: 5e27 6c2e ed5a f133 ca1b 5626 66aa 8f31
000003c0: ad92 aa26 c17b 02af f4c4 5d26 4556 242c
000003d0: 21ae e537 b187 342e c440 8827 6128 fcaa
000003e0: c6fd d8a5 e4b4 a530 56f7 5e2b 5494 cbb1
000003f0: d8f9 0f2f b3ae 0523 6107 02b6 3780 20b0

onnx::LSTM_380 f4 [2, 256, 64]
1.5521118e-06 -5.1144427e-05 1.7926612e-05 6.514483e-05 -8.4838066e-05 -1.4935209e-05 -9.997127e-05 -7.5169795e-05
-0.00011853616 -0.00017818909 0.0001075642 6.202498e-05 -2.58625e-05 -0.00031743536 0.00016612442 -0.00020429262
5.4632765e-06 2.9957328e-05 -0.000100981815 -3.869002e-05 4.416751e-06 0.00016222597 -1.50094775e-05 2.82517e-06
7.968832e-05 -0.00013349901 0.00026021444 -0.00016430108 0.00015985544 0.00014342205 -8.847121e-05 0.00016124682
-8.95866e-05 5.238683e-05 -8.6386455e-05 -1.9610785e-05 -0.0001574185 5.8627456e-06 8.405736e-05 0.00016089328
4.026103e-06 0.00028915936 4.0596013e-05 -7.095058e-05 0.00019586636 0.00014041325 7.1287686e-05 -0.00016878465
-2.9811397e-07 0.000225533 -2.989574e-05 -0.00013534931 -0.00011420067 8.3529165e-05 -3.2101477e-06 4.695109e-05
-0.00013638791 -0.00018791413 -5.5668745e-05 -3.7352227e-05 -0.00020880882 -6.431739e-05 -6.586691e-05 -0.00026595878
-4.6245812e-05 -0.00014044446 -2.0501258e-05 0.00020091001 -0.00015642321 -0.00011766353 -0.00015453892 -0.00021627918
-0.00025984278 -0.0004078303 0.00029309606 0.00020190177 -8.650573e-05 -0.0006364338 0.00031007748 -0.0003935028
-7.521583e-05 9.348878e-05 -0.0003226412 -0.00018973624 -1.2848316e-05 0.00032360214 -5.2933297e-05 8.7211345e-05
0.00014465777 -0.00035682466 0.00056680164 -0.00031430565 0.0003794181 0.00034658873 -0.00025667105 0.00035889712
-0.00022798724 9.773671e-05 -0.000119570286 -0.00012472436 -0.00033565224 -4.96922e-05 0.00012052856 0.0003538861
6.767263e-06 0.00056251267 4.7129408e-05 -0.00020043147 0.00044870647 0.0003223504 0.00019343213 -0.00040673488
3.6409223e-05 0.0003656641 -0.00017641809 -0.00030837418 -0.00032410325 0.00024875152 0.000101043384 3.930736e-05
-0.00032519602 -0.00039694135 -3.849565e-05 -0.00010228646 -0.00042167274 -0.00021120731 -0.00020242984 -0.00050031
-7.876503e-06 -8.659288e-05 4.900928e-05 8.581914e-05 -0.00016492518 -2.3591483e-05 -0.00018043982 -0.00013952027
-0.00024474505 -0.0003455728 0.00020582801 9.441486e-05 -5.7841426e-05 -0.0005921962 0.00035589 -0.00042389933
3.9584644e-05 4.9311304e-05 -0.00017224936 -5.554713e-05 4.4048024e-06 0.000333266 -2.602205e-05 -2.6202448e-05
0.00017953667 -0.0002479364 0.00050192396 -0.00035275234 0.00031602493 0.0002799872 -0.00015495157 0.0003540075
-0.00017927575 0.000113383525 -0.0001959627 -1.9615592e-05 -0.0003082655 3.4296063e-05 0.00017539496 0.0003154632
6.6931934e-06 0.0005166829 8.7005996e-05 -0.00012958478 0.00036812812 0.00025294925 0.00013084429 -0.00034370527
-4.6219942e-05 0.00043900392 -5.511547e-05 -0.00025767772 -0.00023089672 0.0001410419 -3.6996666e-05 0.00011682941
-0.0002496673 -0.0003456079 -0.00012231634 -7.8245765e-05 -0.00039761324 -0.00010674725 -0.00011353984 -0.0004867751
2.379737e-06 -0.0001922873 4.397185e-05 0.00014953106 -0.00019667597 -2.4916268e-05 -0.000230035 -0.00021986804
-0.00033077554 -0.0004964982 0.00030660842 0.0001864809 -6.3561034e-05 -0.0007951554 0.00042095946 -0.0005592194
-2.0363155e-05 9.911643e-05 -0.00031474337 -0.00011262726 6.020548e-06 0.00044105077 -3.3345652e-05 5.3027798e-05
0.00018108329 -0.00037440794 0.0006910809 -0.00040420057 0.00041520636 0.00038997637 -0.0002441512 0.0004145524
-0.00024646692 0.00015409105 -0.00018551335 -7.860485e-05 -0.00041483276 -1.8493743e-05 0.00021048797 0.00044707753
6.829712e-05 0.00068730064 0.00012192732 -0.0002221827 0.00054465473 0.00035748436 0.00019830462 -0.00040880914
-1.5762427e-05 0.00055437395 -9.831481e-05 -0.0003395678 -0.00031104646 0.00022529146 4.7662958e-05 8.7633925e-05
-0.00038890296 -0.00049760484 -9.153504e-05 -7.365186e-05 -0.0005217324 -0.00016670195 -0.00018856954 -0.00065141055
00000000: 2852 d035 e983 56b8 1b61 9637 5d9e 8838
00000010: 17eb b1b8 3c92 7ab7 aba7 d1b8 7aa4 9db8
00000020: 9e96 f8b8 45d8 3ab9 1794 e138 6813 8238
00000030: 4cf3 d8b7 746d a6b9 af31 2e39 6237 56b9
00000040: 3051 b736 df4c fb37 33c6 d3b8 1847 22b8
00000050: 9a33 9436 341b 2a39 37d1 7bb7 0d98 3d36
00000060: 571e a738 defb 0bb9 646d 8839 3c48 2cb9
00000070: de9e 2739 9063 1639 9f89 b9b8 5d14 2939
00000080: 71e0 bbb8 eeb9 5b38 602a b5b8 d781 a4b7
00000090: b510 25b9 9ab8 c436 f447 b038 76b5 2839
000000a0: f617 8736 509a 9739 a345 2a38 4dcb 94b8
000000b0: 7a61 4d39 e53b 1339 4980 9538 c9fb 30b9
000000c0: 790c a0b4 0e7d 6c39 9dc8 fab7 8eec 0db9
000000d0: 057f efb8 612c af38 eb6d 57b6 59ed 4438
000000e0: 5a03 0fb9 d10a 45b9 dc7d 69b8 a6aa 1cb8
000000f0: b1f3 5ab9 23e2 86b8 0722 8ab8 6270 8bb9
00000100: 10f8 41b8 4644 13b9 1efa abb7 5fab 5239
00000110: 8905 24b9 20c2 f6b8 ba0b 22b9 00c9 62b9
00000120: 823b 88b9 0ed2 d5b9 b0aa 9939 98b5 5339
00000130: 696a b5b8 59d6 26ba e591 a239 0d4f ceb9
00000140: 31bd 9db8 680f c438 2b28 a9b9 eff3 46b9
00000150: 198f 57b7 25a9 a939 b204 5eb8 3ce5 b638
00000160: 46af 1739 3214 bbb9 6a95 143a 64c9 a4b9
00000170: a3ec c639 5ab6 b539 ce91 86b9 5b2a bc39
00000180: dc0f 6fb9 fff7 cc38 cfc1 fab8 71c8 02b9
00000190: 7bfa afb9 986c 50b8 47c4 fc38 ca89 b939
000001a0: 5912 e336 9675 133a d1ac 4538 ea2a 52b9
000001b0: 5d40 eb39 2301 a939 0bd4 4a39 083f d5b9
000001c0: 1bb6 1838 9bb6 bf39 dffc 38b9 48ad a1b9
000001d0: 67ec a9b9 dd6a 8239 41e7 d338 f5dd 2438
000001e0: 127f aab9 911c d0b9 6476 21b8 a082 d6b8
000001f0: f513 ddb9 8877 5db9 5943 54b9 3c27 03ba
00000200: 5325 04b7 3399 b5b8 508f 4d38 cdf9 b338
00000210: c4ef 2cb9 53e6 c5b7 7234 3db9 304c 12b9
00000220: 2051 80b9 ff2d b5b9 89d3 5739 9800 c638
00000230: c29a 72b8 9d3d 1bba bf96 ba39 ce3e deb9
00000240: b007 2638 9cd3 4e38 d69d 34b9 47fb 68b8
00000250: f7cc 9336 35ba ae39 ed49 dab7 54cd dbb7
00000260: 0242 3c39 76fd 81b9 8c93 033a 9ef1 b8b9
00000270: 26b0 a539 3fcb 9239 7f7a 22b9 159a b939
00000280: f8fb 3bb9 51c8 ed38 567b 4db9 2a8c a4b7
00000290: b29e a1b9 1ed9 0f38 3aea 3739 c164 a539
000002a0: 1896 e036 0172 073a fd76 b638 26e1 07b9
000002b0: 5201 c139 469e 8439 3f33 0939 5733 b4b9
000002c0: 49dc 41b8 1c2a e639 c92b 67b8 eb18 87b9
000002d0: de1c 72b9 a6e4 1339 de2c 1bb8 5002 f538
000002e0: c7e5 82b9 b532 b5b9 0b42 00b9 e017 a4b8
000002f0: bf76 d0b9 7edd dfb8 3d1c eeb8 d935 ffb9
00000300: 92b3 1f36 bba0 49b9 6a6e 3838 70cb 1c39
00000310: ce3a 4eb9 4703 d1b7 8d35 71b9 618c 66b9
00000320: f16b adb9 6e27 02ba 49c0 a039 168a 4339
00000330: 124c 85b8 fa71 50ba 39b4 dc39 9498 12ba
00000340: 8bd1 aab7 badc cf38 2404 a5b9 4d32 ecb8
00000350: 1d04 ca36 d53c e739 9fdc 0bb8 2a6a 5e38
00000360: 2de1 3d39 2f4c c4b9 a729 353a e2ea d3b9
00000370: 0eb0 d939 be75 cc39 6b01 80b9 4858 d939
00000380: 3b38 81b9 8093 2139 5c86 42b9 a8d8 a4b8
00000390: e97d d9b9 0323 9bb7 6fb6 5c39 bb65 ea39
000003a0: bd3a 8f38 f72b 343a 3bb3 ff38 b7f9 68b9
000003b0: 29c7 0e3a bd6c bb39 feef 4f39 6f55 d6b9
000003c0: 8e39 84b7 6853 113a 5d2e ceb8 0508 b2b9
000003d0: f313 a3b9 373c 6c39 b6e9 4738 1bc8 b738
000003e0: ace5 cbb9 b271 02ba 80f6 bfb8 8b75 9ab8
000003f0: dec4 08ba b7cc 2eb9 c0ba 45b9 6cc3 2aba
