LOSO/models/model_without_subj_8.pth (torch, 549103 bytes, 18 tensors)

lstm.weight_ih_l0 f4 [256, 6]
0.0031720852 0.003549665 0.0036961192 0.003087301 0.0030079412 0.0034803925 0.0017153476 0.0025351075
0.0021150063 0.0015086362 0.0007629771 0.0014827079 -4.956328e-06 -4.770415e-06 -5.255277e-06 -4.734614e-06
-3.8972544e-06 -4.7841368e-06 -7.524788e-06 -5.960831e-06 -8.923996e-06 -6.57089e-06 -5.7328166e-06 -7.5955095e-06
0.003338801 0.0035970558 0.0034546645 0.002743468 0.0023780768 0.0031596175 0.0032669802 0.0031932285
0.0036966878 0.0029059108 0.002678062 0.00352825 -4.2093572e-07 -3.0854764e-07 -4.6806363e-07 -3.8345672e-07
-3.438854e-07 -3.86132e-07 -2.4016695e-06 -1.963565e-06 -2.7221583e-06 -2.0892214e-06 -2.026527e-06 -2.3290524e-06
0.0025328796 0.0026962166 0.0026559206 0.0022183491 0.0020779246 0.0026142176 0.0023411529 0.0024395322
0.0025953664 0.0018219216 0.0018412067 0.0020980164 0.0028116563 0.0033136362 0.0031670837 0.0026428064
0.0023067014 0.0030156155 0.0035863633 0.0036077492 0.0034760267 0.0029645115 0.0023594424 0.0030722918
0.0020351415 0.0025436443 0.00223476 0.0017639404 0.0009885167 0.00178729 0.0028836352 0.0031806612
0.0031979117 0.002551349 0.002350827 0.0029175829 0.004352392 0.004954549 0.0046548285 0.0041391584
0.0036956666 0.0045269188 0.002629657 0.0031040637 0.0030819897 0.0022088676 0.0020620704 0.0027335943
0.003151207 0.0037829452 0.0032438317 0.0026527129 0.0020618166 0.0028884406 0.0036529957 0.0036030267
0.0039855354 0.0032219363 0.0029910358 0.0033507016 0.0028411 0.0032050111 0.0031024646 0.0027473127
0.0022044887 0.0027423212 0.0022338745 0.0026733426 0.0025434229 0.0020601386 0.0012369498 0.0018598031
0.0030233774 0.003066428 0.0032274376 0.002667311 0.0022863052 0.003043054 0.0032840786 0.0033785668
0.0034960452 0.0028203938 0.0026130693 0.0031986018 0.002979682 0.0030570845 0.003096986 0.0026291595
0.002206826 0.0030531753 0.12084458 0.08450103 0.028725494 0.07657234 0.045663636 0.13432649
0.0027255027 0.003040446 0.0026477892 0.002214854 0.0013463321 0.002099595 -0.0004882513 -0.0004937009
-0.00052931375 -0.00047910024 -0.00046097723 -0.00050886633 0.0035606162 0.0040911734 0.0039794953 0.003262675
0.002928966 0.0036094615 0.003498546 0.004064086 0.003606509 0.0031792722 0.0027069869 0.0033456497
0.009632933 0.015542408 0.013907719 0.013541905 0.0059213648 0.012328798 0.0020698993 0.002311771
0.0021854516 0.0016391223 0.0014360023 0.0021070011 0.027472544 0.18289527 0.17655669 0.09472615
0.12078826 0.14204107 0.0032127746 0.003907161 0.0037521913 0.0030563101 0.0027038872 0.003422763
0.0023828333 0.0028726591 0.002658288 0.0021477258 0.0020710796 0.0028643906 0.0030534782 0.003376381
0.0031793152 0.0025795195 0.0021484892 0.0031038795 0.0021516455 0.0023876473 0.00249061 0.0018226764
0.0017614797 0.0024386859 0.0029245454 0.003512862 0.0031232587 0.002477697 0.0019021401 0.002587458
0.0037540246 0.0036958174 0.0040292474 0.0035417345 0.003606411 0.0037907842 0.0026851573 0.002830623
0.0029008097 0.0023793208 0.0020355813 0.002548729 0.0032055345 0.0032681322 0.0036837072 0.0030694145
0.0031774098 0.0035726766 0.00410881 0.0039669937 0.004536311 0.0037650776 0.0034163445 0.0045232186
0.0032028134 0.003483806 0.003426526 0.0028366195 0.0025390536 0.0029339287 0.0072697345 0.012793855
0.01123559 0.01114934 0.0044000037 0.010212757 -0.0023362988 -0.0022145174 -0.0023868133 -0.0022030363
00000000: c2e2 4f3b 7fa1 683b 973a 723b 5154 4a3b
00000010: e120 453b 4c17 643b 84d5 e03a 0c24 263b
00000020: eb9b 0a3b 6ebd c53a 8702 483a 6c57 c23a
00000030: 894e a6b6 8e11 a0b6 7c56 b0b6 06de 9eb6
00000040: 29c5 82b6 6c87 a0b6 707d fcb6 2603 c8b6
00000050: 45b8 15b7 847b dcb6 855c c0b6 eedc feb6
00000060: c9cf 5a3b 95bc 6b3b a767 623b c1cb 333b
00000070: 82d9 1b3b 9611 4f3b d51a 563b 7c45 513b
00000080: 2144 723b 1871 3e3b 6d82 2f3b 363a 673b
00000090: f7fc e1b4 77a6 a5b4 2d4a fbb4 e4dd cdb4
000000a0: 409f b8b4 944d cfb4 5e2c 21b6 cac5 03b6
000000b0: 53ae 36b6 8d34 0cb6 78ff 07b6 d14c 1cb6
000000c0: abfe 253b 02b3 303b f40e 2e3b b961 113b
000000d0: ca2d 083b 4b53 2b3b 076e 193b 8fe0 1f3b
000000e0: 0617 2a3b 8bcd ee3a a554 f13a e07e 093b
000000f0: c443 383b 9729 593b d98e 4f3b ef32 2d3b
00000100: 072c 173b a2a1 453b 3109 6b3b fd6f 6c3b
00000110: 0dce 633b 4048 423b e0a0 1a3b 8158 493b
00000120: 0260 053b 45b3 263b 0d75 123b 0534 e73a
00000130: 1e91 813a 8043 ea3a 5ffb 3c3b a472 503b
00000140: 0e94 513b 8934 273b 5510 1a3b eb34 3f3b
00000150: 839e 8e3b c559 a23b 8887 983b c7a1 873b
00000160: ff32 723b 8c56 943b 5356 2c3b 8c6d 4b3b
00000170: 35fb 493b a6c2 103b cd23 073b 1a26 333b
00000180: 7b84 4e3b 4aeb 773b 7796 543b 23d9 2d3b
00000190: 8b1f 073b fe4b 3d3b 1967 6f3b c220 6c3b
000001a0: 1899 823b 1f27 533b 4105 443b 7297 5b3b
000001b0: c031 3a3b 2a0b 523b b852 4b3b 420c 343b
000001c0: 2f79 103b 84b8 333b 3266 123b 3f33 2f3b
000001d0: 8eaf 263b 6403 073b 2621 a23a a3c4 f33a
000001e0: db23 463b 20f6 483b 6b83 533b 0ece 2e3b
000001f0: d6d5 153b f96d 473b b239 573b f26a 5d3b
00000200: e81d 653b 5bd6 383b 0740 2b3b a29f 513b
00000210: c546 433b 5e59 483b cef6 4a3b fa4d 2c3b
00000220: 65a0 103b c817 483b 5d7d f73d e00e ad3d
00000230: ba51 eb3c f6d1 9c3d cb09 3b3d e28c 093e
00000240: 599e 323b 3842 473b 8886 2d3b 1527 113b
00000250: 6977 b03a 5c99 093b fbfb ffb9 b56b 01ba
00000260: a5c1 0aba bf2f fbb9 51af f1b9 7165 05ba
00000270: 3a59 693b 400f 863b 6d66 823b 9ad2 553b
00000280: e5f3 3f3b b78c 6c3b dd47 653b 062c 853b
00000290: 2e5b 6c3b 565b 503b b467 313b b042 5b3b
000002a0: 73d3 1d3c 96a5 7e3c 34dd 633c dede 5d3c
000002b0: 0208 c23b bafe 493c 26a7 073b 1581 173b
000002c0: cb39 0f3b d1d7 d63a 3e38 bc3a 9d15 0a3b
000002d0: 1a0e e13c e648 3b3e 47cb 343e c9ff c13d
000002e0: d65f f73d 3773 113e 6a8d 523b a407 803b
000002f0: 53e7 753b 604c 483b b333 313b 6f50 603b
00000300: 4f29 1c3b 3943 3c3b ac36 2e3b dcc0 0c3b
00000310: f3ba 073b 80b8 3b3b dd1c 483b 4646 5d3b
00000320: 0f5c 503b 280d 293b abcd 0c3b 756a 4b3b
00000330: 9f02 0d3b 137a 1c3b 8039 233b dfe6 ee3a
00000340: 73e1 e63a 5cd2 1f3b bba9 3f3b 0b38 663b
00000350: 96af 4c3b dc60 223b 3b51 f93a 5792 293b
00000360: 1506 763b 8735 723b c707 843b 721c 683b
00000370: 8959 6c3b ce6e 783b 77f9 2f3b f981 393b
00000380: 831b 3e3b 61ee 1b3b 6367 053b 9408 273b
00000390: f213 523b 292e 563b 5a6a 713b 3b28 493b
000003a0: 173c 503b 9123 6a3b 32a3 863b 8efd 813b
000003b0: 56a5 943b 85bf 763b c0e4 5f3b 8237 943b
000003c0: 4be6 513b 9150 643b 918f 603b 94e6 393b
000003d0: 4066 263b 2847 403b f436 ee3b 519d 513c
000003e0: 7b15 383c b9ab 363c e82d 903b 6853 273c
000003f0: 971c 19bb 7021 11bb 156c 1cbb d160 10bb

lstm.weight_hh_l0 f4 [256, 64]
2.0766765e-05 -2.6760372e-05 1.6261401e-06 1.1903065e-05 7.469302e-05 3.3843568e-05 3.7050957e-06 1.0330939e-05
-4.1916806e-05 -0.00011109696 -1.17249865e-05 2.0524747e-06 3.4505934e-05 9.3391674e-05 -3.1014366e-05 -9.982913e-05
5.987722e-05 -6.5539534e-05 -2.1203166e-05 3.365299e-05 5.1619623e-05 -1.0055446e-05 1.744276e-05 -0.001008876
5.082152e-07 -7.8301055e-05 4.3463115e-05 1.4209923e-05 -0.0005131876 -7.2953844e-05 -0.0018541606 -6.462202e-05
3.610416e-05 -5.224376e-05 0.000100053 1.4529439e-05 3.3655513e-05 -2.5430845e-06 -5.0771156e-05 -5.2361893e-06
9.365686e-05 -0.0005044852 0.00021286464 2.4336969e-05 3.796484e-05 3.7622706e-06 -3.7236741e-06 -0.00051897194
-7.375609e-06 -1.539651e-05 -8.7426e-07 -0.00012903423 4.3937558e-05 -1.4756584e-05 -6.706305e-06 0.0005719858
0.00043881274 -4.7481203e-06 8.604742e-05 0.00046497092 -0.00049728336 -0.006841434 0.0010488859 2.5678786e-05
0.00010584025 -8.692475e-05 2.545237e-06 1.00607585e-05 0.00013225812 9.704643e-05 3.3725007e-06 1.0286472e-05
-0.00011338126 -0.00011332804 -0.00010981485 -8.209041e-05 0.00010059736 0.00012947603 -0.00012442406 -0.00014268223
0.0001215524 -0.00011460582 9.993799e-05 -6.220672e-05 0.00011258089 -9.0748035e-05 0.00010304494 0.0017356953
-9.5919924e-05 -4.2597436e-05 0.00011171692 0.00010164205 -0.00044093258 -0.000103115555 -0.0034552615 -0.00012082805
0.00011640137 -0.00011674228 0.00013096059 7.985393e-05 0.000117442105 9.926672e-05 -0.00012621925 -0.00011318439
0.00013105989 -0.00043325953 0.000171536 0.00012204909 9.277939e-05 4.0405494e-06 8.7593835e-05 -0.00042061871
-1.03753355e-05 -0.00012052653 -8.889369e-07 -0.00012309151 0.00011400584 9.952242e-05 -7.14849e-06 0.00046950506
0.00037064115 0.00011045748 0.00012390586 0.00036851823 -0.00043419178 -0.0072817123 -0.002020179 9.171131e-05
5.519905e-08 -3.895892e-08 1.5455482e-09 -2.4909554e-09 3.520041e-08 3.7417994e-08 -6.1462463e-10 -1.6961808e-09
-3.8438856e-08 8.927024e-09 -6.311598e-08 -5.907492e-08 4.2664823e-08 1.2979139e-08 -5.358022e-08 -1.1656604e-08
3.7895663e-08 -3.1171492e-08 9.628644e-08 -7.679987e-08 1.8479069e-08 -5.6821527e-08 6.093967e-08 6.836982e-07
-6.249822e-08 1.08189e-08 4.626602e-08 5.694472e-08 6.932814e-08 -5.408079e-09 2.7726699e-06 -4.254815e-08
4.453775e-08 -4.008589e-08 -5.571726e-10 4.734137e-08 5.0748035e-08 5.9241476e-08 -4.4431022e-08 -7.110771e-08
4.562496e-09 6.555387e-08 -2.5439572e-08 6.124294e-08 4.588773e-08 1.1316766e-09 7.432904e-08 9.7275525e-08
-2.9673222e-10 -6.963861e-08 1.68417e-11 1.4348544e-08 4.0313225e-08 9.2685355e-08 2.9176042e-09 -1.05345364e-07
-6.1105666e-08 6.9622274e-08 1.723081e-08 -9.528373e-08 5.6693136e-08 1.0575365e-06 1.5554972e-06 4.443998e-08
2.0038598e-07 -1.7869084e-07 -4.8491287e-09 -7.455935e-09 1.9033207e-07 2.1138533e-07 -2.4536426e-09 -5.948114e-09
-2.1637902e-07 -1.2516826e-07 -2.4796717e-07 -2.3775938e-07 2.1539972e-07 1.5688235e-07 -2.2323314e-07 -1.605e-07
1.9187577e-07 -1.9485282e-07 2.6830858e-07 -2.48132e-07 1.998376e-07 -2.3208752e-07 2.430587e-07 2.926431e-07
-2.1838093e-07 5.4766943e-08 2.081588e-07 2.1561846e-07 1.3679735e-08 -1.7691184e-07 3.851041e-06 -1.9434735e-07
2.1290126e-07 -1.9733146e-07 1.6173223e-07 1.7725642e-07 2.1570638e-07 2.3056216e-07 -2.2061401e-07 -2.7328286e-07
1.40416e-07 4.5319752e-09 -1.2654158e-07 2.4332027e-07 1.8915725e-07 -3.3522742e-09 2.3026017e-07 4.7110387e-08
5.079672e-09 -2.5878754e-07 3.0029085e-10 -1.18433015e-07 2.0226568e-07 2.3251013e-07 6.012633e-09 -6.410695e-08
-2.4930957e-08 2.6181758e-07 1.5435954e-07 -4.833683e-08 9.159794e-09 2.9618616e-06 2.6814618e-07 2.002939e-07
00000000: 4a34 ae37 767b e0b7 c041 da35 46b3 4737
00000010: 83a4 9c38 41f3 0d38 0fa5 7836 0c53 2d37
00000020: d4cf 2fb8 bafc e8b8 6fb6 44b7 3fbd 0936
00000030: 77ba 1038 46db c338 6c15 02b8 5b5b d1b8
00000040: ad24 7b38 4572 89b8 74dd b1b7 9f26 0d38
00000050: 2682 5838 d0b3 28b7 0b52 9237 433c 84ba
00000060: 486c 0835 8f35 a4b8 2a4c 3638 2867 6e37
00000070: 7087 06ba ccfe 98b8 4e07 f3ba af85 87b8
00000080: 8c6e 1738 4f20 5bb8 8cd3 d138 77c3 7337
00000090: 5529 0d38 dca9 2ab6 1df3 54b8 86b2 afb6
000000a0: a569 c438 6e3f 04ba 6b34 5f39 3e27 cc37
000000b0: 703c 1f38 517b 7c36 3ce4 79b6 9e0b 08ba
000000c0: 007c f7b6 c127 81b7 b1ae 6ab5 5d4d 07b9
000000d0: 9849 3838 0c93 77b7 b906 e1b6 51f1 153a
000000e0: 7310 e639 0b52 9fb6 5b74 b438 57c7 f339
000000f0: 1f5c 02ba 1c2e e0bb c57a 893a c668 d737
00000100: 8df6 dd38 5f4b b6b8 d7ce 2a36 a1ca 2837
00000110: c5ae 0a39 6885 cb38 1f53 6236 1094 2c37
00000120: 1ac7 edb8 87aa edb8 664c e6b8 f427 acb8
00000130: ccf7 d238 f5c3 0739 d477 02b9 f89c 15b9
00000140: f3e9 fe38 8858 f0b8 cd95 d138 fa74 82b8
00000150: 6819 ec38 fb4f beb8 d519 d838 4580 e33a
00000160: 9e28 c9b8 a6aa 32b8 9149 ea38 a928 d538
00000170: f82c e7b9 be3f d8b8 ab71 62bb 1165 fdb8
00000180: 821c f438 89d3 f4b8 7752 0939 4177 a738
00000190: 404b f638 6a2d d038 b959 04b9 685d edb8
000001a0: 1f6d 0939 1c27 e3b9 58de 3339 9bf4 ff38
000001b0: 8e92 c238 0e94 8736 95b2 b738 7d86 dcb9
000001c0: ba11 2eb7 30c3 fcb8 479f 6eb5 2012 01b9
000001d0: 6b16 ef38 b1b6 d038 10dd efb6 e727 f639
000001e0: 9d52 c239 68a5 e738 baec 0139 ae35 c139
000001f0: 3ca4 e3b9 6e9b eebb fb64 04bb 2255 c038
00000200: ff13 6d33 c953 27b3 256b d430 5a2d 2bb1
00000210: 432f 1733 85b5 2033 5df2 28b0 0e1f e9b0
00000220: f817 25b3 775d 1932 618a 87b3 90b9 7db3
00000230: 783e 3733 dbfa 5e32 1320 66b3 4942 48b2
00000240: b9c2 2233 6be1 05b3 08c6 ce33 2ded a4b3
00000250: e7bb 9e32 ee0b 74b3 f0dd 8233 6287 3735
00000260: c336 86b3 07de 3932 07b6 4633 6293 7433
00000270: 8ce1 9433 f7d1 b9b1 1b12 3a36 30be 36b3
00000280: c649 3f33 e72a 2cb3 8927 19b0 6354 4b33
00000290: 0ef6 5933 b170 7e33 6dd4 3eb3 e1b3 98b3
000002a0: 24c4 9c31 9fc6 8c33 3686 dab2 aa84 8333
000002b0: 1816 4533 5589 9b30 d29e 9f33 c9e5 d033
000002c0: 5921 a3af 3b8c 95b3 2324 942d 9081 7632
000002d0: dc24 2d33 500a c733 097f 4831 3a3a e2b3
000002e0: 3239 83b3 4083 9533 f402 9432 c99e ccb3
000002f0: c37e 7333 adf0 8d35 7ac6 d035 46de 3e33
00000300: ae29 5734 2ade 3fb4 639d a6b1 8d17 00b2
00000310: 155e 4c34 28f9 6234 f09c 28b1 2a60 ccb1
00000320: d055 68b4 fd65 06b4 5920 85b4 cd4a 7fb4
00000330: a048 6734 7e73 2834 dcb1 6fb4 e755 2cb4
00000340: 6906 4e34 bc38 51b4 0d0c 9034 0137 85b4
00000350: f192 5634 bb33 79b4 bc7d 8234 901c 9d34
00000360: 187c 6ab4 e438 6b33 4182 5f34 c084 6734
00000370: 1c04 6b32 28f5 3db4 3138 8136 cbad 50b4
00000380: da99 6434 0fe2 53b4 9ea8 2d34 e053 3e34
00000390: eb9c 6734 7290 7734 ebe1 6cb4 b6b7 92b4
000003a0: 42c5 1634 adb7 9b31 7cdf 07b4 afa1 8234
000003b0: 261b 4b34 d55d 66b1 6f3d 7734 6b56 4a33
000003c0: 4489 ae31 7def 8ab4 2e16 a52f 3d55 feb3
000003d0: 5e2e 5934 e6a7 7934 ae97 ce31 2bab 89b3
000003e0: c127 d6b2 ef8f 8c34 07be 2534 e89a 4fb3
000003f0: 335d 1d32 65c4 4636 bbf5 8f34 5e10 5734

lstm.bias_ih_l0 f4 [256]
0.0054258374 0.004004488 -4.5795873e-06 -1.2475645e-05 0.006018836 0.005868563 -7.1522146e-07 -4.109804e-06
0.004460335 0.004045869 0.0054995725 0.005985884 0.0042739417 0.004763655 0.007081562 0.0050375536
0.0053377445 0.0057509313 0.005229201 0.004338514 0.0051626083 0.0057468894 0.00583817 0.13606696
0.005007074 -0.00047894916 0.006437076 0.0057786414 0.024928847 0.0034688292 0.2153389 0.005602405
0.004320996 0.005371919 0.0043774634 0.0048762932 0.0060090143 0.0048054582 0.006166719 0.0074207047
0.005004863 0.021590091 -0.0018006212 0.0077277054 0.0044295774 3.0505134e-07 0.006376264 0.025154267
-1.3023177e-05 0.006358347 -1.02933384e-07 0.0038888284 0.005071065 0.0047350414 -7.981056e-06 0.0196284
0.021722082 0.0071028164 0.004912196 0.019470835 0.022989519 0.17209433 0.15698849 0.005099573
0.003925486 0.0018546398 -4.379641e-06 -1.244308e-05 0.0039112996 0.0041140933 -6.8999515e-07 -4.109058e-06
0.0027867586 0.0028054307 0.0035855179 0.0043426203 0.0021048442 0.0031982975 0.004894917 0.0034582447
0.0033002482 0.0041164784 0.0033798984 0.0025138215 0.003467106 0.0037885443 0.003801715 0.23060705
0.003208535 -0.00049066206 0.0042521292 0.0042571044 0.02786089 0.0020960742 0.19412708 0.003894322
0.0026181038 0.003273305 0.0026046266 0.0032825444 0.0044790907 0.0029157107 0.004067666 0.0047526155
0.0032318244 0.024406606 -0.0019259616 0.0058657615 0.002923355 4.3737415e-08 0.0045115966 0.02773772
-1.3077932e-05 0.0044812174 -9.801259e-08 0.0022608256 0.0034199434 0.002947992 -7.740824e-06 0.021139624
0.023485733 0.0050850916 0.0033021097 0.020810308 0.02449798 0.1732918 0.18455465 0.003105286
0.00623923 -0.007656675 0.00017542414 0.00018441776 0.008004191 0.007044283 5.9824495e-05 0.0002988281
-0.006531904 -0.009108577 -0.0049406555 -0.0075193383 0.0077970214 0.00819192 -0.006874214 -0.0073304046
0.008411814 -0.0082505755 0.003910862 -0.006692769 0.0077085653 -0.00713547 0.0056995377 -0.10449695
-0.007870689 -0.000247667 0.0073107774 0.007105175 0.034777097 -0.008442713 0.0056840116 -0.007502382
0.0054470254 -0.008234899 0.0072384994 0.00895387 0.0067921523 0.005284045 -0.0058347546 -0.006113912
0.009464426 0.035955705 0.0032499535 0.005792455 0.0079368325 0.00027943632 0.007955664 0.03419646
-0.00034257903 -0.0050301827 -4.624087e-05 -0.009662613 0.005973219 0.005441003 -0.00037110364 -0.031707216
-0.034615412 0.0048589916 0.008597513 -0.03285814 0.033617124 0.16091308 -0.04400388 0.008862079
0.005417789 0.0039984006 -4.577182e-06 -1.247339e-05 0.0060084774 0.0058559054 -7.1483436e-07 -4.1094313e-06
0.00445099 0.0040432606 0.0054907603 0.0059834137 0.0042683114 0.0047551487 0.0070703295 0.0050301175
0.00532985 0.0057451474 0.005217269 0.0043336563 0.0051513514 0.005737627 0.005827356 0.15908137
0.0049996995 -0.00047862675 0.0064278105 0.005771308 0.024935031 0.0034642085 0.20870014 0.005593387
0.004307505 0.005361301 0.0043656025 0.004872196 0.0059994697 0.0047935215 0.0061497428 0.0074030035
0.0049994467 0.021612493 -0.0017985097 0.007713843 0.004426131 3.0651188e-07 0.0063708136 0.025156746
-1.3020642e-05 0.006346917 -1.02960826e-07 0.0038878233 0.005060306 0.0047314805 -7.980171e-06 0.019620419
0.021713315 0.007090795 0.004906736 0.019457474 0.023013514 0.22958061 0.17103481 0.0050957715
00000000: 39cb b13b 1438 833b 5baa 99b6 7d4e 51b7
00000010: a839 c53b 134d c03b a5fd 3fb5 f3e6 89b6
00000020: 0028 923b 3693 843b c235 b43b 3c25 c43b
00000030: 6c0c 8c3b 6f18 9c3b 730c e83b 1012 a53b
00000040: 3fe8 ae3b 4f72 bc3b b859 ab3b 182a 8e3b
00000050: 192b a93b 6750 bc3b 1f4e bf3b 2355 0b3e
00000060: 6212 a43b 781b fbb9 1bee d23b c25a bd3b
00000070: 9537 cc3c 4c55 633b cd81 5c3e 6194 b73b
00000080: 2497 8d3b ec06 b03b d370 8f3b 50c9 9f3b
00000090: 44e7 c43b 1b77 9d3b 3012 ca3b 6229 f33b
000000a0: d5ff a33b b4dd b03c d202 ecba b138 fd3b
000000b0: fd25 913b f0c5 a334 fbef d03b 5210 ce3c
000000c0: 1f7e 5ab7 ae59 d03b 3a0c ddb3 b7db 7e3b
000000d0: 2d2b a63b 6828 9b3b 60e6 05b7 bdcb a03c
000000e0: 82f2 b13c bebe e83b 7df6 a03b 4d81 9f3c
000000f0: 8454 bc3c 7f39 303e 97c1 203e 521a a73b
00000100: 5da1 803b 6317 f33a d4f4 92b6 9fc2 50b7
00000110: 5c2a 803b 84cf 863b 1b38 39b5 8ae0 89b6
00000120: 0da2 363b 51db 373b 02fb 6a3b 8a4c 8e3b
00000130: 6df1 093b 879a 513b 8a65 a03b b8a3 623b
00000140: fa48 583b 86e3 863b 4981 5d3b edbe 243b
00000150: 6338 633b 3a49 783b 3226 793b 4124 6c3e
00000160: 4946 523b c69f 00ba 7255 8b3b 2e7f 8b3b
00000170: 853c e43c 4a5e 093b 40c9 463e e237 7f3b
00000180: 7e94 2b3b f284 563b 62b2 2a3b f51f 573b
00000190: 56c5 923b 8215 3f3b 0e4a 853b d4bb 9b3b
000001a0: 04cd 533b 5df0 c73c 8c70 fcba 9335 c03b
000001b0: c295 3f3b ccd9 3b33 04d6 933b 373a e33c
000001c0: 4a69 5bb7 2dd7 923b fe7a d2b3 5c2a 143b
000001d0: 2121 603b 1933 413b 96de 01b7 012d ad3c
000001e0: 2765 c03c d7a0 a63b 3568 583b 617a aa3c
000001f0: fdaf c83c 6873 313e e5fb 3c3e 0e82 4b3b
00000200: 7472 cc3b d8e4 fabb 0ff2 3739 4460 4139
00000210: 0324 033c bbd3 e63b 10ec 7a38 07ac 9c39
00000220: 9509 d6bb 243c 15bc 39e5 a1bb c864 f6bb
00000230: 287e ff3b 6737 063c 1641 e1bb e433 f0bb
00000240: b5d1 093c 6c2d 07bc b026 803b 044f dbbb
00000250: 2298 fc3b a9d0 e9bb 30c3 ba3b 7f02 d6bd
00000260: 10f4 00bc 4dd9 81b9 3f8f ef3b 87d2 e83b
00000270: 6e72 0e3d 4e53 0abc f240 ba3b 8bd6 f5bb
00000280: f67c b23b abeb 06bc ef30 ed3b 41b3 123c
00000290: b490 de3b c825 ad3b 7831 bfbb 3657 c8bb
000002a0: ae10 1b3c 4a46 133d 2cfd 543b a2ce bd3b
000002b0: 7d09 023c 4f81 9239 7958 023c 9611 0c3d
000002c0: 2e9c b3b9 3bd4 a4bb c2f2 41b8 f04f 1ebc
000002d0: feba c33b 714a b23b b090 c2b9 6ddf 01bd
000002e0: e4c8 0dbd 2d38 9f3b 95dc 0c3c 4296 06bd
000002f0: 1cb2 093d 66c6 243e 6a3d 34bd 4132 113c
00000300: b587 b13b 0405 833b b295 99b6 cd44 51b7
00000310: c3e2 c43b e5e2 bf3b 0be3 3fb5 bfe3 89b6
00000320: 9cd9 913b 547d 843b d6eb b33b 8310 c43b
00000330: 31dd 8b3b 14d1 9b3b 39ae e73b afd3 a43b
00000340: 06a6 ae3b ca41 bc3b a0f5 aa3b 5801 8e3b
00000350: abcc a83b b402 bc3b 68f3 be3b 3ae6 223e
00000360: 85d4 a33b 32f0 fab9 62a0 d23b 3e1d bd3b
00000370: 8d44 cc3c c607 633b 7db5 553e bb48 b73b
00000380: f925 8d3b daad af3b 540d 8f3b f1a6 9f3b
00000390: 3397 c43b f912 9d3b c883 c93b e594 f23b
000003a0: 66d2 a33b af0c b13c f9bb ebba 68c4 fc3b
000003b0: 1409 913b ac8e a434 42c2 d03b 8515 ce3c
000003c0: 3b73 5ab7 ccf9 cf3b 501b ddb3 daca 7e3b
000003d0: ecd0 a53b 890a 9b3b 93e2 05b7 00bb a03c
000003e0: 1fe0 b13c e659 e83b afc8 a03b 4865 9f3c
000003f0: d686 bc3c 2e17 6b3e c023 2f3e 6efa a63b

lstm.bias_hh_l0 f4 [256]
0.0054258374 0.004004488 -4.5795873e-06 -1.2475645e-05 0.006018836 0.005868563 -7.1522146e-07 -4.109804e-06
0.004460335 0.004045869 0.0054995725 0.005985884 0.0042739417 0.004763655 0.007081562 0.0050375536
0.0053377445 0.0057509313 0.005229201 0.004338514 0.0051626083 0.0057468894 0.00583817 0.13606694
0.005007074 -0.00047894916 0.006437076 0.0057786414 0.024928847 0.0034688292 0.2153389 0.005602405
0.004320996 0.005371919 0.0043774634 0.0048762932 0.0060090143 0.0048054582 0.006166719 0.0074207047
0.005004863 0.021590091 -0.0018006212 0.0077277054 0.0044295774 3.0505134e-07 0.006376264 0.025154267
-1.3023177e-05 0.006358347 -1.02933384e-07 0.0038888284 0.005071065 0.0047350414 -7.981056e-06 0.0196284
0.021722082 0.0071028164 0.004912196 0.019470835 0.022989519 0.17209473 0.15698849 0.005099573
0.003925486 0.0018546398 -4.379641e-06 -1.244308e-05 0.0039112996 0.0041140933 -6.8999515e-07 -4.109058e-06
0.0027867586 0.0028054307 0.0035855179 0.0043426203 0.0021048442 0.0031982975 0.004894917 0.0034582447
0.0033002482 0.0041164784 0.0033798984 0.0025138215 0.003467106 0.0037885443 0.003801715 0.23060776
0.003208535 -0.00049066206 0.0042521292 0.0042571044 0.02786089 0.0020960742 0.19412708 0.003894322
0.0026181038 0.003273305 0.0026046266 0.0032825444 0.0044790907 0.0029157107 0.004067666 0.0047526155
0.0032318244 0.024406606 -0.0019259616 0.0058657615 0.002923355 4.3737415e-08 0.0045115966 0.02773772
-1.3077932e-05 0.0044812174 -9.801259e-08 0.0022608256 0.0034199434 0.002947992 -7.740824e-06 0.021139624
0.023485733 0.0050850916 0.0033021097 0.020810308 0.02449798 0.17334945 0.1845546 0.003105286
0.00623923 -0.007656675 0.00017542414 0.00018441776 0.008004191 0.007044283 5.9824495e-05 0.0002988281
-0.006531904 -0.009108577 -0.0049406555 -0.0075193383 0.0077970214 0.00819192 -0.006874214 -0.0073304046
0.008411814 -0.0082505755 0.003910862 -0.006692769 0.0077085653 -0.00713547 0.0056995377 -0.12715855
-0.007870689 -0.000247667 0.0073107774 0.007105175 0.034777887 -0.008442713 -0.015317069 -0.007502382
0.0054470254 -0.008234899 0.0072384994 0.00895387 0.006749349 0.005284045 -0.0058347546 -0.006113912
0.009464426 0.035955705 0.0032499535 0.005792455 0.0079368325 0.00027943632 0.007955664 0.034196217
-0.00034257903 -0.0050301827 -4.624087e-05 -0.009662613 0.005973219 0.005441003 -0.00037110364 -0.031707227
-0.034615427 0.0048589916 0.008597513 -0.032858152 0.033617225 0.15253398 0.04581218 0.008862079
0.005417789 0.0039984006 -4.577182e-06 -1.247339e-05 0.0060084774 0.0058559054 -7.1483436e-07 -4.1094313e-06
0.00445099 0.0040432606 0.0054907603 0.0059834137 0.0042683114 0.0047551487 0.0070703295 0.0050301175
0.00532985 0.0057451474 0.005217269 0.0043336563 0.0051513514 0.005737627 0.005827356 0.15907975
0.0049996995 -0.00047862675 0.0064278105 0.005771308 0.024935031 0.0034642085 0.20870014 0.005593387
0.004307505 0.005361301 0.0043656025 0.004872196 0.0059994697 0.0047935215 0.0061497428 0.0074030035
0.0049994467 0.021612493 -0.0017985097 0.007713843 0.004426131 3.0651188e-07 0.0063708136 0.025156746
-1.3020642e-05 0.006346917 -1.02960826e-07 0.0038878233 0.005060306 0.0047314805 -7.980171e-06 0.019620419
0.021713315 0.007090795 0.004906736 0.019457474 0.023013514 0.22957739 0.17103481 0.0050957715
00000000: 39cb b13b 1438 833b 5baa 99b6 7d4e 51b7
00000010: a839 c53b 134d c03b a5fd 3fb5 f3e6 89b6
00000020: 0028 923b 3693 843b c235 b43b 3c25 c43b
00000030: 6c0c 8c3b 6f18 9c3b 730c e83b 1012 a53b
00000040: 3fe8 ae3b 4f72 bc3b b859 ab3b 182a 8e3b
00000050: 192b a93b 6750 bc3b 1f4e bf3b 2255 0b3e
00000060: 6212 a43b 781b fbb9 1bee d23b c25a bd3b
00000070: 9537 cc3c 4c55 633b cd81 5c3e 6194 b73b
00000080: 2497 8d3b ec06 b03b d370 8f3b 50c9 9f3b
00000090: 44e7 c43b 1b77 9d3b 3012 ca3b 6229 f33b
000000a0: d5ff a33b b4dd b03c d202 ecba b138 fd3b
000000b0: fd25 913b f0c5 a334 fbef d03b 5210 ce3c
000000c0: 1f7e 5ab7 ae59 d03b 3a0c ddb3 b7db 7e3b
000000d0: 2d2b a63b 6828 9b3b 60e6 05b7 bdcb a03c
000000e0: 82f2 b13c bebe e83b 7df6 a03b 4d81 9f3c
000000f0: 8454 bc3c 9a39 303e 97c1 203e 521a a73b
00000100: 5da1 803b 6317 f33a d4f4 92b6 9fc2 50b7
00000110: 5c2a 803b 84cf 863b 1b38 39b5 8ae0 89b6
00000120: 0da2 363b 51db 373b 02fb 6a3b 8a4c 8e3b
00000130: 6df1 093b 879a 513b 8a65 a03b b8a3 623b
00000140: fa48 583b 86e3 863b 4981 5d3b edbe 243b
00000150: 6338 633b 3a49 783b 3226 793b 7124 6c3e
00000160: 4946 523b c69f 00ba 7255 8b3b 2e7f 8b3b
00000170: 853c e43c 4a5e 093b 40c9 463e e237 7f3b
00000180: 7e94 2b3b f284 563b 62b2 2a3b f51f 573b
00000190: 56c5 923b 8215 3f3b 0e4a 853b d4bb 9b3b
000001a0: 04cd 533b 5df0 c73c 8c70 fcba 9335 c03b
000001b0: c295 3f3b ccd9 3b33 04d6 933b 373a e33c
000001c0: 4a69 5bb7 2dd7 923b fe7a d2b3 5c2a 143b
000001d0: 2121 603b 1933 413b 96de 01b7 012d ad3c
000001e0: 2765 c03c d7a0 a63b 3568 583b 617a aa3c
000001f0: fdaf c83c 8582 313e e2fb 3c3e 0e82 4b3b
00000200: 7472 cc3b d8e4 fabb 0ff2 3739 4460 4139
00000210: 0324 033c bbd3 e63b 10ec 7a38 07ac 9c39
00000220: 9509 d6bb 243c 15bc 39e5 a1bb c864 f6bb
00000230: 287e ff3b 6737 063c 1641 e1bb e433 f0bb
00000240: b5d1 093c 6c2d 07bc b026 803b 044f dbbb
00000250: 2298 fc3b a9d0 e9bb 30c3 ba3b da35 02be
00000260: 10f4 00bc 4dd9 81b9 3f8f ef3b 87d2 e83b
00000270: 4273 0e3d 4e53 0abc 72f4 7abc 8bd6 f5bb
00000280: f67c b23b abeb 06bc ef30 ed3b 41b3 123c
00000290: a529 dd3b c825 ad3b 7831 bfbb 3657 c8bb
000002a0: ae10 1b3c 4a46 133d 2cfd 543b a2ce bd3b
000002b0: 7d09 023c 4f81 9239 7958 023c 5511 0c3d
000002c0: 2e9c b3b9 3bd4 a4bb c2f2 41b8 f04f 1ebc
000002d0: feba c33b 714a b23b b090 c2b9 70df 01bd
000002e0: e8c8 0dbd 2d38 9f3b 95dc 0c3c 4596 06bd
000002f0: 37b2 093d de31 1c3e 8da5 3b3d 4132 113c
00000300: b587 b13b 0405 833b b295 99b6 cd44 51b7
00000310: c3e2 c43b e5e2 bf3b 0be3 3fb5 bfe3 89b6
00000320: 9cd9 913b 547d 843b d6eb b33b 8310 c43b
00000330: 31dd 8b3b 14d1 9b3b 39ae e73b afd3 a43b
00000340: 06a6 ae3b ca41 bc3b a0f5 aa3b 5801 8e3b
00000350: abcc a83b b402 bc3b 68f3 be3b cde5 223e
00000360: 85d4 a33b 32f0 fab9 62a0 d23b 3e1d bd3b
00000370: 8d44 cc3c c607 633b 7db5 553e bb48 b73b
00000380: f925 8d3b daad af3b 540d 8f3b f1a6 9f3b
00000390: 3397 c43b f912 9d3b c883 c93b e594 f23b
000003a0: 66d2 a33b af0c b13c f9bb ebba 68c4 fc3b
000003b0: 1409 913b ac8e a434 42c2 d03b 8515 ce3c
000003c0: 3b73 5ab7 ccf9 cf3b 501b ddb3 daca 7e3b
000003d0: ecd0 a53b 890a 9b3b 93e2 05b7 00bb a03c
000003e0: 1fe0 b13c e659 e83b afc8 a03b 4865 9f3c
000003f0: d686 bc3c 5616 6b3e c023 2f3e 6efa a63b

lstm.weight_ih_l0_reverse f4 [256, 6]
-0.00027795855 -0.00019507387 -0.00033184013 -0.00027995097 -0.00025124862 -0.00028696493 -5.986596e-19 -7.961578e-19
-2.2414446e-18 7.312868e-20 8.1753827e-19 -6.8198756e-19 -2.1436615e-18 -2.9116377e-18 -2.1294623e-18 -2.434087e-18
-1.9031426e-18 -2.489878e-18 -0.00021690957 -0.00015437555 -0.0002667153 -0.0002231442 -0.00020951446 -0.0002231004
-3.4314266e-12 -2.5946398e-12 -4.0341697e-12 -3.3669187e-12 -3.0103723e-12 -3.5229755e-12 -8.393809e-10 -1.0844624e-09
4.4741938e-10 -2.146561e-09 -1.3937469e-09 3.4530004e-10 -9.67087e-07 -1.0067284e-06 -4.7369326e-08 -9.185981e-07
-9.696666e-07 -7.5099314e-07 -4.4033503e-20 -5.82439e-20 -2.5077803e-20 -4.8289974e-20 -4.396288e-20 -3.6186034e-20
-1.3997673e-08 -2.6685352e-09 -9.174649e-09 -4.64792e-09 7.851167e-09 -1.422556e-08 -1.6855599e-09 2.5250553e-09
-5.7733274e-10 2.0102993e-09 5.6859046e-09 -4.9562293e-10 -2.4890021e-05 -2.1610003e-05 -3.526105e-05 -2.279409e-05
-1.2340325e-05 -2.8708118e-05 -1.6451655e-05 -1.3976888e-05 -1.787808e-05 -1.5513375e-05 -1.0368362e-05 -1.7568245e-05
-5.0717785e-14 -3.906222e-14 -5.808195e-14 -4.7873005e-14 -4.4057287e-14 -4.923242e-14 -1.3837654e-07 -1.1271558e-09
-3.1013113e-07 -3.6893056e-08 7.613707e-08 -2.2045066e-07 -3.4282963e-09 -3.498453e-09 -1.2457416e-09 -2.1272866e-09
5.7292726e-10 -2.2596705e-09 -9.126299e-14 -7.0564296e-14 -1.0536004e-13 -9.2208115e-14 -8.53979e-14 -9.188608e-14
-0.00048198123 -0.00038909214 -0.00056901306 -0.000461627 -0.00041783508 -0.00047370684 -4.143144e-15 -4.628309e-15
-3.1438704e-15 -5.1060633e-15 -3.5101344e-15 -3.983757e-15 1.3534498e-06 2.5021066e-06 -4.0701984e-06 2.646649e-06
2.9269363e-06 -4.7721795e-07 -1.39877835e-14 -7.401472e-15 -1.8280057e-14 -1.0507334e-14 -1.0103051e-14 -1.1327539e-14
1.4619265e-16 1.37592e-16 1.158956e-16 1.5286955e-16 1.6408053e-16 1.4580011e-16 -9.933826e-14 -1.0603834e-13
-1.1719475e-13 -9.91009e-14 -7.552902e-14 -1.08652995e-13 -2.4791723e-07 4.8446058e-08 -6.8648956e-07 3.6799236e-08
1.7613827e-07 -2.8714064e-07 -2.1915114e-09 -2.1670816e-09 -4.687831e-10 -2.8724823e-09 5.361339e-10 -1.8365793e-09
-2.1215918e-09 -5.267135e-09 -9.7163735e-09 -4.2663034e-10 -7.790675e-09 -1.4677591e-09 -1.8895433e-07 3.6006634e-07
-4.975831e-07 7.838169e-08 9.934192e-08 7.784859e-08 -1.706356e-08 -3.9131493e-08 1.1710086e-08 -3.5717928e-08
-4.8081276e-08 -5.137687e-09 -2.4239298e-06 -1.5507983e-06 -1.7344299e-06 -1.6596424e-06 -8.936764e-07 -2.1826029e-06
-5.162008e-14 -4.3324817e-14 -6.2040725e-14 -4.941621e-14 -4.2403692e-14 -5.2741794e-14 -5.835195e-19 -5.148789e-19
-8.182609e-19 -4.805734e-19 -2.3503373e-19 -6.6993916e-19 -5.782105e-13 -4.3321865e-13 -6.3486613e-13 -5.147913e-13
-4.714612e-13 -5.7838136e-13 -1.937617e-09 -2.7056037e-09 -3.3712688e-10 7.504549e-10 -1.6669491e-09 -2.3292532e-09
3.9830834e-06 -4.1450985e-06 1.1946598e-05 -6.2695653e-07 -4.2580627e-06 6.600377e-06 -3.537535e-07 -2.7173058e-07
-4.2925737e-07 -3.5092975e-07 -3.1088905e-07 -3.559095e-07 -4.7849796e-10 1.4467059e-11 -2.7677075e-10 -2.343443e-10
-1.8243979e-10 -4.3848658e-10 -2.0689106e-09 4.937631e-10 -1.1410793e-09 1.1912363e-10 1.5645795e-09 -1.8264893e-09
1.5850792e-18 -3.2614526e-18 -2.195071e-18 -3.1430826e-18 -5.1246155e-18 2.0147438e-18 -1.295574e-10 1.0286182e-09
-1.4406475e-09 1.5007604e-09 1.6333636e-09 8.714382e-10 -6.7143574e-06 -9.481427e-06 -4.2666807e-06 -8.487876e-06
-7.1036043e-06 -4.617465e-06 -2.720815e-07 -2.1125274e-07 -3.2272249e-07 -2.6029488e-07 -2.4423235e-07 -2.7522537e-07
-1.4998192e-17 -1.7057045e-17 -7.129766e-17 4.396369e-19 3.305472e-17 -4.1185574e-17 5.7732363e-10 -3.4918493e-09
2.852544e-09 -2.7725269e-09 -2.5714226e-09 -6.908119e-11 -5.079856e-19 -4.233667e-19 -6.2542196e-19 -4.881871e-19
00000000: f7ba 91b9 be8c 4cb9 d4fa adb9 62c6 92b9
00000010: 05ba 83b9 c873 96b9 71b1 30a1 fcfb 6aa1
00000020: b163 25a2 93ab ac1f 724b 7121 8649 49a1
00000030: 9f2c 1ea2 48d7 56a2 6820 1da2 9a9a 33a2
00000040: 596d 0ca2 77b8 37a2 3872 63b9 dfdf 21b9
00000050: ecd5 8bb9 d1fb 69b9 1cb1 5bb9 0ff0 69b9
00000060: 1677 71ac e094 36ac 92f0 8dac 04ed 6cac
00000070: 0cd6 53ac 49e8 77ac 2eba 66b0 210c 95b0
00000080: aef8 f52f b382 13b1 1c8e bfb0 a9d4 bd2f
00000090: dbcc 81b5 ed1e 87b5 2073 4bb3 9595 76b5
000000a0: 7e25 82b5 db97 49b5 3df1 4f9f 4786 899f
000000b0: 68da ec9e ff0a 649f dc9b 4f9f 3be2 2a9f
000000c0: 6b7a 70b2 5e61 37b1 889e 1db2 89b3 9fb1
000000d0: cce1 0632 ad64 74b2 5ea9 e7b0 3e85 2d31
000000e0: 2eb2 1eb0 8f25 0a31 bf5d c331 5d3c 08b0
000000f0: eaca d0b7 2147 b5b7 44e5 13b8 ef35 bfb7
00000100: 4b09 4fb7 37d2 f0b7 a901 8ab7 477e 6ab7
00000110: e2f8 95b7 b822 82b7 c7f3 2db7 855f 93b7
00000120: a069 64a9 aceb 2fa9 f7c9 82a9 d199 57a9
00000130: 986a 46a9 1eb9 5da9 a794 14b4 45ea 9ab0
00000140: 1980 a6b4 5874 1eb3 cc80 a333 04b5 6cb4
00000150: 3a97 6bb1 7069 70b1 a336 abb0 9f2f 12b1
00000160: 2c7c 1d30 8b48 1bb1 8881 cda9 8ce5 9ea9
00000170: ee3f eda9 5ca2 cfa9 8a4c c0a9 b8e8 cea9
00000180: 6db2 fcb9 10ff cbb9 d229 15ba 8706 f2b9
00000190: e010 dbb9 db5b f8b9 c245 95a7 9ec0 a6a7
000001a0: 2c8a 62a7 1ff7 b7a7 8dee 7ca7 ac87 8fa7
000001b0: 2ea8 b535 dde9 2736 bd92 88b6 159d 3136
000001c0: 626c 4436 2b1a 00b5 44fb 7ba8 4455 05a8
000001d0: f1a6 a4a8 8648 3da8 1900 36a8 0e0f 4ca8
000001e0: 748c 2825 fea1 1e25 589e 0525 213f 3025
000001f0: 062c 3d25 9918 2825 9cb0 dfa9 f1c6 eea9
00000200: 16f3 03aa c827 dfa9 8413 aaa9 30aa f4a9
00000210: 7c19 85b4 0113 5033 3447 38b5 300d 1e33
00000220: 8520 3d34 4f28 9ab4 7a99 16b1 b4eb 14b1
00000230: aedb 00b0 3e65 45b1 125f 1330 e46a fcb0
00000240: 70cb 11b1 36fa b4b1 10ed 26b2 e28a eaaf
00000250: c0d7 05b2 2fba c9b0 5fe3 4ab4 244f c134
00000260: a691 05b5 ca52 a833 cc55 d533 b72d a733
00000270: 2a93 92b2 8811 28b3 812d 4932 4768 19b3
00000280: ec81 4eb3 9387 b0b1 ccaa 22b6 0625 d0b5
00000290: 8fca e8b5 e1c0 deb5 f9e4 6fb5 d578 12b6
000002a0: e679 68a9 1d1e 43a9 0bb4 8ba9 038d 5ea9
000002b0: 21f8 3ea9 2687 6da9 7d39 2ca1 26f7 17a1
000002c0: 0c82 71a1 19d7 0da1 4bbd 8aa0 2cbb 45a1
000002d0: 75c0 22ab 63e1 f3aa edb2 32ab 9fe6 10ab
000002e0: 5cb4 04ab c5cc 22ab eb26 05b1 7ced 39b1
000002f0: 6456 b9af 9248 4e30 8f1a e5b0 a810 20b1
00000300: 6da6 8536 2016 8bb6 3f6e 4837 204c 28b5
00000310: 7be0 8eb6 cf78 dd36 83eb bdb4 5ee2 91b4
00000320: af74 e6b4 6b67 bcb4 44e8 a6b4 d413 bfb4
00000330: 4d87 03b0 d781 7e2d 0528 98af 07d5 80af
00000340: 3c98 48af 800f f1af a92c 0eb1 7db9 0730
00000350: 29d4 9cb0 52fa 022f bf08 d730 e107 fbb0
00000360: 99ea e921 19a7 70a2 b8f7 21a2 27eb 67a2
00000370: a010 bda2 6fa9 1422 2b73 0eaf 495f 8d30
00000380: 4700 c6b0 5043 ce30 df7c e030 038a 6f30
00000390: e44b e1b6 6b12 1fb7 822a 8fb6 2667 0eb7
000003a0: 7f5b eeb6 b9ef 9ab6 9912 92b4 b6d4 62b4
000003b0: a442 adb4 a8be 8bb4 0a1f 83b4 b0c2 93b4
000003c0: 7b55 8aa3 cf52 9da3 b666 a4a4 06c2 0121
000003d0: 2070 1824 58ef 3da4 8ab1 1e30 43f5 6fb1
000003e0: 7c06 4431 cf86 3eb1 f2b4 30b1 41e9 97ae
000003f0: 4fee 15a1 5ee9 f9a0 8c97 38a1 6016 10a1

lstm.weight_hh_l0_reverse f4 [256, 64]
1.1912621e-06 -2.642249e-14 3.921351e-15 -1.1979616e-06 -1.3964971e-10 2.8395006e-09 3.2486922e-09 -1.2317899e-15
4.4164838e-10 -3.824094e-09 -3.122991e-08 -1.9319711e-07 1.2841903e-11 6.6749193e-09 1.146353e-09 1.9621721e-11
-1.5834073e-06 -1.1128872e-12 -2.6382933e-08 1.322662e-12 1.3362209e-13 8.0671025e-12 1.2368661e-08 2.0451199e-09
-1.2556458e-09 1.820664e-08 -3.832844e-09 9.436129e-08 -1.6424083e-11 5.8060055e-15 4.3073097e-11 -9.93282e-10
3.281775e-08 -3.7488878e-08 4.8975674e-10 2.5721025e-10 1.4668022e-13 -1.8208092e-09 -1.918572e-07 2.540098e-08
1.7146296e-13 2.4043964e-10 -3.553768e-14 -3.163485e-08 1.2578775e-07 1.1849638e-09 1.7269246e-09 1.4185295e-13
2.669206e-15 -1.8446589e-13 1.1137625e-07 -1.8108673e-06 -1.936522e-08 -2.05005e-13 2.4770455e-13 9.439126e-12
-3.142894e-07 4.349957e-14 1.1283499e-09 9.2347946e-08 1.872943e-10 6.4713426e-14 2.2220781e-14 -1.606413e-06
5.353567e-21 -2.350875e-26 2.2955319e-27 -5.080345e-21 -9.139057e-25 4.413814e-22 1.4192439e-20 2.2168397e-27
9.618646e-22 -1.7442335e-21 1.5176879e-21 -4.3915237e-21 1.665092e-26 2.4178538e-21 2.9805495e-22 1.1317156e-25
-1.1198521e-20 -4.880841e-25 -1.7110365e-20 -9.7371135e-26 -2.1708919e-26 3.1959253e-25 7.691428e-21 1.3328391e-22
5.4791865e-22 3.940994e-21 -2.1454317e-21 -2.0278394e-20 -1.3303667e-25 1.9059218e-27 -2.612302e-25 2.0090501e-22
-1.2288776e-20 -2.4330242e-22 4.2099931e-22 -5.01854e-22 -2.3246548e-26 1.1638533e-22 -3.0457055e-21 2.7291144e-22
2.652703e-26 -2.738305e-22 -3.1342998e-28 1.4699893e-20 -1.2749275e-20 -1.5551902e-22 1.806334e-24 1.2122899e-26
-1.6598125e-29 3.4549246e-27 5.075886e-22 -2.9938128e-21 -1.0397682e-22 -2.0429437e-26 -6.2973283e-27 -2.8036903e-25
-2.0788192e-21 5.5915235e-27 5.155012e-22 -5.4973977e-22 1.3400198e-24 -3.2367077e-26 9.724948e-28 -6.815256e-21
5.937502e-21 2.897852e-28 3.8259604e-27 -4.495219e-21 -4.125449e-25 -1.9438648e-23 1.0822701e-21 -1.1707954e-28
2.6865982e-22 -2.2766203e-22 2.5533414e-21 -9.420921e-21 7.2296976e-26 6.6616963e-22 4.9891726e-23 6.0777104e-26
-6.4785848e-21 -2.2034071e-26 3.439174e-21 1.5424988e-25 -5.7193687e-27 8.7645325e-26 1.7079402e-21 1.7819694e-23
-2.1771733e-23 2.3921157e-21 -8.1363556e-23 -5.6072107e-22 -8.136837e-26 3.6170286e-28 9.282356e-25 -2.1361381e-23
5.666107e-21 -1.8937187e-22 3.3441717e-23 -1.6895602e-23 4.2968414e-27 -5.453563e-23 -8.344791e-21 1.7517518e-22
1.0295943e-26 1.1714656e-23 -2.022893e-28 6.586943e-22 7.9434794e-22 -2.486781e-23 4.3397233e-23 -5.241032e-28
2.2662215e-29 -4.9157124e-27 2.375558e-22 -2.1469166e-20 -7.242648e-23 2.482605e-27 3.246589e-27 1.0354199e-25
-1.3902299e-21 1.7995092e-27 -6.3056725e-24 4.743563e-21 8.532861e-25 -2.8683343e-27 5.817188e-28 -1.234829e-20
1.0925359e-06 -1.733509e-14 -6.5074085e-15 -1.1317751e-06 -1.2800935e-10 2.8284406e-09 2.7954987e-09 1.1756735e-15
3.1288422e-10 -3.7863566e-09 -8.8906695e-08 -2.1486242e-07 1.1741032e-11 6.555965e-09 5.828989e-10 1.8651138e-11
-1.4734961e-06 -6.0893516e-13 -1.8799518e-08 -3.8055545e-13 1.7496878e-13 6.324275e-12 9.656096e-09 1.8834334e-09
8.996135e-11 6.0402545e-09 -5.173701e-09 1.0022826e-07 -1.5097514e-11 9.468885e-16 3.6769098e-11 -8.110994e-10
3.882432e-08 -3.4120433e-08 4.7397786e-10 1.7011502e-10 1.4102958e-13 -1.4761481e-09 -1.7775614e-07 2.2367503e-08
2.923243e-14 3.7226988e-10 -3.134709e-14 -3.3304342e-08 1.1993077e-07 4.995595e-10 1.2869288e-09 1.4378544e-13
2.2755483e-15 -1.1466881e-13 1.03367256e-07 -1.6274647e-06 -1.7653003e-08 -1.9965717e-13 2.062332e-13 7.641309e-12
-2.8411088e-07 3.224806e-14 1.3351982e-09 4.702219e-08 1.6175199e-10 6.368144e-14 2.0861891e-14 -1.4020103e-06
00000000: 74e3 9f35 1dfe eda8 1448 8d27 a6c9 a0b5
00000010: e68b 19af 0621 4331 993f 5f31 0785 b1a6
00000020: 7ccc f22f 1665 83b1 a621 06b3 9e71 4fb4
00000030: caea 612d 3659 e531 b68d 9d30 3098 ac2d
00000040: 7685 d4b5 fd9f 9cab afa0 e2b2 ec25 ba2b
00000050: f271 162a 00eb 0d2d f27d 5432 218a 0c31
00000060: 1c93 acb0 d364 9c32 0db2 83b1 aba3 ca33
00000070: bf77 90ad f32e d127 ff6f 3d2e 0184 88b0
00000080: 7ff3 0c33 7503 21b3 919f 0630 2067 8d2f
00000090: b225 252a 0740 fab0 4e01 4eb4 5931 da32
000000a0: d50c 412a df2e 842f 280c 20a9 e3de 07b3
000000b0: 4610 0734 35dc a230 c258 ed30 54b6 1f2a
000000c0: 2956 4027 acb0 4faa be2d ef33 ed0c f3b5
000000d0: 9258 a6b2 abd0 66aa fd71 8b2a 0b0e 262d
000000e0: 9bbb a8b4 97e7 4329 4814 9b30 d250 c633
000000f0: a9ee 4d2f c0b8 9129 a225 c828 ee9b d7b5
00000100: 8640 ca1d c3d1 e894 ebde 3513 15ee bf9d
00000110: 896b 8d97 3b66 051c 360b 861e daa2 2f13
00000120: 565a 911c 62ca 039d b558 e51c 36e8 a59d
00000130: 19e7 a414 18b0 361d c529 b41b 8019 0c16
00000140: ba88 539e 020e 1797 539a a19e 4a14 f195
00000150: a6fe d694 75d1 c516 7749 111e 5f21 211b
00000160: 2799 251c f5e2 941d af1a 229d 2686 bf9e
00000170: 01b1 2496 b000 1713 94b1 a196 17e1 721b
00000180: e020 689e 3a11 939b 7d7a fe1b 13ad 179c
00000190: 0039 e694 84b3 0c1b 8320 669d 00f7 a41b
000001a0: 015b 0315 3885 a59b eca8 c691 29d6 8a1e
000001b0: b6d3 709e ce02 3c9b 22c2 0b18 671e 7014
000001c0: 3253 a88f 19dd 8813 c468 191c c334 629d
000001d0: 8966 fb9a c752 ca94 7f76 f993 3f8a ad96
000001e0: 3612 1d9d c980 dd13 f9cc 1b1c 0e26 269c
000001f0: a75b cf17 2546 2095 1319 9a12 8ebc 009e
00000200: ff4f e01d 56ac b711 d98f 9713 17d3 a99d
00000210: 595a ff96 c3ff bb99 4c8c a31c 7c6a 1491
00000220: 1865 a21b fe9c 899b ceec 401d c7f4 319e
00000230: a7ff b215 6156 491c f742 711a 117a 9615
00000240: 07c1 f49d 0237 da94 a6ed 811d bdf3 3e16
00000250: 4a91 e293 d3ff d815 5e0c 011d 6d57 ac19
00000260: 3390 d299 3fbe 341d 9ab9 c49a b177 299c
00000270: 5575 c995 a541 e511 33a3 8f17 3898 ce99
00000280: 390f d61d c1ef 649b d7b6 211a 7c67 a399
00000290: 2637 aa13 ecdb 839a efa0 1d9e 18c6 531b
000002a0: a2ee 4b14 2b98 6219 5137 8091 0114 471c
000002b0: b213 701c b781 f099 2cdb 511a 4e18 2692
000002c0: 79d2 e50f 3fbb c293 fb97 8f1b 42c5 ca9e
000002d0: d21d af9a 36b1 4413 539c 8013 c42d 0016
000002e0: ea15 d29c 6292 0e13 5bf0 f398 ed34 b31d
000002f0: 250a 8417 bb40 6393 a35a 3812 ab40 699e
00000300: 3fa3 9235 ff23 9ca8 4074 eaa7 7fe7 97b5
00000310: 6ebf 0caf 745e 4231 ef1a 4031 b26e a926
00000320: 8a02 ac2f 2519 82b1 f9ec beb3 efb4 66b4
00000330: e88c 4e2d e142 e131 dd39 2030 a10e a42d
00000340: f1c4 c5b5 6766 2bab 947c a1b2 d23b d6aa
00000350: 51ff 442a 0184 de2c f6e3 2532 b66d 0131
00000360: bdd3 c52e a48a cf31 5bc4 b1b1 123d d733
00000370: 94cc 84ad 0576 8826 53b6 212e 0cf4 5eb0
00000380: cbbf 2633 d08b 12b3 3a49 0230 1f0b 3b2f
00000390: 02c9 1e2a 58e1 cab0 3cdd 3eb4 a922 c032
000003a0: b2a6 0329 54a8 cc2f bc2c 0da9 830a 0fb3
000003b0: 52c6 0034 6051 0930 c8df b030 55e3 212a
000003c0: 75f8 2327 091b 01aa c0fa dd33 436f dab5
000003d0: 5da3 97b2 43cb 60aa ac32 682a 656d 062d
000003e0: e787 98b4 7b3b 1129 1c82 b730 72f5 4933
000003f0: 23d9 312f da65 8f29 3fe8 bb28 b52c bcb5

lstm.bias_ih_l0_reverse f4 [256]
-0.00048820046 -8.730805e-18 -4.3529007e-18 -0.00037468682 -5.551212e-12 4.4326223e-09 7.7463824e-07 -1.3480914e-19
4.1311634e-09 -2.4407019e-08 -7.240942e-05 -4.711839e-06 -7.522068e-14 1.8867071e-07 -2.7700362e-09 -1.4719759e-13
-0.0007569267 -8.756474e-15 1.2546388e-06 -2.993636e-14 -1.4273143e-16 -1.3189353e-13 -4.9903963e-07 -3.500132e-09
-4.279244e-09 -3.165732e-06 -5.537242e-08 -4.0426257e-06 -8.418265e-14 -3.1973697e-19 -1.1066516e-12 5.111837e-09
-1.591285e-05 -6.3571724e-07 4.1799866e-10 -2.827144e-09 1.5465887e-17 3.9981224e-10 -4.1785347e-06 -4.5205522e-07
-4.147793e-16 -7.397657e-10 -9.411314e-19 1.0843619e-06 -4.796214e-06 -7.3505815e-09 -7.0531834e-09 -1.7014033e-17
-7.334981e-21 -3.1080805e-17 -4.204101e-06 -0.0006393718 -1.5664318e-07 -6.539595e-18 -4.6930916e-17 -1.6398752e-13
-4.112981e-05 -1.9945707e-18 4.3565993e-08 -4.4713473e-05 -2.207951e-11 -5.164212e-18 -7.3412396e-20 -0.0014258581
-0.0001608823 1.2384981e-19 -2.2231732e-18 -0.00013465786 -2.3558722e-12 -2.3630449e-09 -2.0785235e-07 -1.9708554e-20
6.4711174e-09 1.0052483e-09 -9.667689e-06 4.3826212e-06 -2.956034e-14 1.8708396e-07 -1.6793907e-09 -6.078681e-14
-0.00030305344 -5.3108386e-15 9.2804254e-07 -3.2892286e-15 1.1140093e-16 -6.412206e-14 2.0290229e-07 -1.0772998e-09
-5.582939e-09 -1.1592886e-07 2.3991827e-08 -1.6612496e-08 -3.060744e-14 -3.7890313e-19 -3.2632127e-13 3.6594575e-10
-5.667219e-06 -2.6019654e-07 2.4013344e-10 1.8274102e-10 -3.4059168e-18 -2.843417e-09 -6.7385477e-06 -1.5733555e-07
-2.3504776e-17 2.5071294e-09 -3.3450925e-19 -1.6672396e-07 -1.8365868e-06 -4.1445042e-10 8.6427093e-10 4.30237e-18
-3.55757e-21 -1.02223964e-17 -1.543403e-06 -0.00071620103 -5.0035567e-08 -4.1055766e-18 -1.6783946e-17 1.0860534e-14
-1.6918657e-05 -2.8123492e-19 -4.5998533e-08 -7.125036e-06 -7.324078e-12 -2.1265335e-18 -4.454774e-20 -0.0006134317
0.0018258491 -1.1310056e-09 4.2389298e-10 -0.0015862526 -2.4182665e-07 6.719766e-06 -5.1428546e-05 -3.7046664e-11
-2.0820778e-05 1.2187157e-05 0.0016779212 0.0002472839 2.8023589e-08 4.206975e-06 -4.873117e-05 9.1846005e-08
-0.0015715472 -3.327272e-08 0.00016895491 -1.854067e-07 -5.158848e-09 4.554905e-08 7.1332244e-05 -3.287597e-05
2.4246456e-05 0.0002599328 3.840263e-05 2.1651627e-05 -3.9173898e-08 1.4885661e-10 5.7526492e-08 2.3682675e-05
-5.522016e-06 -8.20229e-05 -1.8205134e-06 2.8650438e-06 -3.4783826e-10 5.652484e-05 -4.3997636e-05 7.9204125e-05
2.3935862e-09 -5.7245866e-06 -1.0786572e-10 -9.90417e-07 -4.3446656e-05 -3.4287514e-05 9.727212e-06 5.8981947e-10
1.5685803e-11 1.0878822e-08 0.00020690003 -0.0006345555 -2.9953913e-05 -5.520732e-10 7.841334e-10 -7.413562e-07
-0.00025697437 2.383766e-10 -8.717752e-06 0.0010423722 3.5435696e-07 -3.1298844e-09 -1.55353e-11 -0.0028780045
-0.00048814775 -8.738831e-18 -4.354548e-18 -0.0003746449 -5.5498184e-12 4.4351958e-09 7.7241276e-07 -1.3440271e-19
4.1827217e-09 -2.4401055e-08 -7.242106e-05 -4.708078e-06 -7.517097e-14 1.8868147e-07 -2.7872813e-09 -1.4712301e-13
-0.0007566916 -8.763388e-15 1.2801306e-06 -2.994114e-14 -1.4301041e-16 -1.318379e-13 -4.9738225e-07 -3.4989958e-09
-4.309669e-09 -3.1661834e-06 -5.5268497e-08 -4.0562845e-06 -8.4164724e-14 -3.1893481e-19 -1.1065713e-12 5.1053597e-09
-1.5953021e-05 -6.3569206e-07 4.1919196e-10 -2.8191864e-09 1.546403e-17 3.986143e-10 -4.205163e-06 -4.5200593e-07
-4.1490943e-16 -7.3753864e-10 -9.410818e-19 1.0836994e-06 -4.798315e-06 -7.407797e-09 -7.057331e-09 -1.6989214e-17
-7.331096e-21 -3.1088376e-17 -4.2034553e-06 -0.0006382054 -1.566379e-07 -6.5337735e-18 -4.6933467e-17 -1.641307e-13
-4.11246e-05 -1.9955569e-18 4.37696e-08 -4.4787055e-05 -2.2079201e-11 -5.206064e-18 -7.337109e-20 -0.0014252996
00000000: 28f5 ffb9 100e 21a3 fc97 a0a2 9d71 c4b9
00000010: df50 c3ac c24d 9831 bcf0 4f35 9027 1fa0
00000020: 19f2 8d31 9aa7 d1b2 83da 97b8 641a 9eb6
00000030: c561 a9a9 6995 4a34 fe5a 3eb1 d1ba 25aa
00000040: 7e6c 46ba 1cbe 1da8 1065 a835 46d2 06a9
00000050: e28e 24a5 b97f 14aa bef5 05b5 f986 70b1
00000060: a108 93b1 dd72 54b6 9fd2 6db3 e4a5 87b6
00000070: fe8f bda9 49bd bca0 53bf 9bab 32a4 af31
00000080: 967c 85b7 28a6 2ab5 15cc e52f a547 42b1
00000090: cba5 8e23 92cc db2f 5735 8cb6 ffb1 f2b4
000000a0: 9f1a efa5 6258 4bb0 f0e2 8aa1 648a 9135
000000b0: 2aef a0b6 6690 fcb1 7558 f2b1 40ed 9ca3
000000c0: cb8d 0a9e bd55 0fa4 f410 8db6 849b 27ba
000000d0: c031 28b4 ba44 f1a2 3f6e 58a4 2fa2 38aa
000000e0: cc82 2cb8 602c 13a2 511d 3b33 ba8a 3bb8
000000f0: a336 c2ad 9a86 bea2 1257 ad9f dce3 baba
00000100: 83b2 28b9 4f37 1220 8e0a 24a2 f232 0db9
00000110: 9fc7 25ac 2063 22b1 052e 5fb4 5c24 ba9e
00000120: 8d58 de31 0829 8a30 6832 22b7 6e0e 9336
00000130: c020 05a9 3fe1 4834 4fd0 e6b0 36e1 88a9
00000140: 25e3 9eb9 d757 bfa7 991e 7935 8f03 6da7
00000150: c06f 0025 da63 90a9 5bdd 5934 1e10 94b0
00000160: 0dd4 bfb1 91f4 f8b3 9616 ce32 44b3 8eb2
00000170: fad7 09a9 39aa dfa0 dab3 b7aa 492e c92f
00000180: 0a29 beb6 24b1 8bb4 c703 842f 06ed 482f
00000190: f34f 7ba2 ec65 43b1 af1b e2b6 11f0 28b4
000001a0: 15cb d8a3 e349 2c31 9c75 c5a0 bc04 33b4
000001b0: a480 f6b5 b6d8 e3af a991 6d30 bcba 9e22
000001c0: b566 869d e791 3ca3 ec26 cfb5 70bf 3bba
000001d0: b0e6 56b3 1378 97a2 f9cd 9aa3 5fa5 4328
000001e0: 8aec 8db7 0503 a6a0 ec8f 45b3 9813 efb6
000001f0: b7d8 00ad 15e9 1ca2 ea5e 529f b4ce 20ba
00000200: 5451 ef3a b971 9bb0 a209 e92f cee9 cfba
00000210: 67d4 81b4 5a7a e136 fbb4 57b8 d6ee 22ae
00000220: 48a8 aeb7 7177 4c37 b1ed db3a e2a5 8139
00000230: 86b8 f032 a429 8d36 b264 4cb8 e03c c533
00000240: 60fc cdba bee7 0eb3 7d29 3139 3514 47b4
00000250: b541 b1b1 b6a1 4333 3598 9538 4ee4 09b8
00000260: de64 cb37 9747 8839 8312 2138 84a0 b537
00000270: 2840 28b3 69ab 232f 0c13 7733 28aa c637
00000280: c249 b9b6 b603 acb8 5d58 f4b5 1445 4036
00000290: e239 bfaf 1615 6d38 1a8a 38b8 641a a638
000002a0: 6a7c 2431 d315 c0b6 0133 edae 78ee 84b5
000002b0: 7e3a 36b8 f0cf 0fb8 0f32 2337 db20 2230
000002c0: 4af9 892d 91e5 3a32 4ef3 5839 4c58 26ba
000002d0: 8a45 fbb7 b3c0 17b0 7c8a 5730 9c01 47b5
000002e0: 84ba 86b9 860c 832f 7642 12b7 35a0 883a
000002f0: 733e be34 8215 57b1 63a6 88ad e79c 3cbb
00000300: 15ee ffb9 f633 21a3 8ba7 a0a2 fd6b c4b9
00000310: 5244 c3ac 6564 9831 cd57 4f35 baac 1ea0
00000320: 9cb7 8f31 7d9a d1b2 c3e0 97b8 15fa 9db6
00000330: 1d45 a9a9 5e98 4a34 5f8a 3fb1 52a5 25aa
00000340: b75c 46ba fedd 1da8 f4d0 ab35 c9d7 06a9
00000350: 39e1 24a5 b06f 14aa d983 05b5 fc72 70b1
00000360: 4014 94b1 9e7a 54b6 5b60 6db3 381b 88b6
00000370: a985 bda9 1144 bca0 6fbc 9bab 386b af31
00000380: dad2 85b7 6da4 2ab5 0674 e62f a7bb 41b1
00000390: 69a1 8e23 fa23 db2f 131a 8db6 39ab f2b4
000003a0: d32d efa5 abbb 4ab0 11e1 8aa1 a173 9135
000003b0: 3601 a1b6 ac87 feb1 f17c f2b1 a6b2 9ca3
000003c0: 017b 0a9e ad5e 0fa4 680b 8db6 3d4d 27ba
000003d0: 4c30 28b4 bf0d f1a2 4271 58a4 74cb 38aa
000003e0: 347d 2cb8 013f 13a2 2ffd 3b33 bcd9 3bb8
000003f0: f135 c2ad e211 c0a2 1a3e ad9f 1ed1 baba
