LOSO/models/model_without_subj_9.pth (torch, 549103 bytes, 18 tensors)

lstm.weight_ih_l0 f4 [256, 6]
00000000: 6913 353c bdc2 3b3c e301 983c 1541 b13c
00000010: 5341 753c c063 923c 5b0e b73a b89f ee3a
00000020: 4f81 ca3a 3cbc 433b cf97 063b c719 d83a
00000030: dbd0 ea3a 4e6e 183b f118 053b e091 6b3b
00000040: 6c9c 163b 2107 df3a 68c4 963a 8249 c93a
00000050: b51d ad3a 5e69 383b 8ef4 003b 23ef a63a
00000060: f17b b13a f367 dc3a 9fe1 b73a 8b92 3a3b
00000070: d463 0c3b d076 ef3a e6d5 8b3a cd63 ae3a
00000080: 2102 973a a2d3 1a3b a5bb ee3a 5d6f b33a
00000090: 6cae ce3b d427 8a3b 166f 1a3c f1cd 453c
000000a0: 9f2d 053c f824 483c b942 c83a 1913 073b
000000b0: 9cf5 ea3a c9d8 4b3b 57e2 073b 47d6 cd3a
000000c0: eb40 bc3c 7245 b23d 58dc 0b3e 483a 8e3d
000000d0: 1149 e33d 1e69 113e fc80 603a 5cea d33a
000000e0: eee6 a33a 756a 003b 8d67 833a b8e4 ce39
000000f0: fbe1 823a f09e ab3a 921d 8a3a 0568 203b
00000100: ecd9 f53a f216 bd3a 4f38 a93a 6965 823a
00000110: 7ae7 b93a cd20 223b bc2e 353b 0f11 2b3b
00000120: 4f7e 973a 138f d63a 0771 a73a 1672 3f3b
00000130: 6882 033b 184f aa3a ace9 613a 0ae7 a93a
00000140: 3c94 7a3a fcb9 1c3b 10b3 f93a cb32 b23a
00000150: 1de2 b13a b7bb ee3a c551 bd3a e80b 463b
00000160: b18a 0e3b fe85 d23a 3a5b b33a 039a f63a
00000170: ab9f cd3a 2b4f 343b 20ae fd3a e970 d03a
00000180: 95d9 883a ff03 d93a 0bb6 973a c3a6 323b
00000190: d647 f63a 8e76 983a 7972 b33a b11c de3a
000001a0: 1697 bb3a cac8 3e3b f530 0e3b 5e4e d23a
000001b0: b130 bf3a 8328 e63a e8bf c73a 1e4a 483b
000001c0: 392d 0a3b cd66 d63a b482 d5b5 5140 5534
000001d0: c180 35b5 9c40 85b5 8543 77b5 7d89 9fb5
000001e0: dac2 b83a 9841 f93a e3a1 d23a 504d 483b
000001f0: 06e0 063b b58e bf3a 95a3 d03a cd7d 0e3b
00000200: b9a4 f23a 8433 5e3b 2c16 1d3b bca9 db3a
00000210: dc5d 0f3c c2eb 2c3b baf7 723c 435a bb3c
00000220: 384b 043c 05f3 723c 4b63 9f3a 5e1c dd3a
00000230: 80d3 ae3a 8734 373b 296e 083b 6b19 bc3a
00000240: 01a7 513b 36b5 643b 38e6 8d3b 2f77 ba3b
00000250: ac73 6d3b 20a8 1c3b 6cbb 4b3b 0b50 833b
00000260: 0af5 893b 6e11 a73b 4463 433b 9e74 1a3b
00000270: a05c b73a fff7 023b 129c d23a 2ae5 443b
00000280: 00af 053b 2bf5 bc3a 2e08 ce3a 9397 103b
00000290: fe72 043b 07e7 6c3b 8b67 053b 6155 ad3a
000002a0: 18c5 733c 843e 7c3c b554 dc3c 2518 ff3c
000002b0: 2e99 a53c 1660 d03c bb2e adb4 45b2 b1b4
000002c0: 189e dfb4 fd43 9bb4 c1b6 c9b4 ab81 d0b4
000002d0: 6ff6 a33a f196 f13a c57e bd3a 0da5 453b
000002e0: df22 fb3a 71e4 ac3a 19f1 813a 2d37 de3a
000002f0: 4241 9c3a e714 303b 2dc1 db3a 0f84 8a3a
00000300: aedc d7ba d784 a9ba 6c39 383a d9d1 17bb
00000310: a3ef 39ba 45cd 8cba cfd3 803c b251 803c
00000320: ed89 cf3c a0d7 f43c 22bb a73c 86c2 bf3c
00000330: eb9f bb3d a903 9e3d fbe0 073e 7d69 0d3e
00000340: c777 883d 64e5 173e 738c 943a 0c05 ea3a
00000350: 6a63 ab3a d87a 2a3b fbc4 d93a a5c0 933a
00000360: 2c0f b33a c90d cc3a fe78 b43a e9e6 3b3b
00000370: 8051 193b 7f4c eb3a b810 d43a ec00 023b
00000380: 117f ec3a 8307 553b 686d 1a3b 0a7b e23a
00000390: 7ab6 a33a bbd7 c03a 8faa a73a 3dc2 3b3b
000003a0: 1ea8 1e3b 0182 f83a 0c2d fdb1 f66c 0ab1
000003b0: dab5 01b3 8921 d7b2 c6f1 f1b0 300d 1eb2
000003c0: 5905 673a 1761 953a 5ad2 7f3a 9f65 1a3b
000003d0: 3170 f23a 9e8f a53a a94f c13a 6299 003b
000003e0: 796c d53a 5d59 543b f5bb 093b cf53 c03a
000003f0: 0e4e da3a 71d9 123b 305b f13a fd90 523b
0.011051991 0.011460003 0.018555587 0.021637479 0.014969188 0.01786983 0.001396607 0.0018205559
0.0015449914 0.0029866835 0.0020537262 0.0016487174 0.0017915027 0.0023259106 0.0020309056 0.0035945103
0.0022981418 0.0017015674 0.0011502625 0.001535699 0.0013207706 0.0028138976 0.0019677016 0.0012736063
0.0013540966 0.0016815647 0.0014029032 0.0028468694 0.0021421807 0.0018269662 0.0010668605 0.001330489
0.001152102 0.0023624678 0.0018213881 0.0013689805 0.006307414 0.0042161737 0.009425899 0.012073026
0.008128553 0.012215845 0.0015278674 0.0020610748 0.001792598 0.0031104556 0.0020734274 0.0015704118
0.022980174 0.08704652 0.13658273 0.0694471 0.11097921 0.14200255 0.0008564142 0.0016167867
0.0012504735 0.0019594703 0.0010025367 0.0003946179 0.000998556 0.0013093632 0.0010537377 0.0024476063
0.0018756962 0.0014426394 0.0012910458 0.0009948435 0.0014183365 0.002473879 0.0027646264 0.0026102697
0.0011558029 0.0016369544 0.0012774774 0.0029212288 0.0020066742 0.0012993542 0.00086178887 0.0012962532
0.0009558832 0.0023914566 0.0019050557 0.001359546 0.0013571415 0.0018213902 0.0014443925 0.00302195
0.0021750147 0.0016061661 0.0013683804 0.001881421 0.0015687844 0.0027513008 0.0019354261 0.001590279
0.0010440821 0.0016556977 0.0011574639 0.0027260042 0.0018789719 0.0011632012 0.0013690732 0.0016945807
0.0014311995 0.0029111379 0.002169666 0.0016045084 0.0014586655 0.0017559681 0.0015239688 0.0030561755
0.0021084084 0.0016357541 -1.5907776e-06 1.9860569e-07 -6.7615116e-07 -9.928076e-07 -9.2112924e-07 -1.1886438e-06
0.0014096156 0.0019016741 0.0016069975 0.003056366 0.0020580306 0.0014614674 0.0015917892 0.0021742464
0.0018512226 0.0033905217 0.0023969514 0.0016758959 0.008750405 0.002638564 0.01482957 0.022870189
0.008074574 0.014828448 0.0012160329 0.0016869416 0.0013338178 0.0027954893 0.0020817614 0.0014350837
0.0031990411 0.003489805 0.0043304227 0.0056904773 0.0036232276 0.0023903921 0.0031087054 0.0040073446
0.004210119 0.0050985133 0.0029813806 0.0023568044 0.0013989396 0.0019984243 0.0016068241 0.003004382
0.0020398498 0.0014416327 0.001571899 0.0022063002 0.0020210142 0.0036148445 0.0020355906 0.0013224297
0.014878534 0.015395764 0.02689586 0.031139443 0.020214643 0.025436442 -3.2257762e-07 -3.3098527e-07
-4.1652015e-07 -2.8920468e-07 -3.7572138e-07 -3.8837365e-07 0.0012509356 0.0018431825 0.0014457336 0.0030158192
0.0019160173 0.001319064 0.0009913772 0.00169537 0.0011921304 0.0026867928 0.0016765945 0.0010567921
-0.0016468966 -0.0012933266 0.00070275995 -0.002316585 -0.00070928986 -0.0010742327 0.015725998 0.015663955
0.025334323 0.029887974 0.020474974 0.023408186 0.09161361 0.07715542 0.13269417 0.13809772
0.06663471 0.148336 0.0011333361 0.0017854287 0.0013075892 0.0026013162 0.0016614491 0.0011272623
0.0013661138 0.0015568073 0.0013768969 0.0028671569 0.0023394525 0.0017951875 0.0016179299 0.0019836975
0.001804324 0.0032505698 0.0023563746 0.00172791 0.0012490295 0.001471273 0.0012791919 0.002864971
0.0024209092 0.0018959643 -7.3683903e-09 -2.014358e-09 -3.0200546e-08 -2.5044544e-08 -1.7603774e-09 -9.199809e-09
0.00088127475 0.0011396733 0.0009758823 0.0023559106 0.001849657 0.0012631302 0.0014748472 0.0019622673
0.0016282938 0.0032401897 0.0021016572 0.0014673414 0.0016655342 0.0022407437 0.0018414017 0.0032129877

lstm.weight_hh_l0 f4 [256, 64]
00000000: 869b fe39 939b 35ba 7751 24ba a772 223a
00000010: da6e 2e3a df9a 12ba 0a68 5739 15b3 323a
00000020: 5bee 283c aa10 12ba a85f 273a 2e18 103a
00000030: 385f 293a d0ae 1dba 3355 363a 20a0 1a3a
00000040: 81b9 08ba 5c17 313a c167 513a dea6 f136
00000050: ae82 013a 033c 193a 855f 7db9 1846 363a
00000060: 7504 fbb9 401c 16ba 2ace 133a f6a2 14ba
00000070: e655 113a ff2c 8bb6 ea62 17ba 52fa 05ba
00000080: ecca 0abb 0912 24ba 7806 68bc 15bb 1d3a
00000090: b831 313a 4c73 1d3a 7688 273a a71f 4a36
000000a0: 9057 2d3a 14ec 24ba 6f94 2fba f3c3 3aba
000000b0: 9bd1 2f3a b1e0 20ba 8b2d 2dba 6966 2eba
000000c0: c812 40ba 2ed3 2dba ebfb 21bb 7eda fb39
000000d0: b009 7db5 3343 4cba 5aa4 2fba c8b6 353a
000000e0: fbdb 02ba 11df 3cba 4158 03ba fde0 113a
000000f0: 8ee9 14ba a2f2 a4bc aae6 0abc 2ed5 173a
00000100: 8537 f138 1a29 4d39 60cf 5f39 8578 58b9
00000110: 112c 47b9 5328 3b39 859a 7ab8 7ece 51b9
00000120: 757c 5dba 7d2d 3839 ef6b 3cb9 b2c4 cfb8
00000130: fc72 54b9 923d 3e39 0316 4eb9 0a39 37b9
00000140: 21f5 5139 772d 4bb9 640d 47b9 42fb 1ab6
00000150: f10a 5db9 1926 60b9 56a0 86b9 abec 4bb9
00000160: 4055 8b39 c639 7f39 ef98 51b9 b922 7039
00000170: 4a12 0b39 92ab 8fb4 9827 6339 d004 5439
00000180: 9008 fcb8 c279 1cb9 41c7 c3b8 8cdf 44b9
00000190: 5841 4cb9 8b0d 52b9 0071 4cb9 201a c9b3
000001a0: f0c4 3db9 8fda 5d39 e8e4 4339 e540 4b39
000001b0: 8043 4bb9 0063 a7bb 21d6 4339 7e76 5539
000001c0: a70d 4f39 e0a9 ffb8 4b45 1eb9 fa69 47b9
000001d0: bd68 04b5 b7e6 2239 5b47 5739 7a8f 43b9
000001e0: 3cd2 78b8 e320 3539 e4c0 4e39 1221 48b9
000001f0: 2e1d 3d39 53ee 92ba 544d 4f3a 0d1e 61b9
00000200: 97fb 8d38 6df3 8139 7ee7 8b39 47c1 85b9
00000210: 768f 7cb9 b779 6739 3dff edb8 0bbd 85b9
00000220: 661e 9cba a479 6639 c67f 6db9 194d 08b9
00000230: 66e6 83b9 650a 6f39 4b0a 83b9 30e0 65b9
00000240: a470 7d39 5a2f 80b9 b217 82b9 026a 15b6
00000250: cb3d 84b9 9292 88b9 b551 a3b9 8cea 80b9
00000260: 57a7 ad39 0755 a239 94dc 80b9 7b1f 9639
00000270: a05a 8438 7dec 1eb5 2f23 8a39 c5fd 8139
00000280: a388 24b9 debd c1b8 b707 c839 0c14 76b9
00000290: 9332 83b9 59f9 81b9 2905 7eb9 8a43 9034
000002a0: c196 70b9 555f 8a39 e8e1 7939 a056 8139
000002b0: 6975 81b9 a24b b3bb 4dab 7839 ff36 8539
000002c0: af7c 8639 ff5d 8db8 16a0 5bb9 7897 6db9
000002d0: 00cb a3b4 1ca2 6039 fc79 8739 249b 79b9
000002e0: b48b 01b8 4729 6e39 18b0 7839 e736 75b9
000002f0: 32ea 6839 4440 80ba 5533 a63a 0b37 8db9
00000300: 75a0 6b38 720f 4f39 c894 6139 7327 55b9
00000310: 2ddf 49b9 1a25 3f39 c6dc f5b8 3b84 51b9
00000320: 4e8d 9fb9 cf4f 4139 f272 41b9 d950 f4b8
00000330: f3b7 4fb9 6aeb 4339 9891 4cb9 0f75 40b9
00000340: 7f82 5239 4bef 49b9 657c 49b9 f0a7 50b6
00000350: cefc 5cb9 ae51 5db9 301c 81b9 a1b6 4cb9
00000360: 2cff 8839 d190 8039 7426 55b9 f50f 6a39
00000370: 6198 9238 d5fa 8fb4 7eb1 5e39 f987 5439
00000380: dcd6 3ab9 5e3b d1b8 7067 b4b9 ed12 44b9
00000390: 69d6 4cb9 d807 56b9 9c13 4cb9 d36e 2935
000003a0: 5a08 40b9 96a5 5939 bc0e 4a39 133b 4b39
000003b0: 0750 4fb9 6362 9bbb 2256 4939 d87f 5539
000003c0: 6701 5139 af98 a6b8 afc7 60b9 5959 4ab9
000003d0: a5be 9fb5 c0d7 2939 501d 5539 721c 45b9
000003e0: 659c 15b8 a396 3639 af9c 5039 fee9 47b9
000003f0: c9c8 4639 e5f7 7bba 8b4a 253a 7557 61b9
0.0004856253 -0.00069277844 -0.0006268243 0.0006196894 0.00066540914 -0.00055925356 0.00020542755 0.00068168464
0.010310735 -0.0005571941 0.00063847983 0.0005496767 0.0006461027 -0.0006015124 0.00069554447 0.0005898494
-0.00052156305 0.0006755495 0.0007988178 7.2017856e-06 0.0004940432 0.0005845429 -0.00024163544 0.0006953194
-0.0004787777 -0.00057262555 0.0005638326 -0.0005670035 0.0005544111 -4.147761e-06 -0.0005774932 -0.0005110848
-0.002117808 -0.0006258791 -0.0141616985 0.0006016952 0.0006759423 0.0006006255 0.00063908787 3.011877e-06
0.0006612474 -0.0006291282 -0.00066978385 -0.00071245356 0.0006706954 -0.0006136997 -0.00066062127 -0.00066528335
-0.00073270174 -0.00066308945 -0.0024716805 0.0004803724 -9.426394e-07 -0.0007791996 -0.00067002105 0.00069318386
-0.0004991886 -0.00072048703 -0.0005010404 0.0005564837 -0.00056805543 -0.020135228 -0.008477846 0.0005791959
0.00011502117 0.00019565635 0.0002134419 -0.00020644262 -0.00018994535 0.00017848732 -5.9748552e-05 -0.00020008718
-0.00084490265 0.00017564553 -0.00017969286 -9.9071665e-05 -0.0002026073 0.00018142749 -0.00019653891 -0.00017473489
0.00020023111 -0.00019376526 -0.00018983107 -2.309404e-06 -0.00021080278 -0.00021376497 -0.0002567793 -0.00019447754
0.00026575662 0.00024340217 -0.00019988765 0.00022901119 0.00013262886 -2.676066e-07 0.00021663157 0.00020219688
-0.00012017891 -0.00014922678 -9.3354385e-05 -0.00018775294 -0.00019479298 -0.00020032206 -0.00019497052 -9.364544e-08
-0.0001809781 0.00021157622 0.00018681923 0.00019383764 -0.00019384734 -0.0051082373 0.00018676418 0.00020357405
0.00019746144 -0.00012190989 -0.00015093868 -0.00019017598 -4.9326246e-07 0.00015535472 0.0002053058 -0.00018650098
-5.9323604e-05 0.00017273756 0.00019717548 -0.00019085806 0.00018035315 -0.0011209942 0.0007907946 -0.00021468867
6.770266e-05 0.00024786164 0.0002668462 -0.0002551174 -0.00024086036 0.00022075219 -0.000113485825 -0.00025508585
-0.0011910915 0.00021979824 -0.0002264968 -0.00012998692 -0.00025157927 0.00022796688 -0.00024993936 -0.00021922658
0.00024169922 -0.00024449342 -0.00024813187 -2.2264435e-06 -0.0002522304 -0.00026049145 -0.0003115066 -0.00024588814
0.0003312181 0.00030962398 -0.00024578406 0.00028633684 6.311131e-05 -5.920372e-07 0.00026347625 0.0002479387
-0.0001569116 -9.238323e-05 0.0003815272 -0.00023467856 -0.00025023948 -0.00024790576 -0.0002422525 2.687123e-07
-0.00022944344 0.0002639244 0.00023830647 0.00024669338 -0.00024692275 -0.0054716626 0.00023714938 0.00025408712
0.00025651368 -6.740912e-05 -0.00020945104 -0.00022658508 -3.0508818e-07 0.00021422695 0.00025840092 -0.00023804285
-3.0886105e-05 0.00022712826 0.00023716723 -0.00023385473 0.00022212489 -0.0009784778 0.0012680093 -0.00026934626
5.6177803e-05 0.00019746812 0.00021513097 -0.00020327959 -0.00019251993 0.00018229001 -0.000117236326 -0.00019981053
-0.00030432123 0.00018435645 -0.00018448735 -0.00011649886 -0.00019809585 0.00018684348 -0.00019509194 -0.00018354155
0.00020075774 -0.00019257997 -0.00019215194 -3.1092168e-06 -0.00021075012 -0.0002110663 -0.000246258 -0.0001952299
0.0002613006 0.0002452196 -0.00020327588 0.00022321923 6.990205e-05 -2.681833e-07 0.00021237691 0.00020268549
-0.00017818384 -9.9769546e-05 -0.00034409342 -0.00018699067 -0.0001953483 -0.00020411552 -0.00019462261 6.3118677e-07
-0.00018313658 0.00020756418 0.0001926971 0.00019381595 -0.00019770871 -0.004741953 0.00019200941 0.00020360888
0.00019932316 -7.943936e-05 -0.00021436693 -0.00019297506 -1.1901908e-06 0.00016197469 0.00020324183 -0.00018797981
-3.5670022e-05 0.00017412989 0.00019894795 -0.00019065288 0.0001895755 -0.00096118293 0.0006305358 -0.00021490252

lstm.bias_ih_l0 f4 [256]
00000000: 1612 153d adac 733b e693 8e3b e250 6a3b
00000010: 979d 6e3b 5365 373b 049f 9e3c 2543 763b
00000020: 7cd9 e53d 2414 143b 4717 4a3b 7458 793b
00000030: acc4 6f3b 8a85 4d3b 646a 733b 72b9 633b
00000040: 5e9b 573b 2b0f 683b 0bff 7a3b 034b 59b6
00000050: 69ed 6f3b 4640 883b ffa6 b83c 609a 663b
00000060: 5c8a e33b 98db cf3b 674a 693b 85cb 8b3b
00000070: cba0 5b3d 0531 88b5 40a0 713b 7f00 5a3b
00000080: c372 ea38 8ad5 483d 8052 0c3e e1cb 463b
00000090: b105 693b 553b 823b fc3f 6f3b f2c2 b8b3
000000a0: 43ed 473b 5b65 833b 2286 813b 8c48 7d3b
000000b0: 1394 643b f67c 833e 19cb 523b abff 833b
000000c0: 86eb 903b 0af5 313d 4f84 333b 6e02 3b3b
000000d0: ab53 6736 4a2f 353b e0c5 7f3b 776a 573b
000000e0: d121 873c f176 3d3b 30a7 4e3b 9459 463b
000000f0: c283 5f3b ee2b 563e cd2d 173e b64b 983b
00000100: 40af f63c 61f2 2f3b f33e 523b dd05 323b
00000110: 57b6 3a3b 0073 063b 57e3 823c 0abc 3a3b
00000120: f0fd 163e b5c2 dc3a 2156 143b d306 413b
00000130: 4f40 313b 4006 153b d261 363b eacf 353b
00000140: b536 273b 6b8e 303b f06a 433b c43c 8eb6
00000150: dbbf 303b 21c5 513b 2298 9c3c 381d 373b
00000160: 321d b53b 0c60 9f3b 510c 343b 9658 503b
00000170: e431 413d 5319 8db5 68cb 2b3b ed76 273b
00000180: b56c d33a 2e8a 273d 11e1 5e3e 6470 163b
00000190: 2794 343b e5ad 463b e246 333b b442 d6b3
000001a0: b533 0e3b 4b7e 4a3b 6d83 503b 6df0 413b
000001b0: 2234 2d3b f879 0e3e b577 263b 60ac 523b
000001c0: 6189 603b 1fff 143d b847 a73b a06a 083b
000001d0: 1c6c 2f36 9961 093b 5c7f 423b 559d 213b
000001e0: 5e09 543c c4dd 063b 2e44 213b c21c 0a3b
000001f0: ec39 2c3b 31c7 7e3e b894 483e 176d 6d3b
00000200: b805 16bc 059a a03b 6936 f93b ac15 a9bb
00000210: 6a65 57bb 9f53 9c3b aff1 81bc 438c cabb
00000220: 589f 953c a92b e53b 73c5 44bb ffc1 443b
00000230: b4ff 9dbb 07a3 7a3b 41fe 89bb 80f8 9cbb
00000240: 37c0 c53b 888d 76bb 5474 33bb 0a61 143a
00000250: e677 01bc cc4a bcbb 4e7c 69bd db60 5fbb
00000260: ee4e f63c bcb1 e03c 7a48 ccbb ebc8 723c
00000270: 8d76 26bd 1e64 4539 42f9 e43b e075 003c
00000280: e7cb 37bd 0cd3 d9bb 0431 00bd 996b b5bb
00000290: f6d2 a2bb 52e4 d5bb 8391 5cbb 9713 3838
000002a0: a213 88bb adee cf3b 9f37 903b 710b 883b
000002b0: 6fda abbb ed9c 323e 703c 8d3b a655 8b3b
000002c0: 4e80 a83b 7668 70bb e3c4 81bd 33d4 e8bb
000002d0: a510 3639 66ac f63a e597 ad3b bad3 69bb
000002e0: ebb8 39bc 2d29 5b3b 90d4 b33b 9c1e b8bb
000002f0: 47ef ad3b 5f25 193d aef4 15bd ecbd 37bc
00000300: 0526 153d 7a0f 743b c3d8 8e3b 03d0 6a3b
00000310: fd03 6f3b 3da4 373b f14f 9f3c 12aa 763b
00000320: 1f61 2b3e 594e 143b e56a 4a3b d283 793b
00000330: 0a52 703b f0e7 4d3b 5ee2 733b 15f9 633b
00000340: c10a 583b 5d75 683b 5176 7b3b a54c 59b6
00000350: 2567 703b df7f 883b 68fd b93c 3515 673b
00000360: a8d3 e43b 3da2 d03b b3bb 693b 2c5a 8c3b
00000370: 409b 5c3d f344 88b5 453a 723b c08a 5a3b
00000380: 8638 d738 ffb9 483d 5a37 423e fd27 473b
00000390: 716e 693b 2f71 823b 6baf 6f3b 43da b8b3
000003a0: 755a 483b 4baf 833b 2bb3 813b c0ad 7d3b
000003b0: 66fb 643b aa33 653e d320 533b 6d40 843b
000003c0: a737 913b 65b9 313d 5e93 353b 8768 3b3b
000003d0: c96d 6736 307b 353b f220 803b 73cd 573b
000003e0: e60c 873c e2be 3d3b 3913 4f3b 02c3 463b
000003f0: 34d9 5f3b 7886 773e ca0f 1f3e bca2 983b
0.0363942 0.003718178 0.004351127 0.0035753776 0.0036409849 0.0027983978 0.019362934 0.0037576642
0.112231225 0.0022595013 0.0030836628 0.0038047107 0.0036585731 0.0031360113 0.0037142271 0.0034747985
0.0032899003 0.0035409431 0.003829899 -3.2379182e-06 0.0036610013 0.0041580526 0.022540567 0.003518723
0.006943984 0.0063433163 0.0035597326 0.004266205 0.05362014 -1.0147056e-06 0.0036869198 0.0033264456
0.000111793655 0.04903177 0.13703346 0.0030333924 0.003555637 0.003974358 0.0036506644 -8.603628e-08
0.003050641 0.0040098852 0.0039527575 0.0038647978 0.0034878298 0.25681275 0.0032164513 0.0040282807
0.004422608 0.043446578 0.0027392094 0.0028535384 3.4470384e-06 0.0027646595 0.0039027855 0.0032869854
0.016495617 0.0028910006 0.0031532757 0.0030265795 0.0034105633 0.20915195 0.14763565 0.0046476973
0.030112863 0.002684735 0.0032080978 0.002716414 0.002849003 0.0020515323 0.015977545 0.0028493428
0.14745307 0.0016842695 0.0022634345 0.002945353 0.0027046388 0.002273932 0.0027829302 0.0027742335
0.0025514786 0.0026940356 0.0029818378 -4.239004e-06 0.0026969824 0.0032008367 0.019115511 0.0027941
0.005527162 0.0048637446 0.0027473161 0.0031791083 0.04716672 -1.0512689e-06 0.002621377 0.0025553063
0.001613042 0.040903263 0.21765544 0.0022955174 0.0027554126 0.0030316052 0.0027355482 -9.977285e-08
0.00216983 0.003089803 0.0031816617 0.0029592768 0.0026428779 0.13913715 0.002540094 0.00321462
0.0034261572 0.036376115 0.005104985 0.0020815507 2.613996e-06 0.0020962714 0.0029677963 0.0024660428
0.012941686 0.002057896 0.0024607289 0.002107427 0.0026279641 0.24880673 0.19587982 0.0036228353
-0.009156637 0.004901173 0.007605363 -0.005160054 -0.0032866844 0.0047707106 -0.015862314 -0.0061812713
0.018264458 0.00699373 -0.0030024915 0.0030022857 -0.004821742 0.0038244145 -0.0042112176 -0.0047903657
0.0060348767 -0.003762098 -0.002738257 0.0005660212 -0.007902121 -0.005746221 -0.05700331 -0.003408483
0.030066933 0.0274285 -0.006234226 0.01481841 -0.040640403 0.0001882468 0.0069877217 0.007840604
-0.04487219 -0.006647473 -0.031296745 -0.0055365083 -0.004968996 -0.006527462 -0.0033656068 4.3887263e-05
-0.004152731 0.006345591 0.004401162 0.0041517545 -0.005244545 0.17442675 0.004310183 0.0042521534
0.0051422482 -0.0036683357 -0.06336381 -0.0071053742 0.00017363073 0.0018819689 0.0052976483 -0.0035679177
-0.011335592 0.003344129 0.005487986 -0.0056188833 0.005308065 0.037389155 -0.036610298 -0.0112147145
0.03641321 0.003724067 0.004359336 0.003582955 0.0036470883 0.0028021478 0.019447299 0.003763799
0.16736268 0.0022629707 0.0030886468 0.0038072956 0.0036669993 0.0031418763 0.0037213783 0.0034785916
0.0032965394 0.0035470345 0.0038370083 -3.2380133e-06 0.0036682573 0.004165634 0.022703841 0.0035260443
0.006983239 0.0063669966 0.0035664856 0.0042832103 0.053858995 -1.0152856e-06 0.0036961 0.0033346862
0.00010262527 0.049005505 0.18966427 0.0030388825 0.0035618807 0.0039807777 0.0036573063 -8.607869e-08
0.0030571495 0.0040186993 0.003958126 0.00387083 0.0034939884 0.2238299 0.003221561 0.0040360005
0.004431683 0.043389697 0.0027706246 0.0028596239 3.4485586e-06 0.0027691834 0.0039101774 0.0032928854
0.016485643 0.0028952886 0.003159715 0.0030328636 0.0034156563 0.2417239 0.15533367 0.0046580713

lstm.bias_hh_l0 f4 [256]
00000000: 1612 153d adac 733b e693 8e3b e250 6a3b
00000010: 979d 6e3b 5365 373b 049f 9e3c 2543 763b
00000020: 30ca e53d 2414 143b 4717 4a3b 7458 793b
00000030: acc4 6f3b 8a85 4d3b 646a 733b 72b9 633b
00000040: 5e9b 573b 2b0f 683b 0bff 7a3b 034b 59b6
00000050: 69ed 6f3b 4640 883b 88a6 b83c 609a 663b
00000060: 5c8a e33b 98db cf3b 674a 693b 85cb 8b3b
00000070: cba0 5b3d 0531 88b5 40a0 713b 7f00 5a3b
00000080: d263 ea38 8ad5 483d 9a65 0c3e e1cb 463b
00000090: b105 693b 553b 823b fc3f 6f3b f2c2 b8b3
000000a0: 43ed 473b 5b65 833b 2286 813b 8c48 7d3b
000000b0: 1394 643b 657f 833e 19cb 523b abff 833b
000000c0: 86eb 903b 0af5 313d 2189 333b 6e02 3b3b
000000d0: ab53 6736 4a2f 353b e0c5 7f3b 776a 573b
000000e0: d121 873c f176 3d3b 30a7 4e3b 9459 463b
000000f0: c283 5f3b ef2b 563e b30b 173e b64b 983b
00000100: 40af f63c 61f2 2f3b f33e 523b dd05 323b
00000110: 57b6 3a3b 0073 063b 57e3 823c 0abc 3a3b
00000120: dc24 1b3e b5c2 dc3a 2156 143b d306 413b
00000130: 4f40 313b 4006 153b d261 363b eacf 353b
00000140: b536 273b 6b8e 303b f06a 433b c43c 8eb6
00000150: dbbf 303b 21c5 513b 4399 9c3c 381d 373b
00000160: 321d b53b 0c60 9f3b 510c 343b 9658 503b
00000170: e431 413d 5319 8db5 68cb 2b3b ed76 273b
00000180: 546d d33a 2e8a 273d 3fed 6c3e 6470 163b
00000190: 2794 343b e5ad 463b e246 333b b442 d6b3
000001a0: b533 0e3b 4b7e 4a3b 6d83 503b 6df0 413b
000001b0: 2234 2d3b de95 143e b577 263b 60ac 523b
000001c0: 6189 603b 1fff 143d 8d44 a73b a06a 083b
000001d0: 1c6c 2f36 9961 093b 5c7f 423b 559d 213b
000001e0: 5e09 543c c4dd 063b 2e44 213b c21c 0a3b
000001f0: ec39 2c3b 9fc8 7e3e 8a40 463e 176d 6d3b
00000200: f430 16bc 7099 a03b ea78 f93b a615 a9bb
00000210: ae66 57bb 9f53 9c3b 31dc 26bd 1973 c5bb
00000220: 522c 843d 251c c03b 73c5 44bb e0c1 443b
00000230: f7ff 9dbb fda2 7a3b 44fe 89bb f7f5 9cbb
00000240: 49c0 c53b 8a8d 76bb 2474 33bb 9382 143a
00000250: b11c 01bc a54b bcbb fff3 8abd 019f 5fbb
00000260: 74c2 d53c 270c ca3c a147 ccbb 18f4 603c
00000270: 83c6 193d 19a6 4539 2ed0 e33b 1a49 003c
00000280: 4703 d2bc c93b 87ba f8fd babb 9e6b b5bb
00000290: effa a4bb 866a d5bb 7d91 5cbb 9713 3838
000002a0: e113 88bb 2bf5 cf3b a037 903b 090b 883b
000002b0: fcd4 abbb 21e2 913d 793c 8d3b e154 8b3b
000002c0: a031 a73b 21c9 13bb 4d9b 58bd c8d0 e8bb
000002d0: a510 3639 62ac f63a bfd9 ad3b bcd3 69bb
000002e0: b9c7 39bc c629 5b3b 90d4 b33b 9c1e b8bb
000002f0: 7bef ad3b beff 0d3d e06c 563d b9b9 11bc
00000300: 0526 153d 7a0f 743b c3d8 8e3b 03d0 6a3b
00000310: fd03 6f3b 3da4 373b f14f 9f3c 12aa 763b
00000320: 8264 2b3e 594e 143b e56a 4a3b d283 793b
00000330: 0a52 703b f0e7 4d3b 5ee2 733b 15f9 633b
00000340: c10a 583b 5d75 683b 5176 7b3b a54c 59b6
00000350: 2567 703b df7f 883b 43fd b93c 3515 673b
00000360: a8d3 e43b 3da2 d03b b3bb 693b 2c5a 8c3b
00000370: 409b 5c3d f344 88b5 453a 723b c08a 5a3b
00000380: 4237 d738 ffb9 483d 4ba9 403e fd27 473b
00000390: 716e 693b 2f71 823b 6baf 6f3b 43da b8b3
000003a0: 755a 483b 4baf 833b 2bb3 813b c0ad 7d3b
000003b0: 66fb 643b 2f25 653e d320 533b 6d40 843b
000003c0: a737 913b 65b9 313d 3695 353b 8768 3b3b
000003d0: c96d 6736 307b 353b f220 803b 73cd 573b
000003e0: e60c 873c e2be 3d3b 3913 4f3b 02c3 463b
000003f0: 34d9 5f3b 0285 773e 871f 1f3e bca2 983b
0.0363942 0.003718178 0.004351127 0.0035753776 0.0036409849 0.0027983978 0.019362934 0.0037576642
0.11220205 0.0022595013 0.0030836628 0.0038047107 0.0036585731 0.0031360113 0.0037142271 0.0034747985
0.0032899003 0.0035409431 0.003829899 -3.2379182e-06 0.0036610013 0.0041580526 0.022540346 0.003518723
0.006943984 0.0063433163 0.0035597326 0.004266205 0.05362014 -1.0147056e-06 0.0036869198 0.0033264456
0.000111765825 0.04903177 0.13710633 0.0030333924 0.003555637 0.003974358 0.0036506644 -8.603628e-08
0.003050641 0.0040098852 0.0039527575 0.0038647978 0.0034878298 0.25683132 0.0032164513 0.0040282807
0.004422608 0.043446578 0.0027394968 0.0028535384 3.4470384e-06 0.0027646595 0.0039027855 0.0032869854
0.016495617 0.0028910006 0.0031532757 0.0030265795 0.0034105633 0.20915197 0.14750557 0.0046476973
0.030112863 0.002684735 0.0032080978 0.002716414 0.002849003 0.0020515323 0.015977545 0.0028493428
0.1515078 0.0016842695 0.0022634345 0.002945353 0.0027046388 0.002273932 0.0027829302 0.0027742335
0.0025514786 0.0026940356 0.0029818378 -4.239004e-06 0.0026969824 0.0032008367 0.01911605 0.0027941
0.005527162 0.0048637446 0.0027473161 0.0031791083 0.04716672 -1.0512689e-06 0.002621377 0.0025553063
0.0016130605 0.040903263 0.23137377 0.0022955174 0.0027554126 0.0030316052 0.0027355482 -9.977285e-08
0.00216983 0.003089803 0.0031816617 0.0029592768 0.0026428779 0.14510295 0.002540094 0.00321462
0.0034261572 0.036376115 0.0051046074 0.0020815507 2.613996e-06 0.0020962714 0.0029677963 0.0024660428
0.012941686 0.002057896 0.0024607289 0.002107427 0.0026279641 0.24881218 0.19360557 0.0036228353
-0.009166945 0.0049011037 0.007613291 -0.0051600514 -0.0032867598 0.0047707106 -0.040737335 -0.0060256836
0.06453766 0.00586273 -0.0030024915 0.0030022785 -0.004821773 0.0038244121 -0.004211219 -0.0047900635
0.006034885 -0.0037620985 -0.0027382458 0.0005665209 -0.007880376 -0.005746322 -0.0678482 -0.0034121873
0.026093699 0.024663998 -0.006234125 0.0137300715 0.03754283 0.0001884926 0.006952307 0.007829929
-0.025636328 -0.00103175 -0.005706545 -0.0055365106 -0.0050347964 -0.0065129427 -0.0033656054 4.3887263e-05
-0.0041527604 0.006346365 0.0044011623 0.004151706 -0.0052438956 0.07123209 0.0043101874 0.0042520617
0.0051023513 -0.0022550302 -0.05288248 -0.007104967 0.00017363073 0.0018819685 0.0053054984 -0.0035679182
-0.0113391215 0.0033441647 0.005487986 -0.0056188833 0.0053080893 0.034667723 0.052349925 -0.008894377
0.03641321 0.003724067 0.004359336 0.003582955 0.0036470883 0.0028021478 0.019447299 0.003763799
0.1673756 0.0022629707 0.0030886468 0.0038072956 0.0036669993 0.0031418763 0.0037213783 0.0034785916
0.0032965394 0.0035470345 0.0038370083 -3.2380133e-06 0.0036682573 0.004165634 0.022703772 0.0035260443
0.006983239 0.0063669966 0.0035664856 0.0042832103 0.053858995 -1.0152856e-06 0.0036961 0.0033346862
0.000102622915 0.049005505 0.1881458 0.0030388825 0.0035618807 0.0039807777 0.0036573063 -8.607869e-08
0.0030571495 0.0040186993 0.003958126 0.00387083 0.0034939884 0.22377466 0.003221561 0.0040360005
0.004431683 0.043389697 0.0027707345 0.0028596239 3.4485586e-06 0.0027691834 0.0039101774 0.0032928854
0.016485643 0.0028952886 0.003159715 0.0030328636 0.0034156563 0.24171832 0.1553937 0.0046580713

lstm.weight_ih_l0_reverse f4 [256, 6]
00000000: 501b 28b0 3671 69b3 6cd4 6d33 7394 ab33
00000010: 5c23 ae33 d703 2234 13c4 c6b4 e50a 9cb4
00000020: e272 dab4 f5f5 c5b4 d139 acb4 5df2 dbb4
00000030: 2145 2b30 3305 b12f 8e8b 5130 b69c 1a30
00000040: be33 9730 fb7c 5b30 7f66 0caf 4a0b ccae
00000050: aee1 10af fe8d 05af 763b b3ae a644 19af
00000060: a3bf 34b5 3713 1db5 a205 48b5 a25c 2db5
00000070: d656 e0b4 0cd4 4db5 d631 cd1b 5a2b ef1b
00000080: 2633 eb1b 7f77 db1b 2e96 b01b 7f92 f11b
00000090: 1275 36b7 b0b1 01b7 8db1 56b7 e3ce 3eb7
000000a0: 9333 0db7 7de8 65b7 30ac 0bae f7e1 ebad
000000b0: 5eff 1aae 0cb5 05ae a0d8 a7ad 6c95 42ae
000000c0: 5d4e 7434 51a9 ccb1 2277 2835 7c1a de34
000000d0: 3e4b c034 01f2 ae34 8c1a 11b5 9a43 b5b4
000000e0: 88af 1cb5 4528 13b5 7056 ecb4 084c 30b5
000000f0: 334c 55b6 96ba 10b6 3845 6eb6 b671 57b6
00000100: 9dec 37b6 a780 84b6 a6de 03ab 2495 d9aa
00000110: 6ae6 16ab a6b1 10ab 88ee 9aaa 1d36 26ab
00000120: eabf 4418 43dc bb17 45c8 fd16 5428 1f18
00000130: 4a83 6418 c14e 0017 b3c6 62a9 8473 aaa7
00000140: c02b 8ea9 e1af 47a9 8991 0aa8 acee cea9
00000150: 90c5 dca7 827d 7ca7 7012 fea7 b980 eba7
00000160: e504 a2a7 a159 12a8 4e76 5798 3bab 4e98
00000170: 4e2d 0c98 5110 3b98 31c9 4698 d9e8 0f98
00000180: 0ab7 8d21 c61d 6421 0b4c dc21 4b54 d121
00000190: 4e92 c221 703d 0f22 6086 b026 63ae a827
000001a0: 1ac8 2a27 0d45 a426 f54e c826 1175 2c26
000001b0: c8e9 a99f 5c6a 259f bebd 9d9f 3c23 a09f
000001c0: 5278 049f 9e92 959f 5244 3aad ad1e 1bad
000001d0: bae2 46ad 1ad2 38ad 1754 07ad 323b 51ad
000001e0: 18e8 849f 75ef 339f 25c9 889f d0cf 8a9f
000001f0: 196d b39e d65a 659f 9c58 589d 3e48 b29c
00000200: 1b8a 059d 9f45 679d 5e75 ee1b 2f59 149d
00000210: 2e57 a6a7 5148 5ba7 99f5 c3a7 b11d b1a7
00000220: 4792 92a7 b4cb c2a7 aa73 c7af 1fcb 6aaf
00000230: 8d05 bbaf 9db8 beaf 3459 09af bb7f b9af
00000240: 1b65 9397 0d30 dd96 a797 9f97 f27f b197
00000250: 0081 1e97 7e0b 8697 f154 c4b0 04bf 9fb0
00000260: 3382 d7b0 9e13 b8b0 d559 71b0 1d20 dcb0
00000270: b4ab 5034 fbab 1234 14a5 0f35 4aab d134
00000280: d157 bf34 4e95 1a35 978b 0db6 e650 e6b5
00000290: 4a50 06b6 c94f 1ab6 a90f 00b6 48cd e0b5
000002a0: 0d36 a930 dfa6 9dad dafd 8530 fc59 6e30
000002b0: 5e90 1c31 1216 9330 a54e 6fa9 484d 40a9
000002c0: bab0 53a9 9fc3 6ca9 f6a6 d6a8 2a9f 1ea9
000002d0: 86c5 71b3 5aa0 5db3 dc22 9232 9137 1132
000002e0: eaa2 ce32 ce4f 6333 f07d 32a3 5ec5 1ea3
000002f0: 06ef bea2 1e0e 58a2 0d4d 5a23 c6e1 f1a2
00000300: af35 8c31 4dbb 2a31 4061 8731 758d 7c31
00000310: e358 9c31 d007 8631 9988 43af a559 96ae
00000320: 52e9 1caf 9321 82ad 4c01 122f 1276 932e
00000330: d9ce f7aa 6c78 bbaa 5bfc 13ab 36fb 07ab
00000340: 0794 9faa 79b2 38ab be2b 5da0 c6a1 62a0
00000350: 7fdb 49a0 b7cc 3aa0 55ee 1a9f f9ce fe9f
00000360: 7120 659e bd05 4d9c 711e 309e e963 7c9e
00000370: 3c73 439d 3b1c 8b9e 4427 96b4 afad 69b4
00000380: daaf 98b4 98fe 8eb4 d2ac 2db4 284e 90b4
00000390: 70ee c636 17a2 e336 b3b9 fc36 9203 d436
000003a0: d64b b136 f07f e236 2760 efa8 2bcf 9da8
000003b0: ad6b 0fa9 be70 fea8 77c8 ada8 f7ff 00a9
000003c0: c9eb 79b5 29d4 56b5 2852 83b5 2497 84b5
000003d0: 3c0c 66b5 2b7f 5fb5 0ab3 2735 aa43 0836
000003e0: f065 1036 d590 7e35 abeb 0736 bb88 6e36
000003f0: 77e2 65b1 6180 3bb1 c273 71b1 4afe 60b1
-6.115686e-10 -5.4352505e-08 5.537406e-08 7.989811e-08 8.108938e-08 1.5088823e-07 -3.7023037e-07 -2.906519e-07
-4.0689253e-07 -3.6873067e-07 -3.2079564e-07 -4.096827e-07 6.2307676e-10 3.2199807e-10 7.6232076e-10 5.6247573e-10
1.1001402e-09 7.9849344e-10 -1.276934e-10 -9.278851e-11 -1.3176901e-10 -1.2146725e-10 -8.15054e-11 -1.3939658e-10
-6.7334094e-07 -5.851502e-07 -7.4514e-07 -6.458232e-07 -4.1786433e-07 -7.667702e-07 3.394661e-22 3.9567249e-22
3.8910543e-22 3.6307733e-22 2.921381e-22 3.9964776e-22 -1.0875303e-05 -7.73037e-06 -1.2796733e-05 -1.1373052e-05
-8.416263e-06 -1.3703594e-05 -3.1757874e-11 -2.6816755e-11 -3.5242358e-11 -3.04015e-11 -1.9081903e-11 -4.4243206e-11
2.2752779e-07 -5.9564305e-09 6.275824e-07 4.1369992e-07 3.5817533e-07 3.2586107e-07 -5.405534e-07 -3.3763064e-07
-5.836996e-07 -5.482037e-07 -4.4021317e-07 -6.567575e-07 -3.1783827e-06 -2.156628e-06 -3.5505054e-06 -3.2103685e-06
-2.7406852e-06 -3.9488837e-06 -4.6849536e-13 -3.865043e-13 -5.361047e-13 -5.1405614e-13 -2.752141e-13 -5.9050144e-13
2.5429298e-24 1.2140194e-24 4.1000742e-25 2.0570629e-24 2.9534593e-24 4.145843e-25 -5.0354425e-14 -4.730972e-15
-6.313656e-14 -4.4339427e-14 -7.692097e-15 -9.189641e-14 -6.1276464e-15 -3.5040063e-15 -7.051915e-15 -6.5365164e-15
-4.496934e-15 -8.124063e-15 -2.7847827e-24 -2.6711325e-24 -1.8117449e-24 -2.4177421e-24 -2.5692476e-24 -1.8599875e-24
9.602982e-19 7.728881e-19 1.4927908e-18 1.4184703e-18 1.3184678e-18 1.9412639e-18 1.2248876e-15 4.6818437e-15
2.3700715e-15 1.1398502e-15 1.3899189e-15 5.983314e-16 -7.196104e-20 -3.5028087e-20 -6.680599e-20 -6.7820926e-20
-2.8051614e-20 -6.334651e-20 -1.0588046e-11 -8.817541e-12 -1.130534e-11 -1.0505841e-11 -7.692533e-12 -1.18934185e-11
-5.628814e-20 -3.81028e-20 -5.7931006e-20 -5.878907e-20 -1.8997484e-20 -4.8567774e-20 -2.8633172e-21 -1.1797726e-21
-1.7673802e-21 -3.0608589e-21 3.9449644e-22 -1.9633744e-21 -4.6168776e-15 -3.0431558e-15 -5.438965e-15 -4.915956e-15
-4.0681735e-15 -5.406667e-15 -3.6280073e-10 -2.1354339e-10 -3.4019046e-10 -3.4691974e-10 -1.2491769e-10 -3.3742062e-10
-9.525175e-25 -3.57348e-25 -1.0313417e-24 -1.1470655e-24 -5.1215374e-25 -8.662448e-25 -1.4285019e-09 -1.1623063e-09
-1.5680314e-09 -1.3393338e-09 -8.780295e-10 -1.6016234e-09 1.9433975e-07 1.3659876e-07 5.351187e-07 3.9053913e-07
3.5640417e-07 5.758674e-07 -2.109189e-06 -1.715988e-06 -2.001429e-06 -2.299423e-06 -1.9082602e-06 -1.6749045e-06
1.231173e-09 -1.792294e-11 9.749173e-10 8.671177e-10 2.278305e-09 1.070193e-09 -5.3136874e-14 -4.2699595e-14
-4.7004697e-14 -5.25722e-14 -2.383118e-14 -3.52211e-14 -5.629183e-08 -5.160141e-08 1.701249e-08 8.452745e-09
2.4055641e-08 5.2925138e-08 -9.676068e-18 -8.606991e-18 -5.175268e-18 -2.9280932e-18 1.183412e-17 -6.5562228e-18
4.0806394e-09 2.4844724e-09 3.940073e-09 3.6751235e-09 4.550303e-09 3.9008015e-09 -1.7783676e-10 -6.837134e-11
-1.427101e-10 -1.4794199e-11 1.3279083e-10 6.7057596e-11 -4.4019543e-13 -3.3301432e-13 -5.2575105e-13 -4.831026e-13
-2.8346788e-13 -6.561761e-13 -1.8733901e-19 -1.9196471e-19 -1.7097987e-19 -1.5822547e-19 -3.2807912e-20 -1.0791559e-19
-1.2129868e-20 -6.7836227e-22 -9.3236576e-21 -1.336143e-20 -2.586761e-21 -1.4728873e-20 -2.7968247e-07 -2.1763002e-07
-2.8440155e-07 -2.6634802e-07 -1.6174752e-07 -2.6878956e-07 5.9286176e-06 6.783997e-06 7.5318035e-06 6.318508e-06
5.2838395e-06 6.7502187e-06 -2.657603e-14 -1.7520346e-14 -3.1845772e-14 -2.8248559e-14 -1.9293796e-14 -2.8643724e-14
-9.310284e-07 -8.0029946e-07 -9.784171e-07 -9.878754e-07 -8.569948e-07 -8.325903e-07 6.2472884e-07 2.0304965e-06
2.1517008e-06 9.483313e-07 2.0253744e-06 3.5544351e-06 -3.3452616e-09 -2.7285056e-09 -3.5135916e-09 -3.2740837e-09

lstm.weight_hh_l0_reverse f4 [256, 64]
00000000: fcfb fdaf a4c3 2a2e 2884 4a2c 13ed 832b
00000010: 2e38 4c2f b154 7722 aad5 d72f 4d33 b82b
00000020: 6dd5 5f2f 3a6d cc2e 93fd 652f 50c2 8da9
00000030: 192b ed21 323f 5a29 eb4f 9628 fdc6 3b20
00000040: a558 84a6 019a f727 5c97 1625 8050 002b
00000050: 6b07 b624 5edd c3a3 c62e 13a8 d7d6 ee2c
00000060: 9333 4fa1 dde3 15ad a1d3 0830 1e34 6c2d
00000070: e53b 2a2d 1367 7d26 78f8 7caf b4c6 df26
00000080: fb7e 232d fc46 82aa 0a5c af2a 36fb 3524
00000090: 18a1 9d24 ea24 f72e 9452 c1ae c47a daa9
000000a0: d568 b9ae aff2 2e2e 892d 2bad d2c7 05ab
000000b0: fa9e 99a6 fc22 27ac 2f40 8ba9 e0d9 95ac
000000c0: 7240 022f 6c9c 1baf 0f3d a3ad 6719 5924
000000d0: c5cd bcad 0d49 80a5 41cc e72d 56a4 af27
000000e0: 9a05 252e 804d 6624 c1a5 08ae b9a2 b722
000000f0: 7124 bd29 ee77 542d daa6 692b f1b5 6baa
00000100: d7ad bbae 1fe1 9b2e d3e2 b6aa 5caa 702b
00000110: e6fe cf2e b33c 9221 4c27 a4af 5911 98aa
00000120: 3cb9 f6ac fc07 a12e a501 722f b73a 0b29
00000130: bc75 1820 639b 4228 f894 ada7 6b8d 1a1f
00000140: 2118 8ca5 9504 faa7 aabc 1324 2ce8 bb2a
00000150: 0266 c723 7cc5 14a3 2468 8826 656d 7a2c
00000160: 4644 76a0 a42f 73ac 36f3 3d2f c52d 28ae
00000170: a4cf f32b 4196 8ca8 9ca7 a0ae d29c e625
00000180: 01d5 812b bd72 deaa 23cb 1428 738c c723
00000190: 98d1 a223 2a1f 522e a622 9f2e 6424 c5a8
000001a0: d187 b3ac a200 ee2e 94c0 e3ac f2e1 ecaa
000001b0: 49a2 89a5 1763 d2aa 7e5c 0da9 e879 9bab
000001c0: 5eb1 d72d 20ec b8ad d5f9 adab 4022 7723
000001d0: 4c1e eaad 530b 44a5 bda5 1d2d 999a 8126
000001e0: 1a5d 142d fc90 a5a2 6e3d 68ae c88a ae21
000001f0: 32dd 1a27 be3c 382d c193 1fab 3af6 cfa8
00000200: fd31 30a9 6392 82a9 c1fd d529 47f4 b7a5
00000210: bc8e 56a9 8573 4e9d 4ed5 4baa 405d 4ba5
00000220: 2b51 542a 31a2 e1a9 4e8b f8a9 64e1 2f23
00000230: 67a4 821d 748d cc27 6621 90a2 fce9 959b
00000240: 8c92 a6a1 0bad 9023 f6ce 9f1f 9708 02a5
00000250: eb18 721e f42e 901f 3c30 b4a1 6e59 a027
00000260: d3ed 229d d2cd 4b26 4c97 b72a 9516 f32a
00000270: 065d a3a9 ab6b 09a6 6fa6 29aa cc55 0922
00000280: 9947 35a9 be01 86a9 7345 7c25 b3a8 fd20
00000290: 88f8 451f e6a4 1b29 7696 1f2c 5c26 f7a4
000002a0: 6d9c 072b 4596 a52b 0552 2526 f2b0 4525
000002b0: 8b6f dd1e 108e c429 7aa3 e023 41fc 0027
000002c0: b25c 8729 ea5a 00aa d6d2 d826 497b ca1f
000002d0: 094e e225 1950 b01f 7226 9928 bf63 b722
000002e0: 1ffb a029 5472 eb1f 1167 ac29 7f8b 089e
000002f0: 8395 42a3 be90 a2a9 1ccd 0429 2a8c fba4
00000300: 7929 92a8 860f ac28 0d76 fb24 c175 1926
00000310: f6d7 6229 4a04 8c1c 4eb7 5baa 352f c5a5
00000320: 5e49 2528 9332 5f29 8ecf e029 5cec 4924
00000330: 4ca3 3399 1d78 7b22 dd92 a8a2 a0f9 b99a
00000340: 542d c49f b53a a4a2 62e8 f51d 15c7 0925
00000350: f89d 8d1c a807 539d 02a2 3e22 79a1 0d27
00000360: fb2d cb99 8d55 2da7 5ba0 5829 69ce 7428
00000370: 7e0f 9926 0914 d3a1 0230 f0a8 0a02 1620
00000380: e08d e125 6c85 ac24 c23e 3fa4 3260 1e9c
00000390: 4070 dd1d 9ba9 0529 269b d6a8 428f 44a2
000003a0: 72c4 ffa5 f191 9d29 293d 31a7 d9f8 baa5
000003b0: 3d43 1e9f 47be 3fa5 cc56 6fa3 b006 02a6
000003c0: 5cec ae27 9e92 c2a7 946e 1027 817a 261d
000003d0: 17da 8fa8 4e16 c59f 49cd 7d27 f200 45a0
000003e0: eb63 3426 7205 b19e ff90 fca7 8f71 691b
000003f0: f807 f2a2 3e39 0b27 bc79 b1a4 67fd 4423
-4.6199478e-10 3.882729e-11 2.8779288e-12 9.373911e-13 1.8573651e-10 3.3519577e-18 3.926009e-10 1.3088225e-12
2.0357556e-10 9.2962485e-11 2.0917516e-10 -6.295366e-14 1.6071153e-18 4.8460537e-14 1.6688004e-14 1.5905356e-19
-9.183367e-16 6.8723243e-15 1.3061709e-16 4.558645e-13 7.8942485e-17 -2.1235695e-17 -8.170282e-15 6.788219e-12
-7.0202586e-19 -8.520265e-12 4.9777255e-10 1.3426619e-11 9.6766805e-12 8.79167e-16 -2.300754e-10 1.5527592e-15
9.293673e-12 -2.3141894e-13 3.115011e-13 3.9460903e-17 6.83608e-17 1.1238817e-10 -8.791293e-11 -9.702441e-14
-8.431448e-11 3.9778566e-11 -9.7303355e-12 -4.75284e-13 -1.0659598e-15 -2.3751548e-12 -6.183974e-14 -4.2590237e-12
1.1846327e-10 -1.415274e-10 -1.855807e-11 4.707589e-17 -2.1464506e-11 -2.2253962e-16 2.6352366e-11 4.875043e-15
3.752163e-11 4.9938945e-17 -3.107004e-11 4.977454e-18 8.3996076e-14 1.20774345e-11 8.300978e-13 -2.0935316e-13
-8.5346556e-11 7.0885735e-11 -3.2487085e-13 8.550155e-13 9.458549e-11 9.909412e-19 -2.9859348e-10 -2.701266e-13
-7.0123057e-12 7.322851e-11 2.2010356e-10 3.0915127e-14 1.2913856e-19 1.08028575e-14 -4.817866e-15 3.2727747e-20
-2.430248e-16 -6.9393907e-15 3.203535e-17 3.3378974e-13 2.1618825e-17 -8.064915e-18 9.465123e-16 3.5587863e-12
-2.08596e-19 -3.4558823e-12 1.7275856e-10 -3.823943e-11 1.732382e-12 -1.5608285e-14 -7.305731e-11 4.0004906e-16
9.225122e-13 -3.9514738e-13 8.259699e-15 2.1635106e-17 1.7652842e-17 4.777615e-11 7.236638e-11 -2.1887176e-14
-5.1025646e-12 1.08230994e-10 -6.4731085e-12 -4.2078802e-13 -2.387568e-16 -3.737225e-13 -3.1388513e-14 -1.1047248e-12
2.4521437e-11 -2.1023239e-11 -1.2361732e-12 1.33971495e-17 -2.6616175e-11 -1.7004127e-16 8.961218e-12 8.993077e-16
8.433499e-12 -4.4876848e-18 -5.2805253e-11 1.1827434e-18 2.1491703e-15 1.04726765e-11 -5.6693197e-13 -2.30884e-14
-3.912321e-14 -5.798554e-14 9.5031195e-14 -3.1910968e-16 -4.7641348e-14 -2.7323595e-21 -1.8104027e-13 -1.7639038e-16
1.8857543e-13 -1.0020143e-13 -1.1037578e-13 9.534497e-18 3.45807e-21 5.677474e-15 -3.906664e-18 -2.480119e-22
-1.1287388e-18 1.5685798e-17 6.768151e-20 -1.1278613e-16 1.2816526e-20 6.106405e-20 -1.2210042e-18 4.450588e-15
-2.1563474e-21 7.070871e-16 3.2612313e-13 4.318114e-13 -7.254791e-14 -4.767734e-16 -1.5067959e-13 1.8612383e-18
-4.0252175e-14 -5.9510976e-14 2.1881046e-16 4.2971503e-19 4.1921953e-20 3.455994e-14 2.2678782e-12 -1.0718416e-16
4.817872e-13 1.1765663e-12 5.735703e-16 1.7146978e-16 2.3445418e-20 8.7287924e-14 2.4355364e-17 1.7900316e-15
6.0112844e-14 -1.1400226e-13 1.5045158e-15 8.5754286e-20 3.925763e-16 7.467141e-20 1.7003085e-14 4.970786e-18
7.14899e-14 9.971551e-20 7.6562136e-14 -7.228627e-21 -1.0548421e-17 -7.219354e-14 2.9487792e-14 -1.09091345e-16
-1.6227242e-14 1.9102568e-14 1.09053884e-16 5.3242125e-16 5.0369397e-14 9.265532e-22 -1.9514704e-13 -3.420604e-16
9.175249e-15 4.9559813e-14 9.983603e-14 4.378513e-17 -9.287061e-24 3.408043e-18 -4.569199e-18 -7.69175e-23
-8.308422e-20 -4.4514448e-18 6.509124e-21 1.1950307e-16 9.371431e-22 -2.7929576e-21 2.5835568e-18 1.9655215e-15
-2.100828e-23 -2.405495e-15 4.810072e-14 1.3589479e-14 1.0620707e-15 -1.4303219e-18 -2.6666173e-14 1.2706169e-19
3.9127416e-16 7.4819135e-17 -4.146968e-17 -5.2402144e-22 5.8614277e-21 2.9679042e-14 -2.3826058e-14 -2.6638793e-18
-4.4368565e-16 6.9975174e-14 -2.459684e-15 -3.2434482e-16 -3.351342e-20 -1.6631078e-16 -1.2974596e-17 -4.5111874e-16
4.8550963e-15 -5.400478e-15 2.004396e-15 2.203325e-21 -1.597077e-14 -8.3469645e-20 3.5222088e-15 -1.6686862e-19
6.258546e-16 -1.8742856e-20 -7.0101256e-15 1.9310001e-22 -6.560267e-18 1.9321156e-15 -7.696774e-17 1.0678841e-17

lstm.bias_ih_l0_reverse f4 [256]
00000000: 3e08 cdb2 e1b9 2eb5 a985 8730 0011 76af
00000010: b645 a4b5 74bc 9f19 0e87 c4b7 53e5 90ae
00000020: d4b3 1336 e79b 92b5 c49a c9b6 ce18 84ab
00000030: 5691 9f19 8cde 29aa fc37 7da8 2453 9b17
00000040: 202a 4522 0203 3926 a262 22a0 3f57 abad
00000050: 2eaf f79f 4b7a a51c e84c 31a8 26ce 19b0
00000060: 4198 0598 8bbb 3fb1 9a4d 4435 82e9 11b5
00000070: 732f 0331 45e7 a8a8 ff3f be33 0883 7aa3
00000080: 5c4f b331 4d5b 9eaf a075 acab b2df 00a0
00000090: 99f5 7e9e 2f8b f9b4 5657 3837 868f 4ea9
000000a0: f789 cf33 149d 1936 b208 d0b1 2ea8 73ae
000000b0: 2e44 1921 8750 a1ae 9e9a e5a9 a9f0 bc2e
000000c0: 1a4f 09b4 26ab 5534 ea3a afb1 09fd 131d
000000d0: da9b 6cb3 a838 b4a2 3819 2f30 824d a4a7
000000e0: 0fb1 8932 cf22 e4a0 e7d8 1536 63cd 821b
000000f0: 5ba8 8328 2d55 f634 9cb9 db2e b11a 67aa
00000100: 8738 9eb3 555c 75b4 90f5 e42f 8a05 71ae
00000110: 1f57 a4b4 6018 911b 5bad bdb6 19fe 8ead
00000120: 7245 e1b3 1d3f a5b4 e6ad ddb5 e9be aeaa
00000130: 6a99 9416 913c 9e28 9aec 87a7 1fac 7698
00000140: 73b9 5421 5c7a 0027 f6f9 1a9f 3adf e0ac
00000150: 217f 5b9f 6579 7b9d e383 34a7 0567 eaae
00000160: 919d b496 2f58 54b0 5b1b 8134 0190 d2b5
00000170: 4ca1 c52f f2aa 00a9 cb6c 1732 f76d 56a3
00000180: 2a91 0931 e12a c1ae 75a1 89aa f2ab 51a0
00000190: f977 b19e c2a6 1bb4 5ca2 a236 0385 88a8
000001a0: 3ed4 22b5 417d a935 e3bb 03b1 066c a5ad
000001b0: e03a 9e1f 7b7a 5f2c 0bfb 0aa9 bbd3 852e
000001c0: 1c66 41b3 60b3 d332 802d cab0 a0d1 149c
000001d0: 0bac 1cb3 0820 9ca1 159d cf30 6518 01a7
000001e0: 7c87 ee2e f605 1aa0 ca5d 12b5 82cd 3d1a
000001f0: 1902 d126 480e 0631 b181 372d b436 aea9
00000200: 124a 0138 2892 67b7 47a5 04b8 d917 ddb5
00000210: 2ea0 21b9 e70a 91ac 5e88 5c3a 079d bb35
00000220: f340 edb8 3c89 2fb9 69b0 98b9 0079 6db4
00000230: ada3 c1ac f337 78b4 0b0e a232 37a4 042b
00000240: 4bd8 3e30 319e 9132 be0b 47b0 4fbc e9b3
00000250: 64e5 35b0 bb62 f52e d849 55b2 a73b f8b6
00000260: 6cbd af2c c097 2537 02e4 40b9 b7ee 25b8
00000270: e273 9db8 31ca 0cb1 6d23 c838 24e8 94b2
00000280: f8bb 26b8 23e8 4138 0beb 6034 d6a2 a4b0
00000290: 9e40 78af 164f ecb8 89fa 0e39 92d7 a934
000002a0: b707 fa38 409d abb9 39e9 5b36 622e bb35
000002b0: a557 bc2e 3234 a537 d36c 1d33 256d 9535
000002c0: 5d52 7cb8 e978 1c39 d968 41b7 64c4 47af
000002d0: 5c5e 9338 a184 7a2f 1cd9 09b7 6a1e e4b3
000002e0: 000c e9b7 fd9d d5af dc2a 6938 7ad4 9dad
000002f0: cfc7 7f33 d306 98b8 7af4 4db7 96ed 70b3
00000300: e626 cdb2 24b9 2eb5 be82 8730 1211 76af
00000310: cf45 a4b5 3b0e 9619 d089 c4b7 2ce6 90ae
00000320: d1b9 1336 0e9d 92b5 189b c9b6 3a19 84ab
00000330: 7c97 9f19 4bd4 29aa 183c 7da8 2c96 9b17
00000340: 952a 4522 88c3 3826 9361 22a0 8157 abad
00000350: 509f f79f 72d3 a51c e04d 31a8 48cf 19b0
00000360: f888 0598 e9bb 3fb1 804d 4435 087a 11b5
00000370: e833 0331 84d4 a8a8 9a4f be33 785c 7aa3
00000380: ca4d b331 c35b 9eaf c578 acab 61c8 00a0
00000390: b2e6 7e9e e88a f9b4 1958 3837 8c8d 4ea9
000003a0: 160e d133 4c9b 1936 c908 d0b1 88a8 73ae
000003b0: 5449 1921 9d2c a1ae b99b e5a9 50e9 bc2e
000003c0: 2a50 09b4 ffb0 5534 083b afb1 290b 141d
000003d0: ea9c 6cb3 603b b4a2 db15 2f30 7d4c a4a7
000003e0: 0cc8 8932 4925 e4a0 69e1 1536 a4c9 821b
000003f0: 1ea4 8328 bf55 f634 f8bd db2e 5421 67aa
-2.3868889e-08 -6.509054e-07 9.860531e-10 -2.2379609e-10 -1.2239241e-06 1.651633e-23 -2.342791e-05 -6.589098e-11
2.200938e-06 -1.0923221e-06 -6.008284e-06 -9.386049e-13 1.6498915e-23 -1.5087427e-13 -1.4056461e-14 1.0037628e-24
2.672078e-18 6.4188845e-16 -1.3754569e-19 -1.9479194e-11 -1.0489838e-19 1.0950396e-21 -9.84215e-15 -5.595403e-10
-1.7266716e-24 -2.7900764e-09 7.3128615e-07 -5.435651e-07 1.908998e-09 -1.8752044e-14 8.859205e-08 -1.3580274e-17
5.2186078e-09 -2.8804906e-10 -1.2253983e-12 -1.0916036e-19 -1.34974364e-20 -4.6481134e-07 1.0987589e-05 -4.5865675e-14
9.664284e-08 2.2890208e-06 -6.0545853e-09 -5.5401177e-11 5.192865e-19 -7.335737e-11 -1.0196465e-13 8.592e-11
-1.2787896e-07 1.9899434e-07 -5.099868e-09 1.9586104e-21 -5.5089778e-08 -4.8849085e-18 6.3700467e-10 -4.560318e-15
1.6029416e-08 -3.8647737e-19 2.2328984e-06 2.1639424e-22 1.4616934e-14 4.5883044e-07 9.991938e-11 -2.0526182e-13
-7.3677306e-08 -2.2850993e-07 4.164744e-10 -5.4801975e-11 -3.061077e-07 2.400399e-22 -5.65282e-06 -1.6256373e-11
-1.0490011e-07 -3.0779566e-07 -1.6516394e-06 -3.104108e-13 2.4007507e-25 1.756779e-14 -3.772655e-15 -3.1881654e-24
7.2073834e-19 1.78299e-15 -3.281753e-20 -6.391246e-12 -4.6480212e-20 -3.3282333e-21 -2.5051514e-15 -1.0659388e-10
-2.9180007e-25 -7.7250467e-10 2.4048026e-07 -1.568813e-06 3.59487e-10 -2.856998e-14 8.8140935e-09 -1.1624249e-17
2.001864e-09 -8.784241e-11 -2.4448122e-13 -1.775988e-19 -1.8790223e-20 -1.4496166e-07 4.8468773e-06 -1.5156718e-14
-6.0658556e-07 1.2627935e-06 -1.916981e-09 -1.88063e-11 6.7013003e-20 3.1758196e-12 -3.08599e-14 6.085751e-11
-4.5029182e-08 2.4645203e-08 -1.4710366e-09 -4.9240026e-22 -3.6478053e-08 -1.057945e-18 1.5105878e-09 -1.791557e-15
1.0847054e-10 -1.304628e-19 -5.452572e-07 3.9250292e-23 1.4502857e-15 1.9507684e-09 1.0431143e-11 -7.736642e-14
3.082498e-05 -1.3802703e-05 -3.162518e-05 -1.6472724e-06 -0.00015413828 -4.1223583e-12 0.0008412654 1.3978287e-06
-0.000113131384 -0.00016740424 -0.00029123135 -2.2116365e-07 -5.5035616e-12 -2.3117154e-07 1.8865668e-08 4.7123714e-13
6.942897e-10 1.6952159e-08 -7.2412465e-10 -1.0884161e-07 -6.61734e-10 1.1158848e-10 -1.2415022e-08 -7.3979204e-06
4.994829e-12 9.870098e-06 -0.00018395486 -3.9561386e-05 -7.507928e-05 -2.0487614e-09 9.543342e-05 -1.7335033e-08
-3.9752544e-05 4.623098e-05 2.0947134e-07 -1.1978851e-09 -2.2578425e-10 -0.00011268088 0.00013635507 3.163555e-07
0.00011922366 -0.00032732822 3.2769296e-06 1.3946085e-06 8.564819e-11 1.9693838e-05 3.6653386e-08 1.113313e-06
-6.015819e-05 0.00014922362 -1.1528108e-05 -1.8168717e-10 7.027082e-05 2.2784487e-10 -8.216386e-06 -1.06226096e-07
-2.7781352e-05 -3.8856732e-10 5.5591445e-05 -1.7943192e-11 5.955354e-08 -7.249196e-05 -1.2275874e-05 -5.6095438e-08
-2.388283e-08 -6.5089466e-07 9.859702e-10 -2.2379634e-10 -1.2239269e-06 1.5515384e-23 -2.3429195e-05 -6.5892486e-11
2.2012866e-06 -1.0923557e-06 -6.008322e-06 -9.386166e-13 1.6501399e-23 -1.5083869e-13 -1.4057352e-14 1.0054549e-24
2.6721021e-18 6.410282e-16 -1.3754218e-19 -1.9479309e-11 -1.0487213e-19 1.0973441e-21 -9.84236e-15 -5.595564e-10
-1.7258999e-24 -2.7900973e-09 7.312847e-07 -5.419429e-07 1.9092514e-09 -1.874391e-14 8.862044e-08 -1.3572108e-17
5.2184292e-09 -2.8805233e-10 -1.2254855e-12 -1.0908322e-19 -1.3494355e-20 -4.6480932e-07 1.09877665e-05 -4.586396e-14
9.734883e-08 2.2889171e-06 -6.0545955e-09 -5.540149e-11 5.1935465e-19 -7.329357e-11 -1.01966565e-13 8.590695e-11
-1.2788283e-07 1.9901562e-07 -5.0998814e-09 1.9593407e-21 -5.5090744e-08 -4.8851963e-18 6.369569e-10 -4.5602073e-15
1.603987e-08 -3.8649376e-19 2.2333936e-06 2.1637003e-22 1.4615096e-14 4.588346e-07 9.992712e-11 -2.0528485e-13
