LOSO/models/model_without_subj_9.onnx (onnx, 550191 bytes, 8 tensors)

fc.weight f4 [2, 128]
00000000: 5398 0c3d f6e6 0d3d 913a 0dbd b789 19bd
00000010: 6d57 bbbd 3e89 3e3d a949 21bd 1df6 2b3d
00000020: 49ac 0f3d 37dd 403d 1d1f 14bd 7675 0bbd
00000030: 0040 433d 2bb0 5cbd 542b d2bc 5d16 123d
00000040: 6519 213d f48a 19bd 1e37 bcbd 94ce 36bd
00000050: d2fe 1e3d ff2a f6bc cac1 303d 1dab 27bd
00000060: 74e3 253d 2779 0a3d 35aa 1bbd 082c 153d
00000070: e5d0 2fbd 646f b2bd ecce fd3c 1f07 c1bd
00000080: 36a1 1d3d 753a babd 7dd5 21bd 08c0 153d
00000090: 6469 183d 7a94 163d 29c5 3e3d 5af7 083d
000000a0: fa10 c03d 3e01 03bd 7097 3b3d 6c87 c13d
000000b0: 38ae 163d 68fd 06bd 07ee 13bd 5060 393d
000000c0: 7757 1fbd 6588 1dbd b90d cb3d 77e0 0b3d
000000d0: 228a f23c 3cf8 1ebd 67e6 18bd f38b 23bd
000000e0: 1495 babd 8dee abbd e506 34bd 67fd bbbd
000000f0: 8fae b13d 650a 13bd 118d 2e3d 9468 3b3d
00000100: dd7f 043d fd38 ad3c d98d fd3c 6256 e5bb
00000110: 568a e9bc 3ad7 a9bb d160 963c d48f ce3c
00000120: 85cc 823c 5fa9 06bd 2084 e5bc 5ae7 04bd
00000130: 92e3 383d 8fcf 14bd 7a44 debc daed fb3c
00000140: 78a7 de3c 5239 413d 8445 d93c db7c 793c
00000150: 5f19 073d de84 d33c ed42 133d 1ee1 043d
00000160: 4b88 ebbc d12f 0a3d edea 203d 661a 08bd
00000170: c0d6 10bd bd27 133d c630 03bd a144 073d
00000180: 59d0 013d fbe4 05bd c0c0 de3c 8880 123d
00000190: ea22 0a3d eaa2 d7bc c282 fe3c 7bc0 1ebd
000001a0: 9a97 f6bc 9497 0bbd 7cab 903b fe91 c0bc
000001b0: 1657 fb3c 64dd d93c 5182 e33c b6a0 b4bc
000001c0: cacc 12bd 7675 ce3c 5a31 fdbc c939 c13c
000001d0: cd3c e2bc 7c17 2abd 49a4 f4bc 81af c13c
000001e0: 2def fc3c 8617 2bbd 5f54 bd3c 2d98 9fbc
000001f0: f420 3fbd ac20 f53c ca83 1dbd 39b3 2b3d
00000200: db50 3dbd bfa5 43bd c55c 613d 8389 2b3d
00000210: 5634 e2bd a48c 28bd 0f33 2b3d 783f 2ebd
00000220: c961 40bd 48af 10bd 6a59 463d 303f 4f3d
00000230: c95f 25bd cb08 e2bd 1045 893d 5fb7 2abd
00000240: 4afe 3ebd fba4 393d 24f4 cdbd ac16 2c3d
00000250: 2fe8 32bd c546 8e3d 053d 2abd cfd0 343d
00000260: 0b9b 21bd b8c4 55bd 556e 373d 4107 3ebd
00000270: 84d7 233d 6b58 e9bd 75ca 76bd 3cb0 c3bd
00000280: 0112 2ebd 4424 c8bd f059 193d 1fbc 3dbd
00000290: 8664 5fbd aec1 3abd f812 ffbc f084 53bd
000002a0: 8f31 c93d be70 683d 69d7 0dbd d0cb d63d
000002b0: f235 45bd c229 723d 10a6 413d dcc3 31bd
000002c0: 86b0 253d 7755 173d 6b5f d13d 9003 48bd
000002d0: 10c1 61bd da63 383d 9bcd 283d a98c 2a3d
000002e0: a316 ddbd 5742 d5bd 05cc f53c 3d2a e0bd
000002f0: c1fc d73d 5c43 393d 81ad 25bd 68ae 21bd
00000300: 31cb 36bd b35c 45bd 8b43 29bd 5836 93bd
00000310: 3441 233d a5d9 75bd 83f5 63bd 3cce 31bd
00000320: 7dc2 20bd fae1 1a3d f64e 3f3d ab96 d03c
00000330: c55d b5bc fedb 263d 87de 433d 64d5 21bd
00000340: e9a4 3cbd db5d e0bc 2816 3ebd 3c3e 8a3d
00000350: 2617 e0bc 45d2 31bd eb7f 30bd b63f cabc
00000360: a8de 4d3d 03a7 05bd d206 1abd 480b 1e3d
00000370: 1eb1 073d 17a7 0ebd e261 013d d142 edbc
00000380: c912 17bd 1b6d 423d dee9 41bd defe f7bc
00000390: a364 febc 4093 483d 5544 35bd 6f3f 163d
000003a0: 9484 293d e267 2c3d 29bc 7dbd 241b 643d
000003b0: 093d 08bd 7fb9 25bd 458f 37bd 016f 173d
000003c0: 2f17 f73c 5fe6 30bd 9e89 493d fa58 21bd
000003d0: 3d92 043d 9707 143d 6143 403d 31b6 34bd
000003e0: 431f 49bd 6efd 083d 4c02 49bd 1139 813d
000003f0: ff16 f33c c927 3fbd d2df f13c 7ae0 0abd
0.034324955 0.03464409 -0.03447968 -0.03748485 -0.091475345 0.046517603 -0.03937689 0.04198276
0.035076413 0.047085967 -0.036162484 -0.034047566 0.047668457 -0.053878944 -0.025655426 0.03566586
0.03933086 -0.03748603 -0.091902 -0.044630602 0.038817234 -0.030049799 0.04315356 -0.04093467
0.04050012 0.033806946 -0.03800412 0.036418945 -0.042923827 -0.08712652 0.030982457 -0.09425186
0.03848382 -0.09093181 -0.03951024 0.03656009 0.037209883 0.036762692 0.046574745 0.033439018
0.09378238 -0.031983607 0.04579872 0.09449658 0.03678724 -0.03295651 -0.036115672 0.045257866
-0.038901772 -0.038460154 0.09914727 0.034149613 0.029606882 -0.038810953 -0.037329104 -0.039928388
-0.09110466 -0.08395109 -0.043951888 -0.09179192 0.086758725 -0.035898585 0.042615 0.04575403
0.032348502 0.021145338 0.030951427 -0.006998823 -0.028508347 -0.0051831277 0.018356713 0.025215067
0.015966663 -0.03287637 -0.028017104 -0.032447197 0.045138903 -0.036330756 -0.027132262 0.030753065
0.027179465 0.047173806 0.026522405 0.015227522 0.03298318 0.025820192 0.035952497 0.03244125
-0.028751513 0.033737008 0.039286543 -0.0332283 -0.03536105 0.03592657 -0.032028936 0.033024434
0.031692836 -0.032689076 0.02719152 0.03576711 0.033724703 -0.0263228 0.03106821 -0.038757782
-0.030101586 -0.034080103 0.004414974 -0.023507114 0.030681174 0.026594825 0.0277721 -0.02204929
-0.035839833 0.025202494 -0.030907322 0.023587124 -0.027616883 -0.041526303 -0.029863494 0.023643257
0.030875767 -0.04177048 0.02311152 -0.019481743 -0.046662286 0.029922806 -0.038455762 0.041918967
-0.046219688 -0.04776549 0.055020113 0.04187919 -0.110451385 -0.04114975 0.04179674 -0.042540997
-0.046968255 -0.03532341 0.048425116 0.05059737 -0.04037455 -0.110368334 0.06702626 -0.041678783
-0.046629228 0.045323353 -0.10056332 0.04201381 -0.04367846 0.06947092 -0.0415621 0.044144448
-0.0394545 -0.05218956 0.044782955 -0.046393637 0.040000454 -0.113938175 -0.06025167 -0.095550984
-0.04249764 -0.09772542 0.037439287 -0.046321984 -0.054539226 -0.045594864 -0.031136975 -0.05164045
0.09823906 0.056748144 -0.03462926 0.10488093 -0.04814715 0.059121855 0.04727751 -0.043399677
0.04045155 0.03694674 0.10223278 -0.048831522 -0.05511576 0.0450171 0.041211706 0.04163805
-0.10795333 -0.10413044 0.03000451 -0.10945556 0.10546256 0.045230255 -0.04044867 -0.039472967
-0.044627372 -0.048184108 -0.04132418 -0.071880996 0.039857104 -0.060022015 -0.05565406 -0.04340957
-0.03924798 0.037813164 0.046706162 0.02546247 -0.02213944 0.040737145 0.04781964 -0.039510146
-0.046055708 -0.027388504 -0.04640785 0.067501515 -0.027354788 -0.04341342 -0.043090742 -0.024688583
0.05026117 -0.032629978 -0.03760416 0.038584977 0.033127896 -0.034827318 0.03158749 -0.028962525
-0.03688315 0.047467332 -0.047342174 -0.030272897 -0.031053847 0.048968554 -0.04425462 0.03668159
0.041386202 0.042091258 -0.06194702 0.055689946 -0.033261333 -0.040460106 -0.044814367 0.036971096
0.030162422 -0.04318845 0.049203508 -0.039391495 0.032366026 0.03614005 0.046939258 -0.044119064
-0.04910208 0.033444814 -0.049074456 0.06309713 0.029674051 -0.0466688 0.029525671 -0.033905484

fc.bias f4 [2]
00000000: acd8 0d3f b4df 533f
0.5540874 0.8276322

onnx::LSTM_335 f4 [2, 512]
00000000: 1612 153d adac 733b e693 8e3b e250 6a3b
00000010: 979d 6e3b 5365 373b 049f 9e3c 2543 763b
00000020: 7cd9 e53d 2414 143b 4717 4a3b 7458 793b
00000030: acc4 6f3b 8a85 4d3b 646a 733b 72b9 633b
00000040: 5e9b 573b 2b0f 683b 0bff 7a3b 034b 59b6
00000050: 69ed 6f3b 4640 883b ffa6 b83c 609a 663b
00000060: 5c8a e33b 98db cf3b 674a 693b 85cb 8b3b
00000070: cba0 5b3d 0531 88b5 40a0 713b 7f00 5a3b
00000080: c372 ea38 8ad5 483d 8052 0c3e e1cb 463b
00000090: b105 693b 553b 823b fc3f 6f3b f2c2 b8b3
000000a0: 43ed 473b 5b65 833b 2286 813b 8c48 7d3b
000000b0: 1394 643b f67c 833e 19cb 523b abff 833b
000000c0: 86eb 903b 0af5 313d 4f84 333b 6e02 3b3b
000000d0: ab53 6736 4a2f 353b e0c5 7f3b 776a 573b
000000e0: d121 873c f176 3d3b 30a7 4e3b 9459 463b
000000f0: c283 5f3b ee2b 563e cd2d 173e b64b 983b
00000100: 0526 153d 7a0f 743b c3d8 8e3b 03d0 6a3b
00000110: fd03 6f3b 3da4 373b f14f 9f3c 12aa 763b
00000120: 1f61 2b3e 594e 143b e56a 4a3b d283 793b
00000130: 0a52 703b f0e7 4d3b 5ee2 733b 15f9 633b
00000140: c10a 583b 5d75 683b 5176 7b3b a54c 59b6
00000150: 2567 703b df7f 883b 68fd b93c 3515 673b
00000160: a8d3 e43b 3da2 d03b b3bb 693b 2c5a 8c3b
00000170: 409b 5c3d f344 88b5 453a 723b c08a 5a3b
00000180: 8638 d738 ffb9 483d 5a37 423e fd27 473b
00000190: 716e 693b 2f71 823b 6baf 6f3b 43da b8b3
000001a0: 755a 483b 4baf 833b 2bb3 813b c0ad 7d3b
000001b0: 66fb 643b aa33 653e d320 533b 6d40 843b
000001c0: a737 913b 65b9 313d 5e93 353b 8768 3b3b
000001d0: c96d 6736 307b 353b f220 803b 73cd 573b
000001e0: e60c 873c e2be 3d3b 3913 4f3b 02c3 463b
000001f0: 34d9 5f3b 7886 773e ca0f 1f3e bca2 983b
00000200: 40af f63c 61f2 2f3b f33e 523b dd05 323b
00000210: 57b6 3a3b 0073 063b 57e3 823c 0abc 3a3b
00000220: f0fd 163e b5c2 dc3a 2156 143b d306 413b
00000230: 4f40 313b 4006 153b d261 363b eacf 353b
00000240: b536 273b 6b8e 303b f06a 433b c43c 8eb6
00000250: dbbf 303b 21c5 513b 2298 9c3c 381d 373b
00000260: 321d b53b 0c60 9f3b 510c 343b 9658 503b
00000270: e431 413d 5319 8db5 68cb 2b3b ed76 273b
00000280: b56c d33a 2e8a 273d 11e1 5e3e 6470 163b
00000290: 2794 343b e5ad 463b e246 333b b442 d6b3
000002a0: b533 0e3b 4b7e 4a3b 6d83 503b 6df0 413b
000002b0: 2234 2d3b f879 0e3e b577 263b 60ac 523b
000002c0: 6189 603b 1fff 143d b847 a73b a06a 083b
000002d0: 1c6c 2f36 9961 093b 5c7f 423b 559d 213b
000002e0: 5e09 543c c4dd 063b 2e44 213b c21c 0a3b
000002f0: ec39 2c3b 31c7 7e3e b894 483e 176d 6d3b
00000300: b805 16bc 059a a03b 6936 f93b ac15 a9bb
00000310: 6a65 57bb 9f53 9c3b aff1 81bc 438c cabb
00000320: 589f 953c a92b e53b 73c5 44bb ffc1 443b
00000330: b4ff 9dbb 07a3 7a3b 41fe 89bb 80f8 9cbb
00000340: 37c0 c53b 888d 76bb 5474 33bb 0a61 143a
00000350: e677 01bc cc4a bcbb 4e7c 69bd db60 5fbb
00000360: ee4e f63c bcb1 e03c 7a48 ccbb ebc8 723c
00000370: 8d76 26bd 1e64 4539 42f9 e43b e075 003c
00000380: e7cb 37bd 0cd3 d9bb 0431 00bd 996b b5bb
00000390: f6d2 a2bb 52e4 d5bb 8391 5cbb 9713 3838
000003a0: a213 88bb adee cf3b 9f37 903b 710b 883b
000003b0: 6fda abbb ed9c 323e 703c 8d3b a655 8b3b
000003c0: 4e80 a83b 7668 70bb e3c4 81bd 33d4 e8bb
000003d0: a510 3639 66ac f63a e597 ad3b bad3 69bb
000003e0: ebb8 39bc 2d29 5b3b 90d4 b33b 9c1e b8bb
000003f0: 47ef ad3b 5f25 193d aef4 15bd ecbd 37bc
0.0363942 0.003718178 0.004351127 0.0035753776 0.0036409849 0.0027983978 0.019362934 0.0037576642
0.112231225 0.0022595013 0.0030836628 0.0038047107 0.0036585731 0.0031360113 0.0037142271 0.0034747985
0.0032899003 0.0035409431 0.003829899 -3.2379182e-06 0.0036610013 0.0041580526 0.022540567 0.003518723
0.006943984 0.0063433163 0.0035597326 0.004266205 0.05362014 -1.0147056e-06 0.0036869198 0.0033264456
0.000111793655 0.04903177 0.13703346 0.0030333924 0.003555637 0.003974358 0.0036506644 -8.603628e-08
0.003050641 0.0040098852 0.0039527575 0.0038647978 0.0034878298 0.25681275 0.0032164513 0.0040282807
0.004422608 0.043446578 0.0027392094 0.0028535384 3.4470384e-06 0.0027646595 0.0039027855 0.0032869854
0.016495617 0.0028910006 0.0031532757 0.0030265795 0.0034105633 0.20915195 0.14763565 0.0046476973
0.03641321 0.003724067 0.004359336 0.003582955 0.0036470883 0.0028021478 0.019447299 0.003763799
0.16736268 0.0022629707 0.0030886468 0.0038072956 0.0036669993 0.0031418763 0.0037213783 0.0034785916
0.0032965394 0.0035470345 0.0038370083 -3.2380133e-06 0.0036682573 0.004165634 0.022703841 0.0035260443
0.006983239 0.0063669966 0.0035664856 0.0042832103 0.053858995 -1.0152856e-06 0.0036961 0.0033346862
0.00010262527 0.049005505 0.18966427 0.0030388825 0.0035618807 0.0039807777 0.0036573063 -8.607869e-08
0.0030571495 0.0040186993 0.003958126 0.00387083 0.0034939884 0.2238299 0.003221561 0.0040360005
0.004431683 0.043389697 0.0027706246 0.0028596239 3.4485586e-06 0.0027691834 0.0039101774 0.0032928854
0.016485643 0.0028952886 0.003159715 0.0030328636 0.0034156563 0.2417239 0.15533367 0.0046580713
0.030112863 0.002684735 0.0032080978 0.002716414 0.002849003 0.0020515323 0.015977545 0.0028493428
0.14745307 0.0016842695 0.0022634345 0.002945353 0.0027046388 0.002273932 0.0027829302 0.0027742335
0.0025514786 0.0026940356 0.0029818378 -4.239004e-06 0.0026969824 0.0032008367 0.019115511 0.0027941
0.005527162 0.0048637446 0.0027473161 0.0031791083 0.04716672 -1.0512689e-06 0.002621377 0.0025553063
0.001613042 0.040903263 0.21765544 0.0022955174 0.0027554126 0.0030316052 0.0027355482 -9.977285e-08
0.00216983 0.003089803 0.0031816617 0.0029592768 0.0026428779 0.13913715 0.002540094 0.00321462
0.0034261572 0.036376115 0.005104985 0.0020815507 2.613996e-06 0.0020962714 0.0029677963 0.0024660428
0.012941686 0.002057896 0.0024607289 0.002107427 0.0026279641 0.24880673 0.19587982 0.0036228353
-0.009156637 0.004901173 0.007605363 -0.005160054 -0.0032866844 0.0047707106 -0.015862314 -0.0061812713
0.018264458 0.00699373 -0.0030024915 0.0030022857 -0.004821742 0.0038244145 -0.0042112176 -0.0047903657
0.0060348767 -0.003762098 -0.002738257 0.0005660212 -0.007902121 -0.005746221 -0.05700331 -0.003408483
0.030066933 0.0274285 -0.006234226 0.01481841 -0.040640403 0.0001882468 0.0069877217 0.007840604
-0.04487219 -0.006647473 -0.031296745 -0.0055365083 -0.004968996 -0.006527462 -0.0033656068 4.3887263e-05
-0.004152731 0.006345591 0.004401162 0.0041517545 -0.005244545 0.17442675 0.004310183 0.0042521534
0.0051422482 -0.0036683357 -0.06336381 -0.0071053742 0.00017363073 0.0018819689 0.0052976483 -0.0035679177
-0.011335592 0.003344129 0.005487986 -0.0056188833 0.005308065 0.037389155 -0.036610298 -0.0112147145

onnx::LSTM_336 f4 [2, 256, 6]
00000000: 6913 353c bdc2 3b3c e301 983c 1541 b13c
00000010: 5341 753c c063 923c 5b0e b73a b89f ee3a
00000020: 4f81 ca3a 3cbc 433b cf97 063b c719 d83a
00000030: dbd0 ea3a 4e6e 183b f118 053b e091 6b3b
00000040: 6c9c 163b 2107 df3a 68c4 963a 8249 c93a
00000050: b51d ad3a 5e69 383b 8ef4 003b 23ef a63a
00000060: f17b b13a f367 dc3a 9fe1 b73a 8b92 3a3b
00000070: d463 0c3b d076 ef3a e6d5 8b3a cd63 ae3a
00000080: 2102 973a a2d3 1a3b a5bb ee3a 5d6f b33a
00000090: 6cae ce3b d427 8a3b 166f 1a3c f1cd 453c
000000a0: 9f2d 053c f824 483c b942 c83a 1913 073b
000000b0: 9cf5 ea3a c9d8 4b3b 57e2 073b 47d6 cd3a
000000c0: eb40 bc3c 7245 b23d 58dc 0b3e 483a 8e3d
000000d0: 1149 e33d 1e69 113e fc80 603a 5cea d33a
000000e0: eee6 a33a 756a 003b 8d67 833a b8e4 ce39
000000f0: fbe1 823a f09e ab3a 921d 8a3a 0568 203b
00000100: ecd9 f53a f216 bd3a 4f38 a93a 6965 823a
00000110: 7ae7 b93a cd20 223b bc2e 353b 0f11 2b3b
00000120: 4f7e 973a 138f d63a 0771 a73a 1672 3f3b
00000130: 6882 033b 184f aa3a ace9 613a 0ae7 a93a
00000140: 3c94 7a3a fcb9 1c3b 10b3 f93a cb32 b23a
00000150: 1de2 b13a b7bb ee3a c551 bd3a e80b 463b
00000160: b18a 0e3b fe85 d23a 3a5b b33a 039a f63a
00000170: ab9f cd3a 2b4f 343b 20ae fd3a e970 d03a
00000180: 95d9 883a ff03 d93a 0bb6 973a c3a6 323b
00000190: d647 f63a 8e76 983a 7972 b33a b11c de3a
000001a0: 1697 bb3a cac8 3e3b f530 0e3b 5e4e d23a
000001b0: b130 bf3a 8328 e63a e8bf c73a 1e4a 483b
000001c0: 392d 0a3b cd66 d63a b482 d5b5 5140 5534
000001d0: c180 35b5 9c40 85b5 8543 77b5 7d89 9fb5
000001e0: dac2 b83a 9841 f93a e3a1 d23a 504d 483b
000001f0: 06e0 063b b58e bf3a 95a3 d03a cd7d 0e3b
00000200: b9a4 f23a 8433 5e3b 2c16 1d3b bca9 db3a
00000210: dc5d 0f3c c2eb 2c3b baf7 723c 435a bb3c
00000220: 384b 043c 05f3 723c 4b63 9f3a 5e1c dd3a
00000230: 80d3 ae3a 8734 373b 296e 083b 6b19 bc3a
00000240: 01a7 513b 36b5 643b 38e6 8d3b 2f77 ba3b
00000250: ac73 6d3b 20a8 1c3b 6cbb 4b3b 0b50 833b
00000260: 0af5 893b 6e11 a73b 4463 433b 9e74 1a3b
00000270: a05c b73a fff7 023b 129c d23a 2ae5 443b
00000280: 00af 053b 2bf5 bc3a 2e08 ce3a 9397 103b
00000290: fe72 043b 07e7 6c3b 8b67 053b 6155 ad3a
000002a0: 18c5 733c 843e 7c3c b554 dc3c 2518 ff3c
000002b0: 2e99 a53c 1660 d03c bb2e adb4 45b2 b1b4
000002c0: 189e dfb4 fd43 9bb4 c1b6 c9b4 ab81 d0b4
000002d0: 6ff6 a33a f196 f13a c57e bd3a 0da5 453b
000002e0: df22 fb3a 71e4 ac3a 19f1 813a 2d37 de3a
000002f0: 4241 9c3a e714 303b 2dc1 db3a 0f84 8a3a
00000300: aedc d7ba d784 a9ba 6c39 383a d9d1 17bb
00000310: a3ef 39ba 45cd 8cba cfd3 803c b251 803c
00000320: ed89 cf3c a0d7 f43c 22bb a73c 86c2 bf3c
00000330: eb9f bb3d a903 9e3d fbe0 073e 7d69 0d3e
00000340: c777 883d 64e5 173e 738c 943a 0c05 ea3a
00000350: 6a63 ab3a d87a 2a3b fbc4 d93a a5c0 933a
00000360: 2c0f b33a c90d cc3a fe78 b43a e9e6 3b3b
00000370: 8051 193b 7f4c eb3a b810 d43a ec00 023b
00000380: 117f ec3a 8307 553b 686d 1a3b 0a7b e23a
00000390: 7ab6 a33a bbd7 c03a 8faa a73a 3dc2 3b3b
000003a0: 1ea8 1e3b 0182 f83a 0c2d fdb1 f66c 0ab1
000003b0: dab5 01b3 8921 d7b2 c6f1 f1b0 300d 1eb2
000003c0: 5905 673a 1761 953a 5ad2 7f3a 9f65 1a3b
000003d0: 3170 f23a 9e8f a53a a94f c13a 6299 003b
000003e0: 796c d53a 5d59 543b f5bb 093b cf53 c03a
000003f0: 0e4e da3a 71d9 123b 305b f13a fd90 523b
0.011051991 0.011460003 0.018555587 0.021637479 0.014969188 0.01786983 0.001396607 0.0018205559
0.0015449914 0.0029866835 0.0020537262 0.0016487174 0.0017915027 0.0023259106 0.0020309056 0.0035945103
0.0022981418 0.0017015674 0.0011502625 0.001535699 0.0013207706 0.0028138976 0.0019677016 0.0012736063
0.0013540966 0.0016815647 0.0014029032 0.0028468694 0.0021421807 0.0018269662 0.0010668605 0.001330489
0.001152102 0.0023624678 0.0018213881 0.0013689805 0.006307414 0.0042161737 0.009425899 0.012073026
0.008128553 0.012215845 0.0015278674 0.0020610748 0.001792598 0.0031104556 0.0020734274 0.0015704118
0.022980174 0.08704652 0.13658273 0.0694471 0.11097921 0.14200255 0.0008564142 0.0016167867
0.0012504735 0.0019594703 0.0010025367 0.0003946179 0.000998556 0.0013093632 0.0010537377 0.0024476063
0.0018756962 0.0014426394 0.0012910458 0.0009948435 0.0014183365 0.002473879 0.0027646264 0.0026102697
0.0011558029 0.0016369544 0.0012774774 0.0029212288 0.0020066742 0.0012993542 0.00086178887 0.0012962532
0.0009558832 0.0023914566 0.0019050557 0.001359546 0.0013571415 0.0018213902 0.0014443925 0.00302195
0.0021750147 0.0016061661 0.0013683804 0.001881421 0.0015687844 0.0027513008 0.0019354261 0.001590279
0.0010440821 0.0016556977 0.0011574639 0.0027260042 0.0018789719 0.0011632012 0.0013690732 0.0016945807
0.0014311995 0.0029111379 0.002169666 0.0016045084 0.0014586655 0.0017559681 0.0015239688 0.0030561755
0.0021084084 0.0016357541 -1.5907776e-06 1.9860569e-07 -6.7615116e-07 -9.928076e-07 -9.2112924e-07 -1.1886438e-06
0.0014096156 0.0019016741 0.0016069975 0.003056366 0.0020580306 0.0014614674 0.0015917892 0.0021742464
0.0018512226 0.0033905217 0.0023969514 0.0016758959 0.008750405 0.002638564 0.01482957 0.022870189
0.008074574 0.014828448 0.0012160329 0.0016869416 0.0013338178 0.0027954893 0.0020817614 0.0014350837
0.0031990411 0.003489805 0.0043304227 0.0056904773 0.0036232276 0.0023903921 0.0031087054 0.0040073446
0.004210119 0.0050985133 0.0029813806 0.0023568044 0.0013989396 0.0019984243 0.0016068241 0.003004382
0.0020398498 0.0014416327 0.001571899 0.0022063002 0.0020210142 0.0036148445 0.0020355906 0.0013224297
0.014878534 0.015395764 0.02689586 0.031139443 0.020214643 0.025436442 -3.2257762e-07 -3.3098527e-07
-4.1652015e-07 -2.8920468e-07 -3.7572138e-07 -3.8837365e-07 0.0012509356 0.0018431825 0.0014457336 0.0030158192
0.0019160173 0.001319064 0.0009913772 0.00169537 0.0011921304 0.0026867928 0.0016765945 0.0010567921
-0.0016468966 -0.0012933266 0.00070275995 -0.002316585 -0.00070928986 -0.0010742327 0.015725998 0.015663955
0.025334323 0.029887974 0.020474974 0.023408186 0.09161361 0.07715542 0.13269417 0.13809772
0.06663471 0.148336 0.0011333361 0.0017854287 0.0013075892 0.0026013162 0.0016614491 0.0011272623
0.0013661138 0.0015568073 0.0013768969 0.0028671569 0.0023394525 0.0017951875 0.0016179299 0.0019836975
0.001804324 0.0032505698 0.0023563746 0.00172791 0.0012490295 0.001471273 0.0012791919 0.002864971
0.0024209092 0.0018959643 -7.3683903e-09 -2.014358e-09 -3.0200546e-08 -2.5044544e-08 -1.7603774e-09 -9.199809e-09
0.00088127475 0.0011396733 0.0009758823 0.0023559106 0.001849657 0.0012631302 0.0014748472 0.0019622673
0.0016282938 0.0032401897 0.0021016572 0.0014673414 0.0016655342 0.0022407437 0.0018414017 0.0032129877

onnx::LSTM_337 f4 [2, 256, 64]
00000000: 869b fe39 939b 35ba 7751 24ba a772 223a
00000010: da6e 2e3a df9a 12ba 0a68 5739 15b3 323a
00000020: 5bee 283c aa10 12ba a85f 273a 2e18 103a
00000030: 385f 293a d0ae 1dba 3355 363a 20a0 1a3a
00000040: 81b9 08ba 5c17 313a c167 513a dea6 f136
00000050: ae82 013a 033c 193a 855f 7db9 1846 363a
00000060: 7504 fbb9 401c 16ba 2ace 133a f6a2 14ba
00000070: e655 113a ff2c 8bb6 ea62 17ba 52fa 05ba
00000080: ecca 0abb 0912 24ba 7806 68bc 15bb 1d3a
00000090: b831 313a 4c73 1d3a 7688 273a a71f 4a36
000000a0: 9057 2d3a 14ec 24ba 6f94 2fba f3c3 3aba
000000b0: 9bd1 2f3a b1e0 20ba 8b2d 2dba 6966 2eba
000000c0: c812 40ba 2ed3 2dba ebfb 21bb 7eda fb39
000000d0: b009 7db5 3343 4cba 5aa4 2fba c8b6 353a
000000e0: fbdb 02ba 11df 3cba 4158 03ba fde0 113a
000000f0: 8ee9 14ba a2f2 a4bc aae6 0abc 2ed5 173a
00000100: 8537 f138 1a29 4d39 60cf 5f39 8578 58b9
00000110: 112c 47b9 5328 3b39 859a 7ab8 7ece 51b9
00000120: 757c 5dba 7d2d 3839 ef6b 3cb9 b2c4 cfb8
00000130: fc72 54b9 923d 3e39 0316 4eb9 0a39 37b9
00000140: 21f5 5139 772d 4bb9 640d 47b9 42fb 1ab6
00000150: f10a 5db9 1926 60b9 56a0 86b9 abec 4bb9
00000160: 4055 8b39 c639 7f39 ef98 51b9 b922 7039
00000170: 4a12 0b39 92ab 8fb4 9827 6339 d004 5439
00000180: 9008 fcb8 c279 1cb9 41c7 c3b8 8cdf 44b9
00000190: 5841 4cb9 8b0d 52b9 0071 4cb9 201a c9b3
000001a0: f0c4 3db9 8fda 5d39 e8e4 4339 e540 4b39
000001b0: 8043 4bb9 0063 a7bb 21d6 4339 7e76 5539
000001c0: a70d 4f39 e0a9 ffb8 4b45 1eb9 fa69 47b9
000001d0: bd68 04b5 b7e6 2239 5b47 5739 7a8f 43b9
000001e0: 3cd2 78b8 e320 3539 e4c0 4e39 1221 48b9
000001f0: 2e1d 3d39 53ee 92ba 544d 4f3a 0d1e 61b9
00000200: 97fb 8d38 6df3 8139 7ee7 8b39 47c1 85b9
00000210: 768f 7cb9 b779 6739 3dff edb8 0bbd 85b9
00000220: 661e 9cba a479 6639 c67f 6db9 194d 08b9
00000230: 66e6 83b9 650a 6f39 4b0a 83b9 30e0 65b9
00000240: a470 7d39 5a2f 80b9 b217 82b9 026a 15b6
00000250: cb3d 84b9 9292 88b9 b551 a3b9 8cea 80b9
00000260: 57a7 ad39 0755 a239 94dc 80b9 7b1f 9639
00000270: a05a 8438 7dec 1eb5 2f23 8a39 c5fd 8139
00000280: a388 24b9 debd c1b8 b707 c839 0c14 76b9
00000290: 9332 83b9 59f9 81b9 2905 7eb9 8a43 9034
000002a0: c196 70b9 555f 8a39 e8e1 7939 a056 8139
000002b0: 6975 81b9 a24b b3bb 4dab 7839 ff36 8539
000002c0: af7c 8639 ff5d 8db8 16a0 5bb9 7897 6db9
000002d0: 00cb a3b4 1ca2 6039 fc79 8739 249b 79b9
000002e0: b48b 01b8 4729 6e39 18b0 7839 e736 75b9
000002f0: 32ea 6839 4440 80ba 5533 a63a 0b37 8db9
00000300: 75a0 6b38 720f 4f39 c894 6139 7327 55b9
00000310: 2ddf 49b9 1a25 3f39 c6dc f5b8 3b84 51b9
00000320: 4e8d 9fb9 cf4f 4139 f272 41b9 d950 f4b8
00000330: f3b7 4fb9 6aeb 4339 9891 4cb9 0f75 40b9
00000340: 7f82 5239 4bef 49b9 657c 49b9 f0a7 50b6
00000350: cefc 5cb9 ae51 5db9 301c 81b9 a1b6 4cb9
00000360: 2cff 8839 d190 8039 7426 55b9 f50f 6a39
00000370: 6198 9238 d5fa 8fb4 7eb1 5e39 f987 5439
00000380: dcd6 3ab9 5e3b d1b8 7067 b4b9 ed12 44b9
00000390: 69d6 4cb9 d807 56b9 9c13 4cb9 d36e 2935
000003a0: 5a08 40b9 96a5 5939 bc0e 4a39 133b 4b39
000003b0: 0750 4fb9 6362 9bbb 2256 4939 d87f 5539
000003c0: 6701 5139 af98 a6b8 afc7 60b9 5959 4ab9
000003d0: a5be 9fb5 c0d7 2939 501d 5539 721c 45b9
000003e0: 659c 15b8 a396 3639 af9c 5039 fee9 47b9
000003f0: c9c8 4639 e5f7 7bba 8b4a 253a 7557 61b9
0.0004856253 -0.00069277844 -0.0006268243 0.0006196894 0.00066540914 -0.00055925356 0.00020542755 0.00068168464
0.010310735 -0.0005571941 0.00063847983 0.0005496767 0.0006461027 -0.0006015124 0.00069554447 0.0005898494
-0.00052156305 0.0006755495 0.0007988178 7.2017856e-06 0.0004940432 0.0005845429 -0.00024163544 0.0006953194
-0.0004787777 -0.00057262555 0.0005638326 -0.0005670035 0.0005544111 -4.147761e-06 -0.0005774932 -0.0005110848
-0.002117808 -0.0006258791 -0.0141616985 0.0006016952 0.0006759423 0.0006006255 0.00063908787 3.011877e-06
0.0006612474 -0.0006291282 -0.00066978385 -0.00071245356 0.0006706954 -0.0006136997 -0.00066062127 -0.00066528335
-0.00073270174 -0.00066308945 -0.0024716805 0.0004803724 -9.426394e-07 -0.0007791996 -0.00067002105 0.00069318386
-0.0004991886 -0.00072048703 -0.0005010404 0.0005564837 -0.00056805543 -0.020135228 -0.008477846 0.0005791959
0.00011502117 0.00019565635 0.0002134419 -0.00020644262 -0.00018994535 0.00017848732 -5.9748552e-05 -0.00020008718
-0.00084490265 0.00017564553 -0.00017969286 -9.9071665e-05 -0.0002026073 0.00018142749 -0.00019653891 -0.00017473489
0.00020023111 -0.00019376526 -0.00018983107 -2.309404e-06 -0.00021080278 -0.00021376497 -0.0002567793 -0.00019447754
0.00026575662 0.00024340217 -0.00019988765 0.00022901119 0.00013262886 -2.676066e-07 0.00021663157 0.00020219688
-0.00012017891 -0.00014922678 -9.3354385e-05 -0.00018775294 -0.00019479298 -0.00020032206 -0.00019497052 -9.364544e-08
-0.0001809781 0.00021157622 0.00018681923 0.00019383764 -0.00019384734 -0.0051082373 0.00018676418 0.00020357405
0.00019746144 -0.00012190989 -0.00015093868 -0.00019017598 -4.9326246e-07 0.00015535472 0.0002053058 -0.00018650098
-5.9323604e-05 0.00017273756 0.00019717548 -0.00019085806 0.00018035315 -0.0011209942 0.0007907946 -0.00021468867
6.770266e-05 0.00024786164 0.0002668462 -0.0002551174 -0.00024086036 0.00022075219 -0.000113485825 -0.00025508585
-0.0011910915 0.00021979824 -0.0002264968 -0.00012998692 -0.00025157927 0.00022796688 -0.00024993936 -0.00021922658
0.00024169922 -0.00024449342 -0.00024813187 -2.2264435e-06 -0.0002522304 -0.00026049145 -0.0003115066 -0.00024588814
0.0003312181 0.00030962398 -0.00024578406 0.00028633684 6.311131e-05 -5.920372e-07 0.00026347625 0.0002479387
-0.0001569116 -9.238323e-05 0.0003815272 -0.00023467856 -0.00025023948 -0.00024790576 -0.0002422525 2.687123e-07
-0.00022944344 0.0002639244 0.00023830647 0.00024669338 -0.00024692275 -0.0054716626 0.00023714938 0.00025408712
0.00025651368 -6.740912e-05 -0.00020945104 -0.00022658508 -3.0508818e-07 0.00021422695 0.00025840092 -0.00023804285
-3.0886105e-05 0.00022712826 0.00023716723 -0.00023385473 0.00022212489 -0.0009784778 0.0012680093 -0.00026934626
5.6177803e-05 0.00019746812 0.00021513097 -0.00020327959 -0.00019251993 0.00018229001 -0.000117236326 -0.00019981053
-0.00030432123 0.00018435645 -0.00018448735 -0.00011649886 -0.00019809585 0.00018684348 -0.00019509194 -0.00018354155
0.00020075774 -0.00019257997 -0.00019215194 -3.1092168e-06 -0.00021075012 -0.0002110663 -0.000246258 -0.0001952299
0.0002613006 0.0002452196 -0.00020327588 0.00022321923 6.990205e-05 -2.681833e-07 0.00021237691 0.00020268549
-0.00017818384 -9.9769546e-05 -0.00034409342 -0.00018699067 -0.0001953483 -0.00020411552 -0.00019462261 6.3118677e-07
-0.00018313658 0.00020756418 0.0001926971 0.00019381595 -0.00019770871 -0.004741953 0.00019200941 0.00020360888
0.00019932316 -7.943936e-05 -0.00021436693 -0.00019297506 -1.1901908e-06 0.00016197469 0.00020324183 -0.00018797981
-3.5670022e-05 0.00017412989 0.00019894795 -0.00019065288 0.0001895755 -0.00096118293 0.0006305358 -0.00021490252

onnx::LSTM_378 f4 [2, 512]
00000000: cb43 6a3a 090c a23a 0ba0 dc3a d8a3 d43a
00000010: c9c7 2c3c ad2a d03a eaf1 023b 024c b63a
00000020: 942d e23a 6996 7a3a 1e70 de3a b641 a33a
00000030: 0935 ad3a 2ab8 1b3c 16e9 1b3b c08d 443a
00000040: 70aa 9d3a fde7 9b39 2c3d 253c 3f99 fc3a
00000050: fc74 d53a f93d 083b 2da7 a83a 25e6 043b
00000060: c7a4 cf3a 9a49 333b 960b 063b 881a 793a
00000070: 98a8 f83a 1c55 283c 17b1 423b 34f6 143c
00000080: 85c3 943a b1db 173c d0b5 883a fe08 fd3a
00000090: 7af0 f73a bacd ee3a 6ab2 123b 1c42 083b
000000a0: 9615 213c 806c 813a 6c7d 903a c68c 3f3c
000000b0: 4a14 093b d262 4f3b ee14 bd3a c4bf 0b3b
000000c0: 3b37 b83a 0efb 9b3a 1264 2b3c 68a8 183b
000000d0: 4bf9 043b 21d6 be3a 27ea a03a bd2f fa3a
000000e0: 872b 323c 7f08 0d3c b7f2 8638 b599 3a3c
000000f0: a3b2 283c 5f0a 0c3b df63 043b 772a e33a
00000100: 6a74 6a3a 172b a23a 0ab9 dc3a 9a93 d43a
00000110: 14bf 2c3c d719 d03a fff3 023b 9028 b63a
00000120: 6026 e23a 0434 7a3a da72 de3a 6d4b a33a
00000130: d624 ad3a 8db4 1b3c 5e00 1c3b 3a7c 443a
00000140: 88a9 9d3a 617a 9b39 f53f 253c 7881 fc3a
00000150: 5f70 d53a fa6a 083b cd9e a83a 3ced 043b
00000160: 4c90 cf3a b46e 333b 451c 063b cf24 793a
00000170: 0c99 f83a a147 283c aacb 423b 96eb 143c
00000180: 38ce 943a e6d3 173c f199 883a 5b31 fd3a
00000190: 070b f83a ced9 ee3a 90a2 123b e04a 083b
000001a0: 930e 213c c070 813a c365 903a b883 3f3c
000001b0: 182f 093b dc63 4f3b 3d1a bd3a c4c9 0b3b
000001c0: 9232 b83a 57f5 9b3a 6759 2b3c 23b3 183b
000001d0: 9233 053b 8dcc be3a 37eb a03a d52f fa3a
000001e0: b822 323c f201 0d3c 8136 8438 9190 3a3c
000001f0: 2fb3 283c 510d 0c3b a65b 043b 0427 e33a
00000200: d010 ae3a dda8 103b 0145 d33a bbe2 0b3b
00000210: d7a4 333c e617 fc3a f99c 103b 6208 ef3a
00000220: 580f 123b 2351 7c3a adc8 0c3b e875 af3a
00000230: 0cb7 db3a a1f0 2b3c 6d1b 303b f8e2 a83a
00000240: 06ba ca3a a949 853a eb82 363c 4a35 2a3b
00000250: 1312 f93a 6029 283b b9c3 033b 86a4 303b
00000260: 0b7a 073b a52b 593b 0f8c 383b 9255 a03a
00000270: 3ab8 053b cb40 2e3c 7150 413b 4fef 203c
00000280: d13d cf3a fcdb 1f3c 7300 ca3a ee92 233b
00000290: 10e6 073b d88d 2b3b b8c0 2f3b ee3f 433b
000002a0: 4bd7 313c c44d 803a ec83 a13a b1c3 463c
000002b0: 6cfe 3c3b 04f9 453b bb47 063b 9631 1a3b
000002c0: 360f f43a 0026 b53a 894a 353c e777 2a3b
000002d0: 767e 223b dbdb 0f3b 4471 f23a e144 2d3b
000002e0: d4fa 363c efae 1a3c 4ad5 593a c5f6 3e3c
000002f0: 4d1b 383c e695 1a3b dcae 1b3b 6210 033b
00000300: 656b a839 4683 c139 5ff1 96b9 7501 113a
00000310: 1b5c e33a edfa 0eba 22d2 09ba 9c82 e0b9
00000320: 601a f5b9 ce5a 86ba c29a b338 fc30 b83a
00000330: 6664 1fba 4961 97b7 3c81 aaba 7593 8cba
00000340: a267 9c38 8d2b 2eba dc41 30bb eeb8 643a
00000350: a7cc fc39 6e34 b3b8 bd29 d0ba 2692 4d3a
00000360: 0c66 bdb9 3cf8 ed3a 8d49 3fba daec 99ba
00000370: e1d8 4039 b2e0 55ba c0e2 933a 59e9 a63a
00000380: 2c70 c638 e69a 03bb dec3 4939 7e3e 513a
00000390: f4e0 533a 7e48 b83a 2145 0bba 9c3a 3fb9
000003a0: 8466 afba 694f 5bba 7cb0 3dba c84d 913a
000003b0: 4304 543a 3237 563a c7ba 3fb9 0e2c 88ba
000003c0: d098 cb3a f25c db3a f983 85bb 1e74 4438
000003d0: 4234 d63a d561 6839 b036 71b9 93a1 073a
000003e0: d611 a63a 58d9 753a 02db c63a 3d36 083a
000003f0: dd1c 18bb 410c 87ba c9e9 08ba 0ac3 85ba
0.00089364935 0.0012363206 0.0016832364 0.0016223146 0.010545679 0.0015881859 0.0019980618 0.001390815
0.0017256015 0.0009559156 0.0016970669 0.0012455496 0.0013214658 0.009504357 0.0023790053 0.0007497929
0.0012028944 0.0002973675 0.010085385 0.0019271745 0.0016285474 0.0020788892 0.0012867205 0.0020278778
0.0015841954 0.0027357102 0.0020453683 0.00095025497 0.0018971143 0.010274198 0.0029707605 0.0090919025
0.0011349773 0.009268687 0.0010430161 0.0019305048 0.0018916272 0.001821927 0.0022384175 0.0020791357
0.009831807 0.0009874254 0.0011023707 0.011691278 0.0020916634 0.0031644595 0.0014425793 0.0021324018
0.0014054546 0.0011900382 0.01046087 0.0023293737 0.0020290192 0.0014559665 0.0012276814 0.0019087713
0.010874636 0.008607983 6.434827e-05 0.011389186 0.010296497 0.0021368486 0.002020113 0.0017331381
0.00089437386 0.0012372461 0.0016839814 0.0016218305 0.010543603 0.0015876841 0.0019981859 0.0013897587
0.0017253868 0.0009544494 0.0016971484 0.0012458392 0.001320983 0.009503496 0.002380393 0.0007495318
0.0012028674 0.00029655083 0.010086049 0.0019264659 0.00162841 0.0020815716 0.0012864709 0.0020283004
0.001583585 0.0027379217 0.0020463627 0.0009504081 0.001896651 0.010270984 0.0029723444 0.009089371
0.0011352962 0.009266829 0.0010421855 0.0019317077 0.0018924185 0.001822287 0.0022374727 0.0020796582
0.009830135 0.0009875521 0.0011016655 0.011689119 0.002093261 0.0031645214 0.0014427375 0.0021329978
0.0014053157 0.0011898678 0.010458327 0.0023300133 0.0020324928 0.001455681 0.0012277131 0.0019087741
0.010872535 0.008606421 6.3044026e-05 0.011387006 0.010296627 0.0021370242 0.0020196228 0.0017330353
0.0013280157 0.0022073307 0.0016118587 0.0021344859 0.010964594 0.0019233197 0.002206622 0.0018236751
0.0022286978 0.00096251274 0.0021481917 0.0013386579 0.0016762926 0.010494382 0.0026871816 0.0012885025
0.0015466816 0.0010169047 0.011139612 0.0025971704 0.0019002579 0.0025659427 0.0020105673 0.0026953532
0.0020672109 0.0033137586 0.0028159653 0.0012232533 0.0020403997 0.010635565 0.002949741 0.009822681
0.0015811269 0.009757038 0.0015411511 0.0024959403 0.0020736493 0.0026177075 0.002681775 0.0029792744
0.0108545525 0.0009788801 0.0012322641 0.012131617 0.002883817 0.003020824 0.0020489532 0.002352809
0.0018620256 0.0013820529 0.011065134 0.0026011409 0.0024794615 0.0021951112 0.001849689 0.002643876
0.0111682005 0.0094411215 0.00083096756 0.011655514 0.011236978 0.0023587882 0.0023755347 0.0019998779
0.00032123472 0.00036909635 -0.00028790065 0.0005531528 0.0017346175 -0.0005454261 -0.00052574475 -0.0004282192
-0.00046749692 -0.001025045 8.564211e-05 0.0014052684 -0.0006080329 -1.8045905e-05 -0.0013008486 -0.0010725098
7.457963e-05 -0.0006644063 -0.0026894724 0.00087250664 0.00048217663 -8.545151e-05 -0.001588158 0.0007841907
-0.0003612492 0.0018155645 -0.00072970317 -0.0011743561 0.0001839134 -0.00081587874 0.0011282787 0.0012734338
9.4622694e-05 -0.002008134 0.0001924182 0.00079820293 0.0008082532 0.001405969 -0.000531273 -0.00018237013
-0.0013381992 -0.000836602 -0.0007236076 0.0011085803 0.0008087793 0.0008171677 -0.0001828476 -0.0010389106
0.0015533213 0.0016736074 -0.0040745703 4.6838184e-05 0.0016342478 0.0002216169 -0.00023003924 0.0005173918
0.001267011 0.0009378395 0.0015171471 0.00051960704 -0.0023210563 -0.0010303335 -0.0005222825 -0.0010205221

onnx::LSTM_379 f4 [2, 256, 128]
00000000: c8dd 0f37 a233 2b39 a066 4339 bd40 e3b8
00000010: d85b 2eb9 641a ca38 0d07 f4b7 77b4 0fb9
00000020: 5c4f 6a3a 9e04 3f38 7cfc c8b8 137c 0fb9
00000030: f2e6 0fb9 6371 2939 b466 e8b7 557a 0bb9
00000040: af35 6b39 83e1 25b9 1d30 57b9 72e6 9bb6
00000050: acf8 04b9 1e6a f3b8 6cef cab7 40ca 7db8
00000060: fe87 5d39 d6db e538 f5f2 15b9 ad79 5039
00000070: f3af 66b8 a2c9 0f35 3af5 7f38 2421 2439
00000080: daa9 9b37 74e6 1c37 20a1 1db9 f814 3cb9
00000090: c8e1 1db9 1189 6ab9 96fd ddb8 a7e1 43b5
000000a0: cb8f 51b9 ea13 0e39 58f9 db38 0f33 ac37
000000b0: 5cc5 35b9 340e 30bb f546 0239 2646 4a39
000000c0: caa4 0039 91c5 d837 140a c7b8 3883 18b9
000000d0: 3cdb 9db5 c60a d737 d0ac 6739 b133 34b9
000000e0: 7a88 4338 8dbf 2339 97c0 8538 5a7f 6db8
000000f0: ca21 1f39 76cd 01ba a12d 54ba 8796 d1b8
00000100: 8815 6eb5 c2e8 8d35 717b 5133 6000 ac30
00000110: d8db 2ab5 5656 cda8 fce5 b835 08d4 f831
00000120: ad62 fc35 144b 92b5 cf7e a136 bfe0 0db1
00000130: bd07 ab28 7fd3 2f2f 298e 99ad fbe3 a227
00000140: 27a3 37ac cb9d 2c2e 8ef0 e72b 2b5b be31
00000150: 4681 eb2b fb8b 82aa 55c3 65af 446a a332
00000160: d50c 02a8 4196 8a33 de82 8e35 9eb5 c035
00000170: ebff bd33 2eac 922f 12a0 00b5 d96c 2f2e
00000180: a3d9 8433 32c4 9bb3 9b88 5a31 7e81 012c
00000190: 004e 542b 612a b135 5754 bd34 faec 78b0
000001a0: f759 a9b2 b448 5c36 b73e a6b3 c8ac b82e
000001b0: 7ec3 a4ac 4126 1eb3 f83f dbaf a66e 0a33
000001c0: 192b cc33 cc12 a2b5 1ac0 0ab4 f838 0c2b
000001d0: 71d9 4034 7b47 fb2a e4e3 e532 77e3 8e2f
000001e0: 8060 9934 ea1a 232c 30e0 a035 47a7 9629
000001f0: aa15 872f 6c80 5533 a843 3c32 b8ea dab0
00000200: f247 24b8 8153 9238 68db 1538 7e82 c9b8
00000210: 9eb5 0838 1148 adb8 fa5a 9a38 ab7a 3eb8
00000220: 448a ce3a 4c35 d5b3 255f 0538 37b9 ecb8
00000230: 2298 adb8 e477 ff38 40f1 c238 54fd c637
00000240: aac3 5d39 291e 8137 f681 46b9 31ef ecb6
00000250: 8939 88b8 91d3 0bb8 c5e7 a738 c43b 6eb6
00000260: 07ba 6639 7786 c438 686b 82b8 e945 0038
00000270: edaa c8b5 af9a 8b35 9478 ecb7 6c02 b738
00000280: e997 c239 b6c9 71b7 7485 8aba bd82 07b9
00000290: 954d d3b7 ace4 b4b8 b3ed ed37 c79b 7ab5
000002a0: ba81 1db9 3f9b 5438 afc5 e138 0e30 b0b8
000002b0: 80a1 fab8 29be 2bbb 94c3 6237 a390 ad38
000002c0: fe7a f337 b46b c0b8 2d3e 6639 5cc9 8cb8
000002d0: 12b6 74b6 c100 c738 2e90 9f38 542a f7b8
000002e0: 451e 0239 5df6 b138 f21d 0bb8 2d4c 8c38
000002f0: 79b9 3e39 2db8 37b9 1e8d c6ba 5734 3f38
00000300: ba8a 90b5 dd4e 1136 874b a033 7ec0 d532
00000310: 43ba a1b5 5991 ba28 6d7a fdb5 6508 9731
00000320: 0907 0536 28ca 94b5 3df1 0737 d7b7 06b1
00000330: 8728 8c28 8850 872f 68d8 daae fa51 7927
00000340: ddab 9aab f85b bead a5cd e92b b5bc 6932
00000350: b434 ed2b 7550 b1aa eefd 58af 4fd2 3633
00000360: f055 18a8 d953 ae33 af3f 47b4 50cf f735
00000370: eb74 0234 9921 852f 7942 8f32 6300 852e
00000380: 07d8 8b33 f15a d2b3 40f6 3331 b1cc e12b
00000390: df26 872b 530b 7835 87a0 96b5 5c11 65b0
000003a0: 4a7b 0ab5 629a 3536 14f2 feb3 a9c0 64b0
000003b0: 390e bfac f236 22b3 241d 3ab0 0b36 dd32
000003c0: 6fad 57b3 1d70 c2b5 4387 afb3 776f 1b2b
000003d0: 2f16 e4b4 feca 7a2a c769 81b3 46a6 a22f
000003e0: 843a a334 3c37 062c 7359 9935 d117 9729
000003f0: 51b6 e7ae 63b0 a732 f54c 0f33 8e30 ecb0
8.575102e-06 0.00016327066 0.0001863488 -0.00010836262 -0.00016628148 9.637026e-05 -2.909035e-05 -0.00013704771
0.0008938217 4.554225e-05 -9.583772e-05 -0.00013683764 -0.00013723577 0.00016159336 -2.770438e-05 -0.00013301645
0.00022431345 -0.00015819636 -0.00020521921 -4.6461873e-06 -0.00012681138 -0.00011606909 -2.4191766e-05 -6.050826e-05
0.00021126863 0.000109605186 -0.00014300256 0.00019881754 -5.500014e-05 5.3565066e-07 6.1025123e-05 0.00015652605
1.8556533e-05 9.351981e-06 -0.0001503271 -0.00017936889 -0.00015056797 -0.0002236704 -0.00010585335 -7.297153e-07
-0.0001998536 0.00013549594 0.00010489178 2.0527774e-05 -0.00017335027 -0.0026863934 0.000124242 0.00019290354
0.0001226842 2.5841206e-05 -9.490937e-05 -0.00014544732 -1.1761217e-06 2.5635014e-05 0.00022094254 -0.00017185394
4.6618727e-05 0.0001561625 6.377807e-05 -5.662381e-05 0.00015176009 -0.00049515755 -0.00080939574 -9.9939345e-05
-8.869324e-07 1.057306e-06 4.8773874e-08 1.2514754e-09 -6.364985e-07 -2.2797014e-14 1.3776003e-06 7.241855e-09
1.8804182e-06 -1.0899698e-06 4.8129364e-06 -2.0645954e-09 1.898817e-14 1.5991296e-10 -1.7457218e-11 4.521121e-15
-2.6096432e-12 3.924842e-11 1.6480305e-12 5.5400924e-09 1.6733635e-12 -2.318977e-13 -2.0896825e-10 1.9024021e-08
-7.219232e-15 6.453457e-08 1.0617912e-06 1.4357972e-06 8.8475495e-08 2.6679586e-10 -4.791665e-07 3.988707e-11
6.186317e-08 -7.253438e-08 3.1800826e-09 1.8403885e-12 7.5425777e-13 1.3199862e-06 3.526536e-07 -9.055864e-10
-1.97151e-08 3.2824873e-06 -7.741385e-08 8.3980434e-11 -4.6828643e-12 -3.6822033e-08 -3.988132e-10 3.2231263e-08
9.50733e-08 -1.2075411e-06 -1.2922138e-07 4.981705e-13 1.7960498e-07 4.4636156e-13 2.6762741e-08 2.5991273e-10
2.8568684e-07 2.3178633e-12 1.1986176e-06 6.690356e-14 2.457175e-10 4.9709726e-08 1.09584235e-08 -1.5928299e-09
-3.916765e-05 6.977376e-05 3.5728706e-05 -9.608733e-05 3.259407e-05 -8.262706e-05 7.360238e-05 -4.5413773e-05
0.0015757759 -9.92828e-08 3.179828e-05 -0.00011287856 -8.27762e-05 0.00012181679 9.295577e-05 2.3721404e-05
0.00021149093 1.5392043e-05 -0.00018931166 -7.0611936e-06 -6.495702e-05 -3.333722e-05 8.006351e-05 -3.5499552e-06
0.0002200381 9.371054e-05 -6.218889e-05 3.0582687e-05 -1.4950907e-06 1.0401326e-06 -2.818954e-05 8.726571e-05
0.00037115745 -1.4411684e-05 -0.0010568337 -0.00012923307 -2.5189287e-05 -8.625662e-05 2.8363289e-05 -9.3358943e-07
-0.00015021014 5.0689323e-05 0.000107656575 -8.401285e-05 -0.00011951011 -0.0026205874 1.3516186e-05 8.2762235e-05
2.902513e-05 -9.175335e-05 0.00021957672 -6.713226e-05 -3.6464812e-06 9.4892e-05 7.6085664e-05 -0.00011785762
0.00012409042 8.4859064e-05 -3.316807e-05 6.689909e-05 0.00018188906 -0.00017520851 -0.0015148257 4.5586694e-05
-1.0769211e-06 2.1652588e-06 7.464319e-08 2.4883999e-08 -1.2049644e-06 2.0713183e-14 -1.88856e-06 4.3956327e-09
1.982264e-06 -1.1085694e-06 8.102795e-06 -1.9604067e-09 1.5560698e-14 2.4613578e-10 -9.951934e-11 3.4600131e-15
-1.099006e-12 -2.1641341e-11 1.6612724e-12 1.3605292e-08 1.6854491e-12 -3.1497344e-13 -1.97353e-10 4.256645e-08
-8.45633e-15 8.117758e-08 -1.8556487e-07 1.846327e-06 1.2149728e-07 2.4216432e-10 1.667762e-08 6.0482085e-11
6.511987e-08 -9.795429e-08 2.6187905e-09 1.6044025e-12 9.603116e-13 9.240368e-07 -1.122259e-06 -8.3334384e-10
-5.1588415e-07 2.7060964e-06 -1.18718305e-07 -8.3219703e-10 -5.4301255e-12 -3.7768537e-08 -6.7707817e-10 2.5752362e-08
-5.0216325e-08 -1.4486756e-06 -8.1736765e-08 5.522175e-13 -4.248445e-07 2.2274888e-13 -6.0262714e-08 2.9585773e-10
3.0403692e-07 1.9073207e-12 1.1425421e-06 6.7098786e-14 -1.053705e-10 1.952157e-08 3.3364774e-08 -1.718506e-09

onnx::LSTM_380 f4 [2, 256, 64]
00000000: 1b8b 8bb8 3c37 9db8 6467 1e38 d92e 9038
00000010: ce62 a3b7 c61f 83b8 8b4e 8a38 1d08 55b8
00000020: d92e 7fb8 0bd2 6bb8 6280 9d38 9e1d 6638
00000030: 6729 a2b8 c8f7 b4b7 14be 8438 1691 41b8
00000040: 4dce 66b8 0d09 7a38 b64f 7bb7 7b98 a138
00000050: 465e 85b8 c468 5938 c3cc 8db8 4927 9838
00000060: 5fa1 6eb8 49d7 c1b8 0f0e b938 5517 2cb8
00000070: 2956 6e38 c1b0 bb35 f5d9 89b8 5fd8 16b7
00000080: 132e 52b8 a1aa 4db7 e3a1 8738 6ea0 89b8
00000090: a9f6 76b8 344d b2b8 7349 98b8 a3a5 8db8
000000a0: b6f1 5337 504d 4a38 55a8 6db8 b663 9537
000000b0: 9a45 a7b8 3cfc 5638 ad99 6f38 7c69 a0b8
000000c0: b396 8538 705d 3838 1a78 fd37 0edb a5b8
000000d0: d12b 9bb8 07ae 9638 60d3 8938 24a2 a338
000000e0: d4f1 ecb7 ae61 b2b7 90db 4538 0570 33b7
000000f0: 1790 0c38 daf9 8138 f8ff 9fb8 8f64 8bb8
00000100: 0d75 b3b8 35a5 beb8 3b0a 7338 b32e ab38
00000110: 23c7 e3b7 2dc6 9db8 6fe5 ad38 0722 8fb8
00000120: c73d 8db8 8080 95b8 fab0 b838 b72e 8b38
00000130: 4d2c c2b8 f0bb 38b8 368c 9d38 4d4c 5eb8
00000140: 294e 8db8 fde1 9638 a690 f6b7 4fe2 c338
00000150: 852e a5b8 96cc 8338 2c6d a0b8 5c81 c638
00000160: 2fca 9cb8 829d 00b9 dd0c f638 f2e6 2cb8
00000170: dfa3 9138 17e8 0cb7 85c0 c8b8 7858 8fb7
00000180: 5dcf 97b8 4dc4 a5b7 2961 b938 811f c1b8
00000190: a35f a0b8 7008 eab8 9244 c5b8 5414 a7b8
000001a0: a999 cc37 9b1b 7a38 e7b3 90b8 91eb 0a38
000001b0: b8f7 d3b8 02a0 9338 673e 9a38 7e04 b6b8
000001c0: c171 9d38 1699 6c38 a731 5438 d110 cab8
000001d0: e94a cbb8 0cde bf38 204e a938 b4ee cf38
000001e0: a819 4ab8 026d 39b8 99b1 9038 321d afb7
000001f0: b38c 8138 4b33 a838 a49a c0b8 c0a1 a3b8
00000200: a5c2 b837 a185 ce37 3b3f 05b8 d185 8ab7
00000210: 7130 7337 9ad1 7e37 2888 a1b7 c085 9437
00000220: eabc a137 bd3c 3536 303c 28b7 d6f5 6db7
00000230: 1408 1733 022e 4f38 92b7 beb7 27d2 dc36
00000240: 7653 6537 abe4 5cb7 e26e 1638 0cd7 f7b6
00000250: e61b 7937 9c49 a5b7 91c6 09b6 b99f 86b7
00000260: e257 af37 2d71 0138 351e f6b7 a3e1 35b6
00000270: fa35 43b7 031b 4738 cf40 2338 fdab f037
00000280: eef4 d937 d46c d037 2667 a4b7 87f7 ef37
00000290: e357 f337 0039 0538 18aa 3737 8aca 8e37
000002a0: 02b5 02b8 8706 4db7 aa9e cc36 9410 3eb8
000002b0: c4d4 e637 a84e 0bb8 fae8 aab7 4816 d236
000002c0: a859 19b7 90c6 5ab7 afa1 1db8 6c51 ae37
000002d0: 42a7 ba37 9d6b c8b7 1a28 2db7 93aa a1b7
000002e0: 4709 4d38 7572 2338 9984 1bb7 a199 0d38
000002f0: 6ce9 42b8 7a7b cfb7 b8f9 5a36 6491 db36
00000300: c09e 84b8 c328 8fb8 38ad 4a38 d888 8b38
00000310: 9f0f 01b6 30a9 9db8 8f81 a038 a006 77b8
00000320: 07e9 84b8 d592 88b8 e8d1 b438 fb77 8238
00000330: c0a3 c8b8 e392 0837 7b9f 8438 0336 80b8
00000340: d566 82b8 5403 7c38 ae74 3537 3a15 a438
00000350: 720c 9ab8 b72b 6d38 6513 a8b8 0035 a638
00000360: c5da 87b8 2068 a0b8 f26c a538 fd25 58b8
00000370: 7fc0 8a38 920a 6737 3ddc 76b8 d2d7 1837
00000380: f552 4ab8 b89c a135 a0ec 8638 3dbe 86b8
00000390: 1b72 73b8 5457 9cb8 49f0 a1b8 ac71 9ab8
000003a0: ac1f f8b5 1179 3938 23e7 8db8 8129 8eb6
000003b0: 7656 9eb8 c7e5 7338 c1be 6f38 78f8 a9b8
000003c0: 2fac 9538 01ee 7d38 8ca8 9eb3 8ee3 a8b8
000003d0: 4dae 7db8 dd43 8838 6eb1 9638 3ba8 a738
000003e0: b768 9835 d909 1637 369d 6638 5b86 9a34
000003f0: 0613 96b5 5819 6838 5565 b8b8 ab4f 8fb8
-6.653947e-05 -7.4966316e-05 3.7766426e-05 6.875181e-05 -1.9477124e-05 -6.252485e-05 6.5949826e-05 -5.0790713e-05
-6.0840368e-05 -5.6223984e-05 7.5102565e-05 5.4863856e-05 -7.732474e-05 -2.1573054e-05 6.329655e-05 -4.6149908e-05
-5.5028406e-05 5.9613074e-05 -1.4979325e-05 7.70548e-05 -6.359494e-05 5.1834402e-05 -6.761544e-05 7.255242e-05
-5.689391e-05 -9.243057e-05 8.824106e-05 -4.1029725e-05 5.6823865e-05 1.3984028e-06 -6.573267e-05 -8.9910745e-06
-5.011081e-05 -1.225868e-05 6.4674554e-05 -6.5625514e-05 -5.888069e-05 -8.5020816e-05 -7.261606e-05 -6.754256e-05
1.2632858e-05 4.8232556e-05 -5.6661975e-05 1.7808616e-05 -7.976145e-05 5.1256487e-05 5.7125162e-05 -7.6490425e-05
6.370004e-05 4.395604e-05 3.0215877e-05 -7.908615e-05 -7.3991374e-05 7.1849725e-05 6.572041e-05 7.802647e-05
-2.8246002e-05 -2.126474e-05 4.7172944e-05 -1.0695313e-05 3.3512795e-05 6.197738e-05 -7.629389e-05 -6.646767e-05
-8.5571875e-05 -9.090678e-05 5.7945243e-05 8.162614e-05 -2.7153239e-05 -7.5232565e-05 8.292018e-05 -6.8251094e-05
-6.734911e-05 -7.128809e-05 8.806768e-05 6.636738e-05 -9.2588925e-05 -4.404405e-05 7.51246e-05 -5.2999985e-05
-6.7379624e-05 7.194651e-05 -2.9392842e-05 9.340478e-05 -7.876478e-05 6.284674e-05 -7.6497294e-05 9.465471e-05
-7.476319e-05 -0.00012265707 0.0001173259 -4.122308e-05 6.944662e-05 -8.398688e-06 -9.572603e-05 -1.7088125e-05
-7.2388655e-05 -1.9760942e-05 8.839585e-05 -9.208825e-05 -7.647208e-05 -0.00011159561 -9.406464e-05 -7.966967e-05
2.4390249e-05 5.9630354e-05 -6.8999645e-05 3.3121152e-05 -0.00010107405 7.03931e-05 7.3549156e-05 -8.679273e-05
7.507532e-05 5.6409357e-05 5.059098e-05 -9.635243e-05 -9.6937474e-05 9.148949e-05 8.0731e-05 9.914991e-05
-4.8184447e-05 -4.420896e-05 6.899535e-05 -2.087522e-05 6.1774066e-05 8.020418e-05 -9.1840775e-05 -7.802574e-05
2.2025148e-05 2.461934e-05 -3.176856e-05 -1.6513195e-05 1.4495207e-05 1.5188381e-05 -1.9256098e-05 1.7705257e-05
1.9280666e-05 2.7006456e-06 -1.0027594e-05 -1.4183539e-05 3.5164774e-08 4.9395494e-05 -2.2735247e-05 6.580976e-06
1.3668896e-05 -1.3166263e-05 3.5866055e-05 -7.3862084e-06 1.4848052e-05 -1.970381e-05 -2.0530172e-06 -1.6048421e-05
2.090255e-05 3.08614e-05 -2.9339551e-05 -2.710244e-06 -1.1635473e-05 4.7470454e-05 3.8922586e-05 2.8690318e-05
2.598247e-05 2.484621e-05 -1.9598356e-05 2.8606284e-05 2.9008783e-05 3.1762756e-05 1.0947253e-05 1.7022034e-05
-3.1162992e-05 -1.2220472e-05 6.0981447e-06 -4.531497e-05 2.7517213e-05 -3.3213437e-05 -2.0374067e-05 6.2610816e-06
-9.140385e-06 -1.3040044e-05 -3.7582296e-05 2.0780331e-05 2.2250813e-05 -2.389197e-05 -1.032094e-05 -1.9272125e-05
4.888445e-05 3.8968825e-05 -9.269593e-06 3.3760098e-05 -4.6470595e-05 -2.4733821e-05 3.2629887e-06 6.5436343e-06
-6.32382e-05 -6.826364e-05 4.8321876e-05 6.6535256e-05 -1.923159e-06 -7.517857e-05 7.653527e-05 -5.889556e-05
-6.337655e-05 -6.512335e-05 8.622167e-05 6.221231e-05 -9.567244e-05 8.140431e-06 6.323956e-05 -6.113576e-05
-6.218037e-05 6.008458e-05 1.0815607e-05 7.824083e-05 -7.34561e-05 5.6545916e-05 -8.014477e-05 7.925369e-05
-6.478051e-05 -7.648789e-05 7.888106e-05 -5.1533792e-05 6.616208e-05 1.3771134e-05 -5.8856083e-05 9.110156e-06
-4.8237813e-05 1.2041046e-06 6.433693e-05 -6.4250526e-05 -5.8041984e-05 -7.454926e-05 -7.721835e-05 -7.364465e-05
-1.8486658e-06 4.422019e-05 -6.7664565e-05 -4.2367615e-06 -7.550132e-05 5.814971e-05 5.7159694e-05 -8.104829e-05
7.136945e-05 6.054156e-05 -7.388107e-08 -8.0532496e-05 -6.048223e-05 6.497626e-05 7.185606e-05 7.994516e-05
1.1355359e-06 8.94299e-06 5.4982687e-05 2.8782492e-07 -1.1181407e-06 5.5336714e-05 -8.792678e-05 -6.833611e-05
