LOSO/models/model_without_subj_2.onnx (onnx, 550191 bytes, 8 tensors)

fc.weight f4 [2, 128]
0	0x3dcc7db9	0.09984917
1	0x3cf17c15	0.029478112
2	0xbd1bc6a4	-0.038031235
3	0xbce43e3d	-0.027861709
4	0xbd010e0c	-0.031507537
5	0x3d1d8f75	0.03846689
6	0xbd1d2911	-0.038369242
7	0x3d33e4ae	0.043919258
8	0x3d1bd50a	0.038044967
9	0x3d11a028	0.035553128
10	0xbd605320	-0.054766774
11	0xbd1d8383	-0.038455497
12	0x3d1040cf	0.035218056
13	0x3d29c193	0.041444372
14	0xbd0288a6	-0.0318686
15	0x3cee89b8	0.029118404
16	0x3d4ea420	0.05044949
17	0xbd302e0c	-0.043012664
18	0x3d01c34e	0.031680398
19	0x3d164204	0.03668405
20	0x3cedbc9e	0.029020604
21	0xbceb506d	-0.028724873
22	0x3ce550b7	0.02799259
23	0xbd20b7db	-0.03923784
24	0x3d1b8640	0.037969828
25	0x3d08d9be	0.03341078
26	0xbd0ace73	-0.03388829
27	0x3d114c1c	0.035472974
28	0xbd0bb778	-0.034110516
29	0xbd9fe5a6	-0.07807474
30	0x3cf9df62	0.030502025
31	0xbdafd7db	-0.08586093
32	0x3d243804	0.040092483
33	0xbd31bae9	-0.043391142
34	0xbd1a1929	-0.03762165
35	0x3d1ed273	0.03877492
36	0x3d054d33	0.032544326
37	0x3d2dccb3	0.042431545
38	0x3d421c47	0.04739025
39	0xbd8859cc	-0.066577524
40	0x3d8de036	0.069275305
41	0x3d100997	0.035165396
42	0x3cf70f34	0.030158617
43	0x3d4a15a1	0.049337033
44	0xbd262969	-0.040566836
45	0xbd239177	-0.039933648
46	0xbd263dce	-0.040586285
47	0x3d1ae495	0.03781565
48	0xbc98114a	-0.018562932
49	0xbcd7958a	-0.026316423
50	0x3d2a7beb	0.041622084
51	0x3cc66e3e	0.02422249
52	0x3d19c751	0.0375436
53	0xbd12ed69	-0.035870943
54	0xbd154adf	-0.036448356
55	0x3da0a4e6	0.07843952
56	0xbda17631	-0.07883871
57	0x3d20274c	0.039099976
58	0xbcb84679	-0.022494541
59	0x3d234f06	0.039870284
60	0x3d221a65	0.039575953
61	0xbd1f5029	-0.038894806
62	0x3ce907af	0.028446047
63	0xbd98f809	-0.07469184
64	0x3cf2a33c	0.029618852
65	0x3d13ba40	0.036066294
66	0x3d2ee125	0.042695183
67	0x3d0bd8eb	0.034142416
68	0xbd16c670	-0.03681034
69	0x3d45ac6d	0.04826014
70	0x3cdb7ca9	0.026792841
71	0xbd0c1ae0	-0.034205317
72	0x3cb2c165	0.021820733
73	0xbc1c344f	-0.009533956
74	0xbd493650	-0.049124062
75	0xbc70a467	-0.014687634
76	0xb7121c9f	-8.708942e-06
77	0x3c0eb708	0.00871063
78	0xba6be2ac	-0.00089983153
79	0x3ce787d6	0.028263014
80	0x3ce98fc0	0.028510928
81	0xba18fb2c	-0.00058357674
82	0x3c2cd8ee	0.010549767
83	0x38532c28	5.0347444e-05
84	0x323dd6b8	1.1050069e-08
85	0x3d157344	0.03648688
86	0x3d50285b	0.050819736
87	0xb9a4d431	-0.00031438612
88	0xbd062f73	-0.032760095
89	0x3d2ed582	0.042684086
90	0x3d50351f	0.05083191
91	0xbd0ad736	-0.033896647
92	0x3cdcb745	0.026942858
93	0x393cb52b	0.00017996567
94	0xbd35d61a	-0.044393636
95	0x38c91dd3	9.589982e-05
96	0x3d5aa780	0.053382397
97	0x3b035779	0.0020041151
98	0x32e692fe	2.6842368e-08
99	0x3ce17fff	0.027526854
100	0xba454213	-0.00075247994
101	0xbd143e68	-0.036192328
102	0x3d4263cf	0.047458466
103	0xbd39e32d	-0.045382667
104	0xbd1028ca	-0.03519515
105	0xb69d668f	-4.690904e-06
106	0x3d299132	0.041398235
107	0xbbf2529f	-0.007395103
108	0x3ca51654	0.020152248
109	0x3cacb713	0.02108339
110	0xb4b69777	-3.4010347e-07
111	0xbd86acb3	-0.065759085
112	0x363031ed	2.6255104e-06
113	0xb7906acd	-1.721587e-05
114	0xbd0a7e84	-0.03381206
115	0x3d0528d0	0.032509625
116	0xbcf5f912	-0.030025993
117	0x30299164	6.1688454e-10
118	0xbd273d41	-0.0408299
119	0x358e8e41	1.0621226e-06
120	0x3a8979ba	0.0010488548
121	0xbac06a52	-0.0014680123
122	0xbc145549	-0.009053537
123	0xa4a9635b	-7.346038e-17
124	0xbd6fec48	-0.058574945
125	0x3d24180f	0.040062007
126	0xbcbb1372	-0.02283642
127	0xb1c588ac	-5.7489924e-09
128	0x3d5d6ed5	0.054060776
129	0xbd73d861	-0.059532527
130	0x3d2ded47	0.042462613
131	0x3d54b8dd	0.051934112
132	0x3d302a1e	0.043008916
133	0xbd616699	-0.055029485
134	0x3d2168cf	0.039406594
135	0xbd139437	-0.03603002
136	0xbd2c5e96	-0.04208239
137	0xbd65db6b	-0.056117456
138	0x3d13f73b	0.03612445
139	0x3d1cdd55	0.038297016
140	0xbd6cb0aa	-0.057785667
141	0xbd64dad9	-0.055872772
142	0x3d7a3325	0.06108393
143	0xbd6b2736	-0.05741044
144	0xbd3a844b	-0.04553632
145	0x3d2b9fc0	0.041900396
146	0xbd60fbaf	-0.054927524
147	0xbd2bf119	-0.041977976
148	0xbd2d6b9d	-0.042338956
149	0x3d95080f	0.07276928
150	0xbd862dfe	-0.06551741
151	0x3d4311f2	0.047624536
152	0xbd4832cf	-0.04887658
153	0xbd35e737	-0.044409957
154	0x3d44a62b	0.048010033
155	0xbd1acdc8	-0.037793905
156	0x3d490d41	0.049084906
157	0xbdb1cbd1	-0.08681453
158	0xbd5db54e	-0.054127984
159	0xbd5e5779	-0.05428264
160	0xbd1767a6	-0.03696408
161	0x3d3bfc91	0.045895163
162	0x3d47d610	0.04878813
163	0xbd3b834d	-0.045779515
164	0xbd6a57bb	-0.057212573
165	0xbd329e20	-0.04360783
166	0xbcf177a0	-0.029475987
167	0xbdb19218	-0.08670443
168	0x3dadd28e	0.08487426
169	0xbd44548d	-0.047932196
170	0xbd4a4562	-0.049382575
171	0xbd1df271	-0.03856129
172	0x3d54dcc2	0.051968344
173	0x3d47fb67	0.04882374
174	0x3d2020a8	0.039093643
175	0xbd5b5a0a	-0.053552665
176	0x3d6ae6ef	0.05734914
177	0x3d480384	0.048831478
178	0x3dcd955c	0.10038254
179	0xbd603d85	-0.05474617
180	0xbd1f3612	-0.038869925
181	0x3d5ca444	0.053867593
182	0x3d471b6b	0.048610132
183	0x3d992179	0.074770875
184	0xbd9b7120	-0.07589936
185	0xbd7cb127	-0.061692383
186	0x3d35e570	0.04440826
187	0xbd3994fe	-0.045308106
188	0xbd0d17d1	-0.03444654
189	0x3d42a094	0.04751642
190	0xbd81b747	-0.063337855
191	0xbdb179f8	-0.08665842
192	0xbd4bb6af	-0.049734768
193	0xbbfb618e	-0.0076715415
194	0xbcb650f2	-0.022255395
195	0xbd76faca	-0.060297765
196	0x3d150e4a	0.03639058
197	0xbcdc0d37	-0.02686177
198	0xbbe13b1f	-0.006873503
199	0x3d4a6db6	0.049421035
200	0xbd49aae4	-0.04923524
201	0x3da3ab23	0.07991626
202	0x3c8f9c8e	0.017530706
203	0x3cb82a06	0.022480976
204	0xb791a221	-1.7360844e-05
205	0x3d91e502	0.07123758
206	0xba99bc88	-0.001172916
207	0xbcd6880d	-0.026187921
208	0xbd3dbc9a	-0.046322443
209	0x382ee249	4.1695577e-05
210	0xbd4d973f	-0.050193068
211	0xb8591990	-5.176064e-05
212	0x30354d1a	6.5956984e-10
213	0xbd39d161	-0.045365695
214	0xbcb839a8	-0.02248843
215	0xb930fff6	-0.00016880021
216	0x3d2544a3	0.04034866
217	0xbcaf087a	-0.021366347
218	0xbca7e386	-0.020494234
219	0x3d639df2	0.05557055
220	0xbd2ac0ed	-0.041687895
221	0x38a2ade2	7.75715e-05
222	0x3cd1bf26	0.025603842
223	0x386c9456	5.6404933e-05
224	0xbd488220	-0.048952222
225	0x3b1240f2	0.0022316542
226	0x300a8a11	5.040031e-10
227	0xbc46b6f7	-0.012128583
228	0x3af07870	0.001834644
229	0x3d89ed73	0.06734743
230	0x3c8d5597	0.017252726
231	0x3d3d3573	0.04619355
232	0x3d367c5e	0.0445522
233	0xb6a940ac	-5.0441213e-06
234	0xbba63756	-0.0050725145
235	0x3d6d422d	0.05792444
236	0xbd9077c5	-0.07054094
237	0xbcfdb2c2	-0.030969027
238	0xb6886e9a	-4.0659916e-06
239	0xbcbe49fd	-0.02322864
240	0xb53e1b18	-7.081994e-07
241	0x38a55459	7.883524e-05
242	0x3cf5b194	0.029991902
243	0xbd243987	-0.040093925
244	0x3d2d32e4	0.04228486
245	0x308b0749	1.0115652e-09
246	0x3d1e1921	0.038598184
247	0x35838767	9.799668e-07
248	0x39b35e14	0.00034211634
249	0x3b738d95	0.0037163247
250	0xbdb5b801	-0.088729866
251	0x253d98fa	1.6444967e-16
252	0x3d21c7f0	0.039497316
253	0xbd3b7713	-0.045767855
254	0x3c75ebc2	0.015009822
255	0x3214162f	8.619778e-09

fc.bias f4 [2]
0	0x3f0da615	0.55331546
1	0x3f53c2e5	0.8271926

onnx::LSTM_335 f4 [2, 512]
0	0x3b8bdf5d	0.0042685703
1	0x3b7ab642	0.0038255607
2	0x3b93f5d4	0.004515389
3	0xb205915d	-7.774671e-09
4	0x3d4d3331	0.050097648
5	0xb787b8a4	-1.6179234e-05
6	0x3b587364	0.0033027763
7	0x3bc0ccb1	0.005883776
8	0x3616393a	2.2385052e-06
9	0x3b444833	0.002995026
10	0xb54628eb	-7.382029e-07
11	0xb8fb387a	-0.00011979132
12	0x3b9ec1c9	0.0048448783
13	0x3b937ab3	0.004500711
14	0x3ba3c951	0.004998364
15	0xb7912f41	-1.7307351e-05
16	0x3ba6d66c	0.005091479
17	0x3b913884	0.004431786
18	0x3b98e975	0.004666502
19	0xb8913031	-6.923115e-05
20	0x3bca616b	0.006176164
21	0x3b9ac9ee	0.004723779
22	0x3b7a75f8	0.0038217288
23	0x3bc46894	0.005993912
24	0x3d93a58e	0.072093114
25	0x3bba9355	0.005693833
26	0x3b6873ef	0.0035469492
27	0x3b750984	0.0037389705
28	0x3bb2d18d	0.0054571093
29	0x3b825185	0.003977003
30	0x3e85777a	0.26067716
31	0x3b99f377	0.0046982127
32	0x3b10c297	0.002208864
33	0xb7a46d90	-1.9601343e-05
34	0x3b87b1b0	0.004141055
35	0x3b41968d	0.0029539198
36	0x3dfb3b73	0.122671984
37	0x3b48ed85	0.003065915
38	0x3b7ef8d9	0.003890565
39	0x3b9f37bb	0.0048589385
40	0x3b854c24	0.0040679146
41	0x3d6cc23e	0.05780243
42	0x3b79f1bb	0.0038138467
43	0x3ba62e05	0.005071404
44	0x3b88b19b	0.004171563
45	0xb51c8895	-5.831328e-07
46	0x3bacbb11	0.0052713235
47	0x3b9bf411	0.0047593196
48	0x3b8ffa1c	0.004393829
49	0x3b92622d	0.00446727
50	0x3b6bf2ca	0.0036002868
51	0x3b3561d1	0.0027676711
52	0x3b4e419e	0.0031472216
53	0x3bd262c1	0.006420464
54	0x3b9ef12e	0.004850528
55	0xb576a3cd	-9.1880503e-07
56	0x3bbbe27d	0.0057337866
57	0x3b733a41	0.003711358
58	0xb70dcafa	-8.451514e-06
59	0x3b54181a	0.0032362998
60	0xb4d9aca8	-4.0545024e-07
61	0x3b76c136	0.0037651784
62	0x3e3813f9	0.17976369
63	0xb985868d	-0.00025467985
64	0x3b8bef56	0.0042704744
65	0x3b7b3010	0.0038328208
66	0x3b942104	0.0045205373
67	0xb2053314	-7.753233e-09
68	0x3d4db540	0.05022168
69	0xb787b443	-1.6177195e-05
70	0x3b5878f8	0.0033031087
71	0x3bc0dd7d	0.0058857785
72	0x361616a0	2.2364911e-06
73	0x3b4488f3	0.0029988855
74	0xb545f9c6	-7.3751687e-07
75	0xb8fb305a	-0.00011977619
76	0x3b9f2723	0.0048569604
77	0x3b9389d3	0.004502514
78	0x3ba3d958	0.0050002746
79	0xb7912510	-1.7302606e-05
80	0x3ba6eab8	0.0050938986
81	0x3b913605	0.0044314885
82	0x3b98fa3d	0.0046685026
83	0xb8912c55	-6.922396e-05
84	0x3bca8656	0.006180565
85	0x3b9aebfb	0.004727838
86	0x3b7aa89a	0.0038247467
87	0x3bc497af	0.0059995274
88	0x3d943ed6	0.072385475
89	0x3bba8b25	0.005692857
90	0x3b686eae	0.003546636
91	0x3b751fd0	0.0037402995
92	0x3bb305f7	0.0054633575
93	0x3b8282f6	0.003982897
94	0x3e94b8b2	0.2904716
95	0x3b99f822	0.004698769
96	0x3b10df4b	0.002210575
97	0xb7a485bc	-1.9612598e-05
98	0x3b87d0ca	0.0041447626
99	0x3b418fef	0.0029535254
100	0x3e4a6bac	0.19767636
101	0x3b48c683	0.00306359
102	0x3b7f3038	0.0038938653
103	0x3b9f31ad	0.0048582167
104	0x3b854128	0.004066605
105	0x3d6d8786	0.057990573
106	0x3b79fd9f	0.0038145555
107	0x3ba62efa	0.005071518
108	0x3b88ca44	0.0041745026
109	0xb51c8acd	-5.831651e-07
110	0x3bacb8ba	0.0052710446
111	0x3b9c0a69	0.004761983
112	0x3b90112c	0.0043965783
113	0x3b925e65	0.004466819
114	0x3b6bcfdf	0.0035982055
115	0x3b35cde7	0.0027741136
116	0x3b4e71f8	0.0031501036
117	0x3bd277fb	0.006422994
118	0x3b9f101f	0.0048542167
119	0xb576a849	-9.188703e-07
120	0x3bbc0add	0.0057385997
121	0x3b7347a3	0.0037121556
122	0xb70dbd52	-8.4483345e-06
123	0x3b543d51	0.003238518
124	0xb4d9a101	-4.0536545e-07
125	0x3b76edc5	0.0037678343
126	0x3e3905a2	0.18068555
127	0xb9857297	-0.00025453113
128	0x3b8309ca	0.0039989697
129	0x3b5e136a	0.0033886083
130	0x3b820198	0.003967475
131	0xb0a1b8ca	-1.1766812e-09
132	0x3d6337ea	0.055473246
133	0xb78b7ef4	-1.6629208e-05
134	0x3b58d923	0.0033088408
135	0x3bbb34ae	0.005713067
136	0x361fa884	2.3790935e-06
137	0x3b2f7f84	0.0026778886
138	0xb5514f1e	-7.79737e-07
139	0xb8ff15eb	-0.0001216343
140	0x3b904612	0.0044028843
141	0x3b8f67ca	0.0043763863
142	0x3b9a27e2	0.0047044614
143	0xb797656e	-1.8047835e-05
144	0x3b98cd88	0.004663173
145	0x3b86e9e0	0.0041172355
146	0x3b8e179c	0.0043363106
147	0xb896b0c3	-7.185482e-05
148	0x3bc25cc5	0.005931469
149	0x3b8f6e32	0.00437715
150	0x3b57cc8c	0.0032928316
151	0x3bc29260	0.0059378594
152	0x3db95310	0.09049046
153	0x3bb576d4	0.005537847
154	0x3b4dc9a0	0.0031400695
155	0x3b6b88a1	0.0035939591
156	0x3babeff9	0.005247113
157	0x3b6c7c8d	0.003608498
158	0x3e98d410	0.2984929
159	0x3b928568	0.0044714697
160	0x3b00a944	0.001963214
161	0xb7a10c8e	-1.9198542e-05
162	0x3b79efc9	0.0038137308
163	0x3b242b57	0.0025050247
164	0x3e856caf	0.26059482
165	0x3b2b1404	0.002610446
166	0x3b74e0a3	0.003736534
167	0x3b94579b	0.004527045
168	0x3b7521df	0.0037404222
169	0x3d861088	0.06546122
170	0x3b55000d	0.003250125
171	0x3ba3d6a3	0.004999952
172	0x3b7834cd	0.0037873269
173	0xb516c5d3	-5.6167227e-07
174	0x3bab2f06	0.0052241115
175	0x3b968ee1	0.004594669
176	0x3b8e54f9	0.0043436256
177	0x3b9342ad	0.0044940324
178	0x3b408bf2	0.002938029
179	0x3b1ec079	0.002422361
180	0x3b40488e	0.002934012
181	0x3bcbd447	0.006220374
182	0x3b8e937e	0.0043510785
183	0xb57353eb	-9.064667e-07
184	0x3bbb8310	0.005722411
185	0x3b639126	0.0034723966
186	0xb713e9a4	-8.8162815e-06
187	0x3b34a035	0.002756131
188	0xb4df7b51	-4.162671e-07
189	0x3b5f0e40	0.0034035593
190	0x3dcf3bfb	0.10118862
191	0xb989316b	-0.00026167496
192	0xbbd42c24	-0.0064749885
193	0xbc0ce4ac	-0.0085994415
194	0x3bfb3e35	0.0076673278
195	0xb840f64a	-4.600574e-05
196	0x3d5c0ac3	0.0537212
197	0x36cfb23c	6.18983e-06
198	0xbb8959d9	-0.004191619
199	0xbbcec521	-0.0063101207
200	0xb9b343b1	-0.00034191975
201	0x3c1682a1	0.009186418
202	0xb7fa2800	-2.9820949e-05
203	0xb9fbd3b7	-0.0004803219
204	0x3c1d885c	0.00961503
205	0x3b8e68fe	0.004346012
206	0xbbae6d98	-0.005323123
207	0xb91a2951	-0.00014701976
208	0x3bc9be2b	0.006156703
209	0xbbd298f1	-0.0064269234
210	0x3b91822e	0.0044405675
211	0x39944eb6	0.00028287404
212	0xbbc817fb	-0.0061063743
213	0xbbed9489	-0.007250373
214	0x3bef2b40	0.007298857
215	0x3b91e098	0.0044518225
216	0x3d7ade8a	0.061247386
217	0x3b8d8eda	0.0043200077
218	0x3bca88e4	0.0061808694
219	0x3be13051	0.006872215
220	0xbbba791a	-0.005690706
221	0xbc13d14a	-0.009022066
222	0xbcd57abb	-0.026059499
223	0x3be6cf70	0.0070437714
224	0x3bd3a0be	0.006458371
225	0x39a9baae	0.0003237328
226	0x3c0f98ab	0.008764426
227	0x3beec52e	0.0072866892
228	0xbd52dd99	-0.051480863
229	0xbbac6178	-0.0052606426
230	0xbbb9ec82	-0.005673946
231	0xbb9caf3d	-0.004781632
232	0xbc016870	-0.007898435
233	0x3d6dff22	0.05810464
234	0xbb5ef92f	-0.0034023037
235	0x3b40639f	0.0029356254
236	0xbc06928c	-0.00821365
237	0x396990f6	0.00022274614
238	0x3bd5a8a4	0.0065203477
239	0xbb58de6f	-0.0033091565
240	0xbbc8b07e	-0.006124555
241	0xbbb15fa9	-0.005413015
242	0x3bca7247	0.0061781737
243	0xbc246f56	-0.01003631
244	0x3bdcb840	0.0067358315
245	0x3b7df74d	0.003875214
246	0x3bb85179	0.0056249467
247	0x37a0ffc7	1.9192592e-05
248	0x3c02b668	0.007978059
249	0x3b6ab2ab	0.003581206
250	0xb8c35ec6	-9.3159775e-05
251	0xbc18b770	-0.009321079
252	0x38c8bd6f	9.572028e-05
253	0x3bc87314	0.006117234
254	0xbdbd688e	-0.09248458
255	0x3a6f989a	0.0009139866

onnx::LSTM_336 f4 [2, 256, 6]
0	0x3a3136fb	0.0006760207
1	0x3b097861	0.0020976292
2	0x3b049ce4	0.0020235116
3	0x3b028a8f	0.0019919013
4	0x3b3425bf	0.0027488319
5	0x3a4f19f2	0.00079002895
6	0x39fc53f6	0.0004812774
7	0x3b158c23	0.0022819124
8	0x3ade0792	0.0016939512
9	0x3ae7c8e1	0.0017683768
10	0x3b09bd60	0.0021017417
11	0x397b5ea5	0.00023972483
12	0x3a611df9	0.0008587535
13	0x3b1da78f	0.0024056172
14	0x3b0f10ac	0.0021830006
15	0x3b15e72b	0.0022873383
16	0x3b3e5779	0.0029043837
17	0x3a604113	0.00085546187
18	0x3382c645	6.089662e-08
19	0x338f6f5a	6.679211e-08
20	0x3336104f	4.239001e-08
21	0x338c001a	6.5192765e-08
22	0x33850aee	6.195283e-08
23	0x33463c87	4.6155517e-08
24	0x3ca5a9a1	0.020222487
25	0x3c2e11c0	0.010624349
26	0x3cd3eabb	0.025868764
27	0x3cc8e732	0.024524305
28	0x3cd6ee7f	0.02623677
29	0x3ccd143d	0.025034064
30	0xb73175fb	-1.0577492e-05
31	0xb711a613	-8.681341e-06
32	0xb7414e55	-1.15219345e-05
33	0xb7270fc4	-9.957646e-06
34	0xb733f735	-1.0726789e-05
35	0xb734c7a5	-1.0775319e-05
36	0x3a9a154b	0.0011755613
37	0x3b2b6ceb	0.002615745
38	0x3b041996	0.0020156852
39	0x3b0f6f0b	0.0021886255
40	0x3b2813dc	0.0025646603
41	0x3ab28d10	0.0013622362
42	0x3ae95546	0.0017801903
43	0x3b5f08e6	0.0034032403
44	0x3b45a0e7	0.003015572
45	0x3b5291b5	0.0032130305
46	0x3b7ac63d	0.0038265132
47	0x3aeab8ef	0.0017907898
48	0x3598e690	1.1391985e-06
49	0x351855f5	5.6749496e-07
50	0x3603fb6c	1.9666868e-06
51	0x35734981	9.0631517e-07
52	0x35087f27	5.084898e-07
53	0x35908643	1.0767911e-06
54	0x3a889ee4	0.001042333
55	0x3b1bfbbc	0.0023801168
56	0x3af4748a	0.0018650454
57	0x3b034077	0.0020027438
58	0x3b0f2077	0.002183942
59	0x3a2a683a	0.00065005163
60	0xb5136344	-5.490622e-07
61	0xb4d5eafe	-3.984532e-07
62	0xb51aded3	-5.769372e-07
63	0xb507c840	-5.058282e-07
64	0xb50fe937	-5.3611024e-07
65	0xb50fb82a	-5.3539645e-07
66	0xb899a92f	-7.3271214e-05
67	0xb868abb7	-5.5473032e-05
68	0xb8adfafa	-8.296031e-05
69	0xb88b0e2c	-6.630676e-05
70	0xb895252f	-7.1118e-05
71	0xb89a53dd	-7.358913e-05
72	0x39a432b6	0.000313183
73	0x3b147434	0.002265227
74	0x3b023033	0.0019865155
75	0x3b00c231	0.0019646997
76	0x3b28abb1	0.0025737102
77	0xb908417b	-0.00012994364
78	0x3a993bc7	0.0011690789
79	0x3b273743	0.0025515116
80	0x3b10d656	0.002210041
81	0x3b22c25f	0.0024835092
82	0x3b448fa2	0.0029992838
83	0x3abc1832	0.0014350472
84	0x3abbf51e	0.0014340018
85	0x3b406c37	0.0029361376
86	0x3b29b1b1	0.0025893266
87	0x3b3b31ac	0.0028563542
88	0x3b5a89b3	0.0033346235
89	0x3ac5595d	0.001505654
90	0xb7378e6f	-1.0940813e-05
91	0xb71232d7	-8.714115e-06
92	0xb7533ec8	-1.2591197e-05
93	0xb727d616	-1.0003821e-05
94	0xb72ad1d6	-1.0181646e-05
95	0xb73482fc	-1.0759333e-05
96	0x3af40a59	0.0018618806
97	0x3b807045	0.0039196336
98	0x3b42e575	0.0029738818
99	0x3b489869	0.0030608422
100	0x3b54880d	0.0032429725
101	0x3afa4556	0.001909415
102	0x3ab1174a	0.0013510969
103	0x3b220da4	0.0024727369
104	0x3b0a9b13	0.002114956
105	0x3b26734e	0.0025398317
106	0x3b42943f	0.0029690412
107	0x3aa69c6e	0.0012711415
108	0x3a9e3612	0.0012070558
109	0x3b34f044	0.002760903
110	0x3b116497	0.00221852
111	0x3b2baa62	0.0026194085
112	0x3b53bf24	0.0032309974
113	0x3abf1944	0.0014579673
114	0xb8356404	-4.324691e-05
115	0xb7eeee68	-2.8482827e-05
116	0xb8470760	-4.7452166e-05
117	0xb81ff629	-3.813781e-05
118	0xb833ff6c	-4.2914806e-05
119	0xb82bdb25	-4.097367e-05
120	0x3ad7ea8c	0.0016473099
121	0x3b68ec3c	0.0035541197
122	0x3b43b60d	0.002986315
123	0x3b4ed960	0.003156267
124	0x3b78a210	0.0037938394
125	0x3ac6bfcd	0.0015163362
126	0x3aa73087	0.0012755551
127	0x3b2c4224	0.002628454
128	0x3b1e2857	0.002413293
129	0x3b254024	0.0025215233
130	0x3b4ba0c2	0.003107116
131	0x3aa54072	0.0012607707
132	0x3a57c731	0.0008231281
133	0x3b181ac0	0.0023209304
134	0x3af45bf4	0.0018643127
135	0x3b023516	0.0019868067
136	0x3b293796	0.0025820485
137	0x3a5e8f9f	0.0008490029
138	0x3b09af05	0.002100886
139	0x3b5ae15f	0.0033398492
140	0x3b4800b3	0.0030517995
141	0x3b644b18	0.0034834798
142	0x3b8a4c4c	0.004220521
143	0x3b01d269	0.0019809252
144	0x3cddfb01	0.027097227
145	0x3c71a56b	0.014748911
146	0x3d1772b9	0.036974642
147	0x3d0f333c	0.03496097
148	0x3d180719	0.037116144
149	0x3d11a965	0.035561938
150	0x3ada8692	0.0016672185
151	0x3b5ea403	0.003397227
152	0x3b3a8624	0.0028461302
153	0x3b44080e	0.0029912028
154	0x3b6c5734	0.003606272
155	0x3af477ba	0.0018651404
156	0x3a8b70c0	0.001063846
157	0x3b289b2d	0.0025727258
158	0x3af92a51	0.0019009804
159	0x3b0b0f44	0.0021218816
160	0x3b16e561	0.0023024904
161	0x3a92529c	0.0011163536
162	0x3a8198b1	0.0009887425
163	0x3b234515	0.0024913002
164	0x3b009db4	0.0019625248
165	0x3b067fe4	0.0020523006
166	0x3b21aec1	0.0024670812
167	0x3a4924da	0.0007673033
168	0x3aab79d7	0.0013082576
169	0x3b67b5d7	0.0035356188
170	0x3b369f79	0.002786605
171	0x3b3e805e	0.0029068212
172	0x3b440c6c	0.002991463
173	0x3a8debaf	0.0010827685
174	0x3a92b74b	0.0011193542
175	0x3b29c4be	0.002590462
176	0x3b0ed5b0	0.0021794848
177	0x3b126d8a	0.0022343122
178	0x3b21ea49	0.0024706295
179	0x3a4c2b1d	0.0007788407
180	0x3e15be0a	0.14623275
181	0x3dd85e3c	0.10564849
182	0x3e0f7d2a	0.1401259
183	0x3d9089ce	0.07057534
184	0x3e16aaa6	0.14713535
185	0x3dd9bbe9	0.10631544
186	0x3aaf6121	0.0013380387
187	0x3b5c1b29	0.0033585525
188	0x3b2899f8	0.0025726538
189	0x3b2a3736	0.002597285
190	0x3b3850a4	0.0028124237
191	0x3aaf75a3	0.0013386499
192	0x39ae8ae9	0.00033291362
193	0x3acaf84a	0.0015485373
194	0x3a804e32	0.0009788929
195	0x3a9c1f4d	0.0011911184
196	0x3acd1c93	0.0015648775
197	0x397c07bb	0.00024035473
198	0xb6d150e2	-6.2381014e-06
199	0xb6bbde09	-5.5988826e-06
200	0xb70b518c	-8.304032e-06
201	0xb6aedd2f	-5.2113533e-06
202	0xb6b0c58c	-5.268206e-06
203	0xb6e83791	-6.9206076e-06
204	0x3a78926b	0.0009482267
205	0x3b27e9b9	0.0025621487
206	0x3b0e9e94	0.0021762
207	0x3b05f8a9	0.0020442402
208	0x3b251c2b	0.0025193791
209	0x3a47d401	0.00076228386
210	0x3a3b25fa	0.0007139143
211	0x3b0ceef3	0.002150473
212	0x3ac3806f	0.0014915596
213	0x3acd2da7	0.0015653864
214	0x3adeba5b	0.0016992794
215	0x3a21a8e6	0.00061668304
216	0xbd54fc52	-0.051998444
217	0x3da386c4	0.07984689
218	0x3e0135ed	0.12618227
219	0x3e08a7a1	0.13345195
220	0x3d224ead	0.039625812
221	0x3e360c06	0.17778024
222	0x39cf3436	0.00039521017
223	0x3ad95b87	0.0016583063
224	0x3aa609f2	0.0012667759
225	0x3acb351d	0.00155035
226	0x3afbf43c	0.0019222568
227	0x39837cc3	0.00025079222
228	0x3a4f1ba3	0.00079005415
229	0x3b201bf7	0.002443073
230	0x3b021793	0.0019850477
231	0x3b0ce487	0.0021498518
232	0x3b1e1872	0.0024123457
233	0x3a1ac67d	0.0005904211
234	0x3aad1525	0.0013205154
235	0x3b322cab	0.0027187269
236	0x3b14331f	0.0022613478
237	0x3b1cefb2	0.002394658
238	0x3b3aaa61	0.0028482901
239	0x3ab7c580	0.0014020652
240	0x3a52b2b1	0.00080374914
241	0x3b203ffd	0.0024452202
242	0x3af04b0f	0.0018332916
243	0x3b0b24f0	0.0021231733
244	0x3b343bd1	0.0027501474
245	0x3a301ba0	0.00067179836
246	0x3cbd73ce	0.023126509
247	0x3c4d613a	0.012535388
248	0x3cf907c4	0.03039921
249	0x3ce7891b	0.02826362
250	0x3cf439c9	0.02981271
251	0x3ced7c23	0.028989857
252	0x3a9b9848	0.0011870945
253	0x3b357aea	0.002769167
254	0x3b05d06e	0.0020418423
255	0x3b0cc10c	0.002147737

onnx::LSTM_337 f4 [2, 256, 64]
0	0x39acaca9	0.00032935038
1	0x39b60cb6	0.00034723216
2	0xb9bf7344	-0.00036516238
3	0x35feba20	1.8978644e-06
4	0xb99f72ce	-0.0003041238
5	0xb786e9f0	-1.608298e-05
6	0x39b5411f	0.0003457153
7	0x39bffdf3	0.00036619566
8	0xb765dee2	-1.3701358e-05
9	0xb97cda4b	-0.00024113913
10	0x358fd3cb	1.071597e-06
11	0xb86b8f41	-5.616178e-05
12	0xb9be9132	-0.00036347803
13	0xb9b63929	-0.00034756333
14	0x39b93cdc	0.00035331293
15	0x352389f5	6.0922986e-07
16	0xb9c421bb	-0.00037409164
17	0x39bac050	0.0003561997
18	0xb9d1c329	-0.00040008992
19	0x36d7276c	6.4120886e-06
20	0x39d2b241	0.0004018713
21	0x39b6c1f9	0.00034858266
22	0xb9a8813d	-0.00032139747
23	0xb9d4920e	-0.0004054461
24	0xb9e22a91	-0.00043137794
25	0xb9eaa43d	-0.00044754325
26	0xb9d0583d	-0.00039738594
27	0xb9b4ee39	-0.00034509765
28	0x39d6dfee	0.000409841
29	0x39902131	0.0002749055
30	0x3a0643ab	0.00051217776
31	0xb9cb455e	-0.0003877086
32	0xb99962e2	-0.00029256108
33	0x38698690	5.567685e-05
34	0xb9ac455e	-0.0003285808
35	0xb9bbae65	-0.00035797353
36	0xba7ef038	-0.00097251264
37	0x39bca9cf	0.00035984672
38	0x39ae9be0	0.00033304002
39	0x39eaad71	0.00044761182
40	0x39a49390	0.0003139046
41	0xb9923596	-0.00027887215
42	0x39f0024c	0.00045778078
43	0xb9e0182f	-0.00042742628
44	0x39a1ddab	0.00030873468
45	0x37173950	9.0136455e-06
46	0xb9cf0a0e	-0.00039489608
47	0x39e8ab4f	0.00044378123
48	0x39c38fda	0.00037300476
49	0x39bc9b3d	0.00035973816
50	0xb9d95b27	-0.0004145738
51	0x3976299f	0.00023475893
52	0xb9b07b63	-0.00033661266
53	0xb9ed916d	-0.00045312513
54	0xb9e5b13b	-0.0004381033
55	0xb687f197	-4.0514383e-06
56	0xb9c91af5	-0.00038357792
57	0xb9d07ffc	-0.00039768207
58	0x340c90e6	1.309123e-07
59	0x39935f3f	0.0002810899
60	0x35ac8ea2	1.285651e-06
61	0xb9caac14	-0.0003865665
62	0xbacc36b3	-0.0015580266
63	0x38dabd8e	0.00010430357
64	0x39aac24a	0.00032569683
65	0x399d6bd0	0.000300257
66	0xb9a752d0	-0.00031914422
67	0x35ece41e	1.7649761e-06
68	0xb9ac056b	-0.00032810433
69	0xb74a8b02	-1.20725035e-05
70	0x399d126c	0.000299591
71	0x39ad1f4c	0.0003302045
72	0xb754a3cb	-1.2674321e-05
73	0xb984b921	-0.00025314934
74	0x358ca786	1.0479569e-06
75	0xb85b7251	-5.2320134e-05
76	0xb9b2a9d1	-0.0003407733
77	0xb9a12efa	-0.00030743313
78	0x39a3f554	0.00031272566
79	0x3586d4f8	1.004576e-06
80	0xb9affef5	-0.0003356856
81	0x39abfb3e	0.00032802852
82	0xb9b0a3df	-0.0003369143
83	0x364b0682	3.0253145e-06
84	0x39bc7e8e	0.00035952445
85	0x39a59d36	0.00031588384
86	0xb99bdd51	-0.00029728797
87	0xb9b2ce4a	-0.00034104503
88	0xb9f3c8be	-0.00046498136
89	0xb9cb88e7	-0.00038821177
90	0xb9b896cb	-0.00035207564
91	0xb9aae4a6	-0.00032595283
92	0x39c20c30	0.00037011644
93	0x398c906e	0.0002681049
94	0x387ea239	6.07094e-05
95	0xb9b76f8e	-0.00034987595
96	0xb98d40df	-0.00026941948
97	0x3845095c	4.6977177e-05
98	0xb9a67864	-0.00031751685
99	0xb9ae0d93	-0.0003319798
100	0x394474e4	0.00018735562
101	0x39a1e070	0.00030875532
102	0x39a03e62	0.00030564057
103	0x39c66d82	0.00037847093
104	0x399eac10	0.00030264305
105	0xb9af3006	-0.0003341438
106	0x39d0dc09	0.0003983679
107	0xb9bf696d	-0.00036508907
108	0x39a39f44	0.00031208445
109	0x3701ba94	7.73244e-06
110	0xb9bf831d	-0.00036528046
111	0x39c49011	0.0003749137
112	0x39b30c49	0.00034150694
113	0x39a86555	0.00032118955
114	0xb9b6df25	-0.0003488
115	0x397edcfe	0.00024305654
116	0xb99b705b	-0.00029647615
117	0xb9cef6ae	-0.00039475173
118	0xb9c70838	-0.0003796236
119	0xb66ac8b7	-3.4985549e-06
120	0xb9b85d1a	-0.0003516458
121	0xb9b04796	-0.00033622672
122	0x35aaf1ea	1.2736393e-06
123	0x3991a883	0.00027782106
124	0x356b896b	8.774429e-07
125	0xb9b6cac0	-0.00034864806
126	0xbb007443	-0.0019600547
127	0x38caf69d	9.678046e-05
128	0x39a3c7b8	0.00031238585
129	0x39a6b00e	0.00031793158
130	0xb9a243eb	-0.0003094965
131	0x3644b27d	2.931017e-06
132	0xb9bbcd02	-0.00035820162
133	0xb71fd0e6	-9.5257765e-06
134	0x39916c89	0.0002773742
135	0x39a74715	0.00031905682
136	0xb7522fc3	-1.2528096e-05
137	0xb98ad2cf	-0.00026478476
138	0x36158a54	2.2283248e-06
139	0xb877cad8	-5.9078302e-05
140	0xb9bbd24b	-0.000358241
141	0xb99d086d	-0.0002995165
142	0x399b858d	0.00029663407
143	0x35957f8e	1.1138488e-06
144	0xb9a0ac35	-0.00030645882
145	0x39a1875e	0.0003080917
146	0xb9a84720	-0.0003209645
147	0xb57311bf	-9.055038e-07
148	0x39b75755	0.00034969547
149	0x39a2a853	0.0003102446
150	0xb99b28e0	-0.00029594358
151	0xb9abc287	-0.00032760596
152	0xb9fce968	-0.00048239087
153	0xb9b5a5b4	-0.0003464647
154	0xb9aa0652	-0.00032429636
155	0xb9a122b4	-0.0003073417
156	0x39ba4413	0.00035527404
157	0x3991e480	0.000278268
158	0x39de1f1d	0.0004236632
159	0xb9a88e31	-0.00032149398
160	0xb987b13c	-0.00025881256
161	0x384b411f	4.845962e-05
162	0xb9a71209	-0.0003186616
163	0xb99ad854	-0.00029534346
164	0xba100e7e	-0.00054953236
165	0x399313ad	0.00028052685
166	0x39a01cfb	0.0003053917
167	0x39b09f83	0.0003368818
168	0x39991ddd	0.00029204684
169	0xb9c0a0b2	-0.0003674082
170	0x39a7fadf	0.00032039636
171	0xb9ab6cce	-0.00032696727
172	0x39a32b4d	0.00031122044
173	0x37074857	8.06347e-06
174	0xb9b0566e	-0.0003363373
175	0x39acf7dc	0.00032991066
176	0x39adf3c2	0.00033178745
177	0x399c4c1f	0.00029811353
178	0xb9a7f214	-0.00032033084
179	0x398f60f6	0.00027347327
180	0xb9953b0b	-0.00028463485
181	0xb9b48fed	-0.00034439508
182	0xb9b960da	-0.0003535811
183	0xb69a0888	-4.590551e-06
184	0xb9b53193	-0.00034559946
185	0xb9a0870a	-0.0003061819
186	0x3634bd90	2.693243e-06
187	0x39909e9b	0.0002758399
188	0x349884a7	2.8408724e-07
189	0xb9a7d06e	-0.00032008014
190	0xbaaf215a	-0.001336138
191	0x38e25420	0.00010792189
192	0xb18f531a	-4.1712953e-09
193	0xb18314fc	-3.8149874e-09
194	0x319521b6	4.3403032e-09
195	0xad9a0ef0	-1.7514407e-11
196	0x2f816afc	2.354098e-10
197	0x2f18a169	1.3881664e-10
198	0xb16f81f6	-3.4852952e-09
199	0xb19d89f6	-4.5849857e-09
200	0xadf9271a	-2.8325387e-11
201	0x311f5b25	2.3189355e-09
202	0x2e1fdc09	3.6347845e-11
203	0xafce850c	-3.7565717e-10
204	0x319227ee	4.2536987e-09
205	0x31767efe	3.5869898e-09
206	0xb194af3d	-4.327289e-09
207	0x2f221553	1.474139e-10
208	0x31a51aa3	4.8051603e-09
209	0xb1ad90af	-5.0514113e-09
210	0x319cd4df	4.564398e-09
211	0xafc068b1	-3.4998984e-10
212	0xb19bcbf4	-4.5342805e-09
213	0xb189155e	-3.989654e-09
214	0x31819901	3.7717887e-09
215	0x31a25ecd	4.725598e-09
216	0xaef6b956	-1.1219707e-10
217	0x31c65c4d	5.773052e-09
218	0x31a7b61f	4.8810445e-09
219	0x31906862	4.2028185e-09
220	0xb18fa712	-4.1808415e-09
221	0xb1765416	-3.5845509e-09
222	0xb1779f9d	-3.603396e-09
223	0x31b571a0	5.280711e-09
224	0x3159ee32	3.1713054e-09
225	0xaf22f27b	-1.481996e-10
226	0x31887fd7	3.9726546e-09
227	0x319886f2	4.4391237e-09
228	0x32d4ccda	2.4773204e-08
229	0xb1b86396	-5.3664264e-09
230	0xb1793c6e	-3.626862e-09
231	0xb1c17606	-5.630457e-09
232	0xb1bd8450	-5.515666e-09
233	0x3014c74d	5.412531e-10
234	0xb1ab4d72	-4.9855595e-09
235	0x31b46f2b	5.251328e-09
236	0xb1725550	-3.526413e-09
237	0xad9468a4	-1.6872122e-11
238	0x31cd3612	5.9724323e-09
239	0xb1ab7571	-4.9901066e-09
240	0xb187c158	-3.9509978e-09
241	0xb19871db	-4.436726e-09
242	0x31c41581	5.7067955e-09
243	0xb121fdbf	-2.3572821e-09
244	0x31715913	3.5120749e-09
245	0x31c3e049	5.700745e-09
246	0x31a31e5a	4.747375e-09
247	0x2e262191	3.7773843e-11
248	0x31a01a27	4.659586e-09
249	0x318829a9	3.962857e-09
250	0x2f04e074	1.2085072e-10
251	0xb1981531	-4.4261914e-09
252	0xadd82674	-2.4573434e-11
253	0x318262ef	3.7947454e-09
254	0xb261f158	-1.3151599e-08
255	0x301f340c	5.7917826e-10

onnx::LSTM_378 f4 [2, 512]
0	0x3b297456	0.0025856695
1	0x3a30e9ca	0.00067487045
2	0x3b11bde9	0.002223844
3	0x3ad8363c	0.0016495655
4	0x3acc2199	0.0015573978
5	0x3b362e7a	0.0027798698
6	0x3a54f376	0.0008123437
7	0x3a9c1fe8	0.0011911364
8	0x3a987746	0.0011632226
9	0x3ace16e5	0.0015723376
10	0x39cdf8a5	0.00039285902
11	0x3a90538f	0.001101123
12	0x3b590b47	0.0033118294
13	0x3b863631	0.0040958156
14	0x3b5301d5	0.0032197137
15	0x3b4ebd52	0.003154595
16	0x3a9d96f5	0.0012023138
17	0x3ad01565	0.0015875517
18	0x3b3bfb44	0.0028683702
19	0x3acb09e3	0.0015490617
20	0x38f8cf18	0.00011864136
21	0x3b7449d0	0.003727544
22	0x3ae2aac9	0.001729333
23	0x353cc10d	7.0316383e-07
24	0x3b700219	0.0036622344
25	0x39f48cc1	0.00046644176
26	0x3af11455	0.00183929
27	0xb9a5c6bc	-0.0003161932
28	0x3abb1a1b	0.0014274748
29	0x3bed3d71	0.0072399904
30	0x3b3b9ad4	0.002862622
31	0x3b0f283c	0.002184405
32	0x3a4fb332	0.00079231255
33	0x3b4e2f04	0.003146113
34	0x37223088	9.667252e-06
35	0x3af7f750	0.0018918309
36	0x3b774ae6	0.0037733852
37	0x3aba408c	0.001420991
38	0xb84fe8d4	-4.9569484e-05
39	0x3bfa68ea	0.0076419013
40	0x3b81b8d4	0.003958801
41	0x39b9df37	0.00035452258
42	0x3b1a5506	0.0023549213
43	0x3a9df5dd	0.0012051422
44	0x3b0f2753	0.0021843507
45	0x3b9dc576	0.004814799
46	0x3a3daf02	0.0007235856
47	0x3b22a0ae	0.002481501
48	0x3b010124	0.0019684518
49	0x3a98ff70	0.0011672806
50	0x3b964e45	0.004586967
51	0x3b348e6c	0.002755071
52	0x3a78678b	0.00094758783
53	0x3b6233a7	0.003451565
54	0x3ac61195	0.0015111441
55	0x3ba1ab2b	0.004933735
56	0x3be757ea	0.0070600407
57	0x3b1e0515	0.0024111916
58	0x3a447673	0.0007494457
59	0x3b14869f	0.0022663248
60	0x399400b4	0.00028229284
61	0x3b411d84	0.0029467056
62	0x3b19bfab	0.002346019
63	0x3bbf36cd	0.00583539
64	0x3b2a20f9	0.0025959595
65	0x3a2fbe2e	0.0006704059
66	0x3b11ae36	0.0022229082
67	0x3ad7c0e1	0.0016460681
68	0x3acbd8ea	0.0015552316
69	0x3b3603c7	0.0027773248
70	0x3a5409c3	0.0008088613
71	0x3a9bd79b	0.0011889817
72	0x3a981c56	0.0011605124
73	0x3acd7a08	0.0015676627
74	0x39ccc587	0.0003905708
75	0x3a8ff31e	0.0010982489
76	0x3b58b925	0.003306934
77	0x3b861e45	0.004092964
78	0x3b52d369	0.0032169467
79	0x3b4e585e	0.0031485776
80	0x3a9d3878	0.0011994978
81	0x3acfe5d1	0.0015861337
82	0x3b3b8cc5	0.002861784
83	0x3acaa455	0.0015460352
84	0x38f670c4	0.00011751198
85	0x3b73e59f	0.0037215722
86	0x3ae1ff9d	0.0017242316
87	0xb6fa3340	-7.456547e-06
88	0x3b6fd504	0.0036595473
89	0x39f413ad	0.00046553966
90	0x3af0a182	0.001835868
91	0xb9a58067	-0.0003156692
92	0x3abaabf2	0.0014241918
93	0x3bed400a	0.0072403
94	0x3b3b6fe4	0.0028600628
95	0x3b0f57ef	0.002187248
96	0x3a4f7eb8	0.0007915306
97	0x3b4e1131	0.0031443352
98	0x36f06df6	7.1653585e-06
99	0x3af7c2c6	0.0018902651
100	0x3b771c3f	0.0037706045
101	0x3ab9ccea	0.0014175449
102	0xb85660a4	-5.111158e-05
103	0x3bfa2399	0.007633638
104	0x3b820847	0.003968272
105	0x39b93e23	0.00035332245
106	0x3b1a36a0	0.0023531094
107	0x3a9dbc2b	0.0012034228
108	0x3b0ef9c9	0.0021816364
109	0x3b9da061	0.0048103784
110	0x3a3d6d79	0.00072260905
111	0x3b2231a0	0.0024748817
112	0x3b00b6f5	0.00196403
113	0x3a98b4be	0.0011650545
114	0x3b965fb1	0.004589044
115	0x3b34407e	0.002750426
116	0x3a775545	0.00094350084
117	0x3b61ee6f	0.0034474393
118	0x3ac5c6c6	0.0015089146
119	0x3ba1e2b8	0.004940357
120	0x3be7731e	0.0070632836
121	0x3b1daff6	0.002406118
122	0x3a442cd4	0.00074834866
123	0x3b147ed8	0.0022658613
124	0x3993d865	0.0002819925
125	0x3b40f73d	0.002944424
126	0x3b198403	0.0023424632
127	0x3bbf4301	0.005836845
128	0x3a05f28c	0.00051096897
129	0x3b225dc7	0.0024775134
130	0x3b526fd5	0.0032110114
131	0x3b58d6d3	0.003308703
132	0x3b491a0e	0.0030685696
133	0x3b8bbffd	0.00426483
134	0x3ae85361	0.0017725044
135	0x3b2d0efe	0.002640664
136	0x3b0ee2fd	0.0021802776
137	0x3b15c321	0.0022851902
138	0x399e2d4c	0.00030169857
139	0x3afc5825	0.0019252343
140	0x3ba138ab	0.0049200854
141	0x3bb79f9b	0.0056037433
142	0x3ba34e07	0.004983667
143	0x3ba9d73c	0.0051831286
144	0x3ab9ed81	0.0014185162
145	0x3b00f735	0.0019678597
146	0x3ba257d1	0.004954316
147	0x3b593097	0.0033140534
148	0x3a8bb251	0.0010658001
149	0x3bd55de9	0.006511439
150	0x3b7f76dd	0.003898076
151	0x3b26540d	0.0025379688
152	0x3b941386	0.004518929
153	0x3a9bebd8	0.0011895848
154	0x3b416450	0.0029509254
155	0x37ca106c	2.4087924e-05
156	0x3b437498	0.0029824134
157	0x3bfbb2af	0.007681213
158	0x3b851c3b	0.004062203
159	0x3aa17e27	0.0012320922
160	0x3ac62c2e	0.0015119368
161	0x3b856124	0.004070418
162	0x3a83fd54	0.0010070005
163	0x3b1b5158	0.0023699608
164	0x3bbcd925	0.0057631903
165	0x3b02accb	0.0019939418
166	0x3a612928	0.00085892016
167	0x3c0f19a4	0.008734141
168	0x3b946e72	0.0045297677
169	0x3aa2a4bc	0.0012408714
170	0x3b82b2c9	0.003988598
171	0x3aa84361	0.0012837463
172	0x3b5e6674	0.0033935579
173	0x3bcbc957	0.00621907
174	0x3ae55664	0.001749706
175	0x3b746b7b	0.0037295509
176	0x3b6e696c	0.0036378754
177	0x3b1e3bc6	0.0024144514
178	0x3c070916	0.008241912
179	0x3ba9c9a1	0.0051815067
180	0x3af5e9c5	0.0018761685
181	0x3ba36b74	0.0049871746
182	0x3b2a7294	0.0026008235
183	0x3b9c7ddb	0.0047757453
184	0x3c04759c	0.008084681
185	0x3b8d3cb1	0.0043102135
186	0x3aef9a8e	0.0018280314
187	0x3b4012a5	0.0029307988
188	0x3a61da05	0.0008615556
189	0x3b950276	0.0045474125
190	0x3b92b854	0.00447754
191	0x3bcb6c8a	0.006208007
192	0x3a18f4af	0.00058348005
193	0x3b0602ff	0.0020448563
194	0x3ad714b1	0.0016409365
195	0x39f8e726	0.00047474465
196	0x3b01d280	0.0019809306
197	0x39f68a69	0.000470239
198	0x38061395	3.1966327e-05
199	0x39a13098	0.00030744518
200	0x3a8eb5c6	0.0010887913
201	0xb9d17b14	-0.00039955287
202	0x3a4b85a7	0.0007763751
203	0xba898d79	-0.0010494433
204	0x3b0eb6a7	0.002177635
205	0xbab44555	-0.0013753573
206	0x3abf79e7	0.0014608473
207	0x39ad23bf	0.00033023764
208	0x3a366675	0.00069580163
209	0x39d19cee	0.00039980508
210	0x3b119f9d	0.002222038
211	0x3a8c2a45	0.001069375
212	0xbb0bbf93	-0.0021323904
213	0x3890637b	6.884985e-05
214	0x3a2ed013	0.0006668579
215	0x3a495547	0.0007680249
216	0x38c96483	9.603149e-05
217	0xbaba3200	-0.0014205575
218	0xbadb17fd	-0.0016715523
219	0xbb42a759	-0.0029701798
220	0x3ab65847	0.0013911807
221	0x3ad0a518	0.0015918342
222	0x3a87c927	0.0010359631
223	0x3a05e9f4	0.0005108409
224	0xb85e28d0	-5.2966934e-05
225	0xb8d33f25	-0.000100730256
226	0xba49286e	-0.0007673566
227	0x3abc0b2a	0.0014346589
228	0x3ac810e8	0.0015263828
229	0x3ab22dbc	0.0013593952
230	0xba2ec889	-0.00066674553
231	0x39868cd9	0.0002566341
232	0x3ac3a2c1	0.0014925824
233	0x3ace2eab	0.0015730461
234	0xba12e83a	-0.00056040625
235	0x39a5feac	0.00031660998
236	0xbb084ea5	-0.002079883
237	0x3add7329	0.0016895282
238	0x39fd7b50	0.00048347795
239	0x399bbb6f	0.00029703553
240	0x3a7976e0	0.000951631
241	0x3b0d14c2	0.0021527265
242	0xba7b2388	-0.00095801847
243	0x39d959ad	0.0004145628
244	0x3b0fd42b	0.002194653
245	0xba3b3325	-0.0007141105
246	0xb9d7ee47	-0.00041185526
247	0xbaf24150	-0.0018482599
248	0x3aacefc8	0.0013194019
249	0x3a7e5e59	0.000970339
250	0xba092af0	-0.00052325334
251	0xbb63ff73	-0.003478971
252	0xbadbba08	-0.0016763816
253	0x39d10be5	0.00039872449
254	0x3b14f8b9	0.0022731258
255	0xb94fbcef	-0.00019811442

onnx::LSTM_379 f4 [2, 256, 128]
0	0xb9bb37a4	-0.00035708875
1	0xb886d9b4	-6.430168e-05
2	0x3979944b	0.00023801734
3	0x35d42711	1.5806601e-06
4	0xb9e515cb	-0.0004369452
5	0x36a15b3e	4.808796e-06
6	0xb95c044a	-0.00020982433
7	0xb90a07e0	-0.00013163639
8	0xb7522c35	-1.2527268e-05
9	0xb964649c	-0.00021781254
10	0x3667835a	3.449814e-06
11	0xb7db3620	-2.6132038e-05
12	0xb89796b9	-7.2283154e-05
13	0x39541582	0.00020225908
14	0xb953faa3	-0.00020215898
15	0x3694d559	4.4355806e-06
16	0x3990627c	0.00027539197
17	0xb9a5d68d	-0.00031631105
18	0x3985a44d	0.0002549015
19	0xb7d89a00	-2.5820918e-05
20	0x374737b0	1.187429e-05
21	0xb98e7f6e	-0.00027179293
22	0x37f90c7f	2.9688932e-05
23	0x39b69afb	0.00034829215
24	0x38422d58	4.6295434e-05
25	0x39982385	0.00029018163
26	0x3885b004	6.37472e-05
27	0x394d0ba9	0.00019554667
28	0xb8f7b4b4	-0.000118115364
29	0xb8ba681e	-8.8885645e-05
30	0x3b14e693	0.002272044
31	0x3906226f	0.00012792063
32	0x391312e2	0.00014026047
33	0x3670f3b4	3.590464e-06
34	0x3715f183	8.937323e-06
35	0x395acb28	0.00020865782
36	0x3b0c891a	0.0021444024
37	0xb99f681b	-0.00030404408
38	0x394391d9	0.00018650982
39	0xb99ffcff	-0.0003051534
40	0x38276d9c	3.9917984e-05
41	0xb9051e42	-0.0001269514
42	0xb9ebb1f8	-0.0004495529
43	0x39a66e91	0.00031744366
44	0xb81192f5	-3.470756e-05
45	0x34a2d510	3.0329875e-07
46	0x39214286	0.00015378938
47	0xb9851f06	-0.0002539085
48	0x3731dd27	1.0601513e-05
49	0xb98ed32e	-0.00027241692
50	0x39af768e	0.0003346693
51	0x39644166	0.00021768137
52	0xb7c478f9	-2.3421353e-05
53	0x3926e3b1	0.00015915815
54	0x395f2a2c	0.00021282648
55	0x36852f7d	3.9692372e-06
56	0x39703e51	0.00022911398
57	0x3941642f	0.00018443236
58	0x36d8d267	6.4617957e-06
59	0xb96e3376	-0.0002271662
60	0xb49eeb3e	-2.9600955e-07
61	0x39aa93f4	0.0003253516
62	0x3a07c9ff	0.0005179941
63	0x3803fe1b	3.1469488e-05
64	0xabe2c79f	-1.6113672e-12
65	0xb58d46a2	-1.0525875e-06
66	0xb0818833	-9.424695e-10
67	0x30af834e	1.2770245e-09
68	0x316d1cbe	3.4504377e-09
69	0x3298d5e8	1.7792402e-08
70	0x38665a65	5.492046e-05
71	0x32914d9b	1.6915513e-08
72	0x2f0c37d2	1.2752757e-10
73	0xb3c61f17	-9.225749e-08
74	0xb2ba11bc	-2.1661315e-08
75	0x33f61de1	1.14607026e-07
76	0x3146a13d	2.8904446e-09
77	0x2e3f835d	4.3545046e-11
78	0x37813da8	1.540671e-05
79	0x3339c9ac	4.325709e-08
80	0x330a2a5b	3.216915e-08
81	0x2f949303	2.70255e-10
82	0x37e4501a	2.7217018e-05
83	0xb7645535	-1.3609698e-05
84	0xb7bdfb39	-2.264754e-05
85	0xb15c95aa	-3.2099288e-09
86	0xb4af0925	-3.2602944e-07
87	0x3534956e	6.7272674e-07
88	0x366a74be	3.493667e-06
89	0xaf93b4dc	-2.6867653e-10
90	0xb4728dab	-2.2589545e-07
91	0xb404b6d0	-1.2359965e-07
92	0xb0329b9b	-6.497715e-10
93	0x3198d01d	4.447442e-09
94	0x32df0084	2.5960851e-08
95	0x31e609f2	6.6950117e-09
96	0xb9b46d29	-0.00034413606
97	0x2ceed879	6.7884e-12
98	0xb51c6a96	-5.826963e-07
99	0xb6eac7d1	-6.997005e-06
100	0x3219a8f6	8.944189e-09
101	0xb1173662	-2.2004305e-09
102	0x315af157	3.186036e-09
103	0xb5102931	-5.370412e-07
104	0x35ece941	1.7651256e-06
105	0xadcd77b1	-2.3358955e-11
106	0x31d552b4	6.208518e-09
107	0xb46fe8d0	-2.2343306e-07
108	0x37851e78	1.5869024e-05
109	0xb30befb8	-3.2581482e-08
110	0x356f7a1b	8.9212125e-07
111	0xb0abd3c4	-1.2502075e-09
112	0x3799a919	1.8317764e-05
113	0x315de7d2	3.2291507e-09
114	0xb2310940	-1.0304859e-08
115	0x35b7428a	1.3653928e-06
116	0xb49554e9	-2.7815193e-07
117	0x3136d020	2.660279e-09
118	0x381cbda9	3.7369933e-05
119	0x2e4c9384	4.651525e-11
120	0x30c1782c	1.4076753e-09
121	0x341fb999	1.4875549e-07
122	0xb524580d	-6.122289e-07
123	0xb2e25939	-2.6350436e-08
124	0xabd5a24a	-1.5179605e-12
125	0xb15904fd	-3.1580492e-09
126	0x2e89b932	6.262936e-11
127	0xb2ebe96b	-2.7463747e-08
128	0x39af4f79	0.00033437813
129	0x393d7119	0.00018066577
130	0xb961cf21	-0.00021534834
131	0x35a7c8a5	1.2500865e-06
132	0xb9da4c7b	-0.00041637183
133	0xb6b9dc44	-5.539072e-06
134	0x39b5ea35	0.00034697508
135	0x39543904	0.00020239135
136	0x356daba0	8.853913e-07
137	0xb93859fe	-0.00017581132
138	0x351a5945	5.7499375e-07
139	0xb7022388	-7.756877e-06
140	0xb993bd64	-0.00028179132
141	0xb8c7d06f	-9.527883e-05
142	0x39102f17	0.00013750452
143	0xb4494d32	-1.8747667e-07
144	0xb9335869	-0.00017103706
145	0x397a5e5f	0.00023877014
146	0xb9a857ef	-0.00032108973
147	0x373b0a46	1.11484605e-05
148	0x397157b1	0.00023016219
149	0x397bbe44	0.00024008105
150	0xb9936c8b	-0.00028118896
151	0xb97d5c27	-0.0002416229
152	0xba1abaf5	-0.00059024926
153	0xb847bb4c	-4.761973e-05
154	0xb97e2001	-0.0002423525
155	0xb98adfa5	-0.0002648804
156	0x3995ed74	0.0002859641
157	0x39976a7e	0.00028880307
158	0xba8b0b8b	-0.0010608298
159	0xb9c110a1	-0.00036824218
160	0xb7ab2f8e	-2.0406933e-05
161	0x37cc8d99	2.4384632e-05
162	0xb9a046aa	-0.00030570227
163	0xb8a4d808	-7.860368e-05
164	0xbab61702	-0.0013892355
165	0xb88131fa	-6.160508e-05
166	0x39830af3	0.00024994425
167	0x3925df63	0.00015818844
168	0x392510b4	0.00015741849
169	0xb9cee3d2	-0.0003946112
170	0x38cf9a79	9.899302e-05
171	0xba07104c	-0.000515227
172	0x39aaff30	0.00032615056
173	0x36733751	3.624202e-06
174	0xb81c3ebe	-3.725173e-05
175	0x39ca1395	0.00038543032
176	0x39a5d55c	0.00031630218
177	0x38e3f7c8	0.00010870356
178	0xb93b60b1	-0.0001786973
179	0x395f09fb	0.00021270655
180	0xb8f6163c	-0.000117343356
181	0xb9d5715e	-0.0004071099
182	0xb8f6b377	-0.00011763622
183	0xb5f70f30	-1.8407354e-06
184	0x384a92af	4.8297163e-05
185	0xb97b0264	-0.00023938116
186	0xb626074e	-2.474018e-06
187	0x388e2aec	6.7790825e-05
188	0x34c69115	3.6985935e-07
189	0xb9d20288	-0.00040056207
190	0xbabe0e4f	-0.0014500114
191	0x378f4c32	1.708241e-05
192	0x2b7ed304	9.053177e-13
193	0x35645fc3	8.507597e-07
194	0x305333fd	7.683523e-10
195	0xaffca1e5	-4.5953566e-10
196	0xb0d3e4a0	-1.541725e-09
197	0x3253218a	1.2289442e-08
198	0xb915e597	-0.00014295276
199	0x34efa545	4.4637468e-07
200	0xad9b010a	-1.7621921e-11
201	0x30a3bcf7	1.1913518e-09
202	0x30cbf49c	1.4839716e-09
203	0xb33410eb	-4.1924903e-08
204	0x310bc18c	2.033718e-09
205	0xaf71eaf4	-2.2002294e-10
206	0x3644c8c4	2.9323137e-06
207	0xb29dbe7c	-1.8363828e-08
208	0xb2b188c5	-2.0667708e-08
209	0x2f620fb7	2.0560163e-10
210	0x3844f331	4.695653e-05
211	0xb83ea79e	-4.5455636e-05
212	0x37498d11	1.2013378e-05
213	0xb0890be4	-9.971441e-10
214	0xb25bc10b	-1.2791371e-08
215	0x34486fe4	1.8667157e-07
216	0xb66e3d4a	-3.5500439e-06
217	0x2f9ddd49	2.8715366e-10
218	0xb2a42942	-1.9110875e-08
219	0xb3ed02db	-1.1036692e-07
220	0x2f3f6d14	1.7410101e-10
221	0xb056e830	-7.8182705e-10
222	0xb28a61fd	-1.6109874e-08
223	0xb0418aaf	-7.041007e-10
224	0x38a190fa	7.704082e-05
225	0xac0c71e7	-1.9958425e-12
226	0x3445515c	1.8376653e-07
227	0xb70b17af	-8.29056e-06
228	0xb1cbad1f	-5.927759e-09
229	0x2f0635eb	1.2206385e-10
230	0xb107a969	-1.9741384e-09
231	0x355867a9	8.0617116e-07
232	0x3609a711	2.0511836e-06
233	0xacd01e9e	-5.9151148e-12
234	0xb10ffd81	-2.095334e-09
235	0x33631d97	5.2879468e-08
236	0xb78f3691	-1.7072338e-05
237	0x32de4515	2.5875616e-08
238	0xb4608e3f	-2.0913374e-07
239	0x30a254b8	1.181113e-09
240	0xb718ca25	-9.106971e-06
241	0x30124b90	5.322187e-10
242	0x322a30e2	9.906417e-09
243	0xb56ab391	-8.7433096e-07
244	0x34c08ebe	3.5866645e-07
245	0xb0928a0d	-1.0662135e-09
246	0xb7e03066	-2.6725418e-05
247	0xae36edbd	-4.1593163e-11
248	0x2faadab0	3.1078207e-10
249	0x32f6c889	2.8729362e-08
250	0x341a8d57	1.4393787e-07
251	0x32c02cf7	2.237219e-08
252	0x2b9a8584	1.0979416e-12
253	0x30e2a642	1.6490918e-09
254	0xae1d09a4	-3.570623e-11
255	0x316ec208	3.4743852e-09
