LOSO/models/model_without_subj_7.onnx (onnx, 550191 bytes, 8 tensors)

fc.weight f4 [2, 128]
0	0xbd3ce606	-0.046117805
1	0x3d21c3b8	0.039493293
2	0x3d2ca498	0.042149156
3	0x3d469c88	0.048489124
4	0x3d31019a	0.043214418
5	0x3d377311	0.04478747
6	0xbd3ab722	-0.045584805
7	0xbd1f163c	-0.038839564
8	0x3d2d44f3	0.042302083
9	0xbe12f169	-0.14349903
10	0xbd5a750f	-0.053334292
11	0x3d3a1d12	0.04543788
12	0x3d56b2fa	0.05241678
13	0x3d529653	0.05141289
14	0x3d415563	0.04720057
15	0x3d4d1d27	0.05007663
16	0xbd2f0a2e	-0.042734317
17	0x3d09b492	0.03361947
18	0x3d3759d4	0.0447634
19	0xbd676d51	-0.056500737
20	0x3d674406	0.056461357
21	0xbd3f8db0	-0.046765983
22	0x3d47bc10	0.048763335
23	0xbe09ab67	-0.13444291
24	0xbd5b229d	-0.053499807
25	0x3d0954b2	0.033528037
26	0xbdfb4313	-0.12268653
27	0x3d3d4db2	0.046216674
28	0x3d608736	0.054816447
29	0xbd444bd2	-0.04792387
30	0x3d43986a	0.047752775
31	0xbd625468	-0.055256277
32	0x3d2f9fd9	0.042877052
33	0x3d6cdefa	0.057829835
34	0xbd39ef9d	-0.04539453
35	0x3d34fe71	0.044187967
36	0x3d1959df	0.037439223
37	0xbe01bb04	-0.12668997
38	0xbd2c04f7	-0.041996922
39	0x3d1b8202	0.037965782
40	0xbd27c0d0	-0.040955365
41	0xbd595a30	-0.053064525
42	0x3d3805db	0.04492746
43	0xbd5ee538	-0.05441782
44	0xbd6f96ba	-0.058493353
45	0xbd3b5157	-0.04573187
46	0x3d21037f	0.039309975
47	0xbd41a557	-0.04727682
48	0xbd2f28be	-0.042763464
49	0xbd1f34d7	-0.03886875
50	0xbdf34c63	-0.11879804
51	0xbd33aba6	-0.04386487
52	0xb9189ff9	-0.00014555444
53	0x3d1fa110	0.03897196
54	0x3d265ea0	0.040617585
55	0x3d475542	0.048665293
56	0x3d2fea28	0.04294792
57	0xbdf3612c	-0.118837684
58	0xbd716cd2	-0.05894167
59	0xbd458897	-0.048225965
60	0x3d4a7889	0.049431358
61	0xbd324636	-0.04352399
62	0x3d46081d	0.04834758
63	0xbd3dbe6a	-0.04632417
64	0x363831d7	2.7447147e-06
65	0x35989811	1.136914e-06
66	0x394a7e4e	0.00019311273
67	0xad0b9a92	-7.935557e-12
68	0x35535859	7.873219e-07
69	0x35b015c6	1.3119359e-06
70	0x3681c758	3.8677063e-06
71	0xb9cdfa5f	-0.00039287188
72	0x2d45e9ae	1.1250041e-11
73	0x2a3f5dff	1.6996819e-13
74	0xb4921f84	-2.721755e-07
75	0xb38ea902	-6.6431326e-08
76	0xb2c061c2	-2.2396197e-08
77	0x2e2f9cbc	3.99296e-11
78	0xaac28df2	-3.4559817e-13
79	0x3a4242c5	0.0007410462
80	0xbac9e489	-0.0015403192
81	0xb9d47d6e	-0.00040529243
82	0x217e5b1b	8.6179125e-19
83	0x261e902d	5.5012656e-16
84	0xb1875093	-3.9381773e-09
85	0x313a5098	2.7112375e-09
86	0x380ee379	3.406729e-05
87	0x39136ea4	0.0001406023
88	0x319b4df4	4.519956e-09
89	0x2b48a666	7.12852e-13
90	0x37a592a5	1.973782e-05
91	0xb3345421	-4.198603e-08
92	0x20b97538	3.1417788e-19
93	0x2ee33d76	1.03336825e-10
94	0xbafcd3ee	-0.0019289234
95	0xb5b0906e	-1.3155056e-06
96	0x37e15d69	2.6865588e-05
97	0xb54e4080	-7.683484e-07
98	0x389dc62f	7.523258e-05
99	0xb42a791f	-1.5876547e-07
100	0x34dbca21	4.0938997e-07
101	0x1c92715d	9.690773e-22
102	0x35b2f92d	1.3334553e-06
103	0xb6ae6720	-5.1976094e-06
104	0x3623cc94	2.4407973e-06
105	0x395d026c	0.00021077105
106	0x350d2d16	5.25922e-07
107	0x37c373b9	2.3299699e-05
108	0xbb97a2cb	-0.0046275607
109	0xb994b922	-0.00028366694
110	0x2a80a6f3	2.2853212e-13
111	0x328c2a13	1.6317278e-08
112	0x2ebf20c4	8.691495e-11
113	0xb72b527d	-1.02116e-05
114	0x3512941e	5.460478e-07
115	0xae746b6a	-5.557458e-11
116	0x38a1e5a8	7.719855e-05
117	0x34445b89	1.8287223e-07
118	0x350f8048	5.3458325e-07
119	0x3404c128	1.2363728e-07
120	0x2795633f	4.146341e-15
121	0xb771dcee	-1.4416159e-05
122	0xad237142	-9.2906256e-12
123	0xbb3855e2	-0.0028127362
124	0xb0c656b4	-1.4431039e-09
125	0x38a137c6	7.687467e-05
126	0x35eada90	1.7497969e-06
127	0xb33780e0	-4.272522e-08
128	0x3d81eabc	0.063436
129	0xbd4c8047	-0.049927022
130	0xbd8c8ace	-0.068624124
131	0xbd7ef154	-0.062241867
132	0xbd4689ee	-0.048471384
133	0xbd57ec53	-0.05271561
134	0x3d7a205b	0.061066013
135	0x3d75a0df	0.05996787
136	0xbd8c6a70	-0.06856239
137	0xbde05524	-0.10953739
138	0x3d345093	0.044022154
139	0xbd69b0e9	-0.05705348
140	0xbd6731fd	-0.056444157
141	0xbd40b4e0	-0.047047496
142	0xbd6122d8	-0.05496487
143	0xbd628179	-0.055299256
144	0x3d7ab99a	0.06121216
145	0xbd845b05	-0.06462673
146	0xbd8136cf	-0.06309282
147	0x3d7107d0	0.05884534
148	0xbd5f2442	-0.054477938
149	0x3d893892	0.06700243
150	0xbd8b1227	-0.06790572
151	0xbde3558a	-0.111003
152	0x3d5dc0b8	0.05413887
153	0xbd8451bd	-0.06460903
154	0xbdf08455	-0.1174399
155	0xbd6c2f49	-0.057662282
156	0xbd84d9be	-0.064868435
157	0x3d6f27ea	0.058387674
158	0xbd4f226f	-0.050569948
159	0x3d4a3b95	0.049373228
160	0xbd6dbbae	-0.058040313
161	0xbd46e2c4	-0.048556104
162	0x3d6bd987	0.057580497
163	0xbd801775	-0.06254474
164	0xbd616faa	-0.05503813
165	0xbddc7101	-0.10763741
166	0x3d7261db	0.059175353
167	0xbd6122e5	-0.05496492
168	0x3d679f68	0.056548506
169	0x3d713f6f	0.058898386
170	0xbd770f93	-0.060317587
171	0x3d732940	0.05936551
172	0x3d79ac1f	0.060955163
173	0x3d87eea9	0.06637318
174	0xbd6f2a7e	-0.058390133
175	0x3d569439	0.05238745
176	0x3d6ec2d6	0.05829128
177	0x3d6c0115	0.05761822
178	0xbde5f5cf	-0.11228525
179	0x3d636cdb	0.055523735
180	0x3b31e915	0.0027146984
181	0xbd6b8255	-0.05749734
182	0xbd5997ef	-0.05312341
183	0xbd4bb257	-0.049730625
184	0xbd8343f3	-0.06409445
185	0xbdf35b68	-0.11882669
186	0x3d25094e	0.040292077
187	0x3d459dac	0.04824607
188	0xbd58329a	-0.052782632
189	0x3d7b66b8	0.061377257
190	0xbd4a0a08	-0.049325973
191	0x3d59c273	0.053163957
192	0x363a65e8	2.7775477e-06
193	0x358d035c	1.0506296e-06
194	0x399decab	0.00030121705
195	0xae511936	-4.754349e-11
196	0x35605060	8.3563464e-07
197	0xb4745baa	-2.2757618e-07
198	0x36a33a61	4.8645747e-06
199	0xb9a5b140	-0.00031603314
200	0x2bc56a35	1.402717e-12
201	0xab59e0d8	-7.740592e-13
202	0xb4538cce	-1.9702131e-07
203	0xb432d077	-1.6653381e-07
204	0xb301f299	-3.0255794e-08
205	0xad42cb24	-1.10727295e-11
206	0xaa868678	-2.3896488e-13
207	0x3a6b065a	0.0008965485
208	0xbabbaad8	-0.0014317883
209	0xb707957c	-8.081432e-06
210	0x21e61177	1.5590029e-18
211	0x24d6f5b5	9.322395e-17
212	0xb273a722	-1.4182463e-08
213	0x320e30b0	8.276558e-09
214	0xb659a12a	-3.242933e-06
215	0x388bccbf	6.6661734e-05
216	0x3025bfe9	6.029937e-10
217	0x2b798b7b	8.865614e-13
218	0x3586a69a	1.0032265e-06
219	0xb381fc30	-6.052903e-08
220	0x20ab8b25	2.9060605e-19
221	0xb02c750e	-6.273958e-10
222	0x3b81f523	0.00396599
223	0x357106de	8.978949e-07
224	0x37201f9e	9.544105e-06
225	0xb53b30f9	-6.9734193e-07
226	0x3612d238	2.1878059e-06
227	0xb4843a5a	-2.4629372e-07
228	0xb48c2f2d	-2.6111357e-07
229	0x1cb8c5f2	1.2227266e-21
230	0xb62f321b	-2.6106197e-06
231	0xb6979d83	-4.5184875e-06
232	0x36068d54	2.004982e-06
233	0x38efdaaf	0.00011437141
234	0x362d8e66	2.5861896e-06
235	0x3823c859	3.9048817e-05
236	0xba9bc889	-0.0011885326
237	0xb94f6c6f	-0.00019781453
238	0x2a64f3be	2.0335033e-13
239	0x334c27b2	4.7533554e-08
240	0x2f3d72fe	1.7230303e-10
241	0xb4096e0c	-1.2799154e-07
242	0xb43d6fee	-1.7642716e-07
243	0xaed9518d	-9.882504e-11
244	0x39c9ef2b	0.00038515902
245	0x340b5172	1.2975013e-07
246	0x34613ff2	2.0978021e-07
247	0x340fd59d	1.3395625e-07
248	0x2833e825	9.986834e-15
249	0xb79c1a88	-1.8609004e-05
250	0xadeeed1c	-2.7162765e-11
251	0xbb732ada	-0.00371044
252	0x2f0a3c62	1.2572479e-10
253	0x387e720e	6.066454e-05
254	0x363f7151	2.8527177e-06
255	0xb2cecca4	-2.4074616e-08

fc.bias f4 [2]
0	0x3f0dd814	0.55407834
1	0x3f53dce1	0.8275891

onnx::LSTM_335 f4 [2, 512]
0	0x3d5889d9	0.052865837
1	0x3ca50eb7	0.020148618
2	0xb428f214	-1.5734287e-07
3	0x3d33b477	0.043873277
4	0xb66b4cd8	-3.5062458e-06
5	0xbaa81bce	-0.0012825669
6	0xb8adda78	-8.289976e-05
7	0xb6448d35	-2.928847e-06
8	0xb79bf9df	-1.8593795e-05
9	0xb6949e22	-4.429153e-06
10	0x35851502	9.915386e-07
11	0xb3245e3c	-3.826993e-08
12	0xbb28438b	-0.0025675024
13	0x3d0fdac3	0.035120737
14	0xbb2e623e	-0.002660885
15	0xbb67d913	-0.003537719
16	0xb5f80c04	-1.8480937e-06
17	0x3b95f18c	0.004575914
18	0x3d174da6	0.036939286
19	0xb5199ec3	-5.722797e-07
20	0xbb96e598	-0.0046050064
21	0xb9f01696	-0.00045793195
22	0xbabde8c4	-0.0014488925
23	0xb75b447d	-1.3069363e-05
24	0xb9183c56	-0.00014518326
25	0xb68455ab	-3.9438796e-06
26	0xb5b1251a	-1.3198326e-06
27	0xb8fe48e8	-0.00012125244
28	0xb816803f	-3.5882225e-05
29	0xb70327fe	-7.81752e-06
30	0xbb3b1feb	-0.002855296
31	0x318735a1	3.935114e-09
32	0x3cb56f68	0.02214785
33	0xb90d9b33	-0.00013504624
34	0x35cd6957	1.5304348e-06
35	0xb7d1f5ca	-2.5029196e-05
36	0xb74d0f92	-1.2222577e-05
37	0xbaf3b9e8	-0.0018594833
38	0xbbdc679c	-0.0067262184
39	0xb90b0e5f	-0.00013261427
40	0xb843a9b0	-4.6649657e-05
41	0xb3be2d2c	-8.855781e-08
42	0xb99c8c2d	-0.00029859078
43	0xb7373cc3	-1.0921797e-05
44	0xb61c94b6	-2.3332373e-06
45	0xb7e33d28	-2.7088987e-05
46	0xb4ddd353	-4.1318216e-07
47	0x3c1b315e	0.009472219
48	0xb676b683	-3.6763092e-06
49	0xb623f6e7	-2.4432609e-06
50	0xb80dc9ed	-3.3805078e-05
51	0x3d4d160c	0.050069854
52	0xb5622edf	-8.425977e-07
53	0xb578c2c0	-9.26706e-07
54	0xb7f86af6	-2.9613711e-05
55	0xb3a025b4	-7.457439e-08
56	0x3ce36776	0.027759295
57	0x36104561	2.1498056e-06
58	0xb86df118	-5.672974e-05
59	0x3d1fb320	0.038989186
60	0xb68ed1d8	-4.256359e-06
61	0x3555266c	7.9404595e-07
62	0x34bd68a4	3.528013e-07
63	0x36ff6704	7.611585e-06
64	0x3d54eb17	0.05198201
65	0x3ca5444d	0.02017417
66	0xb428f252	-1.5734375e-07
67	0x3d33960f	0.04384428
68	0xb66b4f4a	-3.506388e-06
69	0xbaa81ce5	-0.0012825994
70	0xb8add4e4	-8.288937e-05
71	0xb644ae03	-2.9307564e-06
72	0xb79bf301	-1.8590597e-05
73	0xb6949b43	-4.4288186e-06
74	0x35852163	9.918989e-07
75	0xb3245943	-3.826541e-08
76	0xbb284698	-0.0025676843
77	0x3d102b41	0.0351975
78	0xbb2e6779	-0.0026611967
79	0xbb67e042	-0.003538147
80	0xb5f80d03	-1.8481227e-06
81	0x3b95f65f	0.004576489
82	0x3d16f000	0.036849976
83	0xb519802d	-5.718346e-07
84	0xbb96e8aa	-0.0046053724
85	0xb9f01623	-0.0004579286
86	0xbabde735	-0.0014488461
87	0xb75b4248	-1.30688495e-05
88	0xb9183bc3	-0.00014518113
89	0xb684598d	-3.9443316e-06
90	0xb5b0fc3b	-1.3186431e-06
91	0xb8fe371e	-0.0001212193
92	0xb8167f1e	-3.5881174e-05
93	0xb7032635	-7.817104e-06
94	0xbb3b2091	-0.0028553347
95	0x3186d737	3.9243804e-09
96	0x3cb591b2	0.0221642
97	0xb90d8dc5	-0.00013499621
98	0x35cceef3	1.5268728e-06
99	0xb7d1f972	-2.5030899e-05
100	0xb74d08ca	-1.22209985e-05
101	0xbaf3beaa	-0.0018596251
102	0xbbdc7380	-0.006727636
103	0xb90b0bb3	-0.00013260431
104	0xb843bd80	-4.666811e-05
105	0xb3be32b4	-8.856787e-08
106	0xb99c8a5e	-0.0002985773
107	0xb73739e8	-1.0921132e-05
108	0xb61c8fa2	-2.3329417e-06
109	0xb7e33cbe	-2.7088794e-05
110	0xb4ddd2c1	-4.1317801e-07
111	0x3c1b59fc	0.009481903
112	0xb676b2cf	-3.6760937e-06
113	0xb623fa50	-2.4434594e-06
114	0xb80dc5f3	-3.3801374e-05
115	0x3d4ae899	0.04953823
116	0xb5600927	-8.345982e-07
117	0xb5789ddc	-9.2616915e-07
118	0xb7f86749	-2.9612e-05
119	0xb3a02131	-7.456618e-08
120	0x3ce3d755	0.02781264
121	0x36106e0d	2.152173e-06
122	0xb86dde21	-5.6712077e-05
123	0x3d1fe17a	0.03903339
124	0xb68ed32d	-4.256514e-06
125	0x355501cc	7.93513e-07
126	0x34bd6cfe	3.5283296e-07
127	0x36ff6a42	7.6119622e-06
128	0x3d99544d	0.07486782
129	0x3bd41ab5	0.0064729103
130	0xb4308460	-1.6439435e-07
131	0x3d090437	0.033451285
132	0xb667e4a7	-3.4554776e-06
133	0xbaa7a460	-0.0012790076
134	0xb8ac4ef8	-8.216308e-05
135	0xb6234521	-2.432913e-06
136	0xb79e26e7	-1.8853183e-05
137	0xb6a0ad73	-4.7885637e-06
138	0xb697f370	-4.5284905e-06
139	0xb3681782	-5.403809e-08
140	0xbb2781bf	-0.0025559512
141	0x3c566c54	0.013087351
142	0xbb2efc0b	-0.0026700522
143	0xbb672470	-0.0035269521
144	0xb601a552	-1.9318727e-06
145	0x3b281531	0.0025647397
146	0x3d0fe0bf	0.035126444
147	0xb523487f	-6.082773e-07
148	0xbb95f930	-0.0045768246
149	0xb9eea47e	-0.00045517454
150	0xbabda56f	-0.0014468859
151	0xb75a87fa	-1.3025472e-05
152	0xb91759c7	-0.00014433927
153	0xb681ce58	-3.868521e-06
154	0xb5bb80d2	-1.3970077e-06
155	0xb9000ba5	-0.00012211369
156	0xb81311f6	-3.506426e-05
157	0xb7004e99	-7.6476945e-06
158	0xbb398c86	-0.0028312518
159	0xaf130e8c	-1.337474e-10
160	0x3c6984ba	0.014252836
161	0xb9113d0a	-0.00013851016
162	0xb67b34c1	-3.7432621e-06
163	0xb7d71545	-2.5639902e-05
164	0xb7849b79	-1.5808024e-05
165	0xbaf59cff	-0.0018738805
166	0xbbd98cec	-0.0066391136
167	0xb909f74e	-0.00013157466
168	0xb8422a83	-4.6292796e-05
169	0xb3ce8bec	-9.618074e-08
170	0xb99c76b8	-0.0002984309
171	0xb73c4b75	-1.1223242e-05
172	0xb61db53a	-2.350031e-06
173	0xb7f735e6	-2.9469793e-05
174	0xb4e240a2	-4.2142807e-07
175	0x3b3aecdf	0.0028522534
176	0xb6754fab	-3.6554218e-06
177	0xb61acc13	-2.3066575e-06
178	0xb812233b	-3.4841923e-05
179	0x3d728c6f	0.05921596
180	0xb692f748	-4.3799264e-06
181	0xb591aa88	-1.0852973e-06
182	0xb804a485	-3.1624473e-05
183	0xb3a7255a	-7.783338e-08
184	0x3c1ecede	0.009692876
185	0x337f5a7c	5.945411e-08
186	0xb876b46c	-5.8819e-05
187	0x3c9abdb6	0.01888929
188	0xb691a627	-4.3406794e-06
189	0x354ddaca	7.668683e-07
190	0xb518260b	-5.667977e-07
191	0x358fcdb7	1.0714201e-06
192	0x3dcf4e1a	0.101223186
193	0xbd6562b9	-0.056002352
194	0xb897585d	-7.2167e-05
195	0x3d9a7fc3	0.075439
196	0x38d83f6c	0.00010311496
197	0x3a075666	0.00051627157
198	0xb9395601	-0.00017675014
199	0x378cb157	1.677188e-05
200	0x38c12e19	9.2115435e-05
201	0xb910ca79	-0.00013808337
202	0x3a2f83d2	0.0006695363
203	0x383bb999	4.4757126e-05
204	0x39b0d4cb	0.0003372788
205	0x3ddcd963	0.10783651
206	0x39f65380	0.0004698299
207	0x39606c25	0.00021402592
208	0xb901694c	-0.00012341625
209	0x3a5e9fa0	0.0008492414
210	0xbd8c0d09	-0.06838424
211	0xb9124a0a	-0.00013951227
212	0x37f2eefb	2.8959932e-05
213	0xba026385	-0.0004973936
214	0xba00b3c7	-0.00049096014
215	0xb8f9cf1f	-0.000119118245
216	0x394ac515	0.0001933764
217	0x39a60246	0.0003166368
218	0x397659c9	0.00023493836
219	0x39ae536a	0.00033250015
220	0x39187b86	0.00014541866
221	0xb74a351c	-1.2052504e-05
222	0x3a593aa4	0.0008286631
223	0x374c625d	1.21822495e-05
224	0x3cacbcee	0.021086182
225	0xb7c3b38a	-2.3329416e-05
226	0xba3fc861	-0.00073159306
227	0x3a0f4524	0.000546532
228	0x383a9877	4.448785e-05
229	0x394c0530	0.00019456889
230	0xb9ee5fc5	-0.0004546625
231	0x38de3fce	0.000105976695
232	0xb9e76d33	-0.00044141113
233	0xb78dba19	-1.6895168e-05
234	0x39a42b5a	0.00031312817
235	0xb985e07d	-0.00025534994
236	0xb7b47f86	-2.1517055e-05
237	0xba12df7c	-0.000560276
238	0x37b9631c	2.209987e-05
239	0xbd5fb257	-0.054613438
240	0xb76310bd	-1.3534152e-05
241	0x393e3748	0.00018140406
242	0xb92c878e	-0.00016453696
243	0xbdd41ba5	-0.10356835
244	0x3a0a1c8e	0.0005268537
245	0xb72a7b2a	-1.0161466e-05
246	0x36f3ca1d	7.2654934e-06
247	0xb84a63d8	-4.825354e-05
248	0xbd942841	-0.0723424
249	0xb9cfcbb1	-0.0003963388
250	0xb4ea0e65	-4.359637e-07
251	0x3df2b12f	0.11850201
252	0xb9c7388c	-0.00037998368
253	0xb97043bd	-0.00022913418
254	0xb93f2816	-0.00018230113
255	0x38eee919	0.00011392142

onnx::LSTM_336 f4 [2, 256, 6]
0	0x3bf6bdcf	0.007529951
1	0x3b5ef06c	0.0034017814
2	0x3d145b77	0.03622004
3	0x3d1495fe	0.036275856
4	0x3b1d2009	0.0023975393
5	0x3d03ee9c	0.032209978
6	0x3c266faa	0.010158459
7	0x3c24c55c	0.01005682
8	0x3c446133	0.011986065
9	0x3c275be0	0.010214776
10	0x3beae41f	0.0071683074
11	0x3c28f2eb	0.010311822
12	0xb3a24c12	-7.55755e-08
13	0xb385f263	-6.237385e-08
14	0xb3cdb6d7	-9.579315e-08
15	0xb39a577a	-7.187096e-08
16	0xb395f349	-6.9826065e-08
17	0xb3b4344f	-8.391418e-08
18	0x3c0d9bb6	0.008643081
19	0x3c3e36d2	0.01160975
20	0x3cf5a503	0.02998591
21	0x3cbf83d6	0.023378294
22	0x3c889f0a	0.016677398
23	0x3cd7f263	0.026360696
24	0xb5db8ef6	-1.6358379e-06
25	0xb5a282da	-1.2108023e-06
26	0xb60f1d1a	-2.13256e-06
27	0xb5ded2ab	-1.6601601e-06
28	0xb601068b	-1.9226306e-06
29	0xb5ed9114	-1.7700099e-06
30	0xba282e03	-0.00064155477
31	0xba13a25b	-0.0005631798
32	0xba53fe66	-0.00080869196
33	0xba277a58	-0.0006388775
34	0xba1cecd1	-0.0005986216
35	0xba3e5a99	-0.0007261425
36	0xb85b853b	-5.233775e-05
37	0xb85dc478	-5.287348e-05
38	0xb88472b0	-6.315613e-05
39	0xb8588302	-5.1620424e-05
40	0xb835f107	-4.3378237e-05
41	0xb86ecb21	-5.69328e-05
42	0x3502e671	4.876411e-07
43	0x34a2ec1f	3.0346652e-07
44	0x34e4c988	4.2614943e-07
45	0x34d79637	4.0156166e-07
46	0x33a0f03e	7.4942804e-08
47	0x34e7f3c3	4.3204463e-07
48	0xb76acb0d	-1.3994763e-05
49	0xb75a3fd9	-1.3008678e-05
50	0xb7783e6b	-1.4796485e-05
51	0xb763292d	-1.3539841e-05
52	0xb761509e	-1.3429815e-05
53	0xb77538f8	-1.4616402e-05
54	0xb63036c9	-2.6257933e-06
55	0xb6078b95	-2.0197815e-06
56	0xb658fe4b	-3.2334526e-06
57	0xb6322720	-2.654684e-06
58	0xb63b581e	-2.7916462e-06
59	0xb63d05ba	-2.8166528e-06
60	0xb4bc874a	-3.5116165e-07
61	0x35de3352	1.6555225e-06
62	0xb401b42c	-1.2079607e-07
63	0x349f6af5	2.969388e-07
64	0xb5a85a74	-1.2543301e-06
65	0xb5cf9626	-1.5466401e-06
66	0xb2d9541b	-2.5300372e-08
67	0xb2d2f0f6	-2.4556794e-08
68	0xb304924b	-3.0866698e-08
69	0xb2bcac27	-2.1964366e-08
70	0xb2b2f979	-2.0835374e-08
71	0xb2ea36f2	-2.7266172e-08
72	0xbaac555b	-0.0013147997
73	0xba8f9ba4	-0.0010956419
74	0xbad2c8aa	-0.0016081531
75	0xbaaa5659	-0.0012995704
76	0xbaa82ae0	-0.001283016
77	0xbaba5c6e	-0.001421822
78	0x3c388bb7	0.011263779
79	0x3c71af15	0.014751215
80	0x3cb889c6	0.022526633
81	0x3c5f2266	0.013619041
82	0x3c68f7fb	0.014219279
83	0x3c8f8bfc	0.017522804
84	0xba9ef254	-0.0012126663
85	0xba87c240	-0.0010357574
86	0xbacbfb82	-0.0015562626
87	0xbaa1cdbb	-0.0012344638
88	0xbaa07681	-0.0012242348
89	0xbaafdd32	-0.0013417362
90	0xbb00c9bc	-0.0019651493
91	0xbade4088	-0.0016956488
92	0xbb18d0b6	-0.002331776
93	0xbb016af7	-0.0019747594
94	0xbaf61489	-0.001877443
95	0xbb0f522f	-0.0021869054
96	0xb5870692	-1.0060196e-06
97	0xb564b230	-8.5195916e-07
98	0xb59f2924	-1.1858397e-06
99	0xb5861fcd	-9.993033e-07
100	0xb594dfb3	-1.1091964e-06
101	0xb59be3d0	-1.1614702e-06
102	0x3b55e790	0.0032639243
103	0x3b4dbfac	0.0031394763
104	0x3b627d93	0.0034559711
105	0x3b5fd221	0.0034152346
106	0x3b1e7405	0.002417804
107	0x3b47c598	0.0030482765
108	0x3bbe50f3	0.0058079897
109	0x3c1092da	0.008824075
110	0x3cda3ee4	0.026641317
111	0x3cb4a04c	0.022049092
112	0x3c2537d2	0.010084109
113	0x3cbe208a	0.023208875
114	0xb44c3abe	-1.9020351e-07
115	0xb4118eba	-1.3556101e-07
116	0xb4a5a477	-3.085331e-07
117	0xb42c182a	-1.6027539e-07
118	0xb417bed6	-1.4132397e-07
119	0xb4879c92	-2.525963e-07
120	0xbb253b02	-0.0025212173
121	0xbb07cc15	-0.0020721008
122	0xbb4ac2bc	-0.0030938825
123	0xbb26d51c	-0.0025456613
124	0xbb26f18c	-0.0025473563
125	0xbb3324dc	-0.0027335202
126	0xb97c33db	-0.0002405191
127	0xb9505484	-0.0001986791
128	0xb99a5609	-0.0002943727
129	0xb978b4b6	-0.00023718443
130	0xb9794c0f	-0.00023774825
131	0xb98a214a	-0.00026346213
132	0xba4fa22b	-0.0007920588
133	0xba3293b7	-0.00068121724
134	0xba7d4172	-0.0009660936
135	0xba500bf0	-0.0007936349
136	0xba48e060	-0.0007662829
137	0xba65d73b	-0.00087677286
138	0xb6f3b772	-7.26332e-06
139	0xb6cab591	-6.0412062e-06
140	0xb712757e	-8.729634e-06
141	0xb6ee90e2	-7.1098193e-06
142	0xb6eb1921	-7.006471e-06
143	0xb7049e88	-7.904724e-06
144	0xb89b03b2	-7.391664e-05
145	0xb881c2ed	-6.187507e-05
146	0xb8bc17f7	-8.9690024e-05
147	0xb8978e5d	-7.226758e-05
148	0xb893897c	-7.035115e-05
149	0xb8a9e53f	-8.1012484e-05
150	0xb5c84756	-1.4921923e-06
151	0xb571bb49	-9.005203e-07
152	0xb616605c	-2.240783e-06
153	0xb5bb6897	-1.3963025e-06
154	0xb5d93161	-1.6182131e-06
155	0xb607aa1a	-2.021558e-06
156	0xb58e52cc	-1.0603922e-06
157	0xb58bc3b0	-1.041326e-06
158	0xb5b6e992	-1.3628035e-06
159	0xb58d9e5f	-1.0551411e-06
160	0xb5831c90	-9.768573e-07
161	0xb59f7c63	-1.1882624e-06
162	0xb896fdec	-7.199854e-05
163	0xb8869464	-6.417258e-05
164	0xb8b5b4e5	-8.664447e-05
165	0xb8966932	-7.1721515e-05
166	0xb88eba99	-6.805844e-05
167	0xb8a621f3	-7.92182e-05
168	0xb7a32d4e	-1.945221e-05
169	0xb78f19a7	-1.7058874e-05
170	0xb7c5d9c5	-2.3585637e-05
171	0xb79c6b62	-1.8646653e-05
172	0xb7963039	-1.7903849e-05
173	0xb7ba7293	-2.222628e-05
174	0xb6a1ebce	-4.825625e-06
175	0xb68dfcba	-4.2315487e-06
176	0xb6b6ce27	-5.448022e-06
177	0xb69b3874	-4.625932e-06
178	0xb690bdf8	-4.3136497e-06
179	0xb6b25180	-5.3143012e-06
180	0xbaccf25c	-0.0015636194
181	0xbaaf4f10	-0.0013375003
182	0xbaefcfe6	-0.0018296211
183	0xbac6bb4c	-0.001516202
184	0xbab560b8	-0.0013838029
185	0xbae66b81	-0.0017579646
186	0xb2080750	-7.9179046e-09
187	0xb1f65d92	-7.17018e-09
188	0x3155dc36	3.1120755e-09
189	0xb208e89e	-7.969133e-09
190	0xb1ca8230	-5.8937744e-09
191	0xb1b7d212	-5.349883e-09
192	0x3c18e180	0.009331107
193	0x3c274efd	0.010211703
194	0x3c7e5b0e	0.015524639
195	0x3c5d43dd	0.013504949
196	0x3c40c9cc	0.011766862
197	0x3c5db5bb	0.013532097
198	0xb8f8395d	-0.00011836246
199	0xb8f01c65	-0.00011449381
200	0xb90bb3bf	-0.00013323034
201	0xb8ebd84b	-0.00011245961
202	0xb8c6ac0a	-9.4734205e-05
203	0xb9048224	-0.00012636982
204	0x35c4bdda	1.4658392e-06
205	0x3632fca9	2.6671134e-06
206	0x364f0af6	3.0851784e-06
207	0x35de9c7b	1.6585831e-06
208	0xb5899dfa	-1.0253273e-06
209	0x35d1b564	1.5624505e-06
210	0xb7191a25	-9.125598e-06
211	0xb6fbe233	-7.506716e-06
212	0xb755146e	-1.2700546e-05
213	0xb70dadee	-8.444751e-06
214	0xb70a6884	-8.249775e-06
215	0xb73692be	-1.0882211e-05
216	0xb6c8c1d4	-5.983029e-06
217	0xb69f335e	-4.744549e-06
218	0xb7133312	-8.7737735e-06
219	0xb6b063fa	-5.2568475e-06
220	0xb6970a3c	-4.501342e-06
221	0xb6f8dbf8	-7.4165837e-06
222	0xba65172c	-0.00087391096
223	0xba316bb4	-0.0006768063
224	0xba9471b7	-0.0011325394
225	0xba660207	-0.0008774106
226	0xba8337ea	-0.001001117
227	0xba773fd2	-0.0009431812
228	0xbb591312	-0.003312294
229	0xbb3aa72c	-0.002848099
230	0xbb8be4b2	-0.004269206
231	0xbb5839fc	-0.0032993546
232	0xbb4e1b31	-0.0031449313
233	0xbb7017a2	-0.003663518
234	0xb8949b22	-7.086086e-05
235	0xb8706d39	-5.732218e-05
236	0xb8b440f3	-8.5951666e-05
237	0xb88e132e	-6.77466e-05
238	0xb885dbb4	-6.382857e-05
239	0xb8a2a41c	-7.75533e-05
240	0xb785f336	-1.596809e-05
241	0xb78f3201	-1.7070213e-05
242	0xb7a3b9ed	-1.9517693e-05
243	0xb78ed006	-1.7024588e-05
244	0xb79c96e6	-1.8666917e-05
245	0xb78e9800	-1.69985e-05
246	0xb39469ac	-6.911009e-08
247	0xb3aaf438	-7.960665e-08
248	0xb395aea9	-6.970124e-08
249	0xb3aa9b70	-7.944516e-08
250	0xb3ce8c98	-9.6181964e-08
251	0xb3970382	-7.0321235e-08
252	0xb926d7e5	-0.0001591142
253	0xb90d2300	-0.00013459846
254	0xb94bc613	-0.00019433377
255	0xb926db31	-0.00015912649

onnx::LSTM_337 f4 [2, 256, 64]
0	0x3a178c5b	0.00057811075
1	0xbb07c371	-0.0020715857
2	0x36193950	2.2832137e-06
3	0x3a25a57f	0.00063189113
4	0xb7178e53	-9.033439e-06
5	0xb92ef21e	-0.00016684129
6	0x37fcf40b	3.0154382e-05
7	0xb72169ea	-9.621008e-06
8	0x38116a71	3.4669825e-05
9	0x37893daf	1.6360396e-05
10	0x38110eae	3.4584365e-05
11	0xb5bd0025	-1.4081639e-06
12	0xb9c47991	-0.00037474607
13	0x3ad3bba8	0.0016153948
14	0xb957405e	-0.00020527976
15	0x3a03dc6a	0.00050300977
16	0xb70ad7da	-8.275698e-06
17	0x398e7aca	0.00027175836
18	0xb822326b	-3.8670765e-05
19	0x36e10fe4	6.7073724e-06
20	0xba1b4794	-0.0005923447
21	0x392560c6	0.00015771677
22	0x396f34c0	0.00022812467
23	0x37c61bb7	2.3616345e-05
24	0xb87ed128	-6.075311e-05
25	0x37af1e25	2.0875663e-05
26	0x37e6d84d	2.751886e-05
27	0xb7e03da3	-2.6731583e-05
28	0xb74d545a	-1.2238592e-05
29	0x37ab6bbd	2.0434958e-05
30	0xb94e4444	-0.00019671122
31	0xb62ce9b5	-2.5766033e-06
32	0xba6c5a50	-0.0009016143
33	0x36ba313f	5.548965e-06
34	0xb80aaf7b	-3.3065193e-05
35	0x38184120	3.6300276e-05
36	0x37b99b42	2.2126016e-05
37	0xb8fb8e23	-0.00011995088
38	0x39d2d30c	0.00040211563
39	0xb643e3c2	-2.9189837e-06
40	0x37629151	1.3504484e-05
41	0x3677146d	3.6817758e-06
42	0xb90142b2	-0.00012327245
43	0xb7992218	-1.8254897e-05
44	0x373f0314	1.1385204e-05
45	0xb824c9c0	-3.928854e-05
46	0xb610efd1	-2.1597264e-06
47	0xba8b73a7	-0.0010639325
48	0x366e2577	3.548657e-06
49	0x367b9bc1	3.7492575e-06
50	0x38532308	5.0338946e-05
51	0x383e12ac	4.531692e-05
52	0xb88e9235	-6.798321e-05
53	0x37602656	1.3360366e-05
54	0x38c6b697	9.475386e-05
55	0x363b6894	2.7926044e-06
56	0xbb211aaa	-0.0024582543
57	0x373bf658	1.1203425e-05
58	0x382e1aef	4.1509917e-05
59	0x3a8df9b2	0.0010831861
60	0x3722b551	9.6981685e-06
61	0xb68a6ee9	-4.125632e-06
62	0xb77dad5f	-1.5120341e-05
63	0x37bd31f1	2.2553812e-05
64	0x3a5a1ec7	0.0008320626
65	0x39138502	0.00014068562
66	0x35a626c1	1.2379243e-06
67	0x3a078013	0.0005168926
68	0xb713e055	-8.814114e-06
69	0xb860b826	-5.3577263e-05
70	0xb7f5b5aa	-2.929087e-05
71	0xb6fbcb4a	-7.504049e-06
72	0x36483c8b	2.9837563e-06
73	0x371301e9	8.7623275e-06
74	0xb6be1660	-5.665046e-06
75	0xb4c34336	-3.6370483e-07
76	0xb91cbbc8	-0.00014947273
77	0x387be427	6.0055547e-05
78	0xb940ed7d	-0.00018399018
79	0x3905b35b	0.00012750684
80	0x36cb9874	6.0676193e-06
81	0xb954ce39	-0.0002029472
82	0xba2ad815	-0.0006517184
83	0xb5734ece	-9.063923e-07
84	0xb951c62f	-0.00020005622
85	0x38834402	6.259234e-05
86	0x3833d9f3	4.2879907e-05
87	0x37345209	1.0747936e-05
88	0xb810dcb3	-3.4537818e-05
89	0xb71854df	-9.079667e-06
90	0x3506532d	5.0039927e-07
91	0xb6446b99	-2.9268906e-06
92	0xb6b6cb3c	-5.4476823e-06
93	0x363efc88	2.8459199e-06
94	0xb86294cb	-5.4021173e-05
95	0x33b8c181	8.603366e-08
96	0x3990c623	0.00027613444
97	0xb7da671b	-2.6035637e-05
98	0x37a7b493	1.9992038e-05
99	0xb785b0aa	-1.5937101e-05
100	0x3528bbaa	6.2857964e-07
101	0xb94cbd70	-0.00019525527
102	0x3933a71d	0.00017133025
103	0x37b2804c	2.1278996e-05
104	0x37e08b5a	2.6767771e-05
105	0x35e2c15d	1.6894588e-06
106	0xb804bdf9	-3.164818e-05
107	0x37374533	1.0923762e-05
108	0x369f1e38	4.742087e-06
109	0x37978c68	1.8065984e-05
110	0xb6664d5f	-3.4317707e-06
111	0x390ba5d2	0.00013317846
112	0xb4f192b7	-4.4996497e-07
113	0x355e785a	8.287658e-07
114	0x3707b06e	8.087705e-06
115	0xba5684b2	-0.0008183225
116	0x371ce391	9.351309e-06
117	0xb5cad43f	-1.5111945e-06
118	0xb7cf1887	-2.4687744e-05
119	0x359d176b	1.1704227e-06
120	0x3943ace8	0.00018661062
121	0x363976dc	2.7636333e-06
122	0xb7a16c2e	-1.924307e-05
123	0x396f40d1	0.00022816962
124	0x36d18535	6.2441927e-06
125	0xb68b5932	-4.1529065e-06
126	0x36f2719e	7.225389e-06
127	0xb7bc1fa7	-2.2426086e-05
128	0xaf13123f	-1.3376054e-10
129	0xb0a65a33	-1.2103726e-09
130	0xad4778f2	-1.1338696e-11
131	0x3029041a	6.148767e-10
132	0x2e815ea2	5.883051e-11
133	0x2fa2bc3e	2.9601382e-10
134	0x2e0896cf	3.1056765e-11
135	0x2e4ac8c4	4.6107798e-11
136	0xaebb2c40	-8.511636e-11
137	0xae8c56cd	-6.381882e-11
138	0x2cc5763c	5.6122034e-12
139	0x2c2c866f	2.4517296e-12
140	0x3092ad35	1.0672127e-09
141	0x30a41214	1.1937709e-09
142	0x3074adb6	8.901354e-10
143	0xb07507d8	-8.914163e-10
144	0xae0e479a	-3.2350657e-11
145	0x30309932	6.424613e-10
146	0xaeed9aa5	-1.08049826e-10
147	0xad38313e	-1.0470123e-11
148	0x30e521e4	1.6671575e-09
149	0xb00070c6	-4.672639e-10
150	0xafc5c9bd	-3.5977435e-10
151	0xaec7d800	-9.0878416e-11
152	0x2f78cef4	2.2628993e-10
153	0x2de28778	2.5753386e-11
154	0xac55aae3	-3.0363982e-12
155	0x2b8d4c43	1.0039819e-12
156	0x2ed45018	9.654871e-11
157	0xae507d2b	-4.7404896e-11
158	0xac59a2e7	-3.0927984e-12
159	0x2c47760d	2.8345132e-12
160	0xae78ee78	-5.6600474e-11
161	0xad31e26c	-1.0111561e-11
162	0xaeb4f90b	-8.229691e-11
163	0x2ed5cce9	9.722518e-11
164	0xae8f22e8	-6.509088e-11
165	0x309b05dd	1.1279401e-09
166	0xb093bb34	-1.0748864e-09
167	0xaf63041f	-2.0646994e-10
168	0xaf2a6ae9	-1.5499392e-10
169	0xad6382f9	-1.2932538e-11
170	0x2f8cbe36	2.5601005e-10
171	0xae8b79b0	-6.342604e-11
172	0xae1d3bfd	-3.5750947e-11
173	0xaef09b09	-1.0941476e-10
174	0x2da60027	1.8872083e-11
175	0xb049caa4	-7.3411344e-10
176	0xad9472f8	-1.6876708e-11
177	0x2d0a55c5	7.8634365e-12
178	0xaef0fed1	-1.0959201e-10
179	0x2fdac071	3.9790707e-10
180	0xada089be	-1.8251064e-11
181	0x2c5cdbaf	3.138583e-12
182	0x2ec52cdf	8.9664935e-11
183	0xad19b8c6	-8.738071e-12
184	0xb0c6d527	-1.4466978e-09
185	0xae129bcf	-3.3334942e-11
186	0x2ef2577a	1.1020425e-10
187	0x30b3e849	1.3089984e-09
188	0xae73cdfc	-5.5434754e-11
189	0x2e20f36b	3.6595987e-11
190	0xae03ee43	-2.999757e-11
191	0x2e773d50	5.6215754e-11
192	0xbadcef3a	-0.0016855963
193	0xb8abe6c1	-8.196897e-05
194	0x36aa967e	5.0839144e-06
195	0xbaa5c218	-0.0012646345
196	0xb7c45b6a	-2.3407589e-05
197	0xb9866b60	-0.00025638472
198	0xb908d741	-0.00013050159
199	0xb7baf246	-2.2285745e-05
200	0x3871f1b6	5.768399e-05
201	0x378c6c87	1.6739838e-05
202	0x37fa2e75	2.9823956e-05
203	0xb6961e61	-4.473885e-06
204	0xba037955	-0.00050153333
205	0xb9d7bb8f	-0.00041147738
206	0xb9f2d410	-0.00046315836
207	0x3a1d85d1	0.0006009015
208	0x37475f34	1.18834905e-05
209	0x3a0fc431	0.0005484252
210	0x3ac58ca2	0.0015071819
211	0x36bd2f43	5.638141e-06
212	0xba32d7cd	-0.0006822318
213	0x396981c2	0.0002226895
214	0x396d0e57	0.00022607423
215	0x381e94dd	3.7808775e-05
216	0xb8d931f8	-0.00010356674
217	0xb6bc9f07	-5.62135e-06
218	0x3629af69	2.5285065e-06
219	0xb8297247	-4.039917e-05
220	0xb759c77f	-1.2980657e-05
221	0x3505ddb0	4.986896e-07
222	0xb9c23996	-0.00037045468
223	0xb65e3f2b	-3.3117346e-06
224	0xbace8139	-0.0015755064
225	0xb92f9ae7	-0.00016747006
226	0x36722955	3.6084868e-06
227	0xb7e04e08	-2.6739217e-05
228	0x386ef1e8	5.6968915e-05
229	0xba04bd17	-0.0005063577
230	0x3a1e5bdd	0.00060409104
231	0x36b507a4	5.39511e-06
232	0x38677cbe	5.5190867e-05
233	0x34a00dcd	2.9812364e-07
234	0xb91e737b	-0.00015111074
235	0x37553c3b	1.2709813e-05
236	0x3793ebb0	1.7633516e-05
237	0x376f3421	1.4257647e-05
238	0xb70eda03	-8.514619e-06
239	0x3a05470a	0.0005084133
240	0xb6a1256c	-4.8025304e-06
241	0x36cf4ed3	6.178257e-06
242	0x3892e1fe	7.003917e-05
243	0x3b095a62	0.0020958413
244	0xb8779448	-5.9027487e-05
245	0x36bd73ff	5.6461427e-06
246	0x378a2fcf	1.6473145e-05
247	0x36e52c5e	6.829897e-06
248	0xb84b2805	-4.8436243e-05
249	0xb71fc94e	-9.524008e-06
250	0xb7931229	-1.7532222e-05
251	0xba437b7e	-0.00074570614
252	0x37ce6fbe	2.4609148e-05
253	0x363b0077	2.7865442e-06
254	0xb6a0b3d6	-4.7893072e-06
255	0x3714dc9c	8.872852e-06

onnx::LSTM_378 f4 [2, 512]
0	0x3adff891	0.0017087628
1	0x3ac39205	0.0014920837
2	0x3b80b4e8	0.0039278157
3	0x3b856674	0.0040710513
4	0x39f93a1f	0.00047536285
5	0x3b0a0bb5	0.0021064107
6	0x3b2e5cee	0.0026605683
7	0x3b7852da	0.003789118
8	0x3ba2f859	0.004973453
9	0x3c822faf	0.015891878
10	0x3afc8b78	0.0019267639
11	0x3b234f55	0.0024919112
12	0x3bb05ba1	0.0053820168
13	0x3b0e9b1c	0.0021759933
14	0x3b091292	0.002091561
15	0x3a085e84	0.0005202072
16	0x3ae27b42	0.0017279165
17	0x3b833e07	0.004005197
18	0x3b065ac2	0.0020500873
19	0x3b6dbaae	0.00362746
20	0x3be73a93	0.007056543
21	0x3b791af8	0.003801046
22	0x3bddbaa9	0.0067666364
23	0x3c7e5e38	0.015525393
24	0x3b167479	0.0022957607
25	0x3ad481ad	0.0016212963
26	0x3c4e2b92	0.01258363
27	0x3b193be1	0.0023381638
28	0x3b8dbce4	0.004325496
29	0x3b857896	0.004073213
30	0x3ad28f95	0.0016064519
31	0x3838eeeb	4.409153e-05
32	0x39d97026	0.00041473022
33	0x3b4b10c5	0.0030985337
34	0xb930d11c	-0.00016862567
35	0x3b3b97b8	0.0028624367
36	0x3b122969	0.0022302514
37	0x3c3e1b82	0.011603238
38	0x3b11a0ff	0.0022221205
39	0x3ab4b5d2	0.0013787097
40	0x3b4a17f9	0.0030837043
41	0x3b44342e	0.0029938328
42	0x3b81ace0	0.003957376
43	0x3b644ed5	0.0034837027
44	0x3b4e8528	0.0031512473
45	0x3b4eb61b	0.0031541649
46	0x3ad9079c	0.0016558054
47	0x3b1030db	0.0022001776
48	0x3b6afe08	0.003585698
49	0x3b8bb117	0.004263054
50	0x3c4242c9	0.011856743
51	0x3b790a01	0.0038000348
52	0x3e8e6a39	0.27815416
53	0x3af3dae5	0.0018604664
54	0x3a809d9d	0.0009812597
55	0x3afa09ec	0.0019076443
56	0x3bd24dd5	0.0064179697
57	0x3c48e7dc	0.012262311
58	0x3ab1381f	0.0013520754
59	0x3a52fcaa	0.0008048514
60	0x3ae0f2d3	0.0017162211
61	0x3bccf4ef	0.0062547843
62	0x3abca0b4	0.0014391155
63	0x3b3a222c	0.0028401716
64	0x3adf9aa8	0.0017059641
65	0x3ac37bee	0.0014914253
66	0x3b80b259	0.0039275107
67	0x3b855462	0.004068897
68	0x39f849ff	0.00047357377
69	0x3b09f2a0	0.0021049157
70	0x3b2e3b42	0.0026585613
71	0x3b78306d	0.003787066
72	0x3ba3053a	0.0049749883
73	0x3c82366d	0.015895093
74	0x3afc4dc9	0.0019249256
75	0x3b23450c	0.0024912981
76	0x3bb04690	0.0053795055
77	0x3b0e7ffd	0.0021743767
78	0x3b08ed8c	0.0020893542
79	0x3a07a619	0.0005174592
80	0x3ae26d71	0.0017275048
81	0x3b834ecd	0.0040071965
82	0x3b066dcd	0.0020512224
83	0x3b6d77e7	0.0036234797
84	0x3be72990	0.007054515
85	0x3b793566	0.0038026213
86	0x3bddad06	0.0067650108
87	0x3c7e6861	0.015527816
88	0x3b1625d4	0.002291073
89	0x3ad46d32	0.0016206859
90	0x3c4e3408	0.012585647
91	0x3b191e4f	0.0023364013
92	0x3b8dc52c	0.0043264832
93	0x3b8574b0	0.004072748
94	0x3ad253ef	0.0016046743
95	0x3832ab21	4.2597883e-05
96	0x39d7fd16	0.0004119656
97	0x3b4aeaf5	0.00309628
98	0xb9357683	-0.00017305654
99	0x3b3ba8c2	0.0028634523
100	0x3b123597	0.0022309774
101	0x3c3e2266	0.011604881
102	0x3b1163d8	0.0022184756
103	0x3ab4a3ce	0.0013781728
104	0x3b49f9fa	0.0030819164
105	0x3b4413f7	0.0029919127
106	0x3b819d10	0.003955491
107	0x3b642e80	0.0034817755
108	0x3b4e58e1	0.0031486081
109	0x3b4ed5da	0.003156057
110	0x3ad8c511	0.0016538223
111	0x3b0ff010	0.0021963157
112	0x3b6ad603	0.0035833127
113	0x3b8ba853	0.004262009
114	0x3c4248ed	0.011858207
115	0x3b790950	0.0037999935
116	0x3e92fef0	0.28710127
117	0x3af3c743	0.0018598813
118	0x3a807cf1	0.000980286
119	0x3af9cf00	0.0019058883
120	0x3bd24c1b	0.006417764
121	0x3c48ee3e	0.012263833
122	0x3ab0f07c	0.0013499404
123	0x3a528344	0.00080304244
124	0x3ae0da05	0.0017154819
125	0x3bccf110	0.006254323
126	0x3abc4e1f	0.0014366544
127	0x3b3a1626	0.002839455
128	0x3b596880	0.003317386
129	0x3b0de43e	0.0021650936
130	0x3b96e9ea	0.0046055214
131	0x3bbda16f	0.0057870666
132	0x3ac1851d	0.0014764402
133	0x3b5821d0	0.0032979138
134	0x3b82ce7c	0.0039919
135	0x3b9b1309	0.004732494
136	0x3baa46fa	0.0051964493
137	0x3b4dc39d	0.0031397112
138	0x3b3818f0	0.0028091036
139	0x3b735fda	0.003713599
140	0x3bc93af6	0.006141062
141	0x3b58c633	0.003307712
142	0x3b4110b6	0.0029459423
143	0x3af92b63	0.0019010123
144	0x3b37433a	0.0027963654
145	0x3b9d8d3a	0.0048080953
146	0x3b43ceb9	0.0029877855
147	0x3bb2029a	0.005432439
148	0x3c079c84	0.008277062
149	0x3b9ef683	0.004851164
150	0x3c097a30	0.008390948
151	0x3ad2d828	0.0016086148
152	0x3b6c68bd	0.003607317
153	0x3b3e3677	0.0029024163
154	0xb9bbc8b1	-0.00035816946
155	0x3b427be0	0.0029675886
156	0x3bb46f05	0.0055063986
157	0x3bb04987	0.005379859
158	0x3b2c91b8	0.0026331972
159	0x3a0c5ac1	0.00053540996
160	0x3aeb1941	0.0017936603
161	0x3b8d3de5	0.004310357
162	0x3aa2b82d	0.0012414508
163	0x3b80002d	0.003906271
164	0x3b49935f	0.0030758006
165	0xbb08972b	-0.0020842056
166	0x3b601ed7	0.003419807
167	0x3b0ee355	0.002180298
168	0x3b7b4da9	0.003834585
169	0x3b934fb7	0.0044955867
170	0x3ba4c6f4	0.0050286
171	0x3b97c7ca	0.004631971
172	0x3b984594	0.0046469662
173	0x3b834610	0.004006155
174	0x3b3134f1	0.0027039612
175	0x3b73f096	0.0037222258
176	0x3b938f5e	0.0045031747
177	0x3ba4e40b	0.0050320677
178	0xba35be1b	-0.000693293
179	0x3b8cfdc4	0.004302712
180	0x3eea06ab	0.45708212
181	0x3b2e4744	0.002659277
182	0x3b052232	0.0020314571
183	0x3b43cda9	0.0029877222
184	0x3bfde34c	0.007748043
185	0xbadea6ea	-0.0016987
186	0x3b2dda1a	0.0026527704
187	0x3ae96979	0.0017807923
188	0x3b372d6d	0.002795066
189	0x3be74091	0.0070572575
190	0x3b2a983a	0.0026030676
191	0x3b97bb32	0.0046304697
192	0xb9de8cfe	-0.00042448187
193	0x3aced625	0.0015780373
194	0x3afef4a6	0.0019451573
195	0xba884aa3	-0.001039822
196	0x3aa2b7dc	0.0012414414
197	0x3b488ff2	0.0030603376
198	0xb8f2c85d	-0.0001157678
199	0xbb546ecd	-0.0032414675
200	0x3bc542d7	0.006019931
201	0x3ad83278	0.0016494533
202	0xbb8dac22	-0.0043234983
203	0x3a8258e2	0.0009944702
204	0xb91a336c	-0.0001470574
205	0xb9922817	-0.0002787716
206	0x3a822869	0.0009930256
207	0x3a8bce5d	0.001066636
208	0xba38c913	-0.00070490054
209	0x3b6c2f7d	0.0036039047
210	0x3b2b1969	0.0026107675
211	0xba692391	-0.00088935444
212	0x3ac10cc1	0.0014728532
213	0xbb995735	-0.0046795853
214	0x3b1f47dc	0.0024304306
215	0x3b0a6889	0.0021119437
216	0xbab4e9cb	-0.0013802586
217	0x3b44f948	0.003005581
218	0xbb05e833	-0.002043259
219	0x39aa67d1	0.00032502276
220	0x3ba73267	0.005102444
221	0xbb89fed6	-0.004211287
222	0xba49f45b	-0.00077039533
223	0x3ab4e9a3	0.0013802539
224	0x3a657f91	0.00087546656
225	0x3af6e6fc	0.0018837149
226	0xba87e961	-0.0010369235
227	0x3b93516d	0.0044957907
228	0x3ba108c1	0.0049143736
229	0x3ab84909	0.0014059852
230	0xba9e6bc9	-0.0012086566
231	0x3b15d3f0	0.002286192
232	0x3a0eba4c	0.00054446305
233	0x3969778c	0.00022265146
234	0x3b168958	0.0022970047
235	0xbb3abbda	-0.0028493316
236	0xba220365	-0.00061803154
237	0xbb936f68	-0.0044993646
238	0x3abd3040	0.0014433935
239	0x3903a6c6	0.00012555261
240	0xb925f8c5	-0.000158283
241	0xbae1ac1e	-0.0017217433
242	0x3b0c21c9	0.0021382442
243	0xbb3845a5	-0.0028117683
244	0xbcf3deb6	-0.029769283
245	0xbace699f	-0.001574803
246	0x3b16910b	0.0022974636
247	0x3acb40be	0.0015506966
248	0x3baa9db1	0.0052067866
249	0xbb225871	-0.0024771953
250	0x3a6bea75	0.00089994754
251	0xbabc47ae	-0.0014364624
252	0x3aebd18a	0.0017991525
253	0xbb38896f	-0.0028158089
254	0x3aa0284c	0.0012219041
255	0xbb20d50a	-0.0024541044

onnx::LSTM_379 f4 [2, 256, 128]
0	0xb7acba1d	-2.0590664e-05
1	0x3974dbba	0.00023351508
2	0x34916ec2	2.7088942e-07
3	0x39783b5c	0.00023673236
4	0xb61be4ce	-2.3229982e-06
5	0xb8d7ae92	-0.00010284515
6	0xb86110c7	-5.3659805e-05
7	0x35895ea5	1.0234841e-06
8	0x374504a8	1.1743199e-05
9	0xb5dc5a7a	-1.641761e-06
10	0x376f0c57	1.4248383e-05
11	0x345f3a7c	2.078977e-07
12	0xb90b1f8d	-0.00013267827
13	0x38abff90	8.2015176e-05
14	0xb84c4e72	-4.8710448e-05
15	0x39106a0c	0.00013772416
16	0x34b6b46d	3.403142e-07
17	0xb8d19687	-9.9939345e-05
18	0xb7e3bcf5	-2.7148499e-05
19	0xb6893221	-4.088754e-06
20	0xb7b2fff9	-2.133845e-05
21	0x37b7ca20	2.1909422e-05
22	0x386cdef8	5.647444e-05
23	0x36610da0	3.3535543e-06
24	0xb793a975	-1.7602675e-05
25	0xb5784f72	-9.250281e-07
26	0xb5a321cd	-1.2154284e-06
27	0xb7f7f7ca	-2.956008e-05
28	0x37673fbe	1.3783514e-05
29	0xb74a591e	-1.20608875e-05
30	0xb94b1420	-0.00019367086
31	0xb49f42bd	-2.9664616e-07
32	0x394c3355	0.00019474079
33	0xb8918fb3	-6.940905e-05
34	0xb682cd75	-3.8982203e-06
35	0x36e69fc3	6.873133e-06
36	0x37028f46	7.781962e-06
37	0xb8c481db	-9.370196e-05
38	0x395275d5	0.00020071056
39	0xb7248811	-9.806842e-06
40	0xb5d1987a	-1.561609e-06
41	0xb5ebd362	-1.7570385e-06
42	0xb80a1995	-3.292559e-05
43	0xb6c6a284	-5.919779e-06
44	0x35bba951	1.3981863e-06
45	0xb7194b83	-9.137092e-06
46	0xb5904607	-1.0749217e-06
47	0x37b20472	2.1221324e-05
48	0xb6afc7c5	-5.2386627e-06
49	0x365ca930	3.2881035e-06
50	0x3727a4ce	9.992347e-06
51	0xb9173d21	-0.00014423254
52	0xb78afe75	-1.6569373e-05
53	0x365e7664	3.314949e-06
54	0x378b192f	1.6581818e-05
55	0x358f2edc	1.0667968e-06
56	0x3833d58c	4.2875807e-05
57	0xb70c0aa7	-8.3471305e-06
58	0xb5d27a7a	-1.5681865e-06
59	0x391edec3	0.0001515104
60	0x350cd540	5.2464384e-07
61	0x36cb09e4	6.051023e-06
62	0xb66b5665	-3.5068017e-06
63	0x37194927	9.136543e-06
64	0xb7d727d2	-2.564854e-05
65	0x38f7ac0f	0.00011809926
66	0xb67fd538	-3.812207e-06
67	0xb820bf0b	-3.8324895e-05
68	0x368ba695	4.1619155e-06
69	0x37ba31cd	2.2196118e-05
70	0x38b70585	8.727148e-05
71	0x355cf839	8.23176e-07
72	0xb5dc24ba	-1.6401966e-06
73	0x373c572d	1.122597e-05
74	0x3642b9a6	2.9016314e-06
75	0x3a340695	0.0006867436
76	0xb819bf57	-3.665624e-05
77	0x37dc35a3	2.625102e-05
78	0x3573796a	9.0701235e-07
79	0xb703e1f9	-7.860822e-06
80	0x37ab713c	2.0437517e-05
81	0x35f4ff3e	1.8253702e-06
82	0x35c6b9ac	1.4806187e-06
83	0x385bc3e4	5.2396106e-05
84	0x374d3f32	1.2233666e-05
85	0xb88b3503	-6.637911e-05
86	0x38ce4c6f	9.837082e-05
87	0x370b450a	8.30112e-06
88	0xb79aa282	-1.8433904e-05
89	0x372829e2	1.0023332e-05
90	0x391454f5	0.00014146029
91	0xb49f657a	-2.9689892e-07
92	0x386398c9	5.426331e-05
93	0xb3fc3237	-1.17437985e-07
94	0xb6bdcf7c	-5.6567933e-06
95	0xb6b760cb	-5.465093e-06
96	0xb7e6eecd	-2.7529337e-05
97	0xb63c5a10	-2.8066606e-06
98	0xb84a4180	-4.8221555e-05
99	0xb8c085fd	-9.180231e-05
100	0xb613aa64	-2.2003887e-06
101	0xb684d63d	-3.958847e-06
102	0xb6e3df5c	-6.7911296e-06
103	0x35ac84e8	1.285368e-06
104	0x37eb6271	2.8060023e-05
105	0x384dba96	4.904958e-05
106	0x37c65ce1	2.364669e-05
107	0xb75ac84a	-1.3040446e-05
108	0x3679b411	3.7208704e-06
109	0xb7e29b2c	-2.7013557e-05
110	0xb584fc23	-9.908148e-07
111	0x394778ee	0.00019023169
112	0x38ff15e4	0.00012163425
113	0xb628cd4a	-2.5153445e-06
114	0x35ddcd2c	1.6525496e-06
115	0x39485df2	0.00019108484
116	0xb5c75c1a	-1.485346e-06
117	0xb5b4fc09	-1.3484397e-06
118	0xb766d938	-1.37596435e-05
119	0xb762cd8d	-1.3518508e-05
120	0x35f4c434	1.8236519e-06
121	0xb85e6221	-5.3020314e-05
122	0xb60c04ec	-2.086449e-06
123	0xb7076a86	-8.071429e-06
124	0xb6f8e6dc	-7.4178515e-06
125	0xb7867337	-1.6027696e-05
126	0x38aa42cd	8.118674e-05
127	0x3767aa0a	1.3808263e-05
128	0x392f5ced	0.00016723918
129	0x389495c0	7.085083e-05
130	0xb4077b49	-1.2617706e-07
131	0x39b394b0	0.0003425232
132	0xb5c4d750	-1.4665802e-06
133	0xb7b9a6b6	-2.213135e-05
134	0xb7f51996	-2.921819e-05
135	0x35875aee	1.0084748e-06
136	0x36b0d554	5.2700434e-06
137	0xb537f966	-6.8535735e-07
138	0x371d7edc	9.387466e-06
139	0xb4b2f047	-3.3329908e-07
140	0xb824c55b	-3.928445e-05
141	0x392b3aed	0.00016329782
142	0x37320b2f	1.0612231e-05
143	0x3815cec8	3.571695e-05
144	0xb51d2107	-5.853512e-07
145	0xb8215335	-3.8462884e-05
146	0xb924d081	-0.00015717933
147	0xb6049b75	-1.976002e-06
148	0x3827ad11	3.9977083e-05
149	0x362f41e1	2.6115379e-06
150	0xb70d837f	-8.434871e-06
151	0xb54555d3	-7.351311e-07
152	0xb70dccde	-8.451954e-06
153	0xb5b43c1b	-1.3428538e-06
154	0xb50387bd	-4.899883e-07
155	0xb6f2058a	-7.212807e-06
156	0x368fe7d3	4.28872e-06
157	0xb6cbe00c	-6.075954e-06
158	0xb8606407	-5.349892e-05
159	0xb35943d4	-5.058594e-08
160	0x389807a6	7.2493494e-05
161	0xb80d890b	-3.374465e-05
162	0xb65c538e	-3.283119e-06
163	0x36d9cc44	6.4908836e-06
164	0x36f29967	7.2300204e-06
165	0xb8143a6f	-3.534037e-05
166	0x387307fa	5.7943143e-05
167	0xb723bdb7	-9.7597285e-06
168	0x33abc2f7	7.998272e-08
169	0xb5b13dec	-1.3205549e-06
170	0xb746a160	-1.1839293e-05
171	0xb5da9226	-1.62848e-06
172	0xb4afeabb	-3.276708e-07
173	0xb61967be	-2.2859163e-06
174	0xb42d9387	-1.616555e-07
175	0x32394023	1.0783e-08
176	0xb62a2ccc	-2.535805e-06
177	0x35435e77	7.2780625e-07
178	0x3698ce12	4.5539427e-06
179	0xb9a34e43	-0.00031148092
180	0xb6efc4bd	-7.1456584e-06
181	0x36161803	2.2365718e-06
182	0x371fa5a0	9.515701e-06
183	0x34d6d57c	4.0015937e-07
184	0xb8c538dc	-9.404283e-05
185	0xb6c51016	-5.87293e-06
186	0x358b7906	1.039153e-06
187	0x396fca9c	0.00022868294
188	0xb52eeeec	-6.516773e-07
189	0x36812fe9	3.850077e-06
190	0xb62f1b43	-2.60929e-06
191	0x36ed8955	7.079138e-06
192	0xb723fab8	-9.773932e-06
193	0x38450b02	4.6978712e-05
194	0xb66aee54	-3.5007442e-06
195	0xb7837ce1	-1.5674568e-05
196	0x362c3e80	2.5666377e-06
197	0x360ef5a4	2.130263e-06
198	0x3811b200	3.473647e-05
199	0xb56ca004	-8.8149704e-07
200	0xb54e6372	-7.688569e-07
201	0x36dd520f	6.595866e-06
202	0x35c1065e	1.4381474e-06
203	0x38e1f2bf	0.00010774051
204	0xb7089f56	-8.14333e-06
205	0x38095a05	3.2747183e-05
206	0xb4aa71a7	-3.174766e-07
207	0xb6c6da61	-5.9262825e-06
208	0x36a646f2	4.9554446e-06
209	0xb7810a7c	-1.538288e-05
210	0x35388778	6.8742474e-07
211	0x3791ebc5	1.7395136e-05
212	0x36bae9e2	5.5704595e-06
213	0xb7449c37	-1.1718882e-05
214	0x38304dfe	4.2034306e-05
215	0x3698fd91	4.559472e-06
216	0xb5de3c56	-1.6557849e-06
217	0x35ced87e	1.5411204e-06
218	0x389b96a0	7.419032e-05
219	0xb56b1b0d	-8.7583686e-07
220	0x376cc49a	1.4112471e-05
221	0xb3546906	-4.9455615e-08
222	0xb5a49dc8	-1.2264873e-06
223	0xb6927774	-4.3650452e-06
224	0xb74cc486	-1.2205104e-05
225	0xb53af310	-6.96441e-07
226	0xb7b8c101	-2.2024384e-05
227	0xb860aa71	-5.3564498e-05
228	0xb5b0669f	-1.3142889e-06
229	0xb63866dd	-2.747801e-06
230	0xb6933721	-4.3873592e-06
231	0x3543c358	7.2927423e-07
232	0x37057fba	7.957156e-06
233	0x37c2076e	2.3130062e-05
234	0xb8e4bd12	-0.00010907104
235	0xb6e7103d	-6.886227e-06
236	0x3805e118	3.1919306e-05
237	0xb7211d88	-9.603224e-06
238	0x348bdebf	2.6052837e-07
239	0xb83c91f6	-4.495863e-05
240	0x3871aee0	5.7621743e-05
241	0xb5d7a53b	-1.6066837e-06
242	0x352b432c	6.380021e-07
243	0x38be2eac	9.068599e-05
244	0xb4e1db73	-4.2069186e-07
245	0x3456cc2d	2.0004582e-07
246	0xb6c2db51	-5.8071823e-06
247	0xb65ee646	-3.3214615e-06
248	0x35b3391c	1.335316e-06
249	0xb7c00e2d	-2.2894785e-05
250	0xb557c8bc	-8.038585e-07
251	0xb6ced69b	-6.164262e-06
252	0xb6811f6b	-3.848157e-06
253	0xb74f08f8	-1.234025e-05
254	0x381294a3	3.494754e-05
255	0x373e96f5	1.136003e-05
