LOSO/models/model_without_subj_5.pth (torch, 549103 bytes, 18 tensors)

lstm.weight_ih_l0 f4 [256, 6]
0	0x38f948f5	0.000118868345
1	0x3afa148e	0.0019079612
2	0x3b0db4f3	0.0021622747
3	0x3afffee4	0.0019530919
4	0x3b47e7ea	0.0030503222
5	0x3a51e4fe	0.000800684
6	0xba5d65b4	-0.0008445636
7	0x3ae5352d	0.0017487161
8	0x3aaa0a6a	0.0012973074
9	0x3a93bd77	0.0011271675
10	0x3af47352	0.0018650091
11	0xb93c0521	-0.00017930988
12	0x39a00646	0.00030522252
13	0x3b160d45	0.0022896093
14	0x3b23d5ee	0.0024999338
15	0x3b2310d6	0.0024881861
16	0x3b754ca9	0.0037429726
17	0x3a9d06d3	0.0011980183
18	0xb859d4e7	-5.1935112e-05
19	0xb7c5c534	-2.357606e-05
20	0xb8468a13	-4.733547e-05
21	0xb836b963	-4.3564836e-05
22	0xb821bb4e	-3.8559832e-05
23	0xb850fcc8	-4.9826485e-05
24	0xb96a1f09	-0.0002232754
25	0x3dd0687d	0.101761796
26	0x3df9ab6f	0.121909015
27	0x3da2b77d	0.07945154
28	0x3d9dfe7c	0.07714555
29	0x3db24d8c	0.08706197
30	0xb7e1022c	-2.6823102e-05
31	0x3ad5aace	0.0016301514
32	0x3abf676b	0.0014602965
33	0x3ab874b7	0.001407287
34	0x3b1026cb	0.0021995779
35	0x3a0bb555	0.000532945
36	0xb3a3eb81	-7.633117e-08
37	0xb36d8c21	-5.530831e-08
38	0xb3a67158	-7.7505945e-08
39	0xb38824c8	-6.339684e-08
40	0xb3815acf	-6.0235486e-08
41	0xb395f140	-6.982236e-08
42	0xb952f4b2	-0.00020118317
43	0xb91d5e13	-0.00015007732
44	0xb95fb716	-0.00021335142
45	0xb94386e3	-0.00018646898
46	0xb9400e97	-0.00018315982
47	0xb958f824	-0.00020691805
48	0xba2866ef	-0.00064240297
49	0xb9b43e47	-0.00034378676
50	0xba2ecbd8	-0.00066679483
51	0xba1b2171	-0.0005917764
52	0xba15d3e4	-0.0005715473
53	0xba2957a6	-0.0006459899
54	0x39e0d2d4	0.0004288169
55	0x3b0a875b	0.0021137807
56	0x3aef8c82	0.0018276128
57	0x3af084b2	0.0018350093
58	0x3b27ede1	0.0025623965
59	0x3a21dabc	0.00061742566
60	0xba0b5e53	-0.00053164846
61	0x3adb14af	0.0016714538
62	0x3a8c9ff5	0.0010728823
63	0x3a97cbe4	0.001158115
64	0x3b033923	0.002002307
65	0x39926fe3	0.00027930652
66	0xb75551d5	-1.2714842e-05
67	0xb769f403	-1.3944696e-05
68	0xb7eb3c1f	-2.804218e-05
69	0xb7052bfc	-7.937659e-06
70	0x3553415e	7.8698747e-07
71	0xb754d7bc	-1.2686414e-05
72	0xb9d00b66	-0.00039681344
73	0x3ae68b10	0.0017589051
74	0x3ad9bf03	0.0016612712
75	0x3ad31026	0.0016102835
76	0x3b24072d	0.002502869
77	0x38343b1c	4.2970394e-05
78	0x38b1adc8	8.472387e-05
79	0x3b0c2fd9	0.0021390824
80	0x3afb9dc3	0.0019196797
81	0x3b05581c	0.0020346707
82	0x3b385fcc	0.0028133271
83	0x3a5b619d	0.00083687325
84	0x3a3bd161	0.0007164684
85	0x3b481748	0.0030531455
86	0x3b2ad29e	0.002606548
87	0x3b2c9eb9	0.0026339723
88	0x3b619835	0.0034422998
89	0x3ac73adc	0.0015200037
90	0x397500f0	0.0002336537
91	0x3b013e75	0.0019721065
92	0x3aef9698	0.0018279133
93	0x3ada16dc	0.0016638893
94	0x3b152916	0.0022760085
95	0x3a17862b	0.00057801855
96	0x39b598d0	0.00034636864
97	0x3b3b7d48	0.002860861
98	0x3b0ef0e0	0.0021811053
99	0x3b0f36c6	0.0021852716
100	0x3b36ef79	0.0027913733
101	0x3a5c6b01	0.0008408279
102	0x3a5afa04	0.0008353295
103	0x3b2152cb	0.0024616
104	0x3b2eff79	0.0026702567
105	0x3b294331	0.0025827403
106	0x3b69f090	0.0035696365
107	0x3aa6243a	0.0012675591
108	0xb8fa1578	-0.00011924928
109	0x3b08b144	0.0020857612
110	0x3aec31c1	0.0018020199
111	0x3af65bfd	0.0018795725
112	0x3b2e3b02	0.0026585464
113	0x3a54b73d	0.0008114463
114	0xb5432eeb	-7.2711435e-07
115	0xb50b4438	-5.1880806e-07
116	0xb5638ba7	-8.476731e-07
117	0xb532a403	-6.6548836e-07
118	0xb53aaeef	-6.954496e-07
119	0xb54a4d10	-7.5363005e-07
120	0x3a30481a	0.0006724611
121	0x3b4004be	0.0029299702
122	0x3b3859be	0.0028129662
123	0x3b2ee1f3	0.002668497
124	0x3b6a68e3	0.0035768084
125	0x3ab1fa8c	0.0013578697
126	0x3956fa7a	0.0002050194
127	0x3b0eda42	0.0021797572
128	0x3b12fe27	0.0022429319
129	0x3b0c2651	0.0021385143
130	0x3b5cc8f6	0.0033689118
131	0x3a66fc1d	0.00088113715
132	0x3a1d27a9	0.00059949845
133	0x3b273141	0.0025511535
134	0x3b20768b	0.002448472
135	0x3b1dca44	0.0024076859
136	0x3b51087e	0.003189593
137	0x3a9ab041	0.0011801795
138	0x39f77889	0.00047201317
139	0x3b1580a5	0.0022812274
140	0x3b012d07	0.0019710676
141	0x3b12dae1	0.0022408294
142	0x3b4cbce2	0.0031240513
143	0x3a9c1132	0.001190698
144	0xb9842b39	-0.00025209205
145	0x3ad92806	0.0016567714
146	0x3ac9ab37	0.0015386109
147	0x3ac8f01e	0.001533035
148	0x3b2c447c	0.0026285937
149	0x39a1e0b5	0.00030875733
150	0x379e3fed	1.8864836e-05
151	0x3b1fbd3d	0.002437427
152	0x3b12791f	0.0022350026
153	0x3b00a79e	0.0019631158
154	0x3b427da8	0.0029676948
155	0x3a54c4c0	0.0008116476
156	0x39904b04	0.0002752171
157	0x3b20d891	0.0024543146
158	0x3b00da29	0.0019661284
159	0x3afb0621	0.0019151607
160	0x3b2671d7	0.0025397444
161	0x3a73bf38	0.0009298208
162	0x39ea6034	0.00044703635
163	0x3b377e7b	0.0027998972
164	0x3b1303bb	0.0022432643
165	0x3b162bec	0.0022914363
166	0x3b583591	0.0032990912
167	0x3a9f0021	0.0012130776
168	0x3a1fd073	0.000609643
169	0x3b2d4287	0.0026437358
170	0x3b14a410	0.0022680797
171	0x3b11dd91	0.0022257308
172	0x3b329426	0.0027248948
173	0x3a96f8fb	0.0011518294
174	0x3a08cea1	0.00052187784
175	0x3b1047d5	0.0022015471
176	0x3b004c28	0.0019576643
177	0x3b092b1c	0.0020930236
178	0x3b31d068	0.0027132276
179	0x3a5a0b0b	0.00083176856
180	0x3e0447f9	0.1291808
181	0x3de0ce9a	0.10976906
182	0x3e200cb9	0.15629853
183	0x3d85cba8	0.06532985
184	0x3dfb31c3	0.12265351
185	0x3dcd59be	0.100268826
186	0xb423db52	-1.5260346e-07
187	0xb3b1f6cb	-8.287096e-08
188	0xb4260ab6	-1.5463851e-07
189	0xb4045339	-1.2323734e-07
190	0xb3d9b3b6	-1.0137539e-07
191	0xb41f16c0	-1.4816305e-07
192	0xb9c60380	-0.0003776811
193	0x3ab458fe	0.0013759432
194	0x3a562f9b	0.0008170546
195	0x3a6550e3	0.000874771
196	0x3ac65dc0	0.0015134141
197	0x37eb0341	2.8015698e-05
198	0xb97fd818	-0.00024399196
199	0x3afbc2eb	0.001920787
200	0x3abaec69	0.001426113
201	0x3ab30b5f	0.0013660005
202	0x3b0510f2	0.002030429
203	0x39944fbe	0.00028288172
204	0xb98eee83	-0.00027262056
205	0x3abf0236	0.0014572802
206	0x3aa7eeff	0.0012812315
207	0x3aa0e446	0.0012275062
208	0x3b11e78b	0.0022263255
209	0x39be41eb	0.00036288737
210	0x3a896359	0.0010481878
211	0x3b40fa23	0.0029445968
212	0x3b27c55a	0.0025599808
213	0x3b1643c3	0.0022928573
214	0x3b3787a6	0.0028004437
215	0x3aa3415e	0.0012455394
216	0x3cd6ad84	0.026205786
217	0x3cdd0b7e	0.026983019
218	0x3df5348f	0.119729154
219	0x3e1e3ccb	0.15452878
220	0x3d672868	0.05643502
221	0x3e4a55dc	0.19759315
222	0xb8d240f7	-0.00010025681
223	0x3ad4e7a9	0.0016243357
224	0x3acfa19d	0.0015841011
225	0x3ac96dec	0.0015367842
226	0x3b1902c0	0.0023347586
227	0x39a8427c	0.00032092992
228	0x39b76d58	0.00034985947
229	0x3b1ac019	0.0023613034
230	0x3b1fa624	0.0024360502
231	0x3b1fe271	0.0024396444
232	0x3b6d0baf	0.0036170294
233	0x3a8747e3	0.0010321107
234	0x389496fb	7.085312e-05
235	0x3b117f53	0.0022201135
236	0x3b0f4545	0.0021861356
237	0x3b091168	0.0020914916
238	0x3b460c25	0.003021964
239	0x3a81c569	0.0009900752
240	0xb814eaba	-3.5504556e-05
241	0x3b119ec4	0.0022219876
242	0x3af036bb	0.0018326858
243	0x3aefc5b5	0.0018293174
244	0x3b31374e	0.002704102
245	0x39fa31f3	0.0004772093
246	0xb54e0cfc	-7.6759875e-07
247	0xb5188563	-5.6818516e-07
248	0xb575cccd	-9.1567637e-07
249	0xb5323819	-6.63918e-07
250	0xb51965f0	-5.714528e-07
251	0xb53c986d	-7.0257266e-07
252	0x3a2ad860	0.0006517228
253	0x3b5fdc5c	0.0034158444
254	0x3b374635	0.002796543
255	0x3b217308	0.0024635214

lstm.weight_hh_l0 f4 [256, 64]
0	0xb9a69067	-0.00031769575
1	0xb981fb67	-0.00024792107
2	0x39a6545c	0.0003172484
3	0x369e6c1f	4.721354e-06
4	0xbad95ffb	-0.001658439
5	0xb97e980f	-0.00024279974
6	0x34f48043	4.5541864e-07
7	0xb8a0b36e	-7.662816e-05
8	0x3986f3cd	0.00025740117
9	0x39954775	0.00028472734
10	0xb971ac17	-0.0002304766
11	0xb8360c6a	-4.3403743e-05
12	0x39acd95e	0.00032968348
13	0x39a03e8b	0.00030564176
14	0xb991832b	-0.00027754283
15	0xb9900ead	-0.00027476755
16	0x39989f25	0.0002911027
17	0xb9a5d571	-0.0003163028
18	0x398536fe	0.0002540871
19	0x34734a95	2.2658271e-07
20	0xb99ad0c1	-0.00029528703
21	0xb99b1fe5	-0.00029587667
22	0x39aa2182	0.00032449892
23	0x398e5d90	0.0002715406
24	0xb9a0b07e	-0.00030649075
25	0x396d69cb	0.00022641492
26	0x397bc2cc	0.00024009793
27	0x39890552	0.0002613464
28	0xb955d2ba	-0.00020391765
29	0xb9a53ab0	-0.00031514978
30	0xba8a2f75	-0.0010542708
31	0x32e117df	2.6204303e-08
32	0x397b78a3	0.00023982166
33	0xb9896fd5	-0.00026213998
34	0x39912705	0.00027685627
35	0x397aa93e	0.00023904906
36	0xba997467	-0.0011707664
37	0xb9973d79	-0.00028846765
38	0xb9ab3b48	-0.0003265983
39	0xb98c098c	-0.00026709994
40	0xb9963e8c	-0.0002865683
41	0x36d8cec4	6.4613723e-06
42	0xb9449574	-0.00018747692
43	0x395bf169	0.000209754
44	0xb9961302	-0.0002862439
45	0xb94f4522	-0.00019766812
46	0x39795b57	0.00023780517
47	0xb99c4e60	-0.00029813033
48	0xb9953d91	-0.00028465365
49	0xb9932dd4	-0.0002807217
50	0x39aac577	0.0003257205
51	0xb9b8ff13	-0.0003528526
52	0x398582db	0.00025465232
53	0x3975f8f8	0.00023457769
54	0x398f6504	0.00027350348
55	0x36a526a1	4.92188e-06
56	0x399b910d	0.00029671975
57	0x3948d0cf	0.00019151274
58	0xb572e7dc	-9.0489425e-07
59	0xb995f7fb	-0.00028604254
60	0xb96f7e82	-0.00022839944
61	0x3971d30d	0.00023062174
62	0xba9d8470	-0.0012017619
63	0x3986918c	0.00025666913
64	0xb99c9244	-0.00029863615
65	0xb97eaed7	-0.0002428846
66	0x39a7c6ae	0.0003200075
67	0x370db6e1	8.446835e-06
68	0xbadc950b	-0.0016829086
69	0xb97dd7d8	-0.00024208368
70	0x35e1b80a	1.6817369e-06
71	0xb894568a	-7.073309e-05
72	0x398de85c	0.00027066737
73	0x39799e8a	0.00023805551
74	0xb988a594	-0.00026063307
75	0xb85e895c	-5.305685e-05
76	0x399ea35d	0.00030257824
77	0x39a1ab4a	0.00030835933
78	0xb99ef8cb	-0.00030321474
79	0xb98de061	-0.0002706079
80	0x398d09f8	0.00026901043
81	0xb9958b37	-0.00028523218
82	0x39a41ab7	0.00031300422
83	0xb57f0cb3	-9.501338e-07
84	0xb99bc6a9	-0.00029711917
85	0xb98b458e	-0.00026563968
86	0x399fc24f	0.00030471614
87	0x39916766	0.00027733593
88	0xb9993a35	-0.00029225802
89	0x398e5204	0.00027145457
90	0x397bde66	0.00024020075
91	0x399c197f	0.00029773635
92	0xb96933be	-0.00022239887
93	0xb988f688	-0.00026123622
94	0xbaa64d38	-0.0012687808
95	0xb483c078	-2.454069e-07
96	0x396829ed	0.00022140863
97	0xb9844967	-0.0002523169
98	0x398f005a	0.00027275347
99	0x39669d25	0.0002199305
100	0xb90b1939	-0.00013265469
101	0xb999d56d	-0.0002934145
102	0xb992a167	-0.00027967544
103	0xb999d526	-0.00029341242
104	0xb98df28f	-0.00027074336
105	0x36b0df42	5.2711994e-06
106	0xb97ce7ce	-0.00024118947
107	0x39851f1c	0.00025390915
108	0xb98b5db5	-0.00026581963
109	0xb988cd42	-0.0002609287
110	0x3980fb9b	0.00024601523
111	0xb99dd8bf	-0.00030106862
112	0xb9a0669a	-0.00030594022
113	0xb99aab51	-0.0002950081
114	0x39add188	0.00033153244
115	0xb98c89e4	-0.00026805617
116	0x398cc5c4	0.00026850228
117	0x398cdf1c	0.0002686911
118	0x39946562	0.00028304296
119	0x36e682f0	6.8697773e-06
120	0x39a4f32d	0.00031461698
121	0x3979850b	0.00023796053
122	0x3546b536	7.4024445e-07
123	0xb98a273a	-0.00026350637
124	0xb98743e0	-0.00025799777
125	0x3980fa67	0.00024600627
126	0xba3ce040	-0.0007205047
127	0x39979414	0.0002891129
128	0xb955d68f	-0.00020393192
129	0xb91676ac	-0.00014349323
130	0x39487126	0.00019115637
131	0xb5aa70c6	-1.2698808e-06
132	0xbaef5759	-0.0018260285
133	0xb9216f28	-0.00015395565
134	0x35c2af72	1.4505188e-06
135	0xb8c00e0f	-9.157892e-05
136	0x39adab9a	0.00033124984
137	0x393a012d	0.0001773878
138	0xb92874fa	-0.00016065306
139	0xb84bce08	-4.8590853e-05
140	0x394e4394	0.00019670866
141	0x39543583	0.0002023783
142	0xb9510657	-0.00019934155
143	0xb95f13de	-0.00021274338
144	0x393ed4ec	0.00018199132
145	0xb950e691	-0.00019922318
146	0x39489d5c	0.00019132107
147	0xb5eeb973	-1.7786355e-06
148	0xb94522dc	-0.0001880037
149	0xb92c254f	-0.00016417097
150	0x396b6a37	0.00022450915
151	0x393d6216	0.00018060984
152	0xb953a2b5	-0.00020183141
153	0x3928a14d	0.00016081818
154	0x392009fc	0.00015262509
155	0x3949b75e	0.00019237163
156	0xb91232e3	-0.00013942602
157	0xb940d03d	-0.00018388122
158	0xb978dda5	-0.00023733692
159	0xb4d4c906	-3.963434e-07
160	0x39261803	0.00015839939
161	0xb944a37e	-0.00018752922
162	0x39376927	0.00017491412
163	0x39316309	0.00016916929
164	0xbaca9b01	-0.0015457572
165	0xb955b04f	-0.00020378943
166	0xb94c542a	-0.0001948631
167	0xb931c408	-0.00016953063
168	0xb946b2c9	-0.00018949354
169	0x36cc286e	6.0843804e-06
170	0xb921dac3	-0.00015435652
171	0x391f06c5	0.00015165943
172	0xb94c91e3	-0.00019509303
173	0xb914c7d2	-0.00014188819
174	0x39384c10	0.00017575943
175	0xb94e6db3	-0.00019686557
176	0xb951a97e	-0.00019994934
177	0xb9423f4c	-0.00018524862
178	0x395efb34	0.0002126515
179	0xb957e692	-0.00020589892
180	0x393688b3	0.00017407797
181	0x394b8e2b	0.0001941255
182	0x393a5919	0.00017771534
183	0x36da9adc	6.5149343e-06
184	0x394582fc	0.0001883618
185	0x391c4806	0.0001490415
186	0x35d10d62	1.5575608e-06
187	0xb9393c42	-0.00017665423
188	0xb9348eb1	-0.00017219294
189	0x39218ab5	0.00015405829
190	0xba84f1f1	-0.0010142905
191	0x3943d818	0.0001867715
192	0xb5ae7f75	-1.3001105e-06
193	0xb5b957ae	-1.3809092e-06
194	0x35c580fd	1.4715184e-06
195	0x351c7d2a	5.8296666e-07
196	0x34191df4	1.4260132e-07
197	0xb5932c3b	-1.0965226e-06
198	0x32b750f5	2.1340819e-08
199	0xb30b6a2c	-3.2460022e-08
200	0xb458eea2	-2.0203382e-07
201	0x3568288a	8.6485727e-07
202	0xb5afda7f	-1.3102107e-06
203	0xb506de7a	-5.0242636e-07
204	0x35ab3f1b	1.2758859e-06
205	0x35bffde1	1.4304497e-06
206	0xb5f301ae	-1.81054e-06
207	0xb5861beb	-9.991903e-07
208	0x35d64190	1.5963324e-06
209	0xb5bd91dc	-1.4124048e-06
210	0x35d4f4c9	1.5866473e-06
211	0x32404a8c	1.1192821e-08
212	0xb5d99287	-1.6210405e-06
213	0xb59b4eb7	-1.1571309e-06
214	0x357b4a90	9.361329e-07
215	0x35b131a0	1.320197e-06
216	0xb5b7a86d	-1.3683581e-06
217	0x35e6fd92	1.7210134e-06
218	0x35b7757b	1.3668754e-06
219	0x35e95d0d	1.7386934e-06
220	0xb5910b33	-1.0806601e-06
221	0xb5844190	-9.853848e-07
222	0xb7aed802	-2.0843003e-05
223	0x3038d17b	6.72365e-10
224	0x359c687d	1.1653316e-06
225	0xb5d2f71c	-1.5718138e-06
226	0x35b8e561	1.3775826e-06
227	0x35984125	1.1343842e-06
228	0xb7a66c45	-1.9839159e-05
229	0xb5c58870	-1.4717352e-06
230	0xb5a01530	-1.1927095e-06
231	0xb6018989	-1.9302554e-06
232	0xb5f5076f	-1.8256086e-06
233	0xb2807a03	-1.4956646e-08
234	0xb5f1cb29	-1.8015027e-06
235	0x360b6588	2.0771713e-06
236	0xb57563b9	-9.141473e-07
237	0xb5f039b9	-1.7898193e-06
238	0x35ba2225	1.3868017e-06
239	0xb5d528ca	-1.5881608e-06
240	0xb5b7751d	-1.3668647e-06
241	0xb5eced90	-1.765251e-06
242	0x35c1f584	1.4451075e-06
243	0xb542923b	-7.2483425e-07
244	0x3583890e	9.800149e-07
245	0x35c17b2e	1.441547e-06
246	0x35daf8af	1.6314642e-06
247	0x32b6cbe3	2.1280306e-08
248	0x35d263a0	1.5675214e-06
249	0x35b5a452	1.3533374e-06
250	0xb1bcaefd	-5.491414e-09
251	0xb5b04144	-1.3132017e-06
252	0xb57e8112	-9.4810196e-07
253	0x35bd3449	1.4096814e-06
254	0xb6b78393	-5.4691423e-06
255	0x35d23efa	1.5664548e-06

lstm.bias_ih_l0 f4 [256]
0	0x3b7d5e2e	0.0038660872
1	0x3b4a3fc7	0.0030860768
2	0x3b9c1388	0.0047630705
3	0xb749206c	-1.1988082e-05
4	0x3e282a27	0.1642233
5	0x3b41de3c	0.0029581925
6	0xb3a9fd92	-7.9158e-08
7	0xb9a78d86	-0.00031958165
8	0xba9782c6	-0.0011559359
9	0x3b498310	0.0030748285
10	0x3b188296	0.0023271195
11	0xb8a63917	-7.926131e-05
12	0x3b626376	0.0034544147
13	0x3b71499b	0.0036817554
14	0x3b92e09d	0.0044823424
15	0x3b48ddf9	0.0030649884
16	0x3b7b4451	0.003834028
17	0x3b976c28	0.0046210475
18	0x3b6876a6	0.003547111
19	0xb59acc9a	-1.1533441e-06
20	0x3b9f3df5	0.004859681
21	0x3b8fa177	0.004383262
22	0x3b8e7190	0.004347034
23	0x3b6611d2	0.0035105837
24	0x3b551862	0.0032515754
25	0x3b8dac3a	0.0043235095
26	0x3b62a6f2	0.003458437
27	0x3b815f92	0.0039481604
28	0x3b767bff	0.0037610529
29	0x3b52a03a	0.003213896
30	0x3e860f28	0.26183438
31	0xb4983d93	-2.8357007e-07
32	0x3adf20e7	0.0017023355
33	0x3b33cbee	0.0027434784
34	0x3b293708	0.0025820155
35	0x3b71ed83	0.003691525
36	0x3e00a353	0.12562303
37	0x3b400ba7	0.002930382
38	0x3b8bac13	0.004262456
39	0x3b8e43a7	0.004341561
40	0x3b4a7a1a	0.0030895532
41	0xb5b39941	-1.3381142e-06
42	0x3b9a9dbc	0.0047185104
43	0x3b912fd7	0.004430752
44	0x3b8388ae	0.004014096
45	0x3ba53911	0.0050422032
46	0x3b86f5b7	0.004118647
47	0x3b8e8bd7	0.0043501663
48	0x3b9c41bb	0.004768578
49	0x3ba02cc3	0.0048881485
50	0x3b69f0fa	0.0035696612
51	0x3b197170	0.0023413561
52	0x3b345f6f	0.0027522703
53	0x3b805ec0	0.003917545
54	0x3b9d11d3	0.0047933846
55	0xb45db9b4	-2.0649787e-07
56	0x3babc775	0.005242283
57	0x3b4eaf43	0.003153757
58	0xb61c011f	-2.3246464e-06
59	0x3b30692a	0.0026918151
60	0x3b8697db	0.004107458
61	0x3ba164ad	0.0049253316
62	0x3e729041	0.23687841
63	0x3b84dcb7	0.0040546316
64	0x3b450d77	0.003006784
65	0x3b09143d	0.0020916604
66	0x3b68c2ce	0.0035516503
67	0xb72a689a	-1.0157144e-05
68	0x3e647db3	0.22313575
69	0x3b184b72	0.0023238328
70	0xb3b82a49	-8.575859e-08
71	0xb9a68176	-0.00031758443
72	0xba944bc1	-0.001131408
73	0x3b201b56	0.0024430356
74	0x3ae92612	0.0017787835
75	0xb8a254b5	-7.74054e-05
76	0x3b184684	0.002323539
77	0x3b32c607	0.0027278678
78	0x3b625d61	0.0034540521
79	0x3b19a343	0.0023443259
80	0x3b3cd314	0.0028812336
81	0x3b75c801	0.0037503245
82	0x3b2952fc	0.0025836816
83	0xb59a47f7	-1.1494839e-06
84	0x3b83d0e2	0.0040227035
85	0x3b5e9ef2	0.003396925
86	0x3b62f979	0.003463356
87	0x3b3742f6	0.0027963496
88	0x3b2d8357	0.002647599
89	0x3b59333e	0.0033142115
90	0x3b2bd304	0.0026218304
91	0x3b57981a	0.0032897056
92	0x3b51b1cb	0.0031996842
93	0x3b1e78b5	0.0024180834
94	0x3e96698f	0.2937741
95	0xb4b2b55d	-3.3287043e-07
96	0x3a8fd8a4	0.0010974598
97	0x3af7efcd	0.0018916071
98	0x3ae938cb	0.0017793415
99	0x3b441d7a	0.0029924796
100	0x3e4fc300	0.2028923
101	0x3b0b9cd7	0.00213032
102	0x3b5b5901	0.0033469799
103	0x3b465a0f	0.0030266081
104	0x3b0ee147	0.0021801756
105	0xb5aa09b3	-1.266881e-06
106	0x3b6fe6f2	0.003660616
107	0x3b70cbdb	0.00367426
108	0x3b545a52	0.0032402468
109	0x3b9068fa	0.0044070454
110	0x3b62e796	0.00346229
111	0x3b5d7c95	0.003379618
112	0x3b8366b4	0.004010046
113	0x3b851890	0.004061766
114	0x3b2978db	0.002585939
115	0x3ad2e2a6	0.0016089275
116	0x3b03d90b	0.0020118381
117	0x3b558af7	0.003258405
118	0x3b714cc0	0.0036819428
119	0xb495e2b8	-2.7918372e-07
120	0x3b899ba5	0.0041994625
121	0x3b1ea81d	0.002420909
122	0xb6187197	-2.2715883e-06
123	0x3aee6fa5	0.0018191232
124	0x3b6d0fcf	0.0036172753
125	0x3b8084cb	0.00392208
126	0x3e2b60fc	0.16736215
127	0x3b3f8163	0.0029221408
128	0xbc00a63f	-0.007852136
129	0xbbfc4daf	-0.0076996903
130	0x3beb73e3	0.0071854456
131	0xb9856dab	-0.00025449446
132	0x3d6f66ea	0.058447756
133	0xbbd96a0a	-0.0066349553
134	0xb862ff3a	-5.4120297e-05
135	0xba081b40	-0.0005192049
136	0x3b07a7ef	0.0020699461
137	0x3c0e5489	0.008687147
138	0xbbc15323	-0.0058998032
139	0x39d7d6ad	0.00041167942
140	0x3c05f7dc	0.00817677
141	0x3bc7c44f	0.0060964
142	0xbbb95ee1	-0.0056570624
143	0xbbdc85d1	-0.0067298193
144	0x3c061615	0.008183976
145	0xbc03e9d4	-0.008051354
146	0x3b89a576	0.0042006327
147	0xb915491a	-0.0001423698
148	0xbbe07fd2	-0.006851175
149	0xbc012d10	-0.007884279
150	0x3bf4e51d	0.0074736015
151	0x3bca65ad	0.0061766715
152	0xbbfff117	-0.0078107226
153	0x3ba41907	0.0050078663
154	0x3bd01754	0.006350437
155	0x3bba186e	0.005679182
156	0xbba1afe0	-0.004934296
157	0xbc0981d1	-0.008392767
158	0xbc11c341	-0.00889665
159	0x37fa6526	2.9849423e-05
160	0x3bd7e65c	0.0065887403
161	0xbc05c0ec	-0.008163672
162	0x3bdcc072	0.0067368085
163	0x3c0d3309	0.008618125
164	0xbd85ec5b	-0.06539222
165	0xbbe72aad	-0.007054648
166	0xbc0528e7	-0.008127428
167	0xbbcd5236	-0.006265904
168	0xbc06e783	-0.008233908
169	0xb8b119d5	-8.444829e-05
170	0xbb972ca7	-0.0046134773
171	0x3b9d874c	0.0048073884
172	0xbbebd262	-0.0071967104
173	0xbb8414a4	-0.004030781
174	0x3be41c27	0.006961364
175	0xbbbfc7a7	-0.005852658
176	0xbbc27278	-0.005934056
177	0xbbbad232	-0.0057013268
178	0x3bfe08bb	0.0077525056
179	0xbc23ddf8	-0.010001652
180	0x3bd1106b	0.006380131
181	0x3b92bae2	0.0044778446
182	0x3bd5cf8b	0.006524985
183	0xb9e207e2	-0.00043111952
184	0x3bdb98ae	0.0067015504
185	0x3ba1dfa4	0.00493999
186	0x3990f996	0.00027651776
187	0xbc025149	-0.00795395
188	0xbbbee8ad	-0.005826077
189	0x3bc517c4	0.006014796
190	0xbde90dc6	-0.1137958
191	0x3bd0054e	0.0063482886
192	0x3b7d8946	0.0038686558
193	0x3b4a9461	0.0030911195
194	0x3b9c37be	0.004767387
195	0xb749e181	-1.2033038e-05
196	0x3e1c07c5	0.15237339
197	0x3b42098c	0.002960774
198	0xb3a9dea8	-7.910177e-08
199	0xb9a78262	-0.00031949865
200	0xba977f94	-0.0011558407
201	0x3b49d578	0.0030797403
202	0x3b18a2dd	0.0023290433
203	0xb8a6319e	-7.924739e-05
204	0x3b62d1f2	0.003461
205	0x3b717edc	0.0036849296
206	0x3b92e649	0.0044830185
207	0x3b4902c4	0.0030671814
208	0x3b7ba091	0.0038395266
209	0x3b97957a	0.0046259733
210	0x3b6854ac	0.003545086
211	0xb59abb51	-1.152841e-06
212	0x3b9f5e4a	0.004863535
213	0x3b8fe522	0.0043913284
214	0x3b8ea01b	0.004352582
215	0x3b664082	0.0035133664
216	0x3b554d43	0.0032547272
217	0x3b8da043	0.004322083
218	0x3b62db5b	0.003461561
219	0x3b815ec7	0.003948066
220	0x3b769d30	0.0037630312
221	0x3b531770	0.0032210015
222	0x3e94237a	0.28933316
223	0xb4983588	-2.8351155e-07
224	0x3adf62ab	0.0017042955
225	0x3b33e2db	0.0027448449
226	0x3b29498f	0.0025831198
227	0x3b720f72	0.0036935476
228	0x3e24fd5b	0.16112272
229	0x3b402777	0.0029320398
230	0x3b8be176	0.0042688204
231	0x3b8e52f0	0.004343383
232	0x3b4a7b81	0.0030896368
233	0xb5b38999	-1.3376585e-06
234	0x3b9aa37b	0.0047191954
235	0x3b912b40	0.0044302046
236	0x3b83abf4	0.004018301
237	0x3ba5390b	0.0050422004
238	0x3b87065a	0.00412063
239	0x3b8ea9a6	0.0043537198
240	0x3b9c4e2a	0.00477006
241	0x3ba03ceb	0.0048900745
242	0x3b6a17a3	0.0035719655
243	0x3b19d69b	0.0023473862
244	0x3b347e9a	0.002754128
245	0x3b8059fc	0.003916977
246	0x3b9d3369	0.0047973883
247	0xb45cf903	-2.0579687e-07
248	0x3babdc4f	0.0052447687
249	0x3b4eb3f5	0.0031540368
250	0xb61bfa43	-2.3242471e-06
251	0x3b3094e1	0.0026944207
252	0x3b86aaba	0.0041097077
253	0x3ba1854d	0.004929221
254	0x3e660222	0.22461751
255	0x3b84f57c	0.0040575843

lstm.bias_hh_l0 f4 [256]
0	0x3b7d5e2e	0.0038660872
1	0x3b4a3fc7	0.0030860768
2	0x3b9c1388	0.0047630705
3	0xb749206c	-1.1988082e-05
4	0x3e282a27	0.1642233
5	0x3b41de3c	0.0029581925
6	0xb3a9fd92	-7.9158e-08
7	0xb9a78d86	-0.00031958165
8	0xba9782c6	-0.0011559359
9	0x3b498310	0.0030748285
10	0x3b188296	0.0023271195
11	0xb8a63917	-7.926131e-05
12	0x3b626376	0.0034544147
13	0x3b71499b	0.0036817554
14	0x3b92e09d	0.0044823424
15	0x3b48ddf9	0.0030649884
16	0x3b7b4451	0.003834028
17	0x3b976c28	0.0046210475
18	0x3b6876a6	0.003547111
19	0xb59acc9a	-1.1533441e-06
20	0x3b9f3df5	0.004859681
21	0x3b8fa177	0.004383262
22	0x3b8e7190	0.004347034
23	0x3b6611d2	0.0035105837
24	0x3b551862	0.0032515754
25	0x3b8dac3a	0.0043235095
26	0x3b62a6f2	0.003458437
27	0x3b815f92	0.0039481604
28	0x3b767bff	0.0037610529
29	0x3b52a03a	0.003213896
30	0x3e860f28	0.26183438
31	0xb4983d93	-2.8357007e-07
32	0x3adf20e7	0.0017023355
33	0x3b33cbee	0.0027434784
34	0x3b293708	0.0025820155
35	0x3b71ed83	0.003691525
36	0x3e00a353	0.12562303
37	0x3b400ba7	0.002930382
38	0x3b8bac13	0.004262456
39	0x3b8e43a7	0.004341561
40	0x3b4a7a1a	0.0030895532
41	0xb5b39941	-1.3381142e-06
42	0x3b9a9dbc	0.0047185104
43	0x3b912fd7	0.004430752
44	0x3b8388ae	0.004014096
45	0x3ba53911	0.0050422032
46	0x3b86f5b7	0.004118647
47	0x3b8e8bd7	0.0043501663
48	0x3b9c41bb	0.004768578
49	0x3ba02cc3	0.0048881485
50	0x3b69f0fa	0.0035696612
51	0x3b197170	0.0023413561
52	0x3b345f6f	0.0027522703
53	0x3b805ec0	0.003917545
54	0x3b9d11d3	0.0047933846
55	0xb45db9b4	-2.0649787e-07
56	0x3babc775	0.005242283
57	0x3b4eaf43	0.003153757
58	0xb61c011f	-2.3246464e-06
59	0x3b30692a	0.0026918151
60	0x3b8697db	0.004107458
61	0x3ba164ad	0.0049253316
62	0x3e729041	0.23687841
63	0x3b84dcb7	0.0040546316
64	0x3b450d77	0.003006784
65	0x3b09143d	0.0020916604
66	0x3b68c2ce	0.0035516503
67	0xb72a689a	-1.0157144e-05
68	0x3e647db3	0.22313575
69	0x3b184b72	0.0023238328
70	0xb3b82a49	-8.575859e-08
71	0xb9a68176	-0.00031758443
72	0xba944bc1	-0.001131408
73	0x3b201b56	0.0024430356
74	0x3ae92612	0.0017787835
75	0xb8a254b5	-7.74054e-05
76	0x3b184684	0.002323539
77	0x3b32c607	0.0027278678
78	0x3b625d61	0.0034540521
79	0x3b19a343	0.0023443259
80	0x3b3cd314	0.0028812336
81	0x3b75c801	0.0037503245
82	0x3b2952fc	0.0025836816
83	0xb59a47f7	-1.1494839e-06
84	0x3b83d0e2	0.0040227035
85	0x3b5e9ef2	0.003396925
86	0x3b62f979	0.003463356
87	0x3b3742f6	0.0027963496
88	0x3b2d8357	0.002647599
89	0x3b59333e	0.0033142115
90	0x3b2bd304	0.0026218304
91	0x3b57981a	0.0032897056
92	0x3b51b1cb	0.0031996842
93	0x3b1e78b5	0.0024180834
94	0x3e96698e	0.29377407
95	0xb4b2b55d	-3.3287043e-07
96	0x3a8fd8a4	0.0010974598
97	0x3af7efcd	0.0018916071
98	0x3ae938cb	0.0017793415
99	0x3b441d7a	0.0029924796
100	0x3e4fc2db	0.20289175
101	0x3b0b9cd7	0.00213032
102	0x3b5b5901	0.0033469799
103	0x3b465a0f	0.0030266081
104	0x3b0ee147	0.0021801756
105	0xb5aa09b3	-1.266881e-06
106	0x3b6fe6f2	0.003660616
107	0x3b70cbdb	0.00367426
108	0x3b545a52	0.0032402468
109	0x3b9068fa	0.0044070454
110	0x3b62e796	0.00346229
111	0x3b5d7c95	0.003379618
112	0x3b8366b4	0.004010046
113	0x3b851890	0.004061766
114	0x3b2978db	0.002585939
115	0x3ad2e2a6	0.0016089275
116	0x3b03d90b	0.0020118381
117	0x3b558af7	0.003258405
118	0x3b714cc0	0.0036819428
119	0xb495e2b8	-2.7918372e-07
120	0x3b899ba5	0.0041994625
121	0x3b1ea81d	0.002420909
122	0xb6187197	-2.2715883e-06
123	0x3aee6fa5	0.0018191232
124	0x3b6d0fcf	0.0036172753
125	0x3b8084cb	0.00392208
126	0x3e2b5e3d	0.16735168
127	0x3b3f8163	0.0029221408
128	0xbc00a63f	-0.007852136
129	0xbbfc4daf	-0.0076996903
130	0x3beb73e3	0.0071854456
131	0xb9856dab	-0.00025449446
132	0x3d6f25af	0.058385547
133	0xbbd96a0a	-0.0066349553
134	0xb862ff3a	-5.4120297e-05
135	0xba081b40	-0.0005192049
136	0x3b07a7ef	0.0020699461
137	0x3c0e5489	0.008687147
138	0xbbc15323	-0.0058998032
139	0x39d7d6ad	0.00041167942
140	0x3c05f7dc	0.00817677
141	0x3bc7c44f	0.0060964
142	0xbbb95ee1	-0.0056570624
143	0xbbdc85d1	-0.0067298193
144	0x3c061615	0.008183976
145	0xbc03e9d4	-0.008051354
146	0x3b89a576	0.0042006327
147	0xb915491a	-0.0001423698
148	0xbbe07fd2	-0.006851175
149	0xbc012d10	-0.007884279
150	0x3bf4e51d	0.0074736015
151	0x3bca65ad	0.0061766715
152	0xbbfff117	-0.0078107226
153	0x3ba41907	0.0050078663
154	0x3bd01754	0.006350437
155	0x3bba186e	0.005679182
156	0xbba1afe0	-0.004934296
157	0xbc0981d1	-0.008392767
158	0xbc920860	-0.01782626
159	0x37fa6526	2.9849423e-05
160	0x3bd7e65c	0.0065887403
161	0xbc05c0ec	-0.008163672
162	0x3bdcc072	0.0067368085
163	0x3c0d3309	0.008618125
164	0xbdab2f98	-0.08358687
165	0xbbe72aad	-0.007054648
166	0xbc0528e7	-0.008127428
167	0xbbcd5236	-0.006265904
168	0xbc06e783	-0.008233908
169	0xb8b119d5	-8.444829e-05
170	0xbb972ca7	-0.0046134773
171	0x3b9d874c	0.0048073884
172	0xbbebd262	-0.0071967104
173	0xbb8414a4	-0.004030781
174	0x3be41c27	0.006961364
175	0xbbbfc7a7	-0.005852658
176	0xbbc27278	-0.005934056
177	0xbbbad232	-0.0057013268
178	0x3bfe08bb	0.0077525056
179	0xbc23ddf8	-0.010001652
180	0x3bd1106b	0.006380131
181	0x3b92bae2	0.0044778446
182	0x3bd5cf8b	0.006524985
183	0xb9e207e2	-0.00043111952
184	0x3bdb98ae	0.0067015504
185	0x3ba1dfa4	0.00493999
186	0x3990f996	0.00027651776
187	0xbc025149	-0.00795395
188	0xbbbee8ad	-0.005826077
189	0x3bc517c4	0.006014796
190	0xbc583545	-0.013196294
191	0x3bd0054e	0.0063482886
192	0x3b7d8946	0.0038686558
193	0x3b4a9461	0.0030911195
194	0x3b9c37be	0.004767387
195	0xb749e181	-1.2033038e-05
196	0x3e1c07c5	0.15237339
197	0x3b42098c	0.002960774
198	0xb3a9dea8	-7.910177e-08
199	0xb9a78262	-0.00031949865
200	0xba977f94	-0.0011558407
201	0x3b49d578	0.0030797403
202	0x3b18a2dd	0.0023290433
203	0xb8a6319e	-7.924739e-05
204	0x3b62d1f2	0.003461
205	0x3b717edc	0.0036849296
206	0x3b92e649	0.0044830185
207	0x3b4902c4	0.0030671814
208	0x3b7ba091	0.0038395266
209	0x3b97957a	0.0046259733
210	0x3b6854ac	0.003545086
211	0xb59abb51	-1.152841e-06
212	0x3b9f5e4a	0.004863535
213	0x3b8fe522	0.0043913284
214	0x3b8ea01b	0.004352582
215	0x3b664082	0.0035133664
216	0x3b554d43	0.0032547272
217	0x3b8da043	0.004322083
218	0x3b62db5b	0.003461561
219	0x3b815ec7	0.003948066
220	0x3b769d30	0.0037630312
221	0x3b531770	0.0032210015
222	0x3e94237a	0.28933316
223	0xb4983588	-2.8351155e-07
224	0x3adf62ab	0.0017042955
225	0x3b33e2db	0.0027448449
226	0x3b29498f	0.0025831198
227	0x3b720f72	0.0036935476
228	0x3e24fd5b	0.16112272
229	0x3b402777	0.0029320398
230	0x3b8be176	0.0042688204
231	0x3b8e52f0	0.004343383
232	0x3b4a7b81	0.0030896368
233	0xb5b38999	-1.3376585e-06
234	0x3b9aa37b	0.0047191954
235	0x3b912b40	0.0044302046
236	0x3b83abf4	0.004018301
237	0x3ba5390b	0.0050422004
238	0x3b87065a	0.00412063
239	0x3b8ea9a6	0.0043537198
240	0x3b9c4e2a	0.00477006
241	0x3ba03ceb	0.0048900745
242	0x3b6a17a3	0.0035719655
243	0x3b19d69b	0.0023473862
244	0x3b347e9a	0.002754128
245	0x3b8059fc	0.003916977
246	0x3b9d3369	0.0047973883
247	0xb45cf903	-2.0579687e-07
248	0x3babdc4f	0.0052447687
249	0x3b4eb3f5	0.0031540368
250	0xb61bfa43	-2.3242471e-06
251	0x3b3094e1	0.0026944207
252	0x3b86aaba	0.0041097077
253	0x3ba1854d	0.004929221
254	0x3e660222	0.22461751
255	0x3b84f57c	0.0040575843

lstm.weight_ih_l0_reverse f4 [256, 6]
0	0x9a7331b7	-5.029138e-23
1	0x9a71cb40	-5.0001816e-23
2	0x9a9134d4	-6.005594e-23
3	0x9a524563	-4.3483032e-23
4	0x9a2ae46d	-3.5339697e-23
5	0x9a80cd0e	-5.327084e-23
6	0xb0819c27	-9.430366e-10
7	0xafdf7340	-4.0645354e-10
8	0xb084e71f	-9.669953e-10
9	0xb05b8a7e	-7.9868545e-10
10	0xb0620e6b	-8.223881e-10
11	0xb05ec75a	-8.1046425e-10
12	0x352f8e58	6.539972e-07
13	0x33cc481e	9.512608e-08
14	0x355ff5b9	8.343155e-07
15	0x34e034de	4.1761717e-07
16	0x34b4c07d	3.3667666e-07
17	0x3532a22c	6.654616e-07
18	0x97e76941	-1.4954595e-24
19	0x9929927a	-8.766676e-24
20	0x1a0e0d01	2.9375416e-23
21	0x9692f0c3	-2.3739514e-25
22	0x1889b81f	3.5599585e-24
23	0x18da510c	5.6433516e-24
24	0x17b54967	1.171538e-24
25	0x17b4baf6	1.1679423e-24
26	0x16d9abff	3.5166786e-25
27	0x183b57d3	2.4213523e-24
28	0x187159cf	3.1193862e-24
29	0x17557c59	6.898096e-25
30	0xa9d4b78e	-9.446533e-14
31	0xa97b4e0b	-5.5800887e-14
32	0xa9dd8010	-9.836587e-14
33	0xa9bf8846	-8.5057436e-14
34	0xa9b1932c	-7.885909e-14
35	0xa9c771c2	-8.857109e-14
36	0x1fcb8931	8.620081e-20
37	0x9f8437b0	-5.59963e-20
38	0x1fd0b562	8.83915e-20
39	0x1f914fb5	6.154175e-20
40	0x1fd69eaf	9.0895045e-20
41	0x1f9107ea	6.142298e-20
42	0x96fbbc61	-4.067012e-25
43	0x96bf84b2	-3.0941457e-25
44	0x971c33de	-5.0471784e-25
45	0x96b6b5e5	-2.9518477e-25
46	0x1503de56	2.663063e-26
47	0x96d2f40f	-3.4081352e-25
48	0x32207e7e	9.341987e-09
49	0xb2268581	-9.692827e-09
50	0xb1da91ac	-6.361196e-09
51	0xb091166a	-1.0556509e-09
52	0x31169595	2.19129e-09
53	0x319d6127	4.5803463e-09
54	0x31973a04	4.401274e-09
55	0x31921476	4.2514854e-09
56	0x311ad2f3	2.252986e-09
57	0x31b89e89	5.373128e-09
58	0x31d235db	6.117927e-09
59	0x318a17ab	4.0190193e-09
60	0xb18b65c5	-4.0570023e-09
61	0x3191534c	4.229525e-09
62	0x313b1388	2.7223184e-09
63	0xafa94b7e	-3.079456e-10
64	0xac5c6178	-3.1317986e-12
65	0xb18445a6	-3.8496237e-09
66	0xb51ab97d	-5.763939e-07
67	0xb4c14ed2	-3.60064e-07
68	0xb52f550d	-6.5316345e-07
69	0xb507cfb8	-5.059369e-07
70	0xb5088080	-5.085094e-07
71	0xb50d8291	-5.271659e-07
72	0xa49a8f91	-6.7030065e-17
73	0x254e634d	1.7901296e-16
74	0xa59a15d7	-2.672954e-16
75	0x25672046	2.0046991e-16
76	0x258e377b	2.4670668e-16
77	0xa4a1d74e	-7.018736e-17
78	0x1311d99d	1.8408865e-27
79	0x12de8c80	1.4044806e-27
80	0x90ac4a37	-6.7956384e-29
81	0x130c4379	1.770375e-27
82	0x91a739f1	-2.6383663e-28
83	0x12688744	7.337302e-28
84	0xaf67de4b	-2.1088302e-10
85	0xaeea099e	-1.06427964e-10
86	0xaf6d0c10	-2.155931e-10
87	0xaf4d9599	-1.8697789e-10
88	0xaf5bb13d	-1.9980902e-10
89	0xaf527b01	-1.9143089e-10
90	0x1bc14624	3.19745e-22
91	0x1bc1823b	3.201333e-22
92	0x1a60608a	4.6400098e-23
93	0x1bd6e77b	3.555292e-22
94	0x1bdaf1a9	3.6221244e-22
95	0x1ba653e3	2.7516607e-22
96	0xacfcdf4b	-7.1870613e-12
97	0xacb20a6f	-5.0602226e-12
98	0xad2a6682	-9.6861425e-12
99	0x2acd5738	3.6475835e-13
100	0x2c3ca8b7	2.6810062e-12
101	0x2bc1bc33	1.3765711e-12
102	0xa48a7a85	-6.0055516e-17
103	0xa408dc45	-2.9676875e-17
104	0xa48cf3d6	-6.1128396e-17
105	0xa45d74c7	-4.802065e-17
106	0xa447859a	-4.326441e-17
107	0xa47be87d	-5.4623874e-17
108	0xb8553ac4	-5.0837887e-05
109	0xb83db5ea	-4.5230532e-05
110	0xb87def8a	-6.054299e-05
111	0xb83ac7f4	-4.4532077e-05
112	0xb8265ca4	-3.9663762e-05
113	0xb86a19a7	-5.5813838e-05
114	0x383edf3f	4.5507444e-05
115	0x38552e77	5.082643e-05
116	0x3889dba1	6.573578e-05
117	0x3837deee	4.383822e-05
118	0x3809a03c	3.2812575e-05
119	0x384f2cbb	4.9394304e-05
120	0xabfc6238	-1.7932938e-12
121	0xabbf369f	-1.3586527e-12
122	0xac0bb92e	-1.9855883e-12
123	0xabe180d7	-1.6022972e-12
124	0xabe6885d	-1.6380331e-12
125	0xac0150a0	-1.8376758e-12
126	0xa7dcb53b	-6.1258757e-15
127	0x2799770f	4.2595114e-15
128	0xa84fbe6f	-1.1532102e-14
129	0x258a91ef	2.4038072e-16
130	0x27b165c6	4.923771e-15
131	0xa5e76aca	-4.0144475e-16
132	0xb40da6e8	-1.3192368e-07
133	0xb4487bf2	-1.8671543e-07
134	0xb3a1b2f5	-7.529699e-08
135	0xb4162f83	-1.3987123e-07
136	0xb421654d	-1.5031146e-07
137	0xb40201fc	-1.2107915e-07
138	0x370947c1	8.182543e-06
139	0x365fba5c	3.3338065e-06
140	0x371cb291	9.3399e-06
141	0x369ca44f	4.6682903e-06
142	0xb5d1c7d5	-1.5629872e-06
143	0x3706d956	8.037625e-06
144	0x139d3fe8	3.969539e-27
145	0x936f65ce	-3.0216235e-27
146	0x14660a1f	1.16140286e-26
147	0x120accbf	4.379749e-28
148	0x929019f1	-9.094073e-28
149	0x13f976b1	6.2973476e-27
150	0x335d46e3	5.1520043e-08
151	0xb2065b44	-7.820578e-09
152	0x33cfff70	9.6856525e-08
153	0x32c2d5f4	2.2681867e-08
154	0x31c0b40b	5.608404e-09
155	0x3384a275	6.17628e-08
156	0x2d5ba8b1	1.2486166e-11
157	0xae5c1a26	-5.0045433e-11
158	0x2dd8e7bf	2.4659273e-11
159	0xad0233aa	-7.401116e-12
160	0xae3f6f93	-4.352747e-11
161	0xae269e87	-3.788483e-11
162	0xa9196b43	-3.406586e-14
163	0xa8cf1a99	-2.2993152e-14
164	0xa939bc33	-4.124149e-14
165	0xa8fa6643	-2.7799925e-14
166	0xa903bf09	-2.925354e-14
167	0xa92f492f	-3.8921283e-14
168	0x320ed688	8.314267e-09
169	0xb2894138	-1.5978557e-08
170	0x32f0f5ce	2.8051456e-08
171	0xb15f0c73	-3.2457848e-09
172	0x31f56727	7.1421655e-09
173	0x320c5da4	8.170364e-09
174	0x978231f8	-8.413667e-25
175	0x97458ed8	-6.3834427e-25
176	0x976e13bd	-7.692686e-25
177	0x973cc81c	-6.099865e-25
178	0x1647d079	1.6140874e-25
179	0x9741dbac	-6.263893e-25
180	0x3180f874	3.753536e-09
181	0xb2186d17	-8.872369e-09
182	0x32a9b368	1.9755774e-08
183	0xb1a9e658	-4.9447344e-09
184	0xb21594ff	-8.706819e-09
185	0x3153401b	3.074098e-09
186	0xb0ae150f	-1.2666151e-09
187	0x3017e18b	5.5253996e-10
188	0x2fea5601	4.2625461e-10
189	0x30b29126	1.2992458e-09
190	0x31014484	1.8810917e-09
191	0xb0ff6234	-1.8581603e-09
192	0x353e3576	7.085831e-07
193	0x353df37a	7.076229e-07
194	0x358c8b63	1.047138e-06
195	0x357bfb95	9.3870887e-07
196	0x35a2b54f	1.2122708e-06
197	0x357a9e47	9.336258e-07
198	0x2e7c5225	5.7371125e-11
199	0xae3fff20	-4.365497e-11
200	0x2ce2d868	6.4473323e-12
201	0x2ca73fa4	4.753491e-12
202	0x2e0c9f76	3.1973944e-11
203	0xac95216d	-4.2385457e-12
204	0xad3d76d6	-1.0769793e-11
205	0x2a436cf8	1.7357285e-13
206	0xad409f4e	-1.0949309e-11
207	0xac619dda	-3.2062048e-12
208	0x2d18da83	8.688719e-12
209	0xaa78c7ac	-2.20961e-13
210	0xb5859191	-9.951638e-07
211	0xb55f9f74	-8.330601e-07
212	0xb5902e3a	-1.074229e-06
213	0xb57973fa	-9.2928497e-07
214	0xb54d5c70	-7.6502965e-07
215	0xb593610c	-1.0980598e-06
216	0x324787ef	1.1614232e-08
217	0x31900c34	4.192339e-09
218	0x32853054	1.5505215e-08
219	0x31f0f21d	7.0124444e-09
220	0x31b99463	5.4010783e-09
221	0x3250c57d	1.2152097e-08
222	0xb68ecd46	-4.2558268e-06
223	0x369b6b02	4.6318173e-06
224	0xb6e5e0ee	-6.850917e-06
225	0x3659a4a2	3.2431349e-06
226	0x37056408	7.950708e-06
227	0xb6c0c3b0	-5.744827e-06
228	0x944bc335	-1.0287379e-26
229	0x948afc1b	-1.4033877e-26
230	0x94b60660	-1.8379818e-26
231	0x12ec89f5	1.4927703e-27
232	0x151c9aae	3.162597e-26
233	0x949a9094	-1.5607052e-26
234	0xb17dabab	-3.6913927e-09
235	0x31e2931b	6.5941896e-09
236	0x312a7be4	2.480868e-09
237	0xb013300a	-5.3546556e-10
238	0x324ddffc	1.1983499e-08
239	0xb118d462	-2.2239637e-09
240	0x148be545	1.4125844e-26
241	0x94560b7a	-1.0806502e-26
242	0x94af08c1	-1.7673937e-26
243	0x156af1b4	4.7446594e-26
244	0x15cc7486	8.2578785e-26
245	0x14675ac0	1.1680417e-26
246	0xa8a972ac	-1.88125e-14
247	0xa7f4995a	-6.788987e-15
248	0xa8b2e1da	-1.9859917e-14
249	0xa888298e	-1.5117055e-14
250	0xa89cca1d	-1.7407132e-14
251	0xa8b237b4	-1.9786127e-14
252	0x318aa142	4.0346615e-09
253	0xb1408b33	-2.8018803e-09
254	0x31e84ba5	6.7606885e-09
255	0x310b1d62	2.0243864e-09

lstm.weight_hh_l0_reverse f4 [256, 64]
0	0x05f089ca	2.2620107e-35
1	0x10d49fd4	8.386551e-29
2	0x13c5a302	4.989053e-27
3	0x86bfab78	-7.2098165e-35
4	0x8563e300	-1.0715182e-35
5	0x8c79811a	-1.9221112e-31
6	0x09067197	1.6183073e-33
7	0x84a938b6	-3.978379e-36
8	0x912a6b91	-1.3443782e-28
9	0x11c3c6b8	3.0888045e-28
10	0x10c73749	7.857684e-29
11	0x93b1218a	-4.4714154e-27
12	0x8a27227a	-8.047242e-33
13	0x81549a2e	-3.904887e-38
14	0x8eaf005e	-4.3141184e-30
15	0x071a9ce5	1.163178e-34
16	0x103dc666	3.7426518e-29
17	0x8b155cd6	-2.8766198e-32
18	0x9529e3fb	-3.4309123e-26
19	0x95bba842	-7.579416e-26
20	0x0ee42568	5.624236e-30
21	0x8d425663	-5.988485e-31
22	0x92857aef	-8.4237855e-28
23	0x14a21d89	1.636947e-26
24	0x03196ab4	4.508515e-37
25	0x92f11f39	-1.5216935e-27
26	0x8f097dc8	-6.778846e-30
27	0x0d5f732f	6.8855828e-31
28	0x129302fe	9.277742e-28
29	0x85229276	-7.644104e-36
30	0x130888db	1.7233088e-27
31	0x90d419d0	-8.3659026e-29
32	0x14d025d0	2.1017547e-26
33	0x90072468	-2.6652102e-29
34	0x908c82bd	-5.54217e-29
35	0x943a6822	-9.411137e-27
36	0x91bf18f3	-3.0149863e-28
37	0x138eb86e	3.60277e-27
38	0x833ecf46	-5.607392e-37
39	0x925cc8a2	-6.966706e-28
40	0x04546359	2.4966098e-36
41	0x8e127193	-1.8050573e-30
42	0x925bc661	-6.9348736e-28
43	0x0b62cb86	4.367913e-32
44	0x8acff8dc	-2.0026985e-32
45	0x120f95bf	4.530742e-28
46	0x02911372	2.1316996e-37
47	0x11082a33	1.0741512e-28
48	0x83a71a2d	-9.8213875e-37
49	0x8b996748	-5.9088857e-32
50	0x84536cb0	-2.4852838e-36
51	0x8a070031	-6.5000496e-33
52	0x951162c3	-2.9360426e-26
53	0x8b9e9f14	-6.109874e-32
54	0x0302cb8d	3.843723e-37
55	0x08ad3874	1.0425331e-33
56	0x8369ea03	-6.874118e-37
57	0x8e33e1a9	-2.2172105e-30
58	0x8a67ae0f	-1.1154982e-32
59	0x8f98825a	-1.5038567e-29
60	0x8bb69c07	-7.0338614e-32
61	0x81dab643	-8.0342085e-38
62	0x12bd608f	1.195138e-27
63	0x0d37d1e8	5.6643894e-31
64	0x1ba7a9ae	2.7737485e-22
65	0xa7ec9331	-6.5662744e-15
66	0x2a172f9f	1.3428016e-13
67	0x9caaa85a	-1.1293174e-21
68	0x9b91aa85	-2.4098433e-22
69	0xa4cf0979	-8.978799e-17
70	0x1fe70daa	9.785491e-20
71	0x1a12ea43	3.0381327e-23
72	0xa71ffe0c	-2.2203402e-15
73	0xa7a440bf	-4.558934e-15
74	0x27b38566	4.982711e-15
75	0x2a1f724b	1.416169e-13
76	0xa036d238	-1.5485555e-19
77	0x979d3fe7	-1.0162018e-24
78	0x278f3083	3.974307e-15
79	0x1db53357	4.7963385e-21
80	0x262baa94	5.955872e-16
81	0x21fcaa6d	1.7121296e-18
82	0x2a9e202f	2.808877e-13
83	0xabfb71f2	-1.7866249e-12
84	0xa4e094f9	-9.7396884e-17
85	0x23776715	1.3411725e-17
86	0x2872d233	1.3479278e-14
87	0x2b05fda3	4.7603084e-13
88	0x9952a303	-1.08896655e-23
89	0xa9004b9c	-2.848729e-14
90	0x24f9a639	1.0826813e-16
91	0x2328c65e	9.149304e-18
92	0x28359579	1.007993e-14
93	0x1b0978a6	1.1371358e-22
94	0x295356ad	4.692659e-14
95	0xa4514d4c	-4.5385124e-17
96	0x292f8977	3.8977038e-14
97	0xa4a7f14b	-7.283347e-17
98	0x26457011	6.8499983e-16
99	0xaab43ded	-3.2017393e-13
100	0xa7ff0e63	-7.0792316e-15
101	0x29544025	4.7129093e-14
102	0x97a937c4	-1.0935446e-24
103	0xa83182bc	-9.853822e-15
104	0x1a4d4d5f	4.2455506e-23
105	0xa0b652d7	-3.0886818e-19
106	0xa8655914	-1.2731369e-14
107	0xa2f20c0d	-6.560699e-18
108	0xa29ba57a	-4.218804e-18
109	0x289b9c9b	1.7276374e-14
110	0x19fc1eb5	2.6068592e-23
111	0xa566be31	-2.0013759e-16
112	0x1aa4628e	6.7988034e-23
113	0x21be090b	1.2877294e-18
114	0x1a2f45cc	3.6245533e-23
115	0x9f0685ea	-2.8486375e-20
116	0x2912b361	3.25741e-14
117	0xa289e011	-3.7371164e-18
118	0x1900df3d	6.6625275e-24
119	0x1d9d7e9e	4.1688473e-21
120	0x98605612	-2.8994776e-24
121	0x226d261f	3.213967e-18
122	0x1ee80677	2.456663e-20
123	0xa48906aa	-5.942557e-17
124	0x22953444	4.044187e-18
125	0x9876af8a	-3.188338e-24
126	0x2aef2a96	4.2484478e-13
127	0xa38b4cde	-1.5102965e-17
128	0x2001cf57	1.0995328e-19
129	0x2a109830	1.284257e-13
130	0x3053ac3b	7.7006107e-10
131	0xa213b864	-2.001983e-18
132	0x208f140c	2.4238408e-19
133	0xa630b365	-6.130539e-16
134	0x25ae27a3	3.0211047e-16
135	0x1f5ada90	4.6344086e-20
136	0x2be8190a	1.6491541e-12
137	0xad77e95a	-1.4092139e-11
138	0x2e94edb1	6.772483e-11
139	0xad3544d8	-1.0303945e-11
140	0xa83b8e7d	-1.04114825e-14
141	0x1e1d6127	8.3316014e-21
142	0x29f6e310	1.09639836e-13
143	0x2256c604	2.9107237e-18
144	0xab885d91	-9.689351e-13
145	0x23674f4a	1.2539325e-17
146	0xaea8448e	-7.651933e-11
147	0xaf088339	-1.2415748e-10
148	0x28f0ac7a	2.6720152e-14
149	0x28387406	1.023921e-14
150	0x2dca79fa	2.301891e-11
151	0x2f64d3ea	2.0811766e-10
152	0x9cfa5d5d	-1.6567746e-21
153	0xae7fe4cc	-5.81835e-11
154	0x2c8de438	4.0327984e-12
155	0x250b7e59	1.2099136e-16
156	0xad1fdde5	-9.087374e-12
157	0x9e975e2b	-1.6026694e-20
158	0x2ed5a47d	9.7153376e-11
159	0x2c84ed33	3.778e-12
160	0xaf7babbe	-2.2889332e-10
161	0x2bd398d4	1.503487e-12
162	0xa83da16b	-1.05266095e-14
163	0xad41546c	-1.0989525e-11
164	0xaea595e4	-7.529957e-11
165	0x311cea3b	2.2834132e-09
166	0x1f369f54	3.8671792e-20
167	0xaeea0aca	-1.06430045e-10
168	0x9f7a8a0d	-5.3053752e-20
169	0xa61239ff	-5.0732525e-16
170	0xad821f95	-1.4793314e-11
171	0x26239123	5.674868e-16
172	0x2876def2	1.3704087e-14
173	0x2eda82a1	9.9366966e-11
174	0x1f280cab	3.5585862e-20
175	0x2abc311d	3.3429588e-13
176	0x9dd8fc58	-5.743564e-21
177	0x289f8d34	1.7713783e-14
178	0x9ddf5ab1	-5.912138e-21
179	0xa38f58a0	-1.5541625e-17
180	0xae9215eb	-6.643205e-11
181	0x27168deb	2.0893616e-15
182	0x2035f2f9	1.5411689e-19
183	0x21b8865a	1.2503888e-18
184	0x1f085752	2.887135e-20
185	0xa809cf80	-7.650022e-15
186	0x237fd0f7	1.3867828e-17
187	0x298a2a83	6.135806e-14
188	0xa50c5688	-1.2172382e-16
189	0x1d5050be	2.7570314e-21
190	0xae2a22a0	-3.8684278e-11
191	0x25267ddb	1.4440846e-16
192	0x87f25c31	-3.6466298e-34
193	0x1244c3aa	6.208787e-28
194	0x159e8981	6.4032635e-26
195	0x0e288d56	2.077565e-30
196	0x0d10e153	4.464465e-31
197	0x0eac7656	4.2515227e-30
198	0x0f561623	1.0555278e-29
199	0x06e3fd23	8.575986e-35
200	0x1478b29f	1.2556027e-26
201	0x92fe29d9	-1.603997e-27
202	0x12356c65	5.7247136e-28
203	0x94e7ded6	-2.3412933e-26
204	0x8e941cf5	-3.65127e-30
205	0x88bd2510	-1.1383737e-33
206	0x91c7a737	-3.1499718e-28
207	0x095afa22	2.6358407e-33
208	0x9115dfef	-1.1823032e-28
209	0x8c9e83a2	-2.4422978e-31
210	0x962ad989	-1.3801133e-25
211	0x96eb6aea	-3.803377e-25
212	0x101d356f	3.1003954e-29
213	0x8e77faa5	-3.0565782e-30
214	0x147d5bb7	1.2791323e-26
215	0x942eaa2c	-8.8183155e-27
216	0x0785bc3c	2.012225e-34
217	0x94c88e81	-2.0251047e-26
218	0x118df0bd	2.2394244e-28
219	0x0f002fac	6.3200685e-30
220	0x9405a1b7	-6.746677e-27
221	0x0611653b	2.734584e-35
222	0x148db908	1.4310344e-26
223	0x91409c98	-1.5194384e-28
224	0x1562f17d	4.5830837e-26
225	0x918d4f59	-2.229478e-28
226	0x91d99c3c	-3.433285e-28
227	0x94ecb378	-2.3900698e-26
228	0x93c98113	-5.086681e-27
229	0x16dc1604	3.555681e-25
230	0x87fde459	-3.820142e-34
231	0x9454e40b	-1.0748238e-26
232	0x883d83dc	-5.703012e-34
233	0x8f0b9e2d	-6.883693e-30
234	0x93aee181	-4.414614e-27
235	0x8ea684ea	-4.105015e-30
236	0x0be4be8f	8.8109126e-32
237	0x13db15cb	5.530486e-27
238	0x0838a4cd	5.556421e-34
239	0x1190e8d3	2.2862683e-28
240	0x04949e63	3.4940088e-36
241	0x8d23316b	-5.028774e-31
242	0x0921caaa	1.9474962e-33
243	0x8b371d6b	-3.526665e-32
244	0x96583121	-1.7463843e-25
245	0x8ea64592	-4.0989153e-30
246	0x0a2deafd	8.3738434e-33
247	0x0e071a8f	1.6652822e-30
248	0x88ba8015	-1.122458e-33
249	0x8ec8135c	-4.932245e-30
250	0x0db84ee7	1.1358871e-30
251	0x90350f98	-3.570797e-29
252	0x8d2847be	-5.1855353e-31
253	0x0785f5ed	2.0156158e-34
254	0x95231586	-3.2934567e-26
255	0x8f0e91a8	-7.029193e-30
