LOSO/models/model_without_subj_8.onnx (onnx, 550191 bytes, 8 tensors)

fc.weight f4 [2, 128]
0.1039591 0.027055936 0.028701179 -0.025794048 -0.03277335 0.055013973 -0.047437765 0.036147695
0.021674806 0.034656957 -0.024370555 -0.019522447 0.050598882 0.047482736 -0.024263091 0.019927165
0.05064031 -0.027612092 0.05055158 0.11179741 -0.093542874 -0.025457267 0.0300753 -0.047522616
0.037516803 0.03301992 -0.026041536 0.02854207 -0.042943798 -0.08309867 0.028154619 0.03955866
0.0238275 -0.11152552 -0.039670717 0.035531845 0.031748354 0.028040268 0.05278883 -0.10012375
0.08822036 -0.028365357 0.039048743 0.03677381 -0.025359007 -0.037837736 0.034393713 0.037502337
-0.036890835 0.0068720393 0.09025652 0.021043943 0.031196132 -0.032259714 0.08979123 0.08154775
-0.09504796 0.031068673 -0.065181315 0.03535371 0.08844107 0.08637324 0.03577597 0.047985572
0.02564348 7.338968e-08 0.045800697 0.045163453 -0.03974523 0.036182128 0.048546072 -0.014096384
0.0055731796 -7.764104e-08 -0.030276312 -2.2421948e-07 0.049553137 -0.025023688 -0.03902689 0.0001191313
-0.00036633908 -0.05187337 0.034497075 -0.03481836 0.027392097 -1.3474111e-07 0.0388723 0.025324209
-6.755656e-05 0.036083035 0.0527306 -0.0002723502 0.04255552 0.03144186 -0.044993564 -2.1403692e-05
0.031007072 -0.039769564 0.035911195 0.041373324 7.5297e-09 -0.019550258 0.03495178 -0.043201968
5.5486955e-05 -0.046988428 0.006378863 -0.014996114 0.042641584 0.0004884812 0.021091424 -0.03536104
9.595557e-06 -2.3248672e-08 -0.029859591 0.021166716 -4.2767797e-06 -0.050574776 -0.037480403 0.023396997
0.043151468 -0.00015967 0.024174642 -0.048773956 0.0002155173 0.016436804 -0.026967242 0.00042903074
0.07012733 -0.05448066 -0.049304083 0.051867567 0.051312007 -0.035796218 0.034693584 -0.04044143
-0.050482016 -0.047365624 0.07078513 0.062545836 -0.038279805 -0.043636024 0.057288565 -0.056123435
-0.03140672 0.042832218 -0.036873348 0.06392245 -0.069709584 0.059221044 -0.053203307 0.036360156
-0.040500842 -0.05532813 0.052235447 -0.044308435 0.03995124 -0.07369409 -0.05560551 -0.04115792
-0.04652536 -0.036438007 0.03597579 -0.048870075 -0.05348306 -0.05722995 -0.032268036 -0.06173457
0.058759592 0.047882356 -0.03211283 -0.04445987 0.060335778 0.048050486 -0.041861434 -0.04472696
0.04539912 0.07658316 0.07435858 -0.054135785 -0.04531021 0.046094373 0.06970101 0.06746744
-0.07459873 -0.054789077 0.014632533 -0.049848333 0.07821285 0.06261429 -0.04961475 -0.036111403
-0.06616633 1.436954e-08 -0.048812177 -0.051451143 0.044352364 -0.042355325 -0.023011433 0.0709937
-0.051545955 -1.0833835e-08 0.06491846 2.2210568e-06 -0.023307098 0.07330908 0.052247442 9.457049e-05
0.00019014091 0.03809619 -0.059466273 0.06120739 -0.043054234 2.3970161e-08 -0.043989647 -0.03801283
2.2046042e-05 -0.03084608 -0.039877754 -0.00022433918 -0.033882663 -0.035576675 0.033917453 -2.6459114e-05
-0.04202992 0.0454052 -0.055668324 -0.03604698 -1.19318715e-08 0.060611293 -0.05164968 0.04487377
-9.936535e-05 0.046061225 -0.04931268 0.076727316 -0.032188457 -0.0005621882 -0.051750682 0.029795606
6.13926e-05 1.40205545e-08 0.053760696 -0.05363785 6.81273e-06 0.06138963 0.04727485 -0.053479377
-0.05321769 0.000114625924 -0.05469368 0.05028898 -0.00025620696 -0.0665064 0.032334514 -0.0007021136
00000000: 82e8 d43d 69a4 dd3c bc1e eb3c 0a4e d3bc
00000010: 593d 06bd 5556 613d 1a4e 42bd 9b0f 143d
00000020: 5d8f b13c 74f4 0d3d c2a4 c7bc 8aed 9fbc
00000030: c640 4f3d 427d 423d 64c3 c6bc 4b3e a33c
00000040: 376c 4f3d c132 e2bc 2c0f 4f3d 0af6 e43d
00000050: 6893 bfbd c28b d0bc 7a60 f63c 13a7 42bd
00000060: 38ab 193d e53f 073d 0f55 d5bc 0fd1 e93c
00000070: d6e5 2fbd a32f aabd 84a4 e63c 4308 223d
00000080: e431 c33c 7e67 e4bd c37d 22bd d789 113d
00000090: 900a 023d b4b4 e53c 1a39 583d ae0d cdbd
000000a0: e0ac b43d 775e e8bc 93f1 1f3d 22a0 163d
000000b0: b1bd cfbc befb 1abd 6ce0 0c3d 0d9c 193d
000000c0: d81a 17bd d82e e13b 69d8 b83d 5964 ac3c
000000d0: 088f ff3c c322 04bd 77e4 b73d 8202 a73d
000000e0: 81a8 c2bd bb83 fe3c c87d 85bd 0dcf 103d
000000f0: 9720 b53d 74e4 b03d d389 123d 858c 443d
00000100: 4612 d23c 679a 9d33 8399 3b3d 50fd 383d
00000110: e5cb 22bd b633 143d 3fd8 463d 85f4 66bc
00000120: 389f b63b 9dbb a6b3 0706 f8bc fbc0 70b4
00000130: 3bf8 4a3d 7afe ccbc a9da 1fbd 21d6 f938
00000140: 3311 c0b9 2c79 54bd ce4c 0d3d b29d 0ebd
00000150: 6465 e03c 5bad 10b4 9038 1f3d b774 cf3c
00000160: 27ad 8db8 cecb 133d 0bfc 573d 3aca 8eb9
00000170: b24e 2e3d 2ec9 003d 2c4b 38bd 148c b3b7
00000180: 8b02 fe3c 69e5 22bd 9e17 133d 1377 293d
00000190: f95b 0132 dd27 a0bc 9929 0f3d 8cf4 30bd
000001a0: aaba 6838 f076 40bd c805 d13b 43b2 75bc
000001b0: f1a8 2e3d 6b0d 003a ecc7 ac3c bdd6 10bd
000001c0: 9afc 2037 5fb4 c7b2 1a9c f4bc d265 ad3c
000001d0: 4281 8fb6 7f27 4fbd 0d85 19bd 0fab bf3c
000001e0: 98bf 303d 176d 27b9 e609 c63c 33c7 47bd
000001f0: 7cfc 6139 7aa6 863c 68ea dcbc 88ef e039
00000200: eb9e 8f3d 1d27 5fbd 14f3 49bd 1673 543d
00000210: 8a2c 523d 0e9f 12bd dc1a 0e3d eaa5 25bd
00000220: 3bc6 4ebd 7502 42bd cbf7 903d 0818 803d
00000230: 49cb 1cbd b0bb 32bd 6aa7 6a3d b0e1 65bd
00000240: 55a4 00bd d670 2f3d 8208 17bd c6e9 823d
00000250: e6c3 8ebd c491 723d b6eb 59bd 63ee 143d
00000260: 36e4 25bd c09f 62bd d6f4 553d c37c 35bd
00000270: e9a3 233d edec 96bd 9ac2 63bd 3595 28bd
00000280: 6091 3ebd 0540 15bd 5a5b 133d fd2b 48bd
00000290: 0e11 5bbd f469 6abd 7d2b 04bd 63dd 7cbd
000002a0: e6ad 703d 4a20 443d be88 03bd 8d1b 36bd
000002b0: a622 773d 96d0 443d e576 2bbd 9e33 37bd
000002c0: 6df4 393d a2d7 9c3d 5049 983d 7cbd 5dbd
000002d0: 3397 39bd 74cd 3c3d 67bf 8e3d 5f2c 8a3d
000002e0: 38c7 98bd 836a 60bd 4bbd 6f3c c42d 4cbd
000002f0: 0f2e a03d ec3b 803d d638 4bbd 8de9 13bd
00000300: 3682 87bd e8dd 7632 47ef 47bd 6fbe 52bd
00000310: d3aa 353d c77c 2dbd 7982 bcbc 2565 913d
00000320: da21 53bd b61f 3ab2 f8f3 843d 770d 1536
00000330: 87ee bebc 1223 963d 6a01 563d 2554 c638
00000340: 9060 4739 c00a 1c3d e892 73bd 9ab4 7a3d
00000350: a359 30bd f1e6 cd32 7d2e 34bd 57b3 1bbd
00000360: 84ef b837 ebb0 fcbc db56 23bd 973c 6bb9
00000370: 8cc8 0abd d9b8 11bd 07ed 0a3d 84f4 ddb7
00000380: 9127 2cbd cefa 393d 7804 64bd 00a6 13bd
00000390: edfc 4cb2 8c43 783d 9d8e 53bd 8fcd 373d
000003a0: 5e62 d0b8 b2aa 3c3d 18fc 49bd 3623 9d3d
000003b0: 0bd8 03bd d05f 13ba 86f8 53bd ea15 f43c
000003c0: e7bf 8038 0ddf 7032 2d34 5c3d 5db3 5bbd
000003d0: e898 e436 b173 7b3d 46a3 413d 310d 5bbd
000003e0: cbfa 59bd 5363 f038 7b06 60bd d1fb 4d3d
000003f0: 8453 86b9 8234 88bd 3271 043d 0c0e 38ba

fc.bias f4 [2]
0.5541144 0.8273283
00000000: 71da 0d3f cacb 533f

onnx::LSTM_335 f4 [2, 512]
0.0054258374 0.004004488 -4.5795873e-06 -1.2475645e-05 0.006018836 0.005868563 -7.1522146e-07 -4.109804e-06
0.004460335 0.004045869 0.0054995725 0.005985884 0.0042739417 0.004763655 0.007081562 0.0050375536
0.0053377445 0.0057509313 0.005229201 0.004338514 0.0051626083 0.0057468894 0.00583817 0.13606696
0.005007074 -0.00047894916 0.006437076 0.0057786414 0.024928847 0.0034688292 0.2153389 0.005602405
0.004320996 0.005371919 0.0043774634 0.0048762932 0.0060090143 0.0048054582 0.006166719 0.0074207047
0.005004863 0.021590091 -0.0018006212 0.0077277054 0.0044295774 3.0505134e-07 0.006376264 0.025154267
-1.3023177e-05 0.006358347 -1.02933384e-07 0.0038888284 0.005071065 0.0047350414 -7.981056e-06 0.0196284
0.021722082 0.0071028164 0.004912196 0.019470835 0.022989519 0.17209433 0.15698849 0.005099573
0.005417789 0.0039984006 -4.577182e-06 -1.247339e-05 0.0060084774 0.0058559054 -7.1483436e-07 -4.1094313e-06
0.00445099 0.0040432606 0.0054907603 0.0059834137 0.0042683114 0.0047551487 0.0070703295 0.0050301175
0.00532985 0.0057451474 0.005217269 0.0043336563 0.0051513514 0.005737627 0.005827356 0.15908137
0.0049996995 -0.00047862675 0.0064278105 0.005771308 0.024935031 0.0034642085 0.20870014 0.005593387
0.004307505 0.005361301 0.0043656025 0.004872196 0.0059994697 0.0047935215 0.0061497428 0.0074030035
0.0049994467 0.021612493 -0.0017985097 0.007713843 0.004426131 3.0651188e-07 0.0063708136 0.025156746
-1.3020642e-05 0.006346917 -1.02960826e-07 0.0038878233 0.005060306 0.0047314805 -7.980171e-06 0.019620419
0.021713315 0.007090795 0.004906736 0.019457474 0.023013514 0.22958061 0.17103481 0.0050957715
0.003925486 0.0018546398 -4.379641e-06 -1.244308e-05 0.0039112996 0.0041140933 -6.8999515e-07 -4.109058e-06
0.0027867586 0.0028054307 0.0035855179 0.0043426203 0.0021048442 0.0031982975 0.004894917 0.0034582447
0.0033002482 0.0041164784 0.0033798984 0.0025138215 0.003467106 0.0037885443 0.003801715 0.23060705
0.003208535 -0.00049066206 0.0042521292 0.0042571044 0.02786089 0.0020960742 0.19412708 0.003894322
0.0026181038 0.003273305 0.0026046266 0.0032825444 0.0044790907 0.0029157107 0.004067666 0.0047526155
0.0032318244 0.024406606 -0.0019259616 0.0058657615 0.002923355 4.3737415e-08 0.0045115966 0.02773772
-1.3077932e-05 0.0044812174 -9.801259e-08 0.0022608256 0.0034199434 0.002947992 -7.740824e-06 0.021139624
0.023485733 0.0050850916 0.0033021097 0.020810308 0.02449798 0.1732918 0.18455465 0.003105286
0.00623923 -0.007656675 0.00017542414 0.00018441776 0.008004191 0.007044283 5.9824495e-05 0.0002988281
-0.006531904 -0.009108577 -0.0049406555 -0.0075193383 0.0077970214 0.00819192 -0.006874214 -0.0073304046
0.008411814 -0.0082505755 0.003910862 -0.006692769 0.0077085653 -0.00713547 0.0056995377 -0.10449695
-0.007870689 -0.000247667 0.0073107774 0.007105175 0.034777097 -0.008442713 0.0056840116 -0.007502382
0.0054470254 -0.008234899 0.0072384994 0.00895387 0.0067921523 0.005284045 -0.0058347546 -0.006113912
0.009464426 0.035955705 0.0032499535 0.005792455 0.0079368325 0.00027943632 0.007955664 0.03419646
-0.00034257903 -0.0050301827 -4.624087e-05 -0.009662613 0.005973219 0.005441003 -0.00037110364 -0.031707216
-0.034615412 0.0048589916 0.008597513 -0.03285814 0.033617124 0.16091308 -0.04400388 0.008862079
00000000: 39cb b13b 1438 833b 5baa 99b6 7d4e 51b7
00000010: a839 c53b 134d c03b a5fd 3fb5 f3e6 89b6
00000020: 0028 923b 3693 843b c235 b43b 3c25 c43b
00000030: 6c0c 8c3b 6f18 9c3b 730c e83b 1012 a53b
00000040: 3fe8 ae3b 4f72 bc3b b859 ab3b 182a 8e3b
00000050: 192b a93b 6750 bc3b 1f4e bf3b 2355 0b3e
00000060: 6212 a43b 781b fbb9 1bee d23b c25a bd3b
00000070: 9537 cc3c 4c55 633b cd81 5c3e 6194 b73b
00000080: 2497 8d3b ec06 b03b d370 8f3b 50c9 9f3b
00000090: 44e7 c43b 1b77 9d3b 3012 ca3b 6229 f33b
000000a0: d5ff a33b b4dd b03c d202 ecba b138 fd3b
000000b0: fd25 913b f0c5 a334 fbef d03b 5210 ce3c
000000c0: 1f7e 5ab7 ae59 d03b 3a0c ddb3 b7db 7e3b
000000d0: 2d2b a63b 6828 9b3b 60e6 05b7 bdcb a03c
000000e0: 82f2 b13c bebe e83b 7df6 a03b 4d81 9f3c
000000f0: 8454 bc3c 7f39 303e 97c1 203e 521a a73b
00000100: b587 b13b 0405 833b b295 99b6 cd44 51b7
00000110: c3e2 c43b e5e2 bf3b 0be3 3fb5 bfe3 89b6
00000120: 9cd9 913b 547d 843b d6eb b33b 8310 c43b
00000130: 31dd 8b3b 14d1 9b3b 39ae e73b afd3 a43b
00000140: 06a6 ae3b ca41 bc3b a0f5 aa3b 5801 8e3b
00000150: abcc a83b b402 bc3b 68f3 be3b 3ae6 223e
00000160: 85d4 a33b 32f0 fab9 62a0 d23b 3e1d bd3b
00000170: 8d44 cc3c c607 633b 7db5 553e bb48 b73b
00000180: f925 8d3b daad af3b 540d 8f3b f1a6 9f3b
00000190: 3397 c43b f912 9d3b c883 c93b e594 f23b
000001a0: 66d2 a33b af0c b13c f9bb ebba 68c4 fc3b
000001b0: 1409 913b ac8e a434 42c2 d03b 8515 ce3c
000001c0: 3b73 5ab7 ccf9 cf3b 501b ddb3 daca 7e3b
000001d0: ecd0 a53b 890a 9b3b 93e2 05b7 00bb a03c
000001e0: 1fe0 b13c e659 e83b afc8 a03b 4865 9f3c
000001f0: d686 bc3c 2e17 6b3e c023 2f3e 6efa a63b
00000200: 5da1 803b 6317 f33a d4f4 92b6 9fc2 50b7
00000210: 5c2a 803b 84cf 863b 1b38 39b5 8ae0 89b6
00000220: 0da2 363b 51db 373b 02fb 6a3b 8a4c 8e3b
00000230: 6df1 093b 879a 513b 8a65 a03b b8a3 623b
00000240: fa48 583b 86e3 863b 4981 5d3b edbe 243b
00000250: 6338 633b 3a49 783b 3226 793b 4124 6c3e
00000260: 4946 523b c69f 00ba 7255 8b3b 2e7f 8b3b
00000270: 853c e43c 4a5e 093b 40c9 463e e237 7f3b
00000280: 7e94 2b3b f284 563b 62b2 2a3b f51f 573b
00000290: 56c5 923b 8215 3f3b 0e4a 853b d4bb 9b3b
000002a0: 04cd 533b 5df0 c73c 8c70 fcba 9335 c03b
000002b0: c295 3f3b ccd9 3b33 04d6 933b 373a e33c
000002c0: 4a69 5bb7 2dd7 923b fe7a d2b3 5c2a 143b
000002d0: 2121 603b 1933 413b 96de 01b7 012d ad3c
000002e0: 2765 c03c d7a0 a63b 3568 583b 617a aa3c
000002f0: fdaf c83c 6873 313e e5fb 3c3e 0e82 4b3b
00000300: 7472 cc3b d8e4 fabb 0ff2 3739 4460 4139
00000310: 0324 033c bbd3 e63b 10ec 7a38 07ac 9c39
00000320: 9509 d6bb 243c 15bc 39e5 a1bb c864 f6bb
00000330: 287e ff3b 6737 063c 1641 e1bb e433 f0bb
00000340: b5d1 093c 6c2d 07bc b026 803b 044f dbbb
00000350: 2298 fc3b a9d0 e9bb 30c3 ba3b 7f02 d6bd
00000360: 10f4 00bc 4dd9 81b9 3f8f ef3b 87d2 e83b
00000370: 6e72 0e3d 4e53 0abc f240 ba3b 8bd6 f5bb
00000380: f67c b23b abeb 06bc ef30 ed3b 41b3 123c
00000390: b490 de3b c825 ad3b 7831 bfbb 3657 c8bb
000003a0: ae10 1b3c 4a46 133d 2cfd 543b a2ce bd3b
000003b0: 7d09 023c 4f81 9239 7958 023c 9611 0c3d
000003c0: 2e9c b3b9 3bd4 a4bb c2f2 41b8 f04f 1ebc
000003d0: feba c33b 714a b23b b090 c2b9 6ddf 01bd
000003e0: e4c8 0dbd 2d38 9f3b 95dc 0c3c 4296 06bd
000003f0: 1cb2 093d 66c6 243e 6a3d 34bd 4132 113c

onnx::LSTM_336 f4 [2, 256, 6]
0.0031720852 0.003549665 0.0036961192 0.003087301 0.0030079412 0.0034803925 0.0017153476 0.0025351075
0.0021150063 0.0015086362 0.0007629771 0.0014827079 -4.956328e-06 -4.770415e-06 -5.255277e-06 -4.734614e-06
-3.8972544e-06 -4.7841368e-06 -7.524788e-06 -5.960831e-06 -8.923996e-06 -6.57089e-06 -5.7328166e-06 -7.5955095e-06
0.003338801 0.0035970558 0.0034546645 0.002743468 0.0023780768 0.0031596175 0.0032669802 0.0031932285
0.0036966878 0.0029059108 0.002678062 0.00352825 -4.2093572e-07 -3.0854764e-07 -4.6806363e-07 -3.8345672e-07
-3.438854e-07 -3.86132e-07 -2.4016695e-06 -1.963565e-06 -2.7221583e-06 -2.0892214e-06 -2.026527e-06 -2.3290524e-06
0.0025328796 0.0026962166 0.0026559206 0.0022183491 0.0020779246 0.0026142176 0.0023411529 0.0024395322
0.0025953664 0.0018219216 0.0018412067 0.0020980164 0.0028116563 0.0033136362 0.0031670837 0.0026428064
0.0023067014 0.0030156155 0.0035863633 0.0036077492 0.0034760267 0.0029645115 0.0023594424 0.0030722918
0.0020351415 0.0025436443 0.00223476 0.0017639404 0.0009885167 0.00178729 0.0028836352 0.0031806612
0.0031979117 0.002551349 0.002350827 0.0029175829 0.004352392 0.004954549 0.0046548285 0.0041391584
0.0036956666 0.0045269188 0.002629657 0.0031040637 0.0030819897 0.0022088676 0.0020620704 0.0027335943
0.003151207 0.0037829452 0.0032438317 0.0026527129 0.0020618166 0.0028884406 0.0036529957 0.0036030267
0.0039855354 0.0032219363 0.0029910358 0.0033507016 0.0028411 0.0032050111 0.0031024646 0.0027473127
0.0022044887 0.0027423212 0.0022338745 0.0026733426 0.0025434229 0.0020601386 0.0012369498 0.0018598031
0.0030233774 0.003066428 0.0032274376 0.002667311 0.0022863052 0.003043054 0.0032840786 0.0033785668
0.0034960452 0.0028203938 0.0026130693 0.0031986018 0.002979682 0.0030570845 0.003096986 0.0026291595
0.002206826 0.0030531753 0.12084458 0.08450103 0.028725494 0.07657234 0.045663636 0.13432649
0.0027255027 0.003040446 0.0026477892 0.002214854 0.0013463321 0.002099595 -0.0004882513 -0.0004937009
-0.00052931375 -0.00047910024 -0.00046097723 -0.00050886633 0.0035606162 0.0040911734 0.0039794953 0.003262675
0.002928966 0.0036094615 0.003498546 0.004064086 0.003606509 0.0031792722 0.0027069869 0.0033456497
0.009632933 0.015542408 0.013907719 0.013541905 0.0059213648 0.012328798 0.0020698993 0.002311771
0.0021854516 0.0016391223 0.0014360023 0.0021070011 0.027472544 0.18289527 0.17655669 0.09472615
0.12078826 0.14204107 0.0032127746 0.003907161 0.0037521913 0.0030563101 0.0027038872 0.003422763
0.0023828333 0.0028726591 0.002658288 0.0021477258 0.0020710796 0.0028643906 0.0030534782 0.003376381
0.0031793152 0.0025795195 0.0021484892 0.0031038795 0.0021516455 0.0023876473 0.00249061 0.0018226764
0.0017614797 0.0024386859 0.0029245454 0.003512862 0.0031232587 0.002477697 0.0019021401 0.002587458
0.0037540246 0.0036958174 0.0040292474 0.0035417345 0.003606411 0.0037907842 0.0026851573 0.002830623
0.0029008097 0.0023793208 0.0020355813 0.002548729 0.0032055345 0.0032681322 0.0036837072 0.0030694145
0.0031774098 0.0035726766 0.00410881 0.0039669937 0.004536311 0.0037650776 0.0034163445 0.0045232186
0.0032028134 0.003483806 0.003426526 0.0028366195 0.0025390536 0.0029339287 0.0072697345 0.012793855
0.01123559 0.01114934 0.0044000037 0.010212757 -0.0023362988 -0.0022145174 -0.0023868133 -0.0022030363
00000000: c2e2 4f3b 7fa1 683b 973a 723b 5154 4a3b
00000010: e120 453b 4c17 643b 84d5 e03a 0c24 263b
00000020: eb9b 0a3b 6ebd c53a 8702 483a 6c57 c23a
00000030: 894e a6b6 8e11 a0b6 7c56 b0b6 06de 9eb6
00000040: 29c5 82b6 6c87 a0b6 707d fcb6 2603 c8b6
00000050: 45b8 15b7 847b dcb6 855c c0b6 eedc feb6
00000060: c9cf 5a3b 95bc 6b3b a767 623b c1cb 333b
00000070: 82d9 1b3b 9611 4f3b d51a 563b 7c45 513b
00000080: 2144 723b 1871 3e3b 6d82 2f3b 363a 673b
00000090: f7fc e1b4 77a6 a5b4 2d4a fbb4 e4dd cdb4
000000a0: 409f b8b4 944d cfb4 5e2c 21b6 cac5 03b6
000000b0: 53ae 36b6 8d34 0cb6 78ff 07b6 d14c 1cb6
000000c0: abfe 253b 02b3 303b f40e 2e3b b961 113b
000000d0: ca2d 083b 4b53 2b3b 076e 193b 8fe0 1f3b
000000e0: 0617 2a3b 8bcd ee3a a554 f13a e07e 093b
000000f0: c443 383b 9729 593b d98e 4f3b ef32 2d3b
00000100: 072c 173b a2a1 453b 3109 6b3b fd6f 6c3b
00000110: 0dce 633b 4048 423b e0a0 1a3b 8158 493b
00000120: 0260 053b 45b3 263b 0d75 123b 0534 e73a
00000130: 1e91 813a 8043 ea3a 5ffb 3c3b a472 503b
00000140: 0e94 513b 8934 273b 5510 1a3b eb34 3f3b
00000150: 839e 8e3b c559 a23b 8887 983b c7a1 873b
00000160: ff32 723b 8c56 943b 5356 2c3b 8c6d 4b3b
00000170: 35fb 493b a6c2 103b cd23 073b 1a26 333b
00000180: 7b84 4e3b 4aeb 773b 7796 543b 23d9 2d3b
00000190: 8b1f 073b fe4b 3d3b 1967 6f3b c220 6c3b
000001a0: 1899 823b 1f27 533b 4105 443b 7297 5b3b
000001b0: c031 3a3b 2a0b 523b b852 4b3b 420c 343b
000001c0: 2f79 103b 84b8 333b 3266 123b 3f33 2f3b
000001d0: 8eaf 263b 6403 073b 2621 a23a a3c4 f33a
000001e0: db23 463b 20f6 483b 6b83 533b 0ece 2e3b
000001f0: d6d5 153b f96d 473b b239 573b f26a 5d3b
00000200: e81d 653b 5bd6 383b 0740 2b3b a29f 513b
00000210: c546 433b 5e59 483b cef6 4a3b fa4d 2c3b
00000220: 65a0 103b c817 483b 5d7d f73d e00e ad3d
00000230: ba51 eb3c f6d1 9c3d cb09 3b3d e28c 093e
00000240: 599e 323b 3842 473b 8886 2d3b 1527 113b
00000250: 6977 b03a 5c99 093b fbfb ffb9 b56b 01ba
00000260: a5c1 0aba bf2f fbb9 51af f1b9 7165 05ba
00000270: 3a59 693b 400f 863b 6d66 823b 9ad2 553b
00000280: e5f3 3f3b b78c 6c3b dd47 653b 062c 853b
00000290: 2e5b 6c3b 565b 503b b467 313b b042 5b3b
000002a0: 73d3 1d3c 96a5 7e3c 34dd 633c dede 5d3c
000002b0: 0208 c23b bafe 493c 26a7 073b 1581 173b
000002c0: cb39 0f3b d1d7 d63a 3e38 bc3a 9d15 0a3b
000002d0: 1a0e e13c e648 3b3e 47cb 343e c9ff c13d
000002e0: d65f f73d 3773 113e 6a8d 523b a407 803b
000002f0: 53e7 753b 604c 483b b333 313b 6f50 603b
00000300: 4f29 1c3b 3943 3c3b ac36 2e3b dcc0 0c3b
00000310: f3ba 073b 80b8 3b3b dd1c 483b 4646 5d3b
00000320: 0f5c 503b 280d 293b abcd 0c3b 756a 4b3b
00000330: 9f02 0d3b 137a 1c3b 8039 233b dfe6 ee3a
00000340: 73e1 e63a 5cd2 1f3b bba9 3f3b 0b38 663b
00000350: 96af 4c3b dc60 223b 3b51 f93a 5792 293b
00000360: 1506 763b 8735 723b c707 843b 721c 683b
00000370: 8959 6c3b ce6e 783b 77f9 2f3b f981 393b
00000380: 831b 3e3b 61ee 1b3b 6367 053b 9408 273b
00000390: f213 523b 292e 563b 5a6a 713b 3b28 493b
000003a0: 173c 503b 9123 6a3b 32a3 863b 8efd 813b
000003b0: 56a5 943b 85bf 763b c0e4 5f3b 8237 943b
000003c0: 4be6 513b 9150 643b 918f 603b 94e6 393b
000003d0: 4066 263b 2847 403b f436 ee3b 519d 513c
000003e0: 7b15 383c b9ab 363c e82d 903b 6853 273c
000003f0: 971c 19bb 7021 11bb 156c 1cbb d160 10bb

onnx::LSTM_337 f4 [2, 256, 64]
2.0766765e-05 -2.6760372e-05 1.6261401e-06 1.1903065e-05 7.469302e-05 3.3843568e-05 3.7050957e-06 1.0330939e-05
-4.1916806e-05 -0.00011109696 -1.17249865e-05 2.0524747e-06 3.4505934e-05 9.3391674e-05 -3.1014366e-05 -9.982913e-05
5.987722e-05 -6.5539534e-05 -2.1203166e-05 3.365299e-05 5.1619623e-05 -1.0055446e-05 1.744276e-05 -0.001008876
5.082152e-07 -7.8301055e-05 4.3463115e-05 1.4209923e-05 -0.0005131876 -7.2953844e-05 -0.0018541606 -6.462202e-05
3.610416e-05 -5.224376e-05 0.000100053 1.4529439e-05 3.3655513e-05 -2.5430845e-06 -5.0771156e-05 -5.2361893e-06
9.365686e-05 -0.0005044852 0.00021286464 2.4336969e-05 3.796484e-05 3.7622706e-06 -3.7236741e-06 -0.00051897194
-7.375609e-06 -1.539651e-05 -8.7426e-07 -0.00012903423 4.3937558e-05 -1.4756584e-05 -6.706305e-06 0.0005719858
0.00043881274 -4.7481203e-06 8.604742e-05 0.00046497092 -0.00049728336 -0.006841434 0.0010488859 2.5678786e-05
0.00010584025 -8.692475e-05 2.545237e-06 1.00607585e-05 0.00013225812 9.704643e-05 3.3725007e-06 1.0286472e-05
-0.00011338126 -0.00011332804 -0.00010981485 -8.209041e-05 0.00010059736 0.00012947603 -0.00012442406 -0.00014268223
0.0001215524 -0.00011460582 9.993799e-05 -6.220672e-05 0.00011258089 -9.0748035e-05 0.00010304494 0.0017356953
-9.5919924e-05 -4.2597436e-05 0.00011171692 0.00010164205 -0.00044093258 -0.000103115555 -0.0034552615 -0.00012082805
0.00011640137 -0.00011674228 0.00013096059 7.985393e-05 0.000117442105 9.926672e-05 -0.00012621925 -0.00011318439
0.00013105989 -0.00043325953 0.000171536 0.00012204909 9.277939e-05 4.0405494e-06 8.7593835e-05 -0.00042061871
-1.03753355e-05 -0.00012052653 -8.889369e-07 -0.00012309151 0.00011400584 9.952242e-05 -7.14849e-06 0.00046950506
0.00037064115 0.00011045748 0.00012390586 0.00036851823 -0.00043419178 -0.0072817123 -0.002020179 9.171131e-05
5.519905e-08 -3.895892e-08 1.5455482e-09 -2.4909554e-09 3.520041e-08 3.7417994e-08 -6.1462463e-10 -1.6961808e-09
-3.8438856e-08 8.927024e-09 -6.311598e-08 -5.907492e-08 4.2664823e-08 1.2979139e-08 -5.358022e-08 -1.1656604e-08
3.7895663e-08 -3.1171492e-08 9.628644e-08 -7.679987e-08 1.8479069e-08 -5.6821527e-08 6.093967e-08 6.836982e-07
-6.249822e-08 1.08189e-08 4.626602e-08 5.694472e-08 6.932814e-08 -5.408079e-09 2.7726699e-06 -4.254815e-08
4.453775e-08 -4.008589e-08 -5.571726e-10 4.734137e-08 5.0748035e-08 5.9241476e-08 -4.4431022e-08 -7.110771e-08
4.562496e-09 6.555387e-08 -2.5439572e-08 6.124294e-08 4.588773e-08 1.1316766e-09 7.432904e-08 9.7275525e-08
-2.9673222e-10 -6.963861e-08 1.68417e-11 1.4348544e-08 4.0313225e-08 9.2685355e-08 2.9176042e-09 -1.05345364e-07
-6.1105666e-08 6.9622274e-08 1.723081e-08 -9.528373e-08 5.6693136e-08 1.0575365e-06 1.5554972e-06 4.443998e-08
2.0038598e-07 -1.7869084e-07 -4.8491287e-09 -7.455935e-09 1.9033207e-07 2.1138533e-07 -2.4536426e-09 -5.948114e-09
-2.1637902e-07 -1.2516826e-07 -2.4796717e-07 -2.3775938e-07 2.1539972e-07 1.5688235e-07 -2.2323314e-07 -1.605e-07
1.9187577e-07 -1.9485282e-07 2.6830858e-07 -2.48132e-07 1.998376e-07 -2.3208752e-07 2.430587e-07 2.926431e-07
-2.1838093e-07 5.4766943e-08 2.081588e-07 2.1561846e-07 1.3679735e-08 -1.7691184e-07 3.851041e-06 -1.9434735e-07
2.1290126e-07 -1.9733146e-07 1.6173223e-07 1.7725642e-07 2.1570638e-07 2.3056216e-07 -2.2061401e-07 -2.7328286e-07
1.40416e-07 4.5319752e-09 -1.2654158e-07 2.4332027e-07 1.8915725e-07 -3.3522742e-09 2.3026017e-07 4.7110387e-08
5.079672e-09 -2.5878754e-07 3.0029085e-10 -1.18433015e-07 2.0226568e-07 2.3251013e-07 6.012633e-09 -6.410695e-08
-2.4930957e-08 2.6181758e-07 1.5435954e-07 -4.833683e-08 9.159794e-09 2.9618616e-06 2.6814618e-07 2.002939e-07
00000000: 4a34 ae37 767b e0b7 c041 da35 46b3 4737
00000010: 83a4 9c38 41f3 0d38 0fa5 7836 0c53 2d37
00000020: d4cf 2fb8 bafc e8b8 6fb6 44b7 3fbd 0936
00000030: 77ba 1038 46db c338 6c15 02b8 5b5b d1b8
00000040: ad24 7b38 4572 89b8 74dd b1b7 9f26 0d38
00000050: 2682 5838 d0b3 28b7 0b52 9237 433c 84ba
00000060: 486c 0835 8f35 a4b8 2a4c 3638 2867 6e37
00000070: 7087 06ba ccfe 98b8 4e07 f3ba af85 87b8
00000080: 8c6e 1738 4f20 5bb8 8cd3 d138 77c3 7337
00000090: 5529 0d38 dca9 2ab6 1df3 54b8 86b2 afb6
000000a0: a569 c438 6e3f 04ba 6b34 5f39 3e27 cc37
000000b0: 703c 1f38 517b 7c36 3ce4 79b6 9e0b 08ba
000000c0: 007c f7b6 c127 81b7 b1ae 6ab5 5d4d 07b9
000000d0: 9849 3838 0c93 77b7 b906 e1b6 51f1 153a
000000e0: 7310 e639 0b52 9fb6 5b74 b438 57c7 f339
000000f0: 1f5c 02ba 1c2e e0bb c57a 893a c668 d737
00000100: 8df6 dd38 5f4b b6b8 d7ce 2a36 a1ca 2837
00000110: c5ae 0a39 6885 cb38 1f53 6236 1094 2c37
00000120: 1ac7 edb8 87aa edb8 664c e6b8 f427 acb8
00000130: ccf7 d238 f5c3 0739 d477 02b9 f89c 15b9
00000140: f3e9 fe38 8858 f0b8 cd95 d138 fa74 82b8
00000150: 6819 ec38 fb4f beb8 d519 d838 4580 e33a
00000160: 9e28 c9b8 a6aa 32b8 9149 ea38 a928 d538
00000170: f82c e7b9 be3f d8b8 ab71 62bb 1165 fdb8
00000180: 821c f438 89d3 f4b8 7752 0939 4177 a738
00000190: 404b f638 6a2d d038 b959 04b9 685d edb8
000001a0: 1f6d 0939 1c27 e3b9 58de 3339 9bf4 ff38
000001b0: 8e92 c238 0e94 8736 95b2 b738 7d86 dcb9
000001c0: ba11 2eb7 30c3 fcb8 479f 6eb5 2012 01b9
000001d0: 6b16 ef38 b1b6 d038 10dd efb6 e727 f639
000001e0: 9d52 c239 68a5 e738 baec 0139 ae35 c139
000001f0: 3ca4 e3b9 6e9b eebb fb64 04bb 2255 c038
00000200: ff13 6d33 c953 27b3 256b d430 5a2d 2bb1
00000210: 432f 1733 85b5 2033 5df2 28b0 0e1f e9b0
00000220: f817 25b3 775d 1932 618a 87b3 90b9 7db3
00000230: 783e 3733 dbfa 5e32 1320 66b3 4942 48b2
00000240: b9c2 2233 6be1 05b3 08c6 ce33 2ded a4b3
00000250: e7bb 9e32 ee0b 74b3 f0dd 8233 6287 3735
00000260: c336 86b3 07de 3932 07b6 4633 6293 7433
00000270: 8ce1 9433 f7d1 b9b1 1b12 3a36 30be 36b3
00000280: c649 3f33 e72a 2cb3 8927 19b0 6354 4b33
00000290: 0ef6 5933 b170 7e33 6dd4 3eb3 e1b3 98b3
000002a0: 24c4 9c31 9fc6 8c33 3686 dab2 aa84 8333
000002b0: 1816 4533 5589 9b30 d29e 9f33 c9e5 d033
000002c0: 5921 a3af 3b8c 95b3 2324 942d 9081 7632
000002d0: dc24 2d33 500a c733 097f 4831 3a3a e2b3
000002e0: 3239 83b3 4083 9533 f402 9432 c99e ccb3
000002f0: c37e 7333 adf0 8d35 7ac6 d035 46de 3e33
00000300: ae29 5734 2ade 3fb4 639d a6b1 8d17 00b2
00000310: 155e 4c34 28f9 6234 f09c 28b1 2a60 ccb1
00000320: d055 68b4 fd65 06b4 5920 85b4 cd4a 7fb4
00000330: a048 6734 7e73 2834 dcb1 6fb4 e755 2cb4
00000340: 6906 4e34 bc38 51b4 0d0c 9034 0137 85b4
00000350: f192 5634 bb33 79b4 bc7d 8234 901c 9d34
00000360: 187c 6ab4 e438 6b33 4182 5f34 c084 6734
00000370: 1c04 6b32 28f5 3db4 3138 8136 cbad 50b4
00000380: da99 6434 0fe2 53b4 9ea8 2d34 e053 3e34
00000390: eb9c 6734 7290 7734 ebe1 6cb4 b6b7 92b4
000003a0: 42c5 1634 adb7 9b31 7cdf 07b4 afa1 8234
000003b0: 261b 4b34 d55d 66b1 6f3d 7734 6b56 4a33
000003c0: 4489 ae31 7def 8ab4 2e16 a52f 3d55 feb3
000003d0: 5e2e 5934 e6a7 7934 ae97 ce31 2bab 89b3
000003e0: c127 d6b2 ef8f 8c34 07be 2534 e89a 4fb3
000003f0: 335d 1d32 65c4 4636 bbf5 8f34 5e10 5734

onnx::LSTM_378 f4 [2, 512]
0.0070900526 0.00057366886 0.0026194304 0.0022600875 0.0010406688 0.002204583 0.0023566934 0.0003589502
0.001322878 0.0015857886 0.0037489857 0.00075526524 0.0004332936 0.0030067423 0.0011933873 0.0001406663
0.00040206133 -0.00040680333 0.0013457538 0.008730729 0.007581722 -2.945788e-05 -0.00016051973 0.0004591467
0.0008606871 0.0011982572 0.002280637 0.0007505298 0.0028727439 0.0055450997 0.0014936994 0.0011299158
0.0007522893 0.007931277 0.00047430265 0.0015837201 0.0023493385 0.0022759219 0.0032546073 0.0076352954
0.0071309865 0.000701297 0.0016505236 0.0014177532 0.0026541122 0.0023941365 0.0016347318 0.0010933634
0.0017250158 0.00092195696 0.006126275 0.00060359866 -0.0008823002 0.001073986 0.008132817 0.0021021261
0.009282988 0.0008125666 0.0011866548 -1.8861787e-05 0.0075908927 0.0065082996 0.0015533112 0.00086911913
0.007074998 0.00056674576 0.0026147838 0.0022472115 0.0010379958 0.0022023614 0.0023551702 0.0003564292
0.0013127147 0.0015730165 0.0037404364 0.000749286 0.0004334031 0.0030008063 0.0011838205 0.00013525224
0.00040496365 -0.0004106347 0.0013455432 0.008728491 0.007569566 -3.3410746e-05 -0.00016634552 0.00045250665
0.00085730647 0.0011906174 0.0022684727 0.00074930995 0.0028710908 0.0055454904 0.0014861139 0.0011260216
0.0007498599 0.007927362 0.00047235785 0.0015797934 0.0023432618 0.0022730269 0.0032502306 0.00763026
0.007134652 0.0006984714 0.0016493868 0.0014140588 0.002648987 0.0023885716 0.0016282679 0.0010796337
0.0017199756 0.00091651117 0.0061204876 0.00059160084 -0.00089424127 0.0010698288 0.008131577 0.0020995631
0.009284741 0.00080535974 0.0011810999 -2.4175924e-05 0.0075938166 0.0065066786 0.0015444473 0.0008729953
0.0075681815 0.0019873 0.002750568 0.0025762285 0.0006726369 0.0022035895 0.0021071115 0.0012823432
0.0021657615 0.0021894586 0.0033157526 0.0012134456 0.0016099067 0.0038779685 0.0016858652 0.0007477732
0.0016609501 0.00026986134 0.002171707 0.010427801 0.008493026 0.00032724245 7.998052e-05 0.0020015712
0.0015520278 0.0015094612 0.0031516454 0.0011341381 0.0031402942 0.0063484865 0.0013299836 0.0021683373
0.0010378349 0.007500872 0.0013284249 0.0017788005 0.002942133 0.0031409091 0.004236915 0.008002283
0.008130529 0.000474063 0.0020300264 0.0015006462 0.0032518788 0.002288088 0.0026671092 0.0019239677
0.0019587688 0.0010416263 0.007171041 0.0017021841 -0.00010988118 0.0018888309 0.009956982 0.0046452302
0.011247811 0.001371029 0.0011934296 0.000256539 0.00991164 0.0076588592 0.0018865701 0.0018496173
0.0012046031 0.0029110329 0.002094176 -0.0029200965 0.002241912 -0.00015281478 -0.002596925 0.0011889496
0.0006130148 -6.8059176e-06 -0.0010287483 -0.0009784644 -0.0010675238 0.00059108034 -0.00067875284 0.00032698357
0.00082400406 -0.0004880597 0.0039700023 -0.00013747142 0.0008927399 -0.00016419226 6.347809e-05 -0.00039705023
0.00090008555 0.0036043422 -0.0029068142 -0.002264483 -0.00011745672 -0.0009413813 0.0022185575 -0.0015010954
0.0016257195 0.00046012408 -0.0022935285 0.0015823015 0.0030368392 0.004853355 1.3334149e-05 0.0016575721
0.00020737523 -0.0016854043 -0.000113930786 0.0023214517 -0.0034292948 -0.0018414493 0.0015675634 0.0008619075
0.00032401038 -0.00011004602 -0.0029738443 0.0013870875 0.0032862134 -0.0028963415 -0.00031592415 -0.0013715246
0.001711586 0.0016700134 -0.00094915467 0.0005469697 -0.0012156876 -0.00039434893 0.0020712633 0.0015411647
00000000: ac53 e83b 4462 163a c0aa 2b3b fa1d 143b
00000010: 0d67 883a c47a 103b c172 1a3b 7b31 bc39
00000020: 6b64 ad3a 3cda cf3a 8bb1 753b fefc 453a
00000030: af2b e339 c40c 453b 6f6b 9c3a d37f 1339
00000040: c2cb d239 3848 d5b9 0164 b03a 550b 0f3c
00000050: 1870 f83b 511c f7b7 3051 28b9 a0b9 f039
00000060: bc9f 613a d70e 9d3a bd76 153b 34bf 443a
00000070: a544 3c3b abb3 b53b 3cc8 c33a af19 943a
00000080: 4835 453a 30f2 013c d3ab f839 d494 cf3a
00000090: 5cf7 193b a227 153b 404b 553b 8031 fa3b
000000a0: 0dab e93b 3fd7 373a 6256 d83a e7d3 b93a
000000b0: 9df0 2d3b f2e6 1c3b 7f44 d63a 304f 8f3a
000000c0: ed19 e23a 7caf 713a ebbe c83b d23a 1e3a
000000d0: 2a4a 67ba fdc4 8c3a 823f 053c d3c3 093b
000000e0: ac17 183c 6c02 553a 8789 9b3a 6139 9eb7
000000f0: 06bd f83b 9343 d53b 7a98 cb3a 99d5 633a
00000100: 63d5 e73b aa91 143a cb5c 2b3b f445 133b
00000110: 5c0d 883a 7e55 103b 3359 1a3b 1edf ba39
00000120: 650f ac3a ad2d ce3a 1c22 753b bb6b 443a
00000130: 613a e339 2da9 443b 6d2a 9b3a 7fd2 0d39
00000140: 4d51 d439 754a d7b9 f05c b03a f201 0f3c
00000150: 1f0a f83b 8422 0cb8 096d 2eb9 6a3e ed39
00000160: ddbc 603a 7e0e 9c3a a8aa 143b 576d 443a
00000170: e928 3c3b f2b6 b53b b5c9 c23a 0497 933a
00000180: 3f92 443a c4e1 013c cca6 f739 1211 cf3a
00000190: 6991 193b 10f7 143b d201 553b 4307 fa3b
000001a0: cdc9 e93b 9f19 373a 3d30 d83a f157 b93a
000001b0: a19a 2d3b 9589 1c3b 9b6b d53a 7f82 8d3a
000001c0: ce70 e13a 0642 703a 5f8e c83b a915 1b3a
000001d0: 846b 6aba 7f39 8c3a 4e3a 053c d398 093b
000001e0: 071f 183c c71e 533a 23cf 9a3a 67cd cab7
000001f0: 8dd5 f83b fa35 d53b 0d6f ca3a b9d9 643a
00000200: 82fe f73b 5d3d 023b e042 343b f1d5 283b
00000210: e653 303a 196a 103b 7717 0a3b 4c14 a83a
00000220: 73ef 0d3b 057d 0f3b 194d 593b 7a0c 9f3a
00000230: 8103 d33a 8425 7e3b 40f8 dc3a 3606 443a
00000240: 3db4 d93a 2d7c 8d39 3353 0e3b 5ed9 2a3c
00000250: 5526 0b3c bd91 ab39 37bb a738 cb2c 033b
00000260: 696d cb3a 1dd9 c53a d68b 4e3b 5ca7 943a
00000270: 65cd 4d3b f706 d03b d852 ae3a aa1a 0e3b
00000280: f607 883a e0c9 f53b 8b1e ae3a a426 e93a
00000290: cdd0 403b b6d7 4d3b d2d5 8a3b 021c 033c
000002a0: e935 053c a98b f839 310a 053b 55b1 c43a
000002b0: 791d 553b bff3 153b abca 2e3b a52d fc3a
000002c0: b05e 003b 2e87 883a 0dfb ea3b d21b df3a
000002d0: 0270 e6b8 a692 f73a 9c22 233c 0437 983b
000002e0: bd48 383c 19b4 b33a da6c 9c3a 1580 8639
000002f0: 6e64 223c 2bf7 fa3b ca46 f73a dc6e f23a
00000300: c6e3 9d3a 07c7 3e3b 713e 093b 175f 3fbb
00000310: 0bed 123b e83c 20b9 2c31 2abb 87d6 9b3a
00000320: bab2 203a 635e e4b6 11d7 86ba d13f 80ba
00000330: 28ec 8bba bbf2 1a3a 55ee 31ba fe6e ab39
00000340: fa01 583a 44e2 ffb9 cb16 823b 3426 10b9
00000350: c306 6a3a 062b 2cb9 8a1f 8538 2e2b d0b9
00000360: b8f3 6b3a d436 6c3b 4080 3ebb b867 14bb
00000370: 1953 f6b8 08c7 76ba 3865 113b 67c0 c4ba
00000380: 1816 d53a cf3c f139 064f 16bb 3a65 cf3a
00000390: b505 473b e508 9f3b bcb5 5f37 e442 d93a
000003a0: dd72 5939 c9e8 dcba 20ee eeb8 7f23 183b
000003b0: 05be 60bb c95c f1ba b376 cd3a a2f1 613a
000003c0: f0df a939 82c8 e6b8 d4e4 42bb efce b53a
000003d0: 835d 573b 8cd0 3dbb 9fa2 a5b9 bbc4 b3ba
000003e0: 4c57 e03a 5ae4 da3a b1d0 78ba 8462 0f3a
000003f0: b557 9fba 9ec0 ceb9 08be 073b e800 ca3a

onnx::LSTM_379 f4 [2, 256, 128]
0.00015745197 -4.600175e-06 7.898661e-06 -5.745921e-07 0.00018108197 6.199255e-06 9.4683134e-07 2.6682835e-06
-3.1316904e-05 0.000337218 0.0001696688 -0.00024636972 0.000118488024 7.582206e-05 -0.00010619143 -3.4038247e-05
7.3269235e-05 5.206881e-05 0.00022594158 -7.769025e-05 0.00019889462 -0.00011868111 -4.5046567e-05 0.008326069
-1.5175577e-05 -1.0319165e-05 4.2913653e-05 -0.00015970589 -9.4319235e-05 6.397707e-05 -0.00037181118 0.00014262297
0.000114652794 0.00021071218 -1.8271881e-05 0.00013837715 6.383061e-05 3.2876575e-05 -0.00020833177 0.000100337755
-8.10501e-05 4.859594e-05 5.5237666e-05 0.00011279045 5.9417333e-05 6.9003368e-06 0.0002467054 -6.3503835e-06
-7.961222e-06 -0.00030552087 -3.3505228e-07 5.2740696e-05 -9.573702e-06 2.3759987e-05 -1.18202365e-07 -0.00016699238
0.000146076 0.00023520704 -2.1019534e-05 0.00011905599 -2.7327422e-05 0.0005282232 -0.0070017884 -4.8447437e-05
1.19097285e-05 -2.2967784e-12 5.3067676e-12 -2.4073212e-05 -8.957702e-10 -2.8936242e-07 -2.804454e-07 -4.479871e-13
9.308353e-08 4.1456477e-07 1.3107209e-05 9.362454e-06 2.024533e-10 -9.698397e-08 1.1973744e-07 9.02504e-10
-2.4399213e-05 -1.278875e-10 2.778234e-06 3.435329e-10 -8.31625e-12 6.0551014e-10 2.623595e-07 -1.5677704e-08
-3.4787595e-07 2.2722768e-06 4.4313657e-07 -7.0963074e-06 -2.9670905e-10 9.937166e-13 2.757825e-10 -3.4796848e-08
-4.7843228e-06 -4.1720878e-07 -1.8797374e-08 1.8333125e-08 9.660915e-13 1.7763886e-08 3.0576314e-06 8.375332e-07
1.4586178e-11 -2.2281666e-08 3.9892568e-13 3.0587535e-06 -6.163125e-06 9.466692e-08 -4.3979295e-08 -9.4406245e-12
1.2205987e-13 -8.980835e-13 -9.1858745e-08 -2.3270606e-05 -2.2384388e-07 5.9026334e-12 1.988014e-12 7.591645e-10
-6.4443852e-06 7.03331e-13 -1.0836943e-07 5.0757e-06 3.1307286e-09 4.171371e-13 -3.4707523e-13 -3.6451027e-06
1.7662394e-05 -5.5338172e-05 -6.0068564e-06 -3.950735e-06 0.00017023688 7.7424575e-06 -4.2272484e-07 1.966637e-06
-0.00022833011 3.2418259e-06 -0.00013669848 -0.0001888968 0.00012502189 0.00031101488 -0.00013581764 -0.0001628567
0.00020340113 -0.00015426998 0.0003909205 -0.00036962668 0.00024199918 -0.00034725343 0.00028749084 -0.0031840776
-0.00019991388 4.2900738e-05 9.66127e-05 8.792166e-05 -0.0006372124 3.4350322e-07 0.0016821111 -6.843139e-05
0.0003960439 -6.618792e-05 5.8060567e-05 0.00039071994 0.00019216337 0.000311497 -0.00018474401 -0.000314619
0.00015463849 -0.0005436683 -8.612645e-05 7.8135046e-05 0.00017799952 -2.6103592e-06 1.048896e-06 -0.00089432776
-9.507934e-06 -0.00024276847 -4.6255465e-07 -0.00015600547 0.00021659145 -2.09274e-05 6.447932e-06 0.0006393858
0.0007224034 0.00042506287 3.329625e-06 0.00052007893 -0.0007314669 -0.0024392556 0.0031529828 0.00018279985
-4.1317922e-05 2.7343084e-12 -4.219458e-12 4.7781825e-05 5.3644147e-09 -4.032014e-08 1.1382685e-06 9.286244e-13
3.1761754e-08 4.300735e-07 -9.416713e-06 3.9138604e-06 -6.3248184e-10 -9.310006e-08 2.13165e-07 -1.4327229e-09
0.00010110058 2.1169522e-10 -1.21583e-06 1.0580764e-11 2.5296586e-11 -6.206357e-10 -1.8721657e-06 -1.02383666e-07
-1.7106039e-07 -5.178156e-06 3.481082e-07 -4.950594e-06 1.0174027e-09 -2.5513296e-12 -4.2096495e-09 -8.978365e-08
-7.1099485e-08 1.3290176e-06 -3.6569574e-08 -6.8573904e-08 3.7459627e-12 -1.1170972e-08 4.5481524e-06 -1.7317223e-06
-8.462714e-11 -1.3030898e-08 3.0826906e-12 1.9648357e-07 1.1869078e-06 8.2230194e-08 -1.5127013e-07 -8.663932e-12
-1.5552811e-13 -9.458768e-13 -4.05543e-06 9.7390526e-05 8.565691e-07 2.6648562e-12 -3.281147e-11 -7.412067e-11
1.1638491e-05 -6.810872e-12 -3.6919307e-08 -2.0778134e-05 -9.861553e-09 1.20350925e-11 -7.770723e-13 9.21052e-05
00000000: b119 2539 345b 9ab6 7e84 0437 ab3d 1ab5
00000010: d2e0 3d39 3203 d036 c129 7e35 c310 3336
00000020: 455a 03b8 a2cc b039 1fe9 3139 2f2b 81b9
00000030: c67c f838 a902 9f38 17b3 deb8 4ac4 0eb8
00000040: 1fa8 9938 7664 5a38 bbea 6c39 a3ed a2b8
00000050: 5e8e 5039 70e4 f8b8 62f0 3cb8 116a 083c
00000060: 9b9a 7eb7 7a20 2db7 2ffe 3338 b976 27b9
00000070: 41cd c5b8 6e2b 8638 a7ef c2b9 108d 1539
00000080: c071 f038 9ff2 5c39 9146 99b7 5519 1139
00000090: ccdc 8538 f4e4 0938 a273 5ab9 6c6c d238
000000a0: 71f9 a9b8 7ed3 4b38 feae 6738 e989 ec38
000000b0: e036 7938 7189 e736 3d58 8139 6115 d5b6
000000c0: 3091 05b7 512e a0b9 3ce1 b3b4 e435 5d38
000000d0: bd9e 20b7 2f50 c737 70d6 fdb3 ad1a 2fb9
000000e0: fa2b 1939 e9a1 7639 1b53 b0b7 b3ad f938
000000f0: 313d e5b7 7578 0a3a 426f e5bb 0a34 4bb8
00000100: e5cf 4737 159f 21ac 1db7 ba2c d4f0 c9b7
00000110: 393a 76b0 ab59 9bb4 1f90 96b4 bf31 fcaa
00000120: 36e5 c733 5991 de34 09e7 5b37 6f13 1d37
00000130: 8a99 5e2f 8045 d0b3 2d91 0034 1314 7830
00000140: e9ac ccb7 229d 0caf b271 3a36 f5db bc2f
00000150: 0f4d 12ad fd70 2630 6ada 8c34 a3ab 86b2
00000160: b5c3 bab4 6b7d 1836 3ae8 ed34 d11c eeb6
00000170: 161e a3af 6ada 8b2b f09c 972f 8a73 15b3
00000180: 0589 a0b6 bdfc dfb4 dd77 a1b2 f87a 9d32
00000190: 1df7 872b 3397 9832 b531 4d36 d8d2 6035
000001a0: 274d 802d e765 bfb2 4093 e02a fc44 4d36
000001b0: d7cc ceb6 b14b cb33 bfe3 3cb3 cb14 26ad
000001c0: 5d6d 092a bcc9 7cab e143 c5b3 3f35 c3b7
000001d0: bd59 70b4 32ae cf2c e0e4 0b2c 74ad 5030
000001e0: d93c d8b6 57f8 452b b9b8 e8b3 ee4f aa36
000001f0: 5c24 5731 cbd3 ea2a d062 c3aa 639e 74b6
00000200: b429 9437 e91a 68b8 818e c9b6 8e90 84b6
00000210: 9d81 3239 9ae5 0137 dcf2 e2b4 91fa 0336
00000220: e66b 6fb9 258e 5936 b856 0fb9 9912 46b9
00000230: 4f18 0339 b60f a339 456a 0eb9 83c4 2ab9
00000240: 1348 5539 88c3 21b9 76f4 cc39 74ca c1b9
00000250: 29c1 7d39 910f b6b9 5eba 9639 f5ab 50bb
00000260: f99f 51b9 51f0 3338 8c9c ca38 9562 b838
00000270: 9a0a 27ba b96a b834 487a dc3a d382 8fb8
00000280: 1da4 cf39 5ece 8ab8 0f86 7338 8bd9 cc39
00000290: 767f 4939 6b50 a339 d8b7 41b9 73f3 a4b9
000002a0: 7426 2239 f684 0eba c99e b4b8 6fdc a338
000002b0: 62a5 3a39 a12d 2fb6 cbc7 8c35 5271 6aba
000002c0: 4484 1fb7 aa8f 7eb9 0755 f8b4 6695 23b9
000002d0: d31c 6339 408d afb7 505b d836 749c 273a
000002e0: ac5f 3d3a f9da de39 8672 5f36 e855 083a
000002f0: eabf 3fba ebdb 1fbb 46a2 4e3b f6ad 3f39
00000300: c84c 2db8 ec68 402c 8075 94ac 5869 4838
00000310: e451 b831 762c 2db3 9cc6 9835 38b1 822b
00000320: 6b6a 0833 dae4 e634 79fc 1db7 ce53 8336
00000330: f4da 2db0 4dee c7b3 59e2 6434 75e9 c4b0
00000340: f605 d438 e8c2 682f 9a2f a3b5 8623 3a2d
00000350: d982 de2d 5b99 2ab0 2047 fbb5 04de dbb3
00000360: b9ac 37b4 05c0 adb6 a0e3 ba34 471d a6b6
00000370: add4 8b30 ab88 33ac 78a4 90b1 15cf c0b3
00000380: 5baf 98b3 b260 b235 ac10 1db3 e742 93b3
00000390: a2cc 832c 74ea 3fb2 559c 9836 866d e8b5
000003a0: d818 baae 7fde 5fb2 d1ec 582c fef8 5234
000003b0: d74d 9f35 8796 b033 d16c 22b4 e26a 18ad
000003c0: ed1b 2faa ce1e 85ab e113 88b6 243e cc38
000003d0: fbee 6535 c885 3b2c 6e4e 10ae 3afe a2ae
000003e0: f042 4337 e2a2 efac 3591 1eb3 b44c aeb7
000003f0: 926b 29b2 3db9 532d f6b9 5aab 9a28 c138

onnx::LSTM_380 f4 [2, 256, 64]
-7.288816e-05 -2.5537374e-05 -7.2309085e-05 8.119523e-05 2.310006e-05 -0.000112318034 0.00017543318 -9.207496e-05
7.738773e-06 -5.2375523e-05 -3.1897973e-06 -3.4309636e-05 -0.00011997398 -0.00010523265 -3.9916566e-05 6.4071806e-05
-0.00013276996 2.0397962e-05 -0.00017743469 -0.00011425746 0.000100325946 -2.8408835e-05 -3.2623542e-05 0.00014100908
-6.113129e-05 -7.823788e-05 5.8325386e-05 4.4211003e-05 9.775833e-05 0.00014406235 -5.6459536e-05 -2.8951186e-05
-1.6232581e-05 0.00013309738 0.0001623004 -3.8565144e-05 -0.000115619856 -0.00013110417 -0.00015287689 9.8085045e-05
-0.00012900602 6.9538364e-05 -8.9047906e-05 -0.00010943951 4.158374e-05 0.000110616355 -7.9368976e-05 -6.3802836e-05
9.396734e-05 -0.00010334214 -0.00011316137 9.233456e-06 -6.298862e-05 5.7796882e-05 -0.00015818299 -7.599733e-05
0.00012776192 -7.449908e-05 0.00013796354 -6.1599385e-05 -0.0001437579 -0.00012068747 -0.00010361493 -0.00011717132
0.00025703709 -0.00018044244 -0.0002232288 0.0002218353 0.00017295785 -0.0001468699 0.00020194627 -0.000114532246
-0.00017778171 -0.00021185864 0.0003222342 0.00024864596 -0.00011878275 -0.00023169327 0.00020398202 -0.00019550657
-0.000103426704 0.00014198391 -0.00018291343 0.00026782523 -0.0002941014 0.0001793261 -0.00014827223 0.00013852384
-0.0001728918 -0.0002919203 0.0002570693 -0.00014628615 0.0002223911 -0.00022841302 -0.00023186888 -0.00020138253
-0.00017510212 -0.00013445264 0.00013874435 -0.00020188036 -0.00022449809 -0.00027938563 -0.00017333857 -0.00027423297
0.0002274391 0.0001510548 -0.000118336866 -0.00022438272 0.0002640171 0.00023024318 -0.00016002581 -0.00018235511
0.00021328738 0.00027060194 0.00034821863 -0.00021696581 -0.00022003597 0.0002180525 0.00035802537 0.00027693037
-0.00034064442 -0.00018759207 1.2466648e-05 -0.000160496 0.00037633773 0.00026790227 -0.00019585255 -0.00014963349
0.00010809602 -0.0001600275 -0.00015829716 0.00019374781 0.00019204908 -0.00017140295 0.00017198763 -0.0001381209
-0.00019439502 -0.00025180544 0.00025167665 0.00021020538 -0.00016299715 -0.00025346092 0.00015940206 -0.00017713352
-0.00012324144 0.00013997198 -0.00018269451 0.00010456417 -0.0001335183 0.00014707424 -0.00012210684 0.00014646079
-0.00015391238 -0.0002380704 0.00022500209 -0.00015129079 0.00023040675 -0.00011373871 -0.00019071535 -0.00024488266
-0.0001392366 -5.3272547e-06 0.000116317846 -0.00017200834 -0.0001697924 -0.00017471693 -0.00018893862 -9.0998234e-05
6.79488e-05 0.00011377029 -0.00013754245 -0.00021256837 0.00018206378 0.00016826685 -0.00013438224 -0.00020940822
0.00019895883 0.0002045993 0.00014122736 -0.00016176558 -0.00021554127 0.00018237474 0.00019495889 0.00011565316
-0.00015202475 -0.00017435961 4.2984986e-05 -0.00020427571 0.0002138746 0.00011451934 -0.00018270903 -0.00020142431
0.00019063873 -0.0002007764 -0.0002275157 0.00020128803 0.00022110589 -0.00016380893 0.00021274752 -0.0001645021
-0.00020285619 -0.00026643762 0.00032568758 0.00025542305 -0.00017155423 -0.00027224404 0.00018356406 -0.00021484352
-0.00010527431 0.00016822886 -0.00022106191 0.00018414222 -0.0002498587 0.00018721158 -0.00014259279 0.000159734
-0.0001846958 -0.0003126059 0.00025471023 -0.00017010959 0.00024131153 -0.00018218436 -0.00023738858 -0.000264007
-0.00017607525 -5.469942e-05 0.00014501027 -0.00021838705 -0.0002125509 -0.00025410045 -0.00019906586 -0.0001878579
0.00012943885 0.00014585526 -0.00012452826 -0.0002727427 0.00025363878 0.0002063567 -0.00016049626 -0.00020109692
0.0002218656 0.00028688408 0.00025555398 -0.00020415476 -0.0002501976 0.00022110234 0.000310985 0.00020108029
-0.00025436335 -0.00019891876 3.768206e-05 -0.00022575837 0.00033364448 0.00019781115 -0.000216055 -0.00020541239
00000000: 88db 98b8 1839 d6b7 a5a4 97b8 5b47 aa38
00000010: 00c7 c137 498c ebb8 7cf4 3739 5e18 c1b8
00000020: c7d5 0137 caad 5bb8 4d10 56b6 b1e7 0fb8
00000030: 8a9a fbb8 59b0 dcb8 166c 27b8 4a5e 8638
00000040: 2a38 0bb9 4a1c ab37 c30d 3ab9 829d efb8
00000050: 1566 d238 824f eeb7 43d5 08b8 d6db 1339
00000060: 9d33 80b8 a413 a4b8 68a2 7438 346f 3938
00000070: 9b03 cd38 710f 1739 f7ce 6cb8 33dc f2b7
00000080: 342b 88b7 0e90 0b39 2f2f 2a39 02c1 21b8
00000090: f078 f2b8 0279 09b9 944d 20b9 02b3 cd38
000000a0: ca45 07b9 20d5 9138 3bbf bab8 e482 e5b8
000000b0: 336a 2e38 b4fa e738 e572 a6b8 e3cd 85b8
000000c0: 5510 c538 64b9 d8b8 0c51 edb8 64e9 1a37
000000d0: c218 84b8 ee6a 7238 ecdd 25b9 c260 9fb8
000000e0: d4f7 0539 643c 9cb8 4eaa 1039 eb2e 81b8
000000f0: b8bd 16b9 9819 fdb8 d84b d9b8 e0b9 f5b8
00000100: efc2 8639 2635 3db9 8612 6ab9 769c 6839
00000110: 055c 3539 1701 1ab9 8ac1 5339 0831 f0b8
00000120: ea6a 3ab9 5f26 5eb9 8bf1 a839 b25c 8239
00000130: 011b f9b8 b0f2 72b9 02e4 5539 e500 4db9
00000140: cae6 d8b8 84e1 1439 73cc 3fb9 e56a 8c39
00000150: 9f31 9ab9 7c09 3c39 8679 1bb9 b640 1139
00000160: 4a4a 35b9 e10c 99b9 42c7 8639 6464 19b9
00000170: a831 6939 2782 6fb9 d421 73b9 362a 53b9
00000180: 9e9b 37b9 dbfb 0cb9 e77b 1139 d9af 53b9
00000190: 3f67 6bb9 817a 92b9 38c2 35b9 edc6 8fb9
000001a0: b87c 6e39 7764 1e39 9f2b f8b8 4748 6bb9
000001b0: c66b 8a39 6f6d 7139 9acc 27b9 9436 3fb9
000001c0: e5a5 5f39 94df 8d39 1d91 b639 5181 63b9
000001d0: 75b9 66b9 06a5 6439 5ab5 bb39 f730 9139
000001e0: 8598 b2b9 5db4 44b9 d827 5137 d14a 28b9
000001f0: 324f c539 3c75 8c39 c55d 4db9 efe6 1cb9
00000200: 9cb1 e238 0ecd 27b9 92fc 25b9 c828 4b39
00000210: c860 4939 a1ba 33b9 9457 3439 8cd4 10b9
00000220: 84d6 4bb9 c104 84b9 78f3 8339 946a 5c39
00000230: 37ea 2ab9 f3e2 84b9 2a25 2739 ebbc 39b9
00000240: 5f3a 01b9 71c5 1239 af91 3fb9 7649 db38
00000250: 0c01 0cb9 f137 1a39 ce09 00b9 4593 1939
00000260: 8a63 21b9 89a2 79b9 8aee 6b39 d0a3 1eb9
00000270: 5799 7139 0187 eeb8 c3fa 47b9 9863 80b9
00000280: 0a00 12b9 c5c0 b2b6 abef f338 235d 34b9
00000290: 4d0a 32b9 3834 37b9 d31d 46b9 4ed6 beb8
000002a0: bc7f 8e38 f697 ee38 4539 10b9 e3e4 5eb9
000002b0: 60e8 3e39 ca70 3039 f5e8 0cb9 9794 5bb9
000002c0: 9b9f 5039 b589 5639 6e16 1439 9e9f 29b9
000002d0: eb02 62b9 d93b 3f39 e16d 4c39 d18a f238
000002e0: d568 1fb9 4dd4 36b9 c74a 3438 d832 56b9
000002f0: 8743 6039 1a2a f038 9595 3fb9 6d35 53b9
00000300: 32e6 4739 8187 52b9 4891 6eb9 d810 5339
00000310: a9d8 6739 20c4 2bb9 fa14 5f39 327e 2cb9
00000320: cbb5 54b9 a7b0 8bb9 0cc1 aa39 4dea 8539
00000330: 3de3 33b9 fabb 8eb9 1a7b 4039 9e47 61b9
00000340: b7c6 dcb8 9766 3039 dbcc 67b9 4d16 4139
00000350: 78ff 82b9 3a4e 4439 f684 15b9 457e 2739
00000360: e7aa 41b9 41e5 a3b9 a18a 8539 725f 32b9
00000370: 9208 7d39 be08 3fb9 83eb 78b9 6b6a 8ab9
00000380: d7a0 38b9 0e6d 65b8 e60d 1839 d4fe 64b9
00000390: 33e0 5eb9 c938 85b9 56bc 50b9 b9fb 44b9
000003a0: fab9 0739 b9f0 1839 cd93 02b9 e8fe 8eb9
000003b0: d2fa 8439 7461 5839 e34a 28b9 8bdd 52b9
000003c0: 98a4 6839 ee68 9639 e0fb 8539 6012 56b9
000003d0: f42c 83b9 b5d7 6739 b30b a339 14d9 5239
000003e0: 125c 85b9 d994 50b9 ce0c 1e38 8db9 6cb9
000003f0: 01ed ae39 876b 4f39 d38c 62b9 f863 57b9
