LOSO/models/model_without_subj_7.pth (torch, 549103 bytes, 18 tensors)

lstm.weight_ih_l0 f4 [256, 6]
0.007529951 0.0034017814 0.03622004 0.036275856 0.0023975393 0.032209978 0.010158459 0.01005682
0.011986065 0.010214776 0.0071683074 0.010311822 -7.55755e-08 -6.237385e-08 -9.579315e-08 -7.187096e-08
-6.9826065e-08 -8.391418e-08 0.008643081 0.01160975 0.02998591 0.023378294 0.016677398 0.026360696
-1.6358379e-06 -1.2108023e-06 -2.13256e-06 -1.6601601e-06 -1.9226306e-06 -1.7700099e-06 -0.00064155477 -0.0005631798
-0.00080869196 -0.0006388775 -0.0005986216 -0.0007261425 -5.233775e-05 -5.287348e-05 -6.315613e-05 -5.1620424e-05
-4.3378237e-05 -5.69328e-05 4.876411e-07 3.0346652e-07 4.2614943e-07 4.0156166e-07 7.4942804e-08 4.3204463e-07
-1.3994763e-05 -1.3008678e-05 -1.4796485e-05 -1.3539841e-05 -1.3429815e-05 -1.4616402e-05 -2.6257933e-06 -2.0197815e-06
-3.2334526e-06 -2.654684e-06 -2.7916462e-06 -2.8166528e-06 -3.5116165e-07 1.6555225e-06 -1.2079607e-07 2.969388e-07
-1.2543301e-06 -1.5466401e-06 -2.5300372e-08 -2.4556794e-08 -3.0866698e-08 -2.1964366e-08 -2.0835374e-08 -2.7266172e-08
-0.0013147997 -0.0010956419 -0.0016081531 -0.0012995704 -0.001283016 -0.001421822 0.011263779 0.014751215
0.022526633 0.013619041 0.014219279 0.017522804 -0.0012126663 -0.0010357574 -0.0015562626 -0.0012344638
-0.0012242348 -0.0013417362 -0.0019651493 -0.0016956488 -0.002331776 -0.0019747594 -0.001877443 -0.0021869054
-1.0060196e-06 -8.5195916e-07 -1.1858397e-06 -9.993033e-07 -1.1091964e-06 -1.1614702e-06 0.0032639243 0.0031394763
0.0034559711 0.0034152346 0.002417804 0.0030482765 0.0058079897 0.008824075 0.026641317 0.022049092
0.010084109 0.023208875 -1.9020351e-07 -1.3556101e-07 -3.085331e-07 -1.6027539e-07 -1.4132397e-07 -2.525963e-07
-0.0025212173 -0.0020721008 -0.0030938825 -0.0025456613 -0.0025473563 -0.0027335202 -0.0002405191 -0.0001986791
-0.0002943727 -0.00023718443 -0.00023774825 -0.00026346213 -0.0007920588 -0.00068121724 -0.0009660936 -0.0007936349
-0.0007662829 -0.00087677286 -7.26332e-06 -6.0412062e-06 -8.729634e-06 -7.1098193e-06 -7.006471e-06 -7.904724e-06
-7.391664e-05 -6.187507e-05 -8.9690024e-05 -7.226758e-05 -7.035115e-05 -8.1012484e-05 -1.4921923e-06 -9.005203e-07
-2.240783e-06 -1.3963025e-06 -1.6182131e-06 -2.021558e-06 -1.0603922e-06 -1.041326e-06 -1.3628035e-06 -1.0551411e-06
-9.768573e-07 -1.1882624e-06 -7.199854e-05 -6.417258e-05 -8.664447e-05 -7.1721515e-05 -6.805844e-05 -7.92182e-05
-1.945221e-05 -1.7058874e-05 -2.3585637e-05 -1.8646653e-05 -1.7903849e-05 -2.222628e-05 -4.825625e-06 -4.2315487e-06
-5.448022e-06 -4.625932e-06 -4.3136497e-06 -5.3143012e-06 -0.0015636194 -0.0013375003 -0.0018296211 -0.001516202
-0.0013838029 -0.0017579646 -7.9179046e-09 -7.17018e-09 3.1120755e-09 -7.969133e-09 -5.8937744e-09 -5.349883e-09
0.009331107 0.010211703 0.015524639 0.013504949 0.011766862 0.013532097 -0.00011836246 -0.00011449381
-0.00013323034 -0.00011245961 -9.4734205e-05 -0.00012636982 1.4658392e-06 2.6671134e-06 3.0851784e-06 1.6585831e-06
-1.0253273e-06 1.5624505e-06 -9.125598e-06 -7.506716e-06 -1.2700546e-05 -8.444751e-06 -8.249775e-06 -1.0882211e-05
-5.983029e-06 -4.744549e-06 -8.7737735e-06 -5.2568475e-06 -4.501342e-06 -7.4165837e-06 -0.00087391096 -0.0006768063
-0.0011325394 -0.0008774106 -0.001001117 -0.0009431812 -0.003312294 -0.002848099 -0.004269206 -0.0032993546
-0.0031449313 -0.003663518 -7.086086e-05 -5.732218e-05 -8.5951666e-05 -6.77466e-05 -6.382857e-05 -7.75533e-05
-1.596809e-05 -1.7070213e-05 -1.9517693e-05 -1.7024588e-05 -1.8666917e-05 -1.69985e-05 -6.911009e-08 -7.960665e-08
-6.970124e-08 -7.944516e-08 -9.6181964e-08 -7.0321235e-08 -0.0001591142 -0.00013459846 -0.00019433377 -0.00015912649
00000000: cfbd f63b 6cf0 5e3b 775b 143d fe95 143d
00000010: 0920 1d3b 9cee 033d aa6f 263c 5cc5 243c
00000020: 3361 443c e05b 273c 1fe4 ea3b ebf2 283c
00000030: 124c a2b3 63f2 85b3 d7b6 cdb3 7a57 9ab3
00000040: 49f3 95b3 4f34 b4b3 b69b 0d3c d236 3e3c
00000050: 03a5 f53c d683 bf3c 0a9f 883c 63f2 d73c
00000060: f68e dbb5 da82 a2b5 1a1d 0fb6 abd2 deb5
00000070: 8b06 01b6 1491 edb5 032e 28ba 5ba2 13ba
00000080: 66fe 53ba 587a 27ba d1ec 1cba 995a 3eba
00000090: 3b85 5bb8 78c4 5db8 b072 84b8 0283 58b8
000000a0: 07f1 35b8 21cb 6eb8 71e6 0235 1fec a234
000000b0: 88c9 e434 3796 d734 3ef0 a033 c3f3 e734
000000c0: 0dcb 6ab7 d93f 5ab7 6b3e 78b7 2d29 63b7
000000d0: 9e50 61b7 f838 75b7 c936 30b6 958b 07b6
000000e0: 4bfe 58b6 2027 32b6 1e58 3bb6 ba05 3db6
000000f0: 4a87 bcb4 5233 de35 2cb4 01b4 f56a 9f34
00000100: 745a a8b5 2696 cfb5 1b54 d9b2 f6f0 d2b2
00000110: 4b92 04b3 27ac bcb2 79f9 b2b2 f236 eab2
00000120: 5b55 acba a49b 8fba aac8 d2ba 5956 aaba
00000130: e02a a8ba 6e5c baba b78b 383c 15af 713c
00000140: c689 b83c 6622 5f3c fbf7 683c fc8b 8f3c
00000150: 54f2 9eba 40c2 87ba 82fb cbba bbcd a1ba
00000160: 8176 a0ba 32dd afba bcc9 00bb 8840 deba
00000170: b6d0 18bb f76a 01bb 8914 f6ba 2f52 0fbb
00000180: 9206 87b5 30b2 64b5 2429 9fb5 cd1f 86b5
00000190: b3df 94b5 d0e3 9bb5 90e7 553b acbf 4d3b
000001a0: 937d 623b 21d2 5f3b 0574 1e3b 98c5 473b
000001b0: f350 be3b da92 103c e43e da3c 4ca0 b43c
000001c0: d237 253c 8a20 be3c be3a 4cb4 ba8e 11b4
000001d0: 77a4 a5b4 2a18 2cb4 d6be 17b4 929c 87b4
000001e0: 023b 25bb 15cc 07bb bcc2 4abb 1cd5 26bb
000001f0: 8cf1 26bb dc24 33bb db33 7cb9 8454 50b9
00000200: 0956 9ab9 b6b4 78b9 0f4c 79b9 4a21 8ab9
00000210: 2ba2 4fba b793 32ba 7241 7dba f00b 50ba
00000220: 60e0 48ba 3bd7 65ba 72b7 f3b6 91b5 cab6
00000230: 7e75 12b7 e290 eeb6 2119 ebb6 889e 04b7
00000240: b203 9bb8 edc2 81b8 f717 bcb8 5d8e 97b8
00000250: 7c89 93b8 3fe5 a9b8 5647 c8b5 49bb 71b5
00000260: 5c60 16b6 9768 bbb5 6131 d9b5 1aaa 07b6
00000270: cc52 8eb5 b0c3 8bb5 92e9 b6b5 5f9e 8db5
00000280: 901c 83b5 637c 9fb5 ecfd 96b8 6494 86b8
00000290: e5b4 b5b8 3269 96b8 99ba 8eb8 f321 a6b8
000002a0: 4e2d a3b7 a719 8fb7 c5d9 c5b7 626b 9cb7
000002b0: 3930 96b7 9372 bab7 ceeb a1b6 bafc 8db6
000002c0: 27ce b6b6 7438 9bb6 f8bd 90b6 8051 b2b6
000002d0: 5cf2 ccba 104f afba e6cf efba 4cbb c6ba
000002e0: b860 b5ba 816b e6ba 5007 08b2 925d f6b1
000002f0: 36dc 5531 9ee8 08b2 3082 cab1 12d2 b7b1
00000300: 80e1 183c fd4e 273c 0e5b 7e3c dd43 5d3c
00000310: ccc9 403c bbb5 5d3c 5d39 f8b8 651c f0b8
00000320: bfb3 0bb9 4bd8 ebb8 0aac c6b8 2482 04b9
00000330: dabd c435 a9fc 3236 f60a 4f36 7b9c de35
00000340: fa9d 89b5 64b5 d135 251a 19b7 33e2 fbb6
00000350: 6e14 55b7 eead 0db7 8468 0ab7 be92 36b7
00000360: d4c1 c8b6 5e33 9fb6 1233 13b7 fa63 b0b6
00000370: 3c0a 97b6 f8db f8b6 2c17 65ba b46b 31ba
00000380: b771 94ba 0702 66ba ea37 83ba d23f 77ba
00000390: 1213 59bb 2ca7 3abb b2e4 8bbb fc39 58bb
000003a0: 311b 4ebb a217 70bb 229b 94b8 396d 70b8
000003b0: f340 b4b8 2e13 8eb8 b4db 85b8 1ca4 a2b8
000003c0: 36f3 85b7 0132 8fb7 edb9 a3b7 06d0 8eb7
000003d0: e696 9cb7 0098 8eb7 ac69 94b3 38f4 aab3
000003e0: a9ae 95b3 709b aab3 988c ceb3 8203 97b3
000003f0: e5d7 26b9 0023 0db9 13c6 4bb9 31db 26b9

lstm.weight_hh_l0 f4 [256, 64]
0.00057811075 -0.0020715857 2.2832137e-06 0.00063189113 -9.033439e-06 -0.00016684129 3.0154382e-05 -9.621008e-06
3.4669825e-05 1.6360396e-05 3.4584365e-05 -1.4081639e-06 -0.00037474607 0.0016153948 -0.00020527976 0.00050300977
-8.275698e-06 0.00027175836 -3.8670765e-05 6.7073724e-06 -0.0005923447 0.00015771677 0.00022812467 2.3616345e-05
-6.075311e-05 2.0875663e-05 2.751886e-05 -2.6731583e-05 -1.2238592e-05 2.0434958e-05 -0.00019671122 -2.5766033e-06
-0.0009016143 5.548965e-06 -3.3065193e-05 3.6300276e-05 2.2126016e-05 -0.00011995088 0.00040211563 -2.9189837e-06
1.3504484e-05 3.6817758e-06 -0.00012327245 -1.8254897e-05 1.1385204e-05 -3.928854e-05 -2.1597264e-06 -0.0010639325
3.548657e-06 3.7492575e-06 5.0338946e-05 4.531692e-05 -6.798321e-05 1.3360366e-05 9.475386e-05 2.7926044e-06
-0.0024582543 1.1203425e-05 4.1509917e-05 0.0010831861 9.6981685e-06 -4.125632e-06 -1.5120341e-05 2.2553812e-05
0.0008320626 0.00014068562 1.2379243e-06 0.0005168926 -8.814114e-06 -5.3577263e-05 -2.929087e-05 -7.504049e-06
2.9837563e-06 8.7623275e-06 -5.665046e-06 -3.6370483e-07 -0.00014947273 6.0055547e-05 -0.00018399018 0.00012750684
6.0676193e-06 -0.0002029472 -0.0006517184 -9.063923e-07 -0.00020005622 6.259234e-05 4.2879907e-05 1.0747936e-05
-3.4537818e-05 -9.079667e-06 5.0039927e-07 -2.9268906e-06 -5.4476823e-06 2.8459199e-06 -5.4021173e-05 8.603366e-08
0.00027613444 -2.6035637e-05 1.9992038e-05 -1.5937101e-05 6.2857964e-07 -0.00019525527 0.00017133025 2.1278996e-05
2.6767771e-05 1.6894588e-06 -3.164818e-05 1.0923762e-05 4.742087e-06 1.8065984e-05 -3.4317707e-06 0.00013317846
-4.4996497e-07 8.287658e-07 8.087705e-06 -0.0008183225 9.351309e-06 -1.5111945e-06 -2.4687744e-05 1.1704227e-06
0.00018661062 2.7636333e-06 -1.924307e-05 0.00022816962 6.2441927e-06 -4.1529065e-06 7.225389e-06 -2.2426086e-05
-1.3376054e-10 -1.2103726e-09 -1.1338696e-11 6.148767e-10 5.883051e-11 2.9601382e-10 3.1056765e-11 4.6107798e-11
-8.511636e-11 -6.381882e-11 5.6122034e-12 2.4517296e-12 1.0672127e-09 1.1937709e-09 8.901354e-10 -8.914163e-10
-3.2350657e-11 6.424613e-10 -1.08049826e-10 -1.0470123e-11 1.6671575e-09 -4.672639e-10 -3.5977435e-10 -9.0878416e-11
2.2628993e-10 2.5753386e-11 -3.0363982e-12 1.0039819e-12 9.654871e-11 -4.7404896e-11 -3.0927984e-12 2.8345132e-12
-5.6600474e-11 -1.0111561e-11 -8.229691e-11 9.722518e-11 -6.509088e-11 1.1279401e-09 -1.0748864e-09 -2.0646994e-10
-1.5499392e-10 -1.2932538e-11 2.5601005e-10 -6.342604e-11 -3.5750947e-11 -1.0941476e-10 1.8872083e-11 -7.3411344e-10
-1.6876708e-11 7.8634365e-12 -1.0959201e-10 3.9790707e-10 -1.8251064e-11 3.138583e-12 8.9664935e-11 -8.738071e-12
-1.4466978e-09 -3.3334942e-11 1.1020425e-10 1.3089984e-09 -5.5434754e-11 3.6595987e-11 -2.999757e-11 5.6215754e-11
-0.0016855963 -8.196897e-05 5.0839144e-06 -0.0012646345 -2.3407589e-05 -0.00025638472 -0.00013050159 -2.2285745e-05
5.768399e-05 1.6739838e-05 2.9823956e-05 -4.473885e-06 -0.00050153333 -0.00041147738 -0.00046315836 0.0006009015
1.18834905e-05 0.0005484252 0.0015071819 5.638141e-06 -0.0006822318 0.0002226895 0.00022607423 3.7808775e-05
-0.00010356674 -5.62135e-06 2.5285065e-06 -4.039917e-05 -1.2980657e-05 4.986896e-07 -0.00037045468 -3.3117346e-06
-0.0015755064 -0.00016747006 3.6084868e-06 -2.6739217e-05 5.6968915e-05 -0.0005063577 0.00060409104 5.39511e-06
5.5190867e-05 2.9812364e-07 -0.00015111074 1.2709813e-05 1.7633516e-05 1.4257647e-05 -8.514619e-06 0.0005084133
-4.8025304e-06 6.178257e-06 7.003917e-05 0.0020958413 -5.9027487e-05 5.6461427e-06 1.6473145e-05 6.829897e-06
-4.8436243e-05 -9.524008e-06 -1.7532222e-05 -0.00074570614 2.4609148e-05 2.7865442e-06 -4.7893072e-06 8.872852e-06
00000000: 5b8c 173a 71c3 07bb 5039 1936 7fa5 253a
00000010: 538e 17b7 1ef2 2eb9 0bf4 fc37 ea69 21b7
00000020: 716a 1138 af3d 8937 ae0e 1138 2500 bdb5
00000030: 9179 c4b9 a8bb d33a 5e40 57b9 6adc 033a
00000040: dad7 0ab7 ca7a 8e39 6b32 22b8 e40f e136
00000050: 9447 1bba c660 2539 c034 6f39 b71b c637
00000060: 28d1 7eb8 251e af37 4dd8 e637 a33d e0b7
00000070: 5a54 4db7 bd6b ab37 4444 4eb9 b5e9 2cb6
00000080: 505a 6cba 3f31 ba36 7baf 0ab8 2041 1838
00000090: 429b b937 238e fbb8 0cd3 d239 c2e3 43b6
000000a0: 5191 6237 6d14 7736 b242 01b9 1822 99b7
000000b0: 1403 3f37 c0c9 24b8 d1ef 10b6 a773 8bba
000000c0: 7725 6e36 c19b 7b36 0823 5338 ac12 3e38
000000d0: 3592 8eb8 5626 6037 97b6 c638 9468 3b36
000000e0: aa1a 21bb 58f6 3b37 ef1a 2e38 b2f9 8d3a
000000f0: 51b5 2237 e96e 8ab6 5fad 7db7 f131 bd37
00000100: c71e 5a3a 0285 1339 c126 a635 1380 073a
00000110: 55e0 13b7 26b8 60b8 aab5 f5b7 4acb fbb6
00000120: 8b3c 4836 e901 1337 6016 beb6 3643 c3b4
00000130: c8bb 1cb9 27e4 7b38 7ded 40b9 5bb3 0539
00000140: 7498 cb36 39ce 54b9 15d8 2aba ce4e 73b5
00000150: 2fc6 51b9 0244 8338 f3d9 3338 0952 3437
00000160: b3dc 10b8 df54 18b7 2d53 0635 996b 44b6
00000170: 3ccb b6b6 88fc 3e36 cb94 62b8 81c1 b833
00000180: 23c6 9039 1b67 dab7 93b4 a737 aab0 85b7
00000190: aabb 2835 70bd 4cb9 1da7 3339 4c80 b237
000001a0: 5a8b e037 5dc1 e235 f9bd 04b8 3345 3737
000001b0: 381e 9f36 688c 9737 5f4d 66b6 d2a5 0b39
000001c0: b792 f1b4 5a78 5e35 6eb0 0737 b284 56ba
000001d0: 91e3 1c37 3fd4 cab5 8718 cfb7 6b17 9d35
000001e0: e8ac 4339 dc76 3936 2e6c a1b7 d140 6f39
000001f0: 3585 d136 3259 8bb6 9e71 f236 a71f bcb7
00000200: 3f12 13af 335a a6b0 f278 47ad 1a04 2930
00000210: a25e 812e 3ebc a22f cf96 082e c4c8 4a2e
00000220: 402c bbae cd56 8cae 3c76 c52c 6f86 2c2c
00000230: 35ad 9230 1412 a430 b6ad 7430 d807 75b0
00000240: 9a47 0eae 3299 3030 a59a edae 3e31 38ad
00000250: e421 e530 c670 00b0 bdc9 c5af 00d8 c7ae
00000260: f4ce 782f 7887 e22d e3aa 55ac 434c 8d2b
00000270: 1850 d42e 2b7d 50ae e7a2 59ac 0d76 472c
00000280: 78ee 78ae 6ce2 31ad 0bf9 b4ae e9cc d52e
00000290: e822 8fae dd05 9b30 34bb 93b0 1f04 63af
000002a0: e96a 2aaf f982 63ad 36be 8c2f b079 8bae
000002b0: fd3b 1dae 099b f0ae 2700 a62d a4ca 49b0
000002c0: f872 94ad c555 0a2d d1fe f0ae 71c0 da2f
000002d0: be89 a0ad afdb 5c2c df2c c52e c6b8 19ad
000002e0: 27d5 c6b0 cf9b 12ae 7a57 f22e 49e8 b330
000002f0: fccd 73ae 6bf3 202e 43ee 03ae 503d 772e
00000300: 3aef dcba c1e6 abb8 7e96 aa36 18c2 a5ba
00000310: 6a5b c4b7 606b 86b9 41d7 08b9 46f2 bab7
00000320: b6f1 7138 876c 8c37 752e fa37 611e 96b6
00000330: 5579 03ba 8fbb d7b9 10d4 f2b9 d185 1d3a
00000340: 345f 4737 31c4 0f3a a28c c53a 432f bd36
00000350: cdd7 32ba c281 6939 570e 6d39 dd94 1e38
00000360: f831 d9b8 079f bcb6 69af 2936 4772 29b8
00000370: 7fc7 59b7 b0dd 0535 9639 c2b9 2b3f 5eb6
00000380: 3981 ceba e79a 2fb9 5529 7236 084e e0b7
00000390: e8f1 6e38 17bd 04ba dd5b 1e3a a407 b536
000003a0: be7c 6738 cd0d a034 7b73 1eb9 3b3c 5537
000003b0: b0eb 9337 2134 6f37 03da 0eb7 0a47 053a
000003c0: 6c25 a1b6 d34e cf36 fee1 9238 625a 093b
000003d0: 4894 77b8 ff73 bd36 cf2f 8a37 5e2c e536
000003e0: 0528 4bb8 4ec9 1fb7 2912 93b7 7e7b 43ba
000003f0: be6f ce37 7700 3b36 d6b3 a0b6 9cdc 1437

lstm.bias_ih_l0 f4 [256]
0.052865837 0.020148618 -1.5734287e-07 0.043873277 -3.5062458e-06 -0.0012825669 -8.289976e-05 -2.928847e-06
-1.8593795e-05 -4.429153e-06 9.915386e-07 -3.826993e-08 -0.0025675024 0.035120737 -0.002660885 -0.003537719
-1.8480937e-06 0.004575914 0.036939286 -5.722797e-07 -0.0046050064 -0.00045793195 -0.0014488925 -1.3069363e-05
-0.00014518326 -3.9438796e-06 -1.3198326e-06 -0.00012125244 -3.5882225e-05 -7.81752e-06 -0.002855296 3.935114e-09
0.02214785 -0.00013504624 1.5304348e-06 -2.5029196e-05 -1.2222577e-05 -0.0018594833 -0.0067262184 -0.00013261427
-4.6649657e-05 -8.855781e-08 -0.00029859078 -1.0921797e-05 -2.3332373e-06 -2.7088987e-05 -4.1318216e-07 0.009472219
-3.6763092e-06 -2.4432609e-06 -3.3805078e-05 0.050069854 -8.425977e-07 -9.26706e-07 -2.9613711e-05 -7.457439e-08
0.027759295 2.1498056e-06 -5.672974e-05 0.038989186 -4.256359e-06 7.9404595e-07 3.528013e-07 7.611585e-06
0.07486782 0.0064729103 -1.6439435e-07 0.033451285 -3.4554776e-06 -0.0012790076 -8.216308e-05 -2.432913e-06
-1.8853183e-05 -4.7885637e-06 -4.5284905e-06 -5.403809e-08 -0.0025559512 0.013087351 -0.0026700522 -0.0035269521
-1.9318727e-06 0.0025647397 0.035126444 -6.082773e-07 -0.0045768246 -0.00045517454 -0.0014468859 -1.3025472e-05
-0.00014433927 -3.868521e-06 -1.3970077e-06 -0.00012211369 -3.506426e-05 -7.6476945e-06 -0.0028312518 -1.337474e-10
0.014252836 -0.00013851016 -3.7432621e-06 -2.5639902e-05 -1.5808024e-05 -0.0018738805 -0.0066391136 -0.00013157466
-4.6292796e-05 -9.618074e-08 -0.0002984309 -1.1223242e-05 -2.350031e-06 -2.9469793e-05 -4.2142807e-07 0.0028522534
-3.6554218e-06 -2.3066575e-06 -3.4841923e-05 0.05921596 -4.3799264e-06 -1.0852973e-06 -3.1624473e-05 -7.783338e-08
0.009692876 5.945411e-08 -5.8819e-05 0.01888929 -4.3406794e-06 7.668683e-07 -5.667977e-07 1.0714201e-06
0.101223186 -0.056002352 -7.2167e-05 0.075439 0.00010311496 0.00051627157 -0.00017675014 1.677188e-05
9.2115435e-05 -0.00013808337 0.0006695363 4.4757126e-05 0.0003372788 0.10783651 0.0004698299 0.00021402592
-0.00012341625 0.0008492414 -0.06838424 -0.00013951227 2.8959932e-05 -0.0004973936 -0.00049096014 -0.000119118245
0.0001933764 0.0003166368 0.00023493836 0.00033250015 0.00014541866 -1.2052504e-05 0.0008286631 1.21822495e-05
0.021086182 -2.3329416e-05 -0.00073159306 0.000546532 4.448785e-05 0.00019456889 -0.0004546625 0.000105976695
-0.00044141113 -1.6895168e-05 0.00031312817 -0.00025534994 -2.1517055e-05 -0.000560276 2.209987e-05 -0.054613438
-1.3534152e-05 0.00018140406 -0.00016453696 -0.10356835 0.0005268537 -1.0161466e-05 7.2654934e-06 -4.825354e-05
-0.0723424 -0.0003963388 -4.359637e-07 0.11850201 -0.00037998368 -0.00022913418 -0.00018230113 0.00011392142
0.05198201 0.02017417 -1.5734375e-07 0.04384428 -3.506388e-06 -0.0012825994 -8.288937e-05 -2.9307564e-06
-1.8590597e-05 -4.4288186e-06 9.918989e-07 -3.826541e-08 -0.0025676843 0.0351975 -0.0026611967 -0.003538147
-1.8481227e-06 0.004576489 0.036849976 -5.718346e-07 -0.0046053724 -0.0004579286 -0.0014488461 -1.30688495e-05
-0.00014518113 -3.9443316e-06 -1.3186431e-06 -0.0001212193 -3.5881174e-05 -7.817104e-06 -0.0028553347 3.9243804e-09
0.0221642 -0.00013499621 1.5268728e-06 -2.5030899e-05 -1.22209985e-05 -0.0018596251 -0.006727636 -0.00013260431
-4.666811e-05 -8.856787e-08 -0.0002985773 -1.0921132e-05 -2.3329417e-06 -2.7088794e-05 -4.1317801e-07 0.009481903
-3.6760937e-06 -2.4434594e-06 -3.3801374e-05 0.04953823 -8.345982e-07 -9.2616915e-07 -2.9612e-05 -7.456618e-08
0.02781264 2.152173e-06 -5.6712077e-05 0.03903339 -4.256514e-06 7.93513e-07 3.5283296e-07 7.6119622e-06
00000000: d989 583d b70e a53c 14f2 28b4 77b4 333d
00000010: d84c 6bb6 ce1b a8ba 78da adb8 358d 44b6
00000020: dff9 9bb7 229e 94b6 0215 8535 3c5e 24b3
00000030: 8b43 28bb c3da 0f3d 3e62 2ebb 13d9 67bb
00000040: 040c f8b5 8cf1 953b a64d 173d c39e 19b5
00000050: 98e5 96bb 9616 f0b9 c4e8 bdba 7d44 5bb7
00000060: 563c 18b9 ab55 84b6 1a25 b1b5 e848 feb8
00000070: 3f80 16b8 fe27 03b7 eb1f 3bbb a135 8731
00000080: 686f b53c 339b 0db9 5769 cd35 caf5 d1b7
00000090: 920f 4db7 e8b9 f3ba 9c67 dcbb 5f0e 0bb9
000000a0: b0a9 43b8 2c2d beb3 2d8c 9cb9 c33c 37b7
000000b0: b694 1cb6 283d e3b7 53d3 ddb4 5e31 1b3c
000000c0: 83b6 76b6 e7f6 23b6 edc9 0db8 0c16 4d3d
000000d0: df2e 62b5 c0c2 78b5 f66a f8b7 b425 a0b3
000000e0: 7667 e33c 6145 1036 18f1 6db8 20b3 1f3d
000000f0: d8d1 8eb6 6c26 5535 a468 bd34 0467 ff36
00000100: 4d54 993d b51a d43b 6084 30b4 3704 093d
00000110: a7e4 67b6 60a4 a7ba f84e acb8 2145 23b6
00000120: e726 9eb7 73ad a0b6 70f3 97b6 8217 68b3
00000130: bf81 27bb 546c 563c 0bfc 2ebb 7024 67bb
00000140: 52a5 01b6 3115 283b bfe0 0f3d 7f48 23b5
00000150: 30f9 95bb 7ea4 eeb9 6fa5 bdba fa87 5ab7
00000160: c759 17b9 58ce 81b6 d280 bbb5 a50b 00b9
00000170: f611 13b8 994e 00b7 868c 39bb 8c0e 13af
00000180: ba84 693c 0a3d 11b9 c134 7bb6 4515 d7b7
00000190: 799b 84b7 ff9c f5ba ec8c d9bb 4ef7 09b9
000001a0: 832a 42b8 ec8b ceb3 b876 9cb9 754b 3cb7
000001b0: 3ab5 1db6 e635 f7b7 a240 e2b4 dfec 3a3b
000001c0: ab4f 75b6 13cc 1ab6 3b23 12b8 6f8c 723d
000001d0: 48f7 92b6 88aa 91b5 85a4 04b8 5a25 a7b3
000001e0: dece 1e3c 7c5a 7f33 6cb4 76b8 b6bd 9a3c
000001f0: 27a6 91b6 cada 4d35 0b26 18b5 b7cd 8f35
00000200: 1a4e cf3d b962 65bd 5d58 97b8 c37f 9a3d
00000210: 6c3f d838 6656 073a 0156 39b9 57b1 8c37
00000220: 192e c138 79ca 10b9 d283 2f3a 99b9 3b38
00000230: cbd4 b039 63d9 dc3d 8053 f639 256c 6039
00000240: 4c69 01b9 a09f 5e3a 090d 8cbd 0a4a 12b9
00000250: fbee f237 8563 02ba c7b3 00ba 1fcf f9b8
00000260: 15c5 4a39 4602 a639 c959 7639 6a53 ae39
00000270: 867b 1839 1c35 4ab7 a43a 593a 5d62 4c37
00000280: eebc ac3c 8ab3 c3b7 61c8 3fba 2445 0f3a
00000290: 7798 3a38 3005 4c39 c55f eeb9 ce3f de38
000002a0: 336d e7b9 19ba 8db7 5a2b a439 7de0 85b9
000002b0: 867f b4b7 7cdf 12ba 1c63 b937 57b2 5fbd
000002c0: bd10 63b7 4837 3e39 8e87 2cb9 a51b d4bd
000002d0: 8e1c 0a3a 2a7b 2ab7 1dca f336 d863 4ab8
000002e0: 4128 94bd b1cb cfb9 650e eab4 2fb1 f23d
000002f0: 8c38 c7b9 bd43 70b9 1628 3fb9 19e9 ee38
00000300: 17eb 543d 4d44 a53c 52f2 28b4 0f96 333d
00000310: 4a4f 6bb6 e51c a8ba e4d4 adb8 03ae 44b6
00000320: 01f3 9bb7 439b 94b6 6321 8535 4359 24b3
00000330: 9846 28bb 412b 103d 7967 2ebb 42e0 67bb
00000340: 030d f8b5 5ff6 953b 00f0 163d 2d80 19b5
00000350: aae8 96bb 2316 f0b9 35e7 bdba 4842 5bb7
00000360: c33b 18b9 8d59 84b6 3bfc b0b5 1e37 feb8
00000370: 1e7f 16b8 3526 03b7 9120 3bbb 37d7 8631
00000380: b291 b53c c58d 0db9 f3ee cc35 72f9 d1b7
00000390: ca08 4db7 aabe f3ba 8073 dcbb b30b 0bb9
000003a0: 80bd 43b8 b432 beb3 5e8a 9cb9 e839 37b7
000003b0: a28f 1cb6 be3c e3b7 c1d2 ddb4 fc59 1b3c
000003c0: cfb2 76b6 50fa 23b6 f3c5 0db8 99e8 4a3d
000003d0: 2709 60b5 dc9d 78b5 4967 f8b7 3121 a0b3
000003e0: 55d7 e33c 0d6e 1036 21de 6db8 7ae1 1f3d
000003f0: 2dd3 8eb6 cc01 5535 fe6c bd34 426a ff36

lstm.bias_hh_l0 f4 [256]
0.052865837 0.020148618 -1.5734287e-07 0.043873277 -3.5062458e-06 -0.0012825669 -8.289976e-05 -2.928847e-06
-1.8593795e-05 -4.429153e-06 9.915386e-07 -3.826993e-08 -0.0025675024 0.035120737 -0.002660885 -0.003537719
-1.8480937e-06 0.004575914 0.036939286 -5.722797e-07 -0.0046050064 -0.00045793195 -0.0014488925 -1.3069363e-05
-0.00014518326 -3.9438796e-06 -1.3198326e-06 -0.00012125244 -3.5882225e-05 -7.81752e-06 -0.002855296 3.935114e-09
0.02214785 -0.00013504624 1.5304348e-06 -2.5029196e-05 -1.2222577e-05 -0.0018594833 -0.0067262184 -0.00013261427
-4.6649657e-05 -8.855781e-08 -0.00029859078 -1.0921797e-05 -2.3332373e-06 -2.7088987e-05 -4.1318216e-07 0.009472219
-3.6763092e-06 -2.4432609e-06 -3.3805078e-05 0.050069854 -8.425977e-07 -9.26706e-07 -2.9613711e-05 -7.457439e-08
0.027759295 2.1498056e-06 -5.672974e-05 0.038989186 -4.256359e-06 7.9404595e-07 3.528013e-07 7.611585e-06
0.07486782 0.0064729103 -1.6439435e-07 0.033451285 -3.4554776e-06 -0.0012790076 -8.216308e-05 -2.432913e-06
-1.8853183e-05 -4.7885637e-06 -4.5284905e-06 -5.403809e-08 -0.0025559512 0.013087351 -0.0026700522 -0.0035269521
-1.9318727e-06 0.0025647397 0.035126444 -6.082773e-07 -0.0045768246 -0.00045517454 -0.0014468859 -1.3025472e-05
-0.00014433927 -3.868521e-06 -1.3970077e-06 -0.00012211369 -3.506426e-05 -7.6476945e-06 -0.0028312518 -1.337474e-10
0.014252836 -0.00013851016 -3.7432621e-06 -2.5639902e-05 -1.5808024e-05 -0.0018738805 -0.0066391136 -0.00013157466
-4.6292796e-05 -9.618074e-08 -0.0002984309 -1.1223242e-05 -2.350031e-06 -2.9469793e-05 -4.2142807e-07 0.0028522534
-3.6554218e-06 -2.3066575e-06 -3.4841923e-05 0.05921596 -4.3799264e-06 -1.0852973e-06 -3.1624473e-05 -7.783338e-08
0.009692876 5.945411e-08 -5.8819e-05 0.01888929 -4.3406794e-06 7.668683e-07 -5.667977e-07 1.0714201e-06
0.06616133 -0.056002367 -7.2167e-05 0.11652996 0.00010311496 0.00051627157 -0.00017675014 1.677188e-05
9.2115435e-05 -0.00013808337 0.0006695363 4.4757126e-05 0.0003372788 0.11100266 0.0004698299 0.00021402592
-0.00012341625 0.0008616394 -0.08274319 -0.00013951227 2.8959932e-05 -0.0004973936 -0.00049096014 -0.000119118245
0.0001933764 0.0003166368 0.00023493836 0.00033250015 0.00014541866 -1.2052504e-05 0.0008286631 1.21822495e-05
0.025149612 -2.3329416e-05 -0.00073159306 0.000546532 4.448785e-05 0.00019456889 -0.0004546625 0.000105976695
-0.00044141113 -1.6895168e-05 0.00031312817 -0.00025534994 -2.1517055e-05 -0.000560276 2.209987e-05 -0.054638032
-1.3534152e-05 0.00018140406 -0.00016453696 -0.020376615 0.0005268537 -1.0161466e-05 7.2654934e-06 -4.825354e-05
-0.072342835 -0.0003963388 -4.359637e-07 0.1050731 -0.00037998368 -0.00022913418 -0.00018230113 0.00011392142
0.05198201 0.02017417 -1.5734375e-07 0.04384428 -3.506388e-06 -0.0012825994 -8.288937e-05 -2.9307564e-06
-1.8590597e-05 -4.4288186e-06 9.918989e-07 -3.826541e-08 -0.0025676843 0.0351975 -0.0026611967 -0.003538147
-1.8481227e-06 0.004576489 0.036849976 -5.718346e-07 -0.0046053724 -0.0004579286 -0.0014488461 -1.30688495e-05
-0.00014518113 -3.9443316e-06 -1.3186431e-06 -0.0001212193 -3.5881174e-05 -7.817104e-06 -0.0028553347 3.9243804e-09
0.0221642 -0.00013499621 1.5268728e-06 -2.5030899e-05 -1.22209985e-05 -0.0018596251 -0.006727636 -0.00013260431
-4.666811e-05 -8.856787e-08 -0.0002985773 -1.0921132e-05 -2.3329417e-06 -2.7088794e-05 -4.1317801e-07 0.009481903
-3.6760937e-06 -2.4434594e-06 -3.3801374e-05 0.04953823 -8.345982e-07 -9.2616915e-07 -2.9612e-05 -7.456618e-08
0.02781264 2.152173e-06 -5.6712077e-05 0.03903339 -4.256514e-06 7.93513e-07 3.5283296e-07 7.6119622e-06
00000000: d989 583d b70e a53c 14f2 28b4 77b4 333d
00000010: d84c 6bb6 ce1b a8ba 78da adb8 358d 44b6
00000020: dff9 9bb7 229e 94b6 0215 8535 3c5e 24b3
00000030: 8b43 28bb c3da 0f3d 3e62 2ebb 13d9 67bb
00000040: 040c f8b5 8cf1 953b a64d 173d c39e 19b5
00000050: 98e5 96bb 9616 f0b9 c4e8 bdba 7d44 5bb7
00000060: 563c 18b9 ab55 84b6 1a25 b1b5 e848 feb8
00000070: 3f80 16b8 fe27 03b7 eb1f 3bbb a135 8731
00000080: 686f b53c 339b 0db9 5769 cd35 caf5 d1b7
00000090: 920f 4db7 e8b9 f3ba 9c67 dcbb 5f0e 0bb9
000000a0: b0a9 43b8 2c2d beb3 2d8c 9cb9 c33c 37b7
000000b0: b694 1cb6 283d e3b7 53d3 ddb4 5e31 1b3c
000000c0: 83b6 76b6 e7f6 23b6 edc9 0db8 0c16 4d3d
000000d0: df2e 62b5 c0c2 78b5 f66a f8b7 b425 a0b3
000000e0: 7667 e33c 6145 1036 18f1 6db8 20b3 1f3d
000000f0: d8d1 8eb6 6c26 5535 a468 bd34 0467 ff36
00000100: 4d54 993d b51a d43b 6084 30b4 3704 093d
00000110: a7e4 67b6 60a4 a7ba f84e acb8 2145 23b6
00000120: e726 9eb7 73ad a0b6 70f3 97b6 8217 68b3
00000130: bf81 27bb 546c 563c 0bfc 2ebb 7024 67bb
00000140: 52a5 01b6 3115 283b bfe0 0f3d 7f48 23b5
00000150: 30f9 95bb 7ea4 eeb9 6fa5 bdba fa87 5ab7
00000160: c759 17b9 58ce 81b6 d280 bbb5 a50b 00b9
00000170: f611 13b8 994e 00b7 868c 39bb 8c0e 13af
00000180: ba84 693c 0a3d 11b9 c134 7bb6 4515 d7b7
00000190: 799b 84b7 ff9c f5ba ec8c d9bb 4ef7 09b9
000001a0: 832a 42b8 ec8b ceb3 b876 9cb9 754b 3cb7
000001b0: 3ab5 1db6 e635 f7b7 a240 e2b4 dfec 3a3b
000001c0: ab4f 75b6 13cc 1ab6 3b23 12b8 6f8c 723d
000001d0: 48f7 92b6 88aa 91b5 85a4 04b8 5a25 a7b3
000001e0: dece 1e3c 7c5a 7f33 6cb4 76b8 b6bd 9a3c
000001f0: 27a6 91b6 cada 4d35 0b26 18b5 b7cd 8f35
00000200: 977f 873d bd62 65bd 5d58 97b8 42a7 ee3d
00000210: 6c3f d838 6656 073a 0156 39b9 57b1 8c37
00000220: 192e c138 79ca 10b9 d283 2f3a 99b9 3b38
00000230: cbd4 b039 5d55 e33d 8053 f639 256c 6039
00000240: 4c69 01b9 a4df 613a 4375 a9bd 0a4a 12b9
00000250: fbee f237 8563 02ba c7b3 00ba 1fcf f9b8
00000260: 15c5 4a39 4602 a639 c959 7639 6a53 ae39
00000270: 867b 1839 1c35 4ab7 a43a 593a 5d62 4c37
00000280: 8f06 ce3c 8ab3 c3b7 61c8 3fba 2445 0f3a
00000290: 7798 3a38 3005 4c39 c55f eeb9 ce3f de38
000002a0: 336d e7b9 19ba 8db7 5a2b a439 7de0 85b9
000002b0: 867f b4b7 7cdf 12ba 1c63 b937 21cc 5fbd
000002c0: bd10 63b7 4837 3e39 8e87 2cb9 dcec a6bc
000002d0: 8e1c 0a3a 2a7b 2ab7 1dca f336 d863 4ab8
000002e0: 7b28 94bd b1cb cfb9 650e eab4 9130 d73d
000002f0: 8c38 c7b9 bd43 70b9 1628 3fb9 19e9 ee38
00000300: 17eb 543d 4d44 a53c 52f2 28b4 0f96 333d
00000310: 4a4f 6bb6 e51c a8ba e4d4 adb8 03ae 44b6
00000320: 01f3 9bb7 439b 94b6 6321 8535 4359 24b3
00000330: 9846 28bb 412b 103d 7967 2ebb 42e0 67bb
00000340: 030d f8b5 5ff6 953b 00f0 163d 2d80 19b5
00000350: aae8 96bb 2316 f0b9 35e7 bdba 4842 5bb7
00000360: c33b 18b9 8d59 84b6 3bfc b0b5 1e37 feb8
00000370: 1e7f 16b8 3526 03b7 9120 3bbb 37d7 8631
00000380: b291 b53c c58d 0db9 f3ee cc35 72f9 d1b7
00000390: ca08 4db7 aabe f3ba 8073 dcbb b30b 0bb9
000003a0: 80bd 43b8 b432 beb3 5e8a 9cb9 e839 37b7
000003b0: a28f 1cb6 be3c e3b7 c1d2 ddb4 fc59 1b3c
000003c0: cfb2 76b6 50fa 23b6 f3c5 0db8 99e8 4a3d
000003d0: 2709 60b5 dc9d 78b5 4967 f8b7 3121 a0b3
000003e0: 55d7 e33c 0d6e 1036 21de 6db8 7ae1 1f3d
000003f0: 2dd3 8eb6 cc01 5535 fe6c bd34 426a ff36

lstm.weight_ih_l0_reverse f4 [256, 6]
-6.8923495e-05 -6.1582025e-05 -8.7358625e-05 -6.679604e-05 -6.123742e-05 -7.4990756e-05 -0.0010054485 -0.00087102666
-0.0012013204 -0.0009814153 -0.0009300926 -0.0010866818 -3.3264232e-06 -2.7460871e-06 -6.066673e-06 -3.7065747e-06
-4.1706644e-06 -3.847411e-06 -0.00012788242 -0.000116954514 -0.00014825466 -0.00012580476 -0.000113162685 -0.00013925105
-2.698371e-06 -2.4968851e-06 -2.580394e-06 -2.652429e-06 -2.7423089e-06 -2.6947184e-06 -0.00017953165 -0.0001567476
-0.00022082413 -0.00017409226 -0.00016814297 -0.00019520108 -0.0022228744 -0.0019572645 -0.0031089503 -0.0021876008
-0.0022144408 -0.0025972337 2.7749746e-07 3.1867324e-07 4.0811393e-08 3.302254e-07 3.2218523e-07 2.473881e-07
-8.606019e-06 -7.964175e-06 -1.2108988e-05 -8.251784e-06 -8.003085e-06 -9.56758e-06 -4.1469543e-06 -3.7406003e-06
-6.2673025e-06 -4.0848095e-06 -3.723059e-06 -4.6136283e-06 -5.441149e-07 -4.6076536e-07 -6.096694e-07 -5.156318e-07
-4.627253e-07 -5.913855e-07 0.0951761 -0.018856937 0.1284564 0.10656982 -0.026890446 0.13042407
-0.0004279005 -0.00036604094 -0.0005513573 -0.0004342174 -0.00040897494 -0.00045969925 -0.0010892866 -0.00088391197
-0.0015580145 -0.0011121149 -0.0012059603 -0.0012174613 -3.7681184e-07 -2.4371462e-07 3.2301816e-07 -3.3436456e-07
-5.5870373e-07 3.805645e-07 -2.1661954e-05 -2.863571e-05 -5.407521e-05 -2.5899555e-05 -1.962163e-05 -2.6592463e-05
-0.00026441665 -0.00024032206 -0.0003446535 -0.00026545403 -0.0002551289 -0.00029200292 -0.0015791316 -0.0013595519
-0.0020017845 -0.0015362909 -0.0015001617 -0.0017575119 -5.309106e-07 -6.6507874e-07 -5.7792573e-07 -4.7015425e-07
-4.2171197e-07 -4.894294e-07 -0.0013006902 -0.0011480604 -0.0017141005 -0.0013118499 -0.0012940041 -0.0014281549
-2.4116846e-06 -3.3682816e-06 -1.2278336e-06 -2.4212898e-06 -2.0195887e-06 -2.0507425e-06 -0.0011819467 -0.0010375413
-0.001467853 -0.0011538082 -0.0011179405 -0.0013079807 -0.0016176743 -0.0013965131 -0.002139047 -0.0016161712
-0.0015236047 -0.0017896807 -1.0302866e-05 -8.323984e-06 -1.3534513e-05 -1.0737585e-05 -1.1788475e-05 -1.1331304e-05
-0.00017243705 -0.00015073504 -0.00021364672 -0.00017649888 -0.00017705385 -0.00018611703 -7.733005e-05 -6.9020585e-05
-9.809938e-05 -7.631524e-05 -7.373697e-05 -8.416782e-05 -0.0009262168 -0.0008013557 -0.0010411409 -0.0008939307
-0.0007926704 -0.0010012634 2.4321528e-07 3.30844e-08 1.93805e-07 2.0224546e-07 3.092806e-07 1.3528111e-07
-0.00049120956 -0.00043449807 -0.0006418273 -0.00049284665 -0.00047258852 -0.00054208987 -9.6678605e-08 -8.9127866e-08
-1.12485e-07 -1.0034259e-07 -1.1628744e-07 -1.0219316e-07 -2.2284508e-05 -1.894468e-05 -2.927029e-05 -2.1343962e-05
-2.0049347e-05 -2.4688345e-05 -6.6038324e-06 -6.589467e-06 -6.314694e-06 -5.956563e-06 -5.0718495e-06 -6.176443e-06
-0.00016248605 -0.00013979929 -0.00020272876 -0.00015724587 -0.0001513879 -0.00017716181 -1.9665063e-06 -1.728032e-06
-2.2448817e-06 -2.0295242e-06 -2.189173e-06 -2.1009614e-06 -0.0024549514 -0.0021798958 -0.0032700656 -0.002458039
-0.0024112933 -0.0027169466 -0.001204774 -0.0010710374 -0.0014300592 -0.0011675274 -0.001083251 -0.0013056656
5.8547286e-08 4.5910255e-08 5.62675e-08 5.4236367e-08 3.822012e-08 6.9587216e-08 -9.571447e-07 -1.3174864e-06
-8.935352e-07 -7.994017e-07 -4.0376858e-07 -8.7090285e-07 -1.9310755e-05 -1.6703534e-05 -2.5790592e-05 -1.8356677e-05
-1.800783e-05 -2.1731263e-05 -2.1304252e-06 -1.9215063e-06 -2.9198725e-06 -2.0534658e-06 -2.0005766e-06 -2.3883968e-06
-0.00018981012 -0.00017011611 -0.0002326894 -0.0001857628 -0.00017605146 -0.00020683001 -0.00037802535 -0.00034174477
-0.0004819241 -0.00037987836 -0.00035282155 -0.00041625806 0.006696536 -0.0058011236 0.020631408 0.015679253
00000000: 058b 90b8 9925 81b8 4e34 b7b8 da14 8cb8
00000010: 976c 80b8 5b44 9db8 41c9 83ba 9c55 64ba
00000020: a075 9dba d5a2 80ba 75d1 73ba fe6e 8eba
00000030: 843b 5fb6 6b49 38b6 5390 cbb6 78be 78b6
00000040: bcf1 8bb6 0219 81b6 2d18 06b9 7a45 f5b8
00000050: cf74 1bb9 75ea 03b9 c151 edb8 eb03 12b9
00000060: a915 35b6 2990 27b6 d52a 2db6 6200 32b6
00000070: 8208 38b6 e9d6 34b6 a940 3cb9 9d5c 24b9
00000080: 078d 67b9 898c 36b9 894f 30b9 e4ae 4cb9
00000090: a5ad 11bb 7345 00bb 88bf 4bbb da5d 0fbb
000000a0: 2720 11bb 5a36 2abb f6fa 9434 1e16 ab34
000000b0: 9a48 2f33 d549 b134 cdf8 ac34 c3d0 8434
000000c0: 9262 10b7 df9d 05b7 b527 4bb7 2471 0ab7
000000d0: fd44 06b7 7184 20b7 1126 8bb6 0607 7bb6
000000e0: b84b d2b6 3f10 89b6 abd9 79b6 c4ce 9ab6
000000f0: 4b0f 12b5 1c5f f7b4 2aa8 23b5 f369 0ab5
00000100: 7b6c f8b4 b4bf 1eb5 b0eb c23d dd79 9abc
00000110: 138a 033e 4741 da3d 5a49 dcbc e38d 053e
00000120: d557 e0b9 2fe9 bfb9 f688 10ba aca7 e3b9
00000130: b06b d6b9 ca03 f1b9 65c6 8eba 54b6 67ba
00000140: 4b36 ccba 62c4 91ba 5011 9eba 3993 9fba
00000150: a04c cab4 e2d7 82b4 476b ad34 b782 b3b4
00000160: d4f9 15b5 6350 cc34 b1b6 b5b7 b836 f0b7
00000170: d1ce 62b8 df42 d9b7 2199 a4b7 e112 dfb7
00000180: 67a1 8ab9 f6fe 7bb9 9cb2 b4b9 a32c 8bb9
00000190: d2c2 85b9 f817 99b9 ddfa ceba fe32 b2ba
000001a0: 5f30 03bb 5e5d c9ba 13a1 c4ba 505c e6ba
000001b0: e683 0eb5 dd87 32b5 c122 1bb5 8269 fcb4
000001c0: a767 e2b4 5561 03b5 ec7b aaba 847a 96ba
000001d0: abab e0ba 61f2 abba 939b a9ba ed30 bbba
000001e0: 6dd8 21b6 a30a 62b6 0bcc a4b5 717d 22b6
000001f0: 4588 07b6 7d9f 09b6 8deb 9aba 1cfe 87ba
00000200: f964 c0ba 613b 97ba dc87 92ba 8d70 abba
00000210: 2408 d4ba 340b b7ba 412f 0cbb b5d5 d3ba
00000220: b1b3 c7ba b893 eaba 79da 2cb7 3da7 0bb7
00000230: 4a12 63b7 9425 34b7 1dc7 45b7 951b 3eb7
00000240: 38d0 34b9 a10e 1eb9 5b06 60b9 8f12 39b9
00000250: 88a7 39b9 6928 43b9 412c a2b8 25bf 90b8
00000260: b4ba cdb8 6f0b a0b8 3ca3 9ab8 4183 b0b8
00000270: 5bcd 72ba 1212 52ba e476 88ba ac56 6aba
00000280: 36cb 4fba d33c 83ba 4193 8234 af18 0e33
00000290: b618 5034 cf28 5934 340b a634 ca41 1134
000002a0: 84c4 00ba 58cd e3b9 4d40 28ba 6132 01ba
000002b0: c2c5 f7b9 091b 0eba a09d cfb3 9066 bfb3
000002c0: 488f f1b3 ec7b d7b3 b2b9 f9b3 4975 dbb3
000002d0: 9eef bab7 64eb 9eb7 7889 f5b7 cf0b b3b7
000002e0: a52f a8b7 d119 cfb7 7d96 ddb6 171b ddb6
000002f0: cfe2 d3b6 7dde c7b6 db2e aab6 3e3f cfb6
00000300: 0461 2ab9 1697 12b9 9693 54b9 5ee2 24b9
00000310: e1bd 1eb9 83c4 39b9 52f8 03b6 baee e7b5
00000320: c6a6 16b6 f632 08b6 b5e9 12b6 3efe 0cb6
00000330: 40e3 20bb 95dc 0ebb 994e 56bb 0d17 21bb
00000340: ca06 1ebb cd0e 32bb 82e9 9dba 0d62 8cba
00000350: d370 bbba b807 99ba dffb 8dba de22 abba
00000360: 6c75 7b33 dc2e 4533 c5aa 7133 84f1 6833
00000370: 7727 2433 fa6f 9533 3e77 80b5 7dd4 b0b5
00000380: 45db 6fb5 7796 56b5 88c5 d8b4 fdc7 69b5
00000390: 88fd a1b7 911e 8cb7 e058 d8b7 aafc 99b7
000003a0: 850f 97b7 884b b6b7 6df8 0eb6 3af3 00b6
000003b0: 07f3 43b6 46ce 09b6 a541 06b6 5848 20b6
000003c0: c407 47b9 3261 32b9 16fe 73b9 52c9 42b9
000003d0: 749a 38b9 82e0 58b9 b431 c6b9 352c b3b9
000003e0: c2aa fcb9 692a c7b9 e8fa b8b9 363d dab9
000003f0: 9e6e db3b 5a17 bebb 3303 a93c c771 803c

lstm.weight_hh_l0_reverse f4 [256, 64]
1.8239095e-07 -5.889206e-07 -1.1097121e-07 1.2397129e-07 -1.3503112e-08 -2.656349e-07 1.4163909e-06 -6.5565766e-09
3.6819607e-08 -6.463719e-08 -1.3808786e-08 -5.657387e-06 6.385974e-07 1.1652209e-06 5.3658997e-08 -3.5119808e-07
-3.699545e-07 1.1227472e-06 -2.8246454e-08 -1.0576806e-06 5.7749516e-09 6.408168e-07 -1.0759748e-06 -1.158507e-07
3.5567248e-07 -1.7559144e-07 -4.483934e-07 -1.1849114e-08 -6.136144e-07 -9.8656425e-09 1.4962798e-07 2.4222398e-08
3.1486476e-07 4.690285e-08 1.3303068e-06 4.2303583e-07 1.553268e-08 3.699282e-08 7.9255074e-08 3.7643797e-08
-1.7900489e-07 -4.6879563e-07 -9.629839e-07 -1.503069e-07 2.1535038e-06 2.7258542e-07 1.217723e-08 -6.116608e-07
-1.1999227e-06 3.6028178e-09 4.153358e-08 -7.1474034e-08 3.7495347e-08 -1.3863474e-08 4.1976783e-08 1.4098838e-07
-4.089492e-08 3.31693e-07 2.5853717e-08 2.180599e-08 2.4171632e-08 -1.3449392e-07 -3.7442663e-07 1.9963984e-07
2.2239549e-06 -7.831185e-06 -1.300939e-06 1.8228228e-06 -2.3351507e-07 -3.3039587e-06 1.6345975e-05 -1.3637354e-07
3.7410328e-07 -7.904412e-07 -1.8141981e-07 -8.276846e-05 7.97895e-06 1.4280026e-05 6.6704354e-07 -3.947436e-06
-4.5473566e-06 1.3890657e-05 -3.7830338e-07 -1.3091368e-05 -7.896311e-08 7.870656e-06 -1.3572107e-05 -1.4426053e-06
4.4699054e-06 -2.1570472e-06 -6.2236018e-06 -2.0332611e-07 -7.6012534e-06 -1.1440285e-07 1.792966e-06 3.5741684e-07
4.026069e-06 6.0028856e-07 1.6448505e-05 5.606881e-06 2.0736609e-07 4.569682e-07 8.688482e-07 4.412096e-07
-2.25202e-06 -5.8340324e-06 -1.33885205e-05 -1.6552575e-06 2.6679822e-05 3.3122874e-06 1.3776042e-07 -9.188814e-06
-1.586436e-05 5.090555e-08 4.788925e-07 -2.7112098e-06 4.4879434e-07 -1.4619434e-07 6.1733135e-07 1.8402013e-06
-5.03853e-07 4.437732e-06 3.1661463e-07 3.186784e-07 3.6255827e-07 -1.497921e-06 -4.9698024e-06 2.2444945e-06
3.885438e-08 -1.3160022e-07 -2.6487703e-08 1.5432104e-08 -3.999767e-09 -7.222042e-08 3.615321e-07 2.6656832e-09
6.0235847e-09 -2.143466e-08 -2.5002977e-09 -6.095581e-07 1.6924885e-07 2.3285766e-07 5.0330295e-09 -8.145336e-08
-8.172361e-08 3.0471628e-07 -6.891333e-09 -2.2356687e-07 1.3129866e-09 1.5376337e-07 -1.7312374e-07 -2.53706e-08
1.0281285e-07 -4.158095e-08 -6.502239e-08 -9.801313e-10 -1.3711774e-07 -2.194582e-09 3.5568146e-08 6.8610744e-09
6.744359e-08 9.5266675e-09 2.2848442e-07 4.1721993e-08 1.6153513e-09 6.568356e-09 9.947212e-09 6.3282233e-09
-3.820269e-08 -1.04787524e-07 -5.7707673e-08 -3.6582318e-08 3.9359304e-07 6.775961e-08 5.6623244e-09 -2.9638512e-08
-1.7095297e-07 -5.972285e-10 9.434678e-09 3.518511e-08 8.643501e-09 -4.208355e-09 1.4291401e-08 2.903229e-08
-1.1695674e-08 7.717879e-08 5.464877e-09 4.5992894e-09 5.196503e-09 -3.918638e-08 -9.8322275e-08 5.8564776e-08
1.8842336e-07 -6.904456e-07 -1.2938239e-07 1.8966496e-07 -2.7713108e-08 -2.522099e-07 1.4654754e-06 -2.2315087e-08
2.6367882e-08 -7.390184e-08 -1.8420387e-08 -5.64763e-06 7.726825e-07 1.3952478e-06 8.920312e-08 -3.7042048e-07
-3.759858e-07 1.4697326e-06 -4.464987e-08 -1.2363284e-06 -1.7824384e-08 5.796143e-07 -1.3591131e-06 -1.4276544e-07
4.1984393e-07 -1.6380457e-07 -6.0916585e-07 -2.2260176e-08 -7.0649367e-07 -1.3007861e-08 1.6478853e-07 5.099304e-08
3.7759295e-07 6.0229695e-08 1.5721508e-06 4.6553595e-07 2.6789904e-08 5.918072e-08 8.966309e-08 4.15763e-08
-1.3703078e-07 -5.0483334e-07 -1.6104739e-06 -1.3914321e-07 2.8699067e-06 2.472749e-07 6.6732055e-09 -9.5288095e-07
-1.6556443e-06 6.372311e-09 4.6513993e-08 -4.4352777e-07 4.5373955e-08 -1.653035e-08 6.1127366e-08 1.7791533e-07
-6.0138305e-08 4.072055e-07 2.3191204e-08 5.2859157e-08 4.8616545e-08 -1.193077e-07 -4.1758986e-07 2.5473054e-07
00000000: 3ed7 4334 5116 1eb5 114f eeb3 f81c 0534
00000010: 51fb 67b2 959c 8eb4 d21a be35 4248 e1b1
00000020: 9623 1e33 acce 8ab3 af3b 6db2 96d4 bdb6
00000030: 146c 2b35 af64 9c35 b176 6633 4c8c bcb4
00000040: 299e c6b4 4db1 9635 9ca2 f2b2 a1f5 8db5
00000050: 036d c631 9804 2c35 366a 90b5 99c9 f8b3
00000060: 41f3 be34 358a 3cb4 b8ba f0b4 f490 4bb2
00000070: 43b7 24b5 8e7d 29b2 6da9 2034 9e11 d032
00000080: af0a a934 3b72 4933 fe8c b235 9a1d e334
00000090: b96c 8532 09e2 1e33 f032 aa33 cbad 2133
000000a0: 7d34 40b4 c8ae fbb4 e03f 81b5 0c64 21b4
000000b0: ea84 1036 db57 9234 0634 5132 0331 24b5
000000c0: 080d a1b5 7195 7731 a762 3233 447d 99b3
000000d0: 920a 2133 342c 6eb2 f649 3433 9762 1734
000000e0: 71a4 2fb3 8a13 b234 ed14 de32 e14f bb32
000000f0: fba1 cf32 6869 10b4 ce04 c9b4 955c 5634
00000100: 413f 1536 af62 03b7 ec9b aeb5 b7a7 f435
00000110: 22bc 7ab4 94b9 5db6 b71e 8937 136e 12b4
00000120: 5dd8 c834 b52e 54b5 4ccc 42b4 fb93 adb8
00000130: 54dd 0537 3f94 6f37 e20e 3335 3874 84b6
00000140: 7f95 98b6 eb0b 6937 9f19 cbb4 ffa2 5bb7
00000150: 6e92 a9b3 360c 0437 c1b3 63b7 8a9f c1b5
00000160: 32fc 9536 cac1 10b6 55d4 d0b6 db51 5ab4
00000170: 450e ffb6 a2ad f5b3 d8a5 f035 ffe2 bf34
00000180: ab17 8736 8423 2135 e5fa 8937 be22 bc36
00000190: 5ba8 5e34 3b55 f534 cb3a 6935 63df ec34
000001a0: 6921 17b6 f5c1 c3b6 429f 60b7 372a deb5
000001b0: 7bce df37 aa48 5e36 4ceb 1334 a829 1ab7
000001c0: 7414 85b7 3fa3 5a33 3e8d 0035 3bf2 35b6
000001d0: d3f1 f034 98f9 1cb4 b0b6 2535 d6fc f635
000001e0: 8440 07b5 d4e7 9436 2ffb a934 d316 ab34
000001f0: a1a5 c234 2c0c c9b5 47c2 a6b6 1fa0 1636
00000200: d8e0 2633 fe4d 0db4 1387 e3b2 8e8f 8432
00000210: 536e 89b1 9917 9bb3 9818 c234 322f 3731
00000220: 03f8 ce31 511f b8b2 b4d1 2bb1 84a0 23b5
00000230: c5ba 3534 6d07 7a34 ffee ac31 75eb aeb3
00000240: 0880 afb3 e397 a334 cec8 ecb1 980d 70b4
00000250: 9c74 b430 271a 2534 e4e3 39b4 8aee d9b2
00000260: f6c9 dc33 bd96 32b3 70a2 8bb3 4eb5 86b0
00000270: a33a 13b4 7fcf 16b1 97c3 1833 a6be eb31
00000280: 81d5 9033 baaa 2332 5255 7534 d131 3333
00000290: 1f03 de30 dfaf e131 4de4 2a32 a46f d931
000002a0: 4d14 24b3 8d07 e1b3 42da 77b3 af1e 1db3
000002b0: 044f d334 3d83 9133 558e c231 c797 feb2
000002c0: 328f 37b4 382a 24b0 2716 2232 701e 1733
000002d0: 857e 1432 1599 90b1 3f86 7532 ae62 f932
000002e0: 1eee 48b2 7dbd a533 91c5 bb31 c707 9e31
000002f0: ec8c b231 e14d 28b3 3e25 d3b3 a788 7b33
00000300: 6b51 4a34 0f57 39b5 5cec 0ab4 b5a6 4b34
00000310: c50d eeb2 7767 87b4 5ab1 c435 65af bfb2
00000320: 967f e232 f7b3 9eb3 dc3a 9eb2 c680 bdb6
00000330: 566a 4f35 5944 bb35 ef8f bf33 34de c6b4
00000340: 18db c9b4 a143 c535 0dc5 3fb3 ecef a5b5
00000350: 3c1c 99b2 cb96 1b35 c56a b6b5 114b 19b4
00000360: e966 e134 42e2 2fb4 8f85 23b5 a536 bfb2
00000370: e0a5 3db5 2d79 5fb2 baf0 3034 7103 5b33
00000380: fbb7 ca34 a057 8133 b102 d335 c6ee f934
00000390: 9f1f e632 e42d 7e33 ce8c c033 a091 3233
000003a0: bc22 13b4 e283 07b5 7627 d8b5 6567 15b4
000003b0: 9f98 4036 34c1 8434 234a e531 7bc9 7fb5
000003c0: 8137 deb5 71f3 da31 adc6 4733 fe1d eeb4
000003d0: 31e1 4233 a0fe 8db2 2045 8333 fe08 3f34
000003e0: 6225 81b3 e69d da34 ff35 c732 4207 6333
000003f0: 75ce 5033 0d1b 00b4 1d31 e0b4 e6c1 8834

lstm.bias_ih_l0_reverse f4 [256]
-0.00014934802 -0.0018766315 -1.4357222e-05 -0.00021794417 -3.892115e-06 -0.0003495199 -0.00532824 -2.525028e-07
-2.042332e-05 -1.2494586e-05 -8.764464e-07 0.14938565 -0.00093616964 -0.0026595418 2.2634122e-06 -0.0001386818
-0.0005707258 -0.0030236416 -7.0529404e-07 -0.0027423524 -7.0570096e-09 -0.0023306604 -0.0036550597 -2.241753e-05
-0.00032306832 -0.00015936712 -0.0016071529 4.2055794e-07 -0.0010548189 -1.3664432e-07 -5.4429336e-05 -8.446734e-06
-0.00033480444 -4.0455307e-06 -0.005301678 -0.0021189526 -1.2970595e-07 -1.2797001e-06 -5.8728336e-05 -5.7457137e-06
-0.0003527028 -0.00080371444 0.024390213 -2.4353276e-05 -0.006337536 -0.0003778226 -1.7144758e-06 0.02361168
-0.0075543877 -1.08475284e-07 -2.7620897e-06 0.0003459069 -1.8448301e-06 1.4270037e-07 -3.7530135e-05 -5.8900703e-05
-5.2387513e-06 -0.000421207 -5.0560293e-06 -3.7170469e-06 5.941724e-07 -0.00012522966 -0.0009251667 -4.3331434e-05
-0.0001349837 -0.0015555175 -9.889076e-06 -0.0001712238 -4.0436344e-06 -0.00031460176 -0.004417529 -7.3209924e-07
-1.7115966e-05 -9.991645e-06 -8.7133236e-07 0.28374997 -0.00087191566 -0.0020369268 3.08914e-06 -3.830825e-05
-0.0005130484 -0.0027364676 -6.1230776e-07 -0.0025768182 2.6590287e-06 -0.0021841482 -0.0028984218 -2.2743703e-05
-0.00031902955 -0.00013616649 -0.0013531024 -4.7231634e-07 -0.0009321136 -1.5410558e-07 -4.152148e-05 -5.506629e-06
-0.00028886567 -3.863825e-06 -0.00414374 -0.0016924837 -2.1778011e-07 4.139588e-07 -5.4352415e-05 -4.724907e-06
-0.00029659312 -0.0006976924 0.023645164 -7.802433e-06 -0.0058327424 -0.0003182153 -1.5869755e-06 0.029274907
-0.0059522577 -8.909986e-08 -2.694301e-06 0.0009752038 -1.6841627e-06 -3.398372e-07 -3.4184464e-05 -5.652125e-05
-4.259097e-06 -0.00040732755 -4.4005055e-06 -3.384641e-06 1.7999926e-06 -0.00011074146 -0.0008887632 -9.220441e-05
-0.00011905223 -0.0009712613 -1.8301356e-05 0.00026185793 -0.00031240488 -6.852074e-05 -0.0009111372 0.00025949642
-0.00035234613 0.00031616524 -3.0660864e-05 0.064989515 -0.00029152114 0.00032593278 0.00057484105 0.00092547724
5.0578394e-05 -0.0013863113 1.4071274e-05 -0.00022301893 -0.00037622778 0.001444394 -0.0004066759 -0.00031978026
-0.00015523595 -0.00020132166 -0.0011095403 3.775117e-05 9.2119066e-05 -0.00011135447 0.00019478751 0.0003306256
0.0002815775 0.00040204343 0.00020398956 0.0007864773 -1.2608407e-05 0.0003249215 -0.00035133783 -0.00020951185
-0.00058236555 -0.0002165809 -0.055662416 0.00059977383 -0.0015246259 0.00034886584 -1.9060377e-06 -0.0649925
-0.0012064377 0.0001949894 0.00013565943 -0.00045348314 -5.1290197e-05 -0.00039286097 0.0006532363 0.0003144851
-0.00022843639 0.00063703605 4.0438637e-05 0.00058892585 0.00025006072 -0.00030566397 -0.0008432982 -0.00095014245
-0.00014934942 -0.0018766788 -1.4359207e-05 -0.00021792785 -3.8922803e-06 -0.00034951075 -0.005329068 -2.5244063e-07
-2.0421556e-05 -1.2494205e-05 -8.761792e-07 0.16309366 -0.000936181 -0.0026598028 2.2631846e-06 -0.00013870328
-0.00057073316 -0.0030237036 -7.055768e-07 -0.0027425145 -6.9175576e-09 -0.00233074 -0.0036555203 -2.2418391e-05
-0.00032300534 -0.00015936584 -0.0016071106 4.2071233e-07 -0.001054819 -1.3664325e-07 -5.443091e-05 -8.446602e-06
-0.00033480517 -4.045891e-06 -0.0053025256 -0.002118623 -1.3003394e-07 -1.2800564e-06 -5.873617e-05 -5.746316e-06
-0.00035268153 -0.00080368365 0.024243874 -2.4365912e-05 -0.0063396115 -0.0003778188 -1.7145459e-06 0.02342386
-0.0075559374 -1.0874287e-07 -2.7624096e-06 0.00034604603 -1.8451069e-06 1.4281929e-07 -3.7526926e-05 -5.8897585e-05
-5.238048e-06 -0.0004211809 -5.055574e-06 -3.7229995e-06 5.9498404e-07 -0.00012521693 -0.00092515454 -4.3408727e-05
00000000: 4e9a 1cb9 4ef9 f5ba cddf 70b7 f187 64b9
00000010: 0399 82b6 c43f b7b9 8498 aebb b88f 87b4
00000020: bf52 abb7 d79f 51b7 f044 6bb5 8df8 183e
00000030: 4869 75ba b54b 2ebb 20e5 1736 1d6b 11b9
00000040: c39c 15ba 4a28 46bb 7053 3db5 0ab9 33bb
00000050: 1d7a f2b1 febd 18bb ba89 6fbb 470d bcb7
00000060: 7f61 a9b9 c91b 27b9 1aa7 d2ba 0bc9 e134
00000070: d941 8aba 81b8 12b4 0e4b 64b8 72b6 0db7
00000080: b188 afb9 d8be 87b6 b3b9 adbb 20de 0abb
00000090: 4d45 0bb4 29c2 abb5 1253 76b8 4ecb c0b6
000000a0: f8ea b8b9 5db0 52ba fccd c73c 434a ccb7
000000b0: 1bab cfbb 7e16 c6b9 f11c e6b5 486d c13c
000000c0: cc8a f7bb ebf2 e8b3 575c 39b6 d75a b539
000000d0: e19b f7b5 2e39 1934 ad69 1db8 260c 77b8
000000e0: 88c8 afb6 72d5 dcb9 f6a6 a9b6 6172 79b6
000000f0: 377f 1f35 1550 03b9 e386 72ba c6be 35b8
00000100: 698a 0db9 82e2 cbba 42e9 25b7 8a8a 33b9
00000110: 8eae 87b6 22f1 a4b9 ebc0 90bb 7a85 44b5
00000120: 4294 8fb7 caa1 27b7 81e5 69b5 ad47 913e
00000130: 4591 64ba f67d 05bb 054f 4f36 2cad 20b8
00000140: 187e 06ba 4f56 33bb 785d 24b5 d6df 28bb
00000150: c471 3236 ed23 0fbb 73f3 3dbb bbc9 beb7
00000160: 6c43 a7b9 eac7 0eb9 955a b1ba aa92 fdb4
00000170: 1659 74ba 3878 25b4 5a27 2eb8 95c5 b8b6
00000180: e572 97b9 01a6 81b6 36c8 87bb 54d6 ddba
00000190: f1d6 69b4 103e de34 76f8 63b8 a48a 9eb6
000001a0: 0e80 9bb9 58e5 36ba 81b3 c13c 32e7 02b7
000001b0: 9720 bfbb 22d6 a6b9 1000 d5b5 eed1 ef3c
000001c0: 280b c3bb 2b57 bfb3 bdcf 34b6 d2a4 7f3a
000001d0: 640b e2b5 de72 b6b4 4a61 0fb8 3b11 6db8
000001e0: 5de9 8eb6 948e d5b9 0ea8 93b6 b123 63b6
000001f0: 4697 f135 de3d e8b8 e4fb 68ba de5d c1b8
00000200: aeab f9b8 3e9c 7eba dd85 99b7 fa49 8939
00000210: 46ca a3b9 cbb2 8fb8 62d9 6eba 050d 8839
00000220: 19bb b8b9 fbc2 a539 da99 00b8 3919 853d
00000230: 4ed7 98b9 f5e1 aa39 eeb0 163a ba9b 723a
00000240: 2324 5438 e3b4 b5ba a913 6c37 30da 69b9
00000250: 7040 c5b9 d251 bd3a 1e37 d5b9 2ea8 a7b9
00000260: d5c6 22b9 df19 53b9 ff6d 91ba 0357 1e38
00000270: 0c30 c138 fa86 e9b8 e03f 4c39 d157 ad39
00000280: b1a0 9339 5bc9 d239 08e6 5539 992b 4e3a
00000290: b288 53b7 3a5a aa39 c433 b8b9 69b0 5bb9
000002a0: e4a9 18ba fe19 63b9 46fe 63bd 243a 1d3a
000002b0: f5d5 c7ba fbe7 b639 f5d2 ffb5 ca1a 85bd
000002c0: 5521 9eba 1276 4c39 cd3f 0e39 7ac1 edb9
000002d0: 6e20 57b8 e8f8 cdb9 f23d 2b3a 7ae1 a439
000002e0: 6d88 6fb9 c4fe 263a a89c 2938 2562 1a3a
000002f0: 951a 8339 8641 a0b9 c910 5dba fb12 79ba
00000300: ae9a 1cb9 e4fa f5ba 53e8 70b7 9083 64b9
00000310: 6f9a 82b6 8a3e b7b9 769f aebb 2d87 87b4
00000320: f54e abb7 349e 51b7 9332 6bb5 0602 273e
00000330: 0b6a 75ba 1650 2ebb 37e1 1736 e170 11b9
00000340: 419d 15ba 5429 46bb de66 3db5 c2bb 33bb
00000350: 7baf edb1 54bf 18bb 7491 6fbb 210f bcb7
00000360: 0b59 a9b9 711b 27b9 afa5 d2ba 43de e134
00000370: da41 8aba 36b8 12b4 bf4c 64b8 e1b5 0db7
00000380: ca88 afb9 f0c1 87b6 cfc0 adbb 98d8 0abb
00000390: 759f 0bb4 67ce abb5 7b5b 76b8 7bd0 c0b6
000003a0: 1de8 b8b9 4cae 52ba 179b c63c 6665 ccb7
000003b0: 84bc cfbb fb15 c6b9 591f e6b5 65e3 bf3c
000003c0: cc97 f7bb 0686 e9b3 d661 39b6 836d b539
000003d0: 64a5 f7b5 de59 1934 3b66 1db8 cd08 77b8
000003e0: 7dc2 afb6 f2d1 dcb9 0da3 a9b6 a5d8 79b6
000003f0: feb6 1f35 aa4c 03b9 1286 72ba c411 36b8
