LOSO/models/model_without_subj_3.onnx (onnx, 550191 bytes, 8 tensors)

fc.weight f4 [2, 128]
00000000: aef2 49bc d02e 153d 2d74 3cba e6cd c13c
00000010: 729f 9fbd 720b fe3a 55c6 003d 64d8 65bc
00000020: ee16 21bd b73d ba3b 6bc5 92bd 40d1 013d
00000030: 2da9 b33c ab38 2d3d eaa7 783c d5a5 e7bc
00000040: 000d 4b3b 3e02 f63c 1d69 ba3c 36de 02bd
00000050: 8856 3e3d 5e3b 8bbc 578f 0e3d 7e89 8fbd
00000060: 0e50 5cbc 43ac f13c fe5b f7bc fc77 723d
00000070: 51d8 2d3d c97e 2ebd fd1d 3e3d 4dbe 453d
00000080: a7e7 0a3d da34 363d 1b05 9ebd 9c93 17bc
00000090: 2b5a 313d 96c6 99bd 9717 91bd cbb6 a13c
000000a0: e844 e03c c27f 22bd 4667 373d 7525 15bd
000000b0: fd61 89bc a6c0 85bc 7474 373d c0f4 cabc
000000c0: 3265 cfbc 5f0d b2bc 7910 973c 2f5c 8dbd
000000d0: 6747 20bd 09c0 93bd 5e18 d33b 7451 b33c
000000e0: 8324 77bd 9ba7 2cbd 8006 c23c 0b74 693c
000000f0: e448 133d ae3d 73bd 03e6 83bd a88f 68bc
00000100: 549a 43b7 13fc 803c d8fb 963a 884b 23bd
00000110: 43ba d2bc 36bd 673d 8f06 433d 7d53 e9bc
00000120: 9303 8bbd b1f6 b437 4d5c cc3b f37d 613d
00000130: 4d24 0e35 d803 ff3c c731 e73c 2729 d13b
00000140: 1f37 323d 797d 4431 f674 cb3b af9e 2d3d
00000150: a23a ca3a 165f bf38 6d16 09bb c36d 5bbd
00000160: 0199 663d 5f93 9fbc 283b e13c ab99 5138
00000170: 3123 7f3d fb9e 2730 78bd 88b5 838c b2bc
00000180: 9792 bf3c 92a2 43bd 2a7c c33b 3508 dabc
00000190: 0115 df3c 1120 743d 839a d1bc 1ec7 e83c
000001a0: 95b9 a1bc f6b6 34bd e9bd 193c 6aa5 3c3d
000001b0: 6470 bcbc 19cd 0ebd c37d 71bd 834a f5b4
000001c0: 06db aabc c4bb 023b 5825 6b3b b5f5 113b
000001d0: e09a 50b5 3b0a 2bbc 640b 0abd bc33 d7ba
000001e0: 757c 353d 8312 693d 1f56 4037 dd91 773b
000001f0: 8d99 ac3a 0575 1f3d ef77 a2b3 bf76 303d
00000200: 91df 873d 6874 42bd cdf1 99bd 4582 64bd
00000210: f609 f4bc 3d3c 86bd 4f3a 48bd 13ff a5bd
00000220: 66ff 473d 1831 9ebd 5c2a d33b 4394 66bd
00000230: 4b40 5bbd 9c76 36bd df67 74bd c0fe 693d
00000240: 826c 903d 2c64 64bd dea4 68bd 73df 583d
00000250: e671 3fbd 181a 493d 37e5 67bd 666c 543c
00000260: 0a73 833d d94b 49bd d251 3a3d 8f5f 17bd
00000270: a500 3dbd 49fc 323d a157 1cbd 184f 22bd
00000280: 879c 53bd 0373 2dbd f543 54bd fd5d a1bd
00000290: 2bd1 4ebd e00e 64bc c25e eebc 7c9b 81bd
000002a0: 9d58 4ebd ea0f 3d3d bab3 30bd a52d 6c3d
000002b0: ea07 7d3d 0cfe 963d 6460 22bd e300 6d3d
000002c0: 9522 553d 5eb7 8b3d 7d9b 67bd d7dc 003d
000002d0: 0044 4c3d c667 9abb 27cb 85bd 8f98 5dbd
000002e0: 1f2b be3c 7597 053d 1e98 b23d c78f 8d3d
000002f0: cce6 54bd 20d9 ae3c 73b6 73bd f8e4 923d
00000300: 76d8 7cb7 b2c1 9ebd 3a0a 7c3d fb98 333d
00000310: c4c3 8e3d 4834 14bc f183 d63c 6c54 70bd
00000320: 678a 4a3c 1716 b837 b4b4 6d3d ac2b 97bc
00000330: cc71 8335 5e00 b23d 8c32 12bd 09e5 78bd
00000340: 111b 2ebd 00ce de30 b2cb 823d 0fc6 42bd
00000350: 9b2e 993d 979f 32ba 7c5a 9539 1518 303d
00000360: 7811 49bc 9a43 73bd a9f2 66bd b2cd e8b8
00000370: ba28 06bd 1716 2130 8da8 0835 2735 953d
00000380: 02a4 83bd 143a 093c 82ef abbd d7c1 393d
00000390: beba 82bd 3bdc 813b f90c 833d 127b 76bd
000003a0: d2a0 983d 861a 353d c3ea c339 a595 66bd
000003b0: ae88 893d 9897 7fbd c3dd a13b e217 c334
000003c0: 666d 8abd 43c0 8e3d 88f4 feba 7cb2 9bbd
000003d0: eef9 d8b5 0dcf 913d fe20 9c3d 1fd3 703c
000003e0: f775 0cbd 0aec 69bd 96cc afb6 c329 85bd
000003f0: 4dc2 5a3b 4aae 0abd 9062 6ab3 05a6 17bc
-0.012325926 0.036421597 -0.00071889424 0.02365775 -0.07794084 0.0019382073 0.031439144 -0.014028642
-0.039328508 0.0056836265 -0.07166561 0.031693697 0.021931255 0.04229037 0.015176753 -0.028277317
0.003098309 0.030030366 0.0227552 -0.031950198 0.04646924 -0.016996082 0.03480467 -0.070086464
-0.013446821 0.029501086 -0.030195232 0.059196457 0.042442624 -0.04260138 0.046415318 0.048277188
0.033912327 0.044483997 -0.077158175 -0.009251501 0.04329888 -0.075085804 -0.070845775 0.019740483
0.027376607 -0.03967262 0.044776224 -0.036412675 -0.016770357 -0.016327213 0.044788793 -0.024774909
-0.025316808 -0.021734891 0.018440472 -0.06902348 -0.039130595 -0.07214362 0.006442114 0.021889426
-0.060337555 -0.04215203 0.02368474 0.014248858 0.035958186 -0.059384994 -0.06440356 -0.014194407
-1.1658838e-05 0.015745198 0.0011519147 -0.039866954 -0.025723582 0.05657693 0.047613677 -0.028482193
-0.06787791 2.1572547e-05 0.006236589 0.055051755 5.2951947e-07 0.031129763 0.028221978 0.0063830796
0.0435096 2.8593077e-09 0.006209011 0.04238766 0.0015428851 9.125301e-05 -0.0020917908 -0.053571474
0.05629826 -0.019479452 0.027494028 4.9972597e-05 0.06228942 6.098017e-10 -1.0187932e-06 -0.021795517
0.02338533 -0.04776246 0.0059657292 -0.026615242 0.027231695 0.059600893 -0.025586372 0.028415259
-0.019741813 -0.044119798 0.009383657 0.04605619 -0.02300281 -0.034863565 -0.058957826 -4.568902e-07
-0.020856392 0.0019948343 0.0035880413 0.0022271697 -7.771141e-07 -0.010439451 -0.03370227 -0.0016418616
0.044308145 0.05690242 1.1464143e-05 0.003777615 0.001316832 0.038929958 -7.565529e-08 0.043081995
0.06634439 -0.047474295 -0.07516823 -0.055788297 -0.029789906 -0.06554458 -0.048883732 -0.08105292
0.04882755 -0.07724208 0.0064442586 -0.056293737 -0.05352811 -0.04454671 -0.05966937 0.057127714
0.07051946 -0.055759594 -0.056797855 0.052947473 -0.04673948 0.04909715 -0.05661508 0.012965297
0.06418426 -0.0491446 0.045488186 -0.036956366 -0.046143193 0.04369763 -0.038169507 -0.03962621
-0.051662948 -0.04234601 -0.05182262 -0.07879255 -0.050492447 -0.013919562 -0.029097918 -0.063284844
-0.050377477 0.046157755 -0.04314015 0.057660718 0.061775126 0.07372674 -0.039642707 0.057862174
0.052034933 0.06822084 -0.05654477 0.03146061 0.049869537 -0.004712078 -0.06532889 -0.05410057
0.023213921 0.032615144 0.0872042 0.06912189 -0.051977918 0.021343768 -0.05950017 0.071725786
-1.5070769e-05 -0.07751788 0.06153319 0.043847065 0.06970933 -0.009045668 0.026185961 -0.05867426
0.012362099 2.1944796e-05 0.05803366 -0.018453442 9.79338e-07 0.08691476 -0.035692737 -0.0607653
-0.04250628 1.6211175e-09 0.06386508 -0.047552165 0.074795924 -0.0006813942 0.0002848691 0.042991716
-0.012272231 -0.05939064 -0.056383763 -0.00011100936 -0.032753684 5.860285e-10 5.090922e-07 0.07285529
-0.064277664 0.008375663 -0.08395292 0.045350876 -0.063832745 0.003963021 0.06398959 -0.060175963
0.07452549 0.044214748 0.0003736821 -0.056295056 0.06715523 -0.06240043 0.004939766 3.6338957e-07
-0.06759147 0.06970265 -0.0019451538 -0.076024026 -1.6165993e-06 0.0711957 0.0762348 0.014698773
-0.034292188 -0.05710987 -5.2392234e-06 -0.06502106 0.0033379972 -0.03385762 -5.4572013e-08 -0.009255891

fc.bias f4 [2]
00000000: 2d25 0e3f fdb7 433f
0.55525476 0.7645262

onnx::LSTM_335 f4 [2, 512]
00000000: 2bc4 033d 595d f13b 8aed 89b9 7b36 ee3b
00000010: f8bc 7eb9 6ffa ae3b 682e 083c c560 ef3b
00000020: b60b 013c 7a1b ba3b 66db 133c 5141 c53b
00000030: 8c72 53ba ce90 9c3b bd93 7d37 289e 33b8
00000040: 24a1 d13b 3ebb 0f3c 54e7 bc3b 9f10 233e
00000050: 06b2 1e3c 1d43 afb8 4df2 d33b 0480 d43b
00000060: c3f1 113c b80d b539 c8c0 713e a39a 953b
00000070: ccc3 c13b 16b9 b1b7 7ad8 013c 9b3b a5b9
00000080: 14cb 29ba 7f80 003c d48a 5bbb de55 043c
00000090: 97c8 023c 4f9e 09b5 a6c3 a13b e714 93b9
000000a0: 1de5 f73b fbf1 cfb7 28bf 49bb 2e29 afba
000000b0: 0195 e33b 2996 133c 63b6 d13b 9734 943b
000000c0: abc6 ea3b 42b2 fc3b 8d0c 353c 31de cc3b
000000d0: 4194 ee3b 72a3 133c df07 f83b 330f f63b
000000e0: 66ad 1f3e 4fd2 093e 99d8 0d3c d66f 6e37
000000f0: b16e ba3d b477 e93b 03a6 dbb7 d073 b73b
00000100: e471 043d 3717 f23b 1a68 8ab9 dfda ee3b
00000110: fab8 7eb9 4fb0 af3b d3fd ca3d 070a f03b
00000120: 058a 013c c3db ba3b 565a 143c 47c8 c53b
00000130: af84 53ba fc43 9d3b 1e78 7d37 f1a8 33b8
00000140: 6c20 d23b 9638 103c f074 bd3b d2bb 763e
00000150: d43c 1f3c 5021 b0b8 52d8 d43b 4fdd d43b
00000160: 03cf 123c 5402 b539 acb4 693e e8dc 953b
00000170: 6de1 c23b c0c5 b1b7 6b3a 023c 85f6 a5b9
00000180: a5ce 29ba a9f3 003c f08c 5bbb 28a5 043c
00000190: 1450 033c 0096 0bb5 9f31 a23b 2a20 93b9
000001a0: aef7 f83b 072a d0b7 66c3 49bb fc26 afba
000001b0: 3cf4 e33b 4818 143c 0373 d23b 3b8f 943b
000001c0: 6f46 eb3b 2671 fd3b 88a7 353c b860 cd3b
000001d0: 013f ef3b b639 143c d286 f83b 478f f63b
000001e0: 8381 2a3e 1edf 943e db51 0e3c 1249 6437
000001f0: c7f9 ba3d a2d1 e93b 49df dbb7 2feb b73b
00000200: bb22 053d f725 0b3c 8a91 50b9 8874 063c
00000210: 70e4 7cb9 24c6 ca3b 3d41 593d 584c 093c
00000220: 3244 143c bfcb cb3b a318 273c 4afe e43b
00000230: bb57 44ba d367 b93b 3a21 8037 4a92 31b8
00000240: 0e03 ee3b dcc5 1e3c f165 df3b f69f 233e
00000250: b5ac 2d3c 3f62 94b8 9fcd f63b 46ec 003c
00000260: 5877 1e3c 64be b739 8cfa 5e3e 5819 a93b
00000270: f27b d13b 7c16 afb7 aa65 193c f7aa 9db9
00000280: 663f 27ba 76ef 0f3c dbcc 57bb 4aa2 1b3c
00000290: cbe9 183c 17dd 8fb3 a830 b93b 8115 91b9
000002a0: 2442 0d3c df73 c0b7 ca69 47bb 5f48 aeba
000002b0: 7b3b fc3b 6989 2f3c 2676 e83b 1a34 aa3b
000002c0: 7588 0a3c 50e2 0d3c b0c9 4c3c df2a e83b
000002d0: 539b 063c 5252 283c d2f4 0e3c f28a 0b3c
000002e0: 933f 653e 74fc d53e 5bdf 203c 945e 1638
000002f0: 5877 c83d 3f2c 0b3c 54bd c4b7 794f d03b
00000300: cc3c 2f3c 3feb e0bb 3574 353b e653 d9bb
00000310: f874 c7ba 3a1b ecbb e6af abbb 6db1 eb3b
00000320: 722e bebb 82c5 fe3b a50d 1abc 356a ee3b
00000330: 1d70 8338 04e3 e63b 8281 c6b9 0a0e f2b8
00000340: 2d33 14bc f51f d13b 6f78 fd3b b6cc 03bd
00000350: 4ddd bc3b e2b5 65ba 3599 ce3b 5b4b 063c
00000360: 0910 49bb aaac 973a 2cf1 c4bd a4f0 02bc
00000370: a96f da3b d81f 6fb8 28b8 ba3b e6e1 2aba
00000380: 9134 bd3a c66e a6bb 2e7f 113b a8d5 c7bb
00000390: 33b5 a1bb fa82 85b9 bd1c d4bb 3083 ce39
000003a0: 9a29 a23b dc2f 33ba 513b bb3b a8ba c9ba
000003b0: 164a 0bbc 1bf9 063c e6b5 ccbb c86b e9bb
000003c0: 7f63 163c 57b1 fb3b 7020 d3bb 4dfd ed3b
000003d0: fb49 bebb 17ee dcbb 435a 093c 6964 04bc
000003e0: a6b3 bfbd 86bf 0cbe d67e c43b 4be0 efba
000003f0: be21 f83c 5203 10bc f9b4 123a 131a 20bc
0.032169502 0.0073658642 -0.00026307657 0.007269678 -0.00024293724 0.0053399126 0.008311845 0.007305237
0.007876327 0.005679545 0.009024477 0.006019749 -0.000806608 0.0047780043 1.5114373e-05 -4.282422e-05
0.0063973833 0.008772669 0.005764881 0.15924309 0.009685999 -8.357151e-05 0.0064680935 0.006484987
0.008907738 0.00034533232 0.23608696 0.0045655533 0.0059132334 -2.1186232e-05 0.007925147 -0.00031515662
-0.00064770994 0.007843136 -0.0033499496 0.008077113 0.007982395 -5.1266846e-07 0.004936653 -0.00028053598
0.007565154 -2.4789004e-05 -0.0030784104 -0.0013363713 0.006945253 0.009007969 0.006399916 0.0045228708
0.0071647963 0.0077116797 0.011050356 0.006252073 0.007280857 0.009011136 0.0075692977 0.007509136
0.1559349 0.13459133 0.008657598 1.4211944e-05 0.09103144 0.0071248654 -2.618414e-05 0.0055985227
0.032335177 0.0073880213 -0.00026398973 0.007289275 -0.00024292237 0.005361594 0.099116944 0.007325414
0.007906442 0.005702467 0.009054741 0.006035838 -0.00080687826 0.004799364 1.5107942e-05 -4.2834265e-05
0.0064125564 0.008802554 0.0057817623 0.24095085 0.009719092 -8.398539e-05 0.006495514 0.0064961086
0.008960488 0.00034524745 0.22822827 0.004573453 0.005947283 -2.1192129e-05 0.007948498 -0.00031654924
-0.0006477631 0.007870593 -0.0033500753 0.008096017 0.008014698 -5.1999814e-07 0.004949763 -0.0002806199
0.007597885 -2.4815103e-05 -0.0030786633 -0.0013363059 0.0069566052 0.009038992 0.006422402 0.004533676
0.007180027 0.0077344356 0.011087306 0.0062676333 0.007301212 0.0090469625 0.007584431 0.007524404
0.16650967 0.29076475 0.008686508 1.3606872e-05 0.091296725 0.007135586 -2.621081e-05 0.005612753
0.032503825 0.008492938 -0.00019890643 0.008206494 -0.00024117692 0.006188171 0.05304073 0.008380018
0.009049462 0.006219357 0.010198745 0.0069883214 -0.00074898795 0.0056581288 1.5274261e-05 -4.233633e-05
0.0072635477 0.009690728 0.0068175723 0.15978989 0.010600259 -7.07549e-05 0.007531836 0.007868832
0.009672008 0.00035046332 0.21775264 0.005160492 0.0063929493 -2.0872096e-05 0.0093626175 -0.00030072752
-0.00063799915 0.008785119 -0.00329285 0.009499142 0.009333084 -6.6991724e-08 0.005651552 -0.00027672577
0.008621726 -2.294214e-05 -0.0030428045 -0.0013296715 0.0076975203 0.0107139135 0.0070941625 0.0051941993
0.008455385 0.008659914 0.012499258 0.0070851888 0.008215743 0.010273533 0.008725362 0.008517014
0.22387533 0.4179417 0.009818877 3.585087e-05 0.09788388 0.008494436 -2.3453184e-05 0.00635713
0.010695647 -0.006863981 0.0027687673 -0.006632316 -0.0015217355 -0.007205394 -0.0052394746 0.0071927817
-0.0058038766 0.0077750096 -0.009402667 0.0072758445 6.2674495e-05 0.0070461053 -0.00037861994 -0.00011542074
-0.009045404 0.0063819834 0.007735304 -0.03217765 0.005763686 -0.00087627594 0.006304885 0.008196677
-0.0030679724 0.0011571844 -0.096163124 -0.0079919435 0.006666143 -5.7011697e-05 0.0056982227 -0.0006518647
0.0014435222 -0.005079123 0.002220105 -0.006098468 -0.0049349307 -0.00025465322 -0.0064731524 0.00039389124
0.004948807 -0.00068354397 0.005713858 -0.0015390711 -0.00850155 0.008238102 -0.00624727 -0.007123444
0.009178995 0.0076810527 -0.006443076 0.007262862 -0.005807159 -0.0067422497 0.0083833365 -0.00808058
-0.09360437 -0.13744935 0.0059965653 -0.0018301097 0.030289527 -0.008789854 0.0005596425 -0.009771842

onnx::LSTM_336 f4 [2, 256, 6]
00000000: f5b7 1e3c cbdf 043c 5ae2 8e3c 697b 873c
00000010: 971b 933c b2f7 9e3c b782 ee3a b7d3 503b
00000020: 02af 523b 0fba 933b 2b5d 123b 2c9a b43b
00000030: 4b1d 043a ac1b ea39 c802 ce39 178e 0e3a
00000040: 18a3 143a c889 103a a297 033b 2d4d 6a3b
00000050: 41aa 543b b3f3 8f3b aadb 023b d40c ac3b
00000060: 4d4e 0cb9 3887 eab8 aa5c 22b9 3302 eab8
00000070: ea54 f4b8 fd82 19b9 c417 103a 3754 033b
00000080: b209 f23a 8401 3c3b a452 673a 3338 5b3b
00000090: c49d 083e 9e50 e33c 24da 5c3d b6a7 e03d
000000a0: d610 6c3b 3102 5a3e 5998 d83a 27fe 513b
000000b0: e63c 4e3b fadf 923b 4ce2 de3a dd4e 9b3b
000000c0: 48bf 0f3b 1161 803b 8cea 6c3b bd05 973b
000000d0: 3eac 153b e716 c53b 5e9f 543a 8b01 173b
000000e0: b8c3 0e3b b199 663b f4b9 763a f1f0 6f3b
000000f0: 7c68 223b 27b8 843b 9f51 8d3b f2ad b43b
00000100: 1b43 1d3b 5ce2 c73b 7e0c a83a 14ad f63a
00000110: 24b5 0c3b ed88 5f3b 5c7d 9b3a f4d2 823b
00000120: 0a21 84b9 bbf2 62b9 07cf 92b9 ccc7 e6b8
00000130: 0542 15b9 6840 82b9 ab4b 8e38 1d20 c03a
00000140: 831f 983a 35fb 213b 8a84 a239 2c6a 333b
00000150: edbf 8437 59cc 2837 1b32 8337 daff 6c37
00000160: e4b5 6937 8644 8037 c598 80b7 c112 4ab7
00000170: e0b5 a2b7 767c 1fb7 fe75 2bb7 3294 86b7
00000180: 7593 393a 94c6 063b b116 193b 35df 563b
00000190: bd12 973a a1b2 823b d284 273b dbd2 953b
000001a0: d9cc 893b bf15 aa3b d1ea 173b be67 cd3b
000001b0: 6719 8b3a 50fc 1d3b 464b 0f3b 451c 5a3b
000001c0: 197d 803a 0a94 793b 1ab6 1e3e 0754 7dbb
000001d0: 0be5 ee3d 8447 5f3d faeb 343e 91ff 133e
000001e0: c84a 573b 9b89 9e3b 3a3a a43b 6f53 ca3b
000001f0: 7590 7b3b 23ba ef3b 5acb a038 3d42 a938
00000200: cef2 7638 536b c338 577e cd38 0924 aa38
00000210: b90f 7b3a 81a6 0d3b ada6 173b b90e 683b
00000220: e1ee c83a bc17 933b a530 cc3a 88af 473b
00000230: 548c 2d3b 962b 813b 7851 ac3a 383a 953b
00000240: 4f2f ea3a a37b 863b 2a41 713b 52a2 9b3b
00000250: 26fb 1d3b dfd6 d23b 3589 a439 8d17 6e39
00000260: e816 af39 a6ab 9239 94ed 9139 d7fc 9f39
00000270: 722a 8fbc 8faf 273d 96df 213e 28ab dd3c
00000280: a556 b93d 0acf 123e ca02 853a 7c0b f63a
00000290: 4891 f73a 0223 3a3b eba6 563a 1f79 393b
000002a0: fc6a 723a 6227 053b 7cc6 0d3b 70e9 513b
000002b0: e420 b43a 6d77 823b e5c3 e4b6 7a31 aab6
000002c0: c97b 13b7 4091 8db6 244a 8eb6 346d f0b6
000002d0: 0621 e73a dcb8 4c3b b8e9 4a3b 8b74 9d3b
000002e0: 49df 163b 76f6 b33b b9e0 7838 1ff6 db38
000002f0: 4c1a ae37 ffb4 d338 ace6 0339 fc26 b338
00000300: b11d a2b9 4346 8ab9 b663 beb9 c685 7ab9
00000310: e847 84b9 a136 a9b9 ca7d 033b fb86 643b
00000320: 73bb 793b b86a 983b ee8f 283b 8dcb bb3b
00000330: 0853 fcba 1360 feba 9e69 12bb 261c d7ba
00000340: 157e d5ba fba8 f9ba 6102 f63a d63d 813b
00000350: b3db 6c3b 156a 923b 77ba f83a cb39 c73b
00000360: 9008 643a 145b 143b 1bcc 1e3b 8c34 7b3b
00000370: 6ab2 be3a 45f4 b03b 9353 bb36 86df 8336
00000380: 8326 9b36 d074 c136 b407 c136 c80a bf36
00000390: fae3 893a 0aa5 f73a 9a14 0b3b d0db 483b
000003a0: 7b31 993a d790 5d3b d0b2 bfb8 5878 b3b8
000003b0: ec07 f2b8 5969 83b8 6e0d 97b8 8648 c9b8
000003c0: 7f0d 693a a139 513b 0baf 313b 5085 803b
000003d0: 3ec1 a43a 9192 a33b 139c 7737 51fc 7837
000003e0: bf95 2237 b990 a537 f213 a337 c384 8a37
000003f0: ba94 e6ba d460 caba 6383 05bb 6acd bfba
0.009687413 0.008109997 0.017441917 0.016538339 0.017957492 0.01940522 0.0018196915 0.0031864473
0.003214777 0.004508264 0.0022333364 0.005511543 0.00050397654 0.00044652575 0.00039293454 0.0005438043
0.0005670055 0.0005513695 0.0020079394 0.0035751567 0.0032450112 0.004393065 0.0019967356 0.0052505527
-0.0001338061 -0.00011183176 -0.00015484044 -0.00011158399 -0.00011650643 -0.00014640014 0.00054967054 0.002003921
0.0018466024 0.0028687427 0.0008824265 0.0033450245 0.13341433 0.027748402 0.053918973 0.10969488
0.0036020777 0.21289898 0.0016524895 0.0032042356 0.0031469404 0.0044822665 0.0017004698 0.004739626
0.002193408 0.003917821 0.0036150543 0.0046088384 0.002283826 0.006014693 0.0008110906 0.0023041691
0.0021784138 0.0035186822 0.00094118644 0.0036612118 0.0024781516 0.004050273 0.0043127085 0.0055139
0.0023996297 0.006099982 0.0012821106 0.0018819892 0.0021470273 0.0034108714 0.0011862922 0.0039924327
-0.00025201618 -0.00021643464 -0.00028001537 -0.0001100447 -0.00014234342 -0.0002484352 6.785182e-05 0.0014658008
0.0011606071 0.0024716381 0.00030997797 0.0027376516 1.5824999e-05 1.0061159e-05 1.563975e-05 1.4126266e-05
1.3930232e-05 1.5290698e-05 -1.5329928e-05 -1.2044505e-05 -1.9396597e-05 -9.506117e-06 -1.0219866e-05 -1.6043054e-05
0.0007079163 0.002056514 0.0023359472 0.003278685 0.001152597 0.0039885794 0.0025561345 0.004572255
0.004205328 0.0051905806 0.0023180733 0.0062684705 0.0010612429 0.0024106689 0.0021864935 0.003328101
0.0009802907 0.0038082623 0.15499154 -0.003865482 0.1166478 0.054511562 0.17668143 0.1445296
0.003285097 0.004838181 0.005011824 0.006174497 0.0038385664 0.0073158904 7.667272e-05 8.070886e-05
5.88771e-05 9.318315e-05 9.7986944e-05 8.112944e-05 0.0009577233 0.0021614137 0.0023140118 0.0035409166
0.001532998 0.0044889133 0.0015578462 0.0030469615 0.0026481347 0.0039419634 0.0013146838 0.0045540594
0.0017866882 0.004104094 0.0036812522 0.0047495747 0.0024105995 0.006434306 0.00031382745 0.00022706222
0.00033395668 0.00027975178 0.00027833565 0.00030515224 -0.017476294 0.04093891 0.15807948 0.027059153
0.09049729 0.14336792 0.0010147926 0.0018771733 0.0018887902 0.0028402214 0.0008188325 0.0028300954
0.00092475093 0.0020317663 0.0021633198 0.0032030009 0.0013742712 0.003981522 -6.8177346e-06 -5.0721546e-06
-8.790704e-06 -4.219037e-06 -4.240561e-06 -7.1652703e-06 0.0017633743 0.0031238114 0.003096206 0.004805153
0.0023021272 0.005492027 5.9337097e-05 0.000104885774 2.0754662e-05 0.00010094977 0.00012579066 8.5426465e-05
-0.0003092117 -0.0002637376 -0.00036313914 -0.00023891692 -0.00025230576 -0.00032274894 0.002006399 0.0034870494
0.0038106113 0.0046513937 0.0025720554 0.0057310523 -0.001925082 -0.0019407294 -0.0022340785 -0.0016411587
-0.0016288186 -0.0019047552 0.001876902 0.003944139 0.0036141693 0.0044682124 0.0018976469 0.0060798875
0.00086987857 0.0022637295 0.0024230543 0.003833088 0.0014549021 0.005400213 5.5827636e-06 3.930126e-06
4.6238433e-06 5.765447e-06 5.752745e-06 5.6934987e-06 0.0010520213 0.001889379 0.0021221996 0.0030648597
0.001168772 0.0033808255 -9.140896e-05 -8.557801e-05 -0.00011540935 -6.266189e-05 -7.2027426e-05 -9.5979354e-05
0.00088902557 0.0031925219 0.002711239 0.003922142 0.0012569798 0.0049918373 1.4758686e-05 1.4840699e-05
9.690818e-06 1.9736925e-05 1.9440402e-05 1.6512704e-05 -0.0017591931 -0.0015440234 -0.0020372502 -0.0014633362

onnx::LSTM_337 f4 [2, 256, 64]
00000000: f78a 41ba 38af fdb8 940d da39 db0c 86b8
00000010: 164d c437 69cf 5ab8 5939 133c bcf6 7138
00000020: 14d5 c237 9a31 d137 0040 d8b8 b569 be38
00000030: 9367 2839 f09e f038 6c80 5ab8 b86b 1538
00000040: 29b8 73b9 aff7 66b8 dbef 0b39 3e0f 593b
00000050: b6f1 0538 0a36 4eb9 a231 2a39 c3b7 0f39
00000060: 593b 1339 59d5 5739 d67e d03b 6c3d 9fb8
00000070: b08a 0739 5f20 b537 5feb c537 a8a3 7fb9
00000080: ef85 57b7 4389 4538 0466 4639 3f52 81b8
00000090: cfd8 6cb8 1930 49b8 c0fa 09b8 4349 6cb8
000000a0: 5e00 6737 f704 d9b8 ee7f 8c38 c6d0 e4b8
000000b0: 477c 44b8 a9c7 6c36 a971 80b8 3a30 37b9
000000c0: 37f3 2a39 fedd 3039 2351 fcb7 9492 5e39
000000d0: 3ef3 5cb8 9207 4ab9 bb8b 0e39 e10a 69b9
000000e0: 6bdd 90ba 07f0 9bbc 516c 68b8 0464 f2b9
000000f0: f473 b2ba f4e9 d1b8 9f8d 9138 456d e8b8
00000100: c71c b2b9 d4b9 79b9 0887 c138 d7a9 8bb9
00000110: df29 b437 bd14 82b9 8fe8 edb9 7b22 8f39
00000120: 2f2e 5fb9 5b9f 9839 0e1c 91b9 28ea 8639
00000130: 64cb 6f37 7b2c 8d39 01b5 19b7 bbda 8037
00000140: b7ed 8fb9 c480 7a39 f45d 8d39 33a6 903b
00000150: b4a2 9a39 fcba 42b8 4c30 9339 1088 8239
00000160: 4477 6db9 aa70 1138 607b 883b 3a25 78b9
00000170: 311f a139 5c1a de36 13f7 7339 7a5b 35b8
00000180: 1c41 22b7 46e3 70b9 716f 8038 51a8 54b9
00000190: af9e 7eb9 d307 52b7 8421 81b9 52a3 32b7
000001a0: e298 5b39 1356 c9b7 666a 36b7 b90c 18b8
000001b0: 3bb9 83b9 e21a 7f39 5034 78b9 64ae 92b9
000001c0: e946 9439 339c 9239 8240 5fb9 18f8 9939
000001d0: f811 72b9 42ad 9bb9 9cfe a039 2617 7ab9
000001e0: 52e6 13ba 1e53 86bb b3cd 6739 0afe e6b8
000001f0: 2e3d e7b9 d270 6ab9 f6af 9f37 f2e9 9db9
00000200: 288f 5f38 b02e 3f38 6c33 64b7 597e 3938
00000210: f3b3 26b6 ab3f 2538 a26b 1839 d520 40b8
00000220: 80f1 4e38 acfa 21b8 4a0b 3538 587e 24b8
00000230: 192e 9fb6 5248 25b8 7f2c e035 9ee4 ceb5
00000240: f97f 1f38 f0dd 55b8 65c7 23b8 399c b5b8
00000250: 839e 53b8 73b2 9936 7e54 2ab8 173e 2bb8
00000260: 8551 6938 7572 dbb6 7416 c339 2d64 1238
00000270: 0f8f 26b8 ce2f 67b5 400e 58b8 bfdc d836
00000280: b7ed 6d36 766e 5538 b1a5 f435 0a9c 4238
00000290: 5e9a 5938 9540 be35 bb56 2c38 801d 7736
000002a0: a20b 52b8 7086 3036 f770 0d37 1809 b7b5
000002b0: 5e23 2b38 20e7 49b8 3f14 3338 0746 1838
000002c0: b6a8 24b8 f9ad 31b8 9b1f 6138 de69 27b8
000002d0: 7c92 4238 3e51 3c38 213d 2eb8 136a 2e38
000002e0: c192 6eb7 c4e6 a4b9 ac8e 56b8 ffc3 1c37
000002f0: 4101 6338 87eb 3838 654d 43b6 c2ba 0f38
00000300: 16e8 5ab8 a91f c8b8 ff7e de38 72c0 b2b8
00000310: a081 0d37 ace4 ebb8 6335 afba b818 1e39
00000320: 6ee8 0db8 4001 5539 d66b d8b8 915d 0c39
00000330: 9238 1938 c188 3939 dbd8 40b7 0ae6 8737
00000340: 6df9 30b9 e355 8a38 8f0d 2939 747e 733b
00000350: eeb2 f738 e5ab 60b8 de39 2039 d122 ed38
00000360: af99 dcb7 8724 4e38 c175 863b 254e 29b9
00000370: 7319 3139 08e6 0737 c790 6038 3d11 69b8
00000380: 7817 87b6 3a03 80b8 dba4 4338 4a5a d3b7
00000390: 0a21 96b8 1506 67b7 9153 1cb9 40d6 5fb7
000003a0: 8093 1d38 583b ecb7 3ac5 1438 dc0b 0ab8
000003b0: c270 03b9 0206 8e38 5df3 d5b8 d180 37b9
000003c0: 7732 2639 5346 ef38 d543 0bb7 e495 4d39
000003d0: 2655 9cb8 b6cb 1ab9 1736 4939 2c0d c1b8
000003e0: a33c 17ba 36bc 3ebb 2280 9038 f6d9 0bb9
000003f0: 0501 5db8 9e27 77b8 9083 bf37 2618 57b9
-0.0007383073 -0.00012096617 0.00041590317 -6.3920124e-05 2.3400917e-05 -5.2168416e-05 0.008985841 5.7688667e-05
2.3225824e-05 2.4937839e-05 -0.000103116035 9.0795955e-05 0.00016060313 0.00011473696 -5.2094852e-05 3.562469e-05
-0.00023242891 -5.5066947e-05 0.00013345426 0.0033120657 3.1934782e-05 -0.00019665822 0.00016230953 0.00013706
0.00014041121 0.00020583476 0.0063627763 -7.5931515e-05 0.00012926268 2.1591955e-05 2.3593833e-05 -0.00024379662
-1.28461825e-05 4.7096295e-05 0.00018920755 -6.166519e-05 -5.6468703e-05 -4.796693e-05 -3.2896874e-05 -5.6335015e-05
1.3768758e-05 -0.00010348291 6.699549e-05 -0.00010910774 -4.6845784e-05 3.5282958e-06 -6.1246865e-05 -0.00017470206
0.00016303068 0.00016867367 -3.0078523e-05 0.00021226174 -5.2678624e-05 -0.00019267041 0.00013594229 -0.00022224664
-0.0011052316 -0.019035352 -5.5413988e-05 -0.00046232354 -0.0013614879 -0.00010009474 6.940518e-05 -0.00011082975
-0.00033972246 -0.00023815717 9.228109e-05 -0.00026638687 2.147717e-05 -0.00024810983 -0.00045377432 0.00027300775
-0.00021284142 0.00029110428 -0.00027677458 0.00025732932 1.4292866e-05 0.00026926756 -9.161654e-06 1.5360643e-05
-0.00027452197 0.00023889827 0.00026963616 0.0044143437 0.00029494392 -4.6427347e-05 0.0002807401 0.00024896907
-0.00022646511 3.467562e-05 0.004165098 -0.00023664991 0.00030731552 6.619184e-06 0.00023266328 -4.3238957e-05
-9.671112e-06 -0.0002297285 6.124273e-05 -0.00020280598 -0.00024282442 -1.2518797e-05 -0.00024629768 -1.0647653e-05
0.00020942421 -2.4001149e-05 -1.0872818e-05 -3.6251473e-05 -0.00025124275 0.0002432871 -0.00023670611 -0.0002797722
0.00028281592 0.00027963668 -0.00021290968 0.00029367278 -0.00023085612 -0.0002969299 0.00030707277 -0.00023850481
-0.00056419254 -0.004099264 0.00022106506 -0.00011014573 -0.00044105336 -0.00022358008 1.9036215e-05 -0.00030119676
5.3300668e-05 4.558143e-05 -1.3601832e-05 4.4225108e-05 -2.4840672e-06 3.939836e-05 0.00014535946 -4.5806944e-05
4.933914e-05 -3.8618848e-05 4.3164277e-05 -3.9218314e-05 -4.7439357e-06 -3.940642e-05 1.6702251e-06 -1.5414732e-06
3.8027738e-05 -5.0989853e-05 -3.904793e-05 -8.659851e-05 -5.0453946e-05 4.5805295e-06 -4.0609848e-05 -4.0827403e-05
5.562745e-05 -6.540033e-06 0.00037210027 3.490241e-05 -3.9710718e-05 -8.612377e-07 -5.1511684e-05 6.463e-06
3.545412e-06 5.0886032e-05 1.8227639e-06 4.6398527e-05 5.1880597e-05 1.4174899e-06 4.108877e-05 3.682304e-06
-5.0078736e-05 2.6304297e-06 8.430557e-06 -1.3637209e-06 4.0802515e-05 -4.8137386e-05 4.269578e-05 3.6304842e-05
-3.925777e-05 -4.2362113e-05 5.3673615e-05 -3.99145e-05 4.638963e-05 4.4898356e-05 -4.1541763e-05 4.1583622e-05
-1.4220074e-05 -0.0003145245 -5.115445e-05 9.3439585e-06 5.4122185e-05 4.408837e-05 -2.9102314e-06 3.426779e-05
-5.2191397e-05 -9.54264e-05 0.0001060944 -8.523547e-05 8.434436e-06 -0.00011248267 -0.0013367351 0.00015077263
-3.3833487e-05 0.00020313729 -0.000103197686 0.00013386297 3.6530728e-05 0.0001769392 -1.1494582e-05 1.6200374e-05
-0.00016877586 6.5963504e-05 0.00016122147 0.003715423 0.00011811206 -5.356585e-05 0.00015280346 0.00011307526
-2.6297608e-05 4.9148246e-05 0.004103393 -0.00016146207 0.00016889516 8.100185e-06 5.3540596e-05 -5.5567583e-05
-4.0260456e-06 -6.1041166e-05 4.6645157e-05 -2.5195204e-05 -7.1587114e-05 -1.3770089e-05 -0.0001490845 -1.334172e-05
3.7569087e-05 -2.8161026e-05 3.546963e-05 -3.291281e-05 -0.00012535139 6.772207e-05 -0.000102019614 -0.00017500228
0.00015849793 0.00011409507 -8.300839e-06 0.00019606162 -7.45452e-05 -0.00014762473 0.00019189004 -9.2054106e-05
-0.00057692284 -0.0029103882 6.890322e-05 -0.0001333727 -5.2691455e-05 -5.8926285e-05 2.2830238e-05 -0.00020512994

onnx::LSTM_378 f4 [2, 512]
00000000: 4dca 073b fe54 cd3a 447c 8a3a dc61 223b
00000010: 2268 d33b 5e2b 283b ea79 543b f225 8b39
00000020: 4d62 543b 14c9 6b3b f6fb f03a 6828 4b3b
00000030: 707c 683a a6a2 e638 d3e2 dd3a 9b1f 693b
00000040: 65ff 613b 8a3a 213b fec5 82b9 8207 313b
00000050: 5db9 1a3b c8f8 e1b9 e020 193b ae50 d03a
00000060: cc92 a23a 562c 5aba 5379 25b8 0d71 643b
00000070: d76e 2b3b 9cca 203b 3bb3 1d3b 3008 0f3b
00000080: 98b0 5f3a 7815 e33a d600 943b 63f3 1e3b
00000090: 30f6 f43a eed9 643b db1d 693a 6882 043b
000000a0: 91ca 25ba f060 243b 8950 233b c7e8 713b
000000b0: e93d 1f3b efba 833b 986a 4b3b 6f91 1d3a
000000c0: 22bc 883a 9d21 893b a7a5 1e3b e409 d43a
000000d0: 9764 27b9 1c0f 553b d608 203b 0fe7 b23a
000000e0: 66a2 253b e668 fcb9 2260 173b 69af 8e3b
000000f0: fa00 0a3b 363f 8c3a dfe2 863b 7eab ad3a
00000100: 4764 073b 13c0 cc3a 2adc 8a3a 5581 223b
00000110: 92be d23b bfff 273b a54c 543b 2ea7 8539
00000120: 7a1a 543b 8df9 6c3b ebc7 ef3a 64db 4a3b
00000130: cff2 673a 54a9 e038 64a2 dd3a a8df 683b
00000140: a10b 623b 692c 213b d7e4 84b9 5b95 303b
00000150: 2178 1a3b 251c e3b9 adfc 183b 006f cd3a
00000160: 600d a13a 501f 5bba aad9 2db8 cffe 633b
00000170: 91ed 2a3b 6764 203b 8057 1d3b 535b 0e3b
00000180: f3a9 5e3a d16f e23a e650 933b 5507 1f3b
00000190: 5182 f33a a5f1 633b b49f 643a e4e1 043b
000001a0: 7e73 26ba 9d22 243b 5a11 233b 1deb 713b
000001b0: b95a 1f3b d588 833b a423 4b3b e5d4 1c3a
000001c0: 6965 883a a50d 893b 21a3 1e3b ea33 d23a
000001d0: ecd0 2bb9 772f 543b f5c1 1f3b bcb6 b23a
000001e0: e74e 253b 189e fdb9 b589 183b e890 8e3b
000001f0: af90 093b 95a5 8b3a 765e 863b 68de af3a
00000200: 3247 983b 24ec 633b 7eca 433b 15fd 8c3b
00000210: bac9 3d3c 5d0f 9c3b d56a cd3b 0756 733b
00000220: 2d3e 8d3b 58f3 e03b 1a49 df3b eaba d13b
00000230: 879d 343b 0833 1e3b c81f 6c3b 7bf1 e53b
00000240: 15bb 943b efcf 913b 6e2d 2f3b d00e cf3b
00000250: 7579 c73b 1819 a53a 9ad6 9a3b 1634 d13b
00000260: 3017 603b b0c6 f33a 90e1 b03a b74d fa3b
00000270: fda6 d33b 6a6c af3b d1ec c03b e09a c53b
00000280: 17fa 7c3b 28d4 9b3b d265 253c ab1f 993b
00000290: 3307 b03b ef31 f53b 2811 bc3b 7e88 713b
000002a0: 08ec 073b f5ec a33b 316a 9b3b 34bd de3b
000002b0: 5f80 9b3b 761a c83b 7174 c23b b6f8 463b
000002c0: c6f4 4c3b 3165 ce3b 9736 973b 4953 d43b
000002d0: 8d68 213b 11d2 e13b 53d5 ba3b 0769 4f3b
000002e0: e15e cd3b d651 003b 35b8 d63b 38b8 e63b
000002f0: 09b6 a13b 4460 a33b 02cd 0c3c 068e 6d3b
00000300: 0619 9539 5ac6 523a 6b60 29bb faad a13b
00000310: 4304 f3b9 c78a 83ba 5a02 f43a e0dc b7ba
00000320: e55f 86bb 769f df3a 777e 06b9 8ba7 253b
00000330: 355a d6ba 0bf3 9dba 3793 2e3a 2eaa 94bb
00000340: 9ac8 da39 f2ce be3a f482 8aba c1d7 46bb
00000350: 3935 593a 7dc7 4a3a 04ec 6d3b d4bb 30bb
00000360: 1370 d63a 043f 31b8 1017 ceba 6052 203b
00000370: 43ce db3a af9b 82ba 2fe9 403a 31a4 133b
00000380: 0942 e13a 32f0 3839 43bc 15bb b3df 8a3a
00000390: 13a9 343b 0292 50ba 2f4d f2ba 11d6 b93a
000003a0: a731 813a 737b 6a3a 17c5 173b 74a4 5ebb
000003b0: d635 19ba 441a f339 063a e03a 0ca7 2fba
000003c0: 0651 0ebb 2fb0 5eba 750a 25b9 8ea8 0fbb
000003d0: cb07 4eba 7011 41ba 9e81 043b 727e 59b9
000003e0: 62d4 9aba 6323 25ba be74 3239 276c 57b9
000003f0: 476a d73a c74b e7ba 5348 22bb 2b44 0cbb
0.0020719946 0.0015665588 0.0010565598 0.0024777567 0.0064516226 0.0025660614 0.00324213 0.00026540417
0.0032407225 0.0035978006 0.0018385637 0.0030999426 0.000886864 0.0001099755 0.0016928561 0.0035571817
0.0034484502 0.0024601542 -0.00024943048 0.0027012532 0.002360902 -0.000431007 0.0023365542 0.0015893185
0.0012403368 -0.00083226466 -3.9452058e-05 0.0034857423 0.0026158595 0.0024534827 0.0024063129 0.0021824948
0.00085330894 0.0017325124 0.004516701 0.0024253957 0.0018689092 0.0034919935 0.00088926934 0.002021933
-0.0006324435 0.0025082193 0.002491983 0.0036912428 0.0024298376 0.004020087 0.0031038877 0.0006010746
0.0010432045 0.004184915 0.0024207623 0.0016177264 -0.00015963834 0.0032510227 0.002441933 0.0013649183
0.00252738 -0.0004814334 0.002309807 0.0043544066 0.002105771 0.0010699991 0.0041164006 0.0013249961
0.0020659135 0.0015621207 0.0010594178 0.0024796326 0.006431409 0.0025634614 0.0032394317 0.00025492295
0.0032364414 0.0036159486 0.0018293833 0.003095352 0.0008848132 0.00010712692 0.0016909358 0.00355337
0.0034491795 0.002459312 -0.000253475 0.0026944492 0.0023570138 -0.00043317783 0.0023343966 0.0015673339
0.0012287311 -0.0008358853 -4.144913e-05 0.003478933 0.0026081542 0.0024473907 0.0024008453 0.0021721914
0.00084939523 0.0017275756 0.004495728 0.0024265845 0.0018578266 0.0034781483 0.00087213074 0.0020276243
-0.0006349607 0.0025045045 0.0024882169 0.003691382 0.002431555 0.0040141144 0.0030996585 0.00059826515
0.0010406199 0.0041825348 0.002420612 0.00160372 -0.0001638566 0.0032376924 0.0024377082 0.0013634781
0.0025224031 -0.0004837371 0.002327544 0.0043507703 0.002099078 0.0010654206 0.004100616 0.0013417723
0.004647159 0.0034778202 0.0029875333 0.0043026307 0.01158374 0.0047625736 0.006268839 0.0037130134
0.0043103904 0.0068649463 0.0068141343 0.0064004557 0.0027559714 0.0024139304 0.0036029685 0.007017312
0.0045389035 0.0044498364 0.002672996 0.0063189045 0.006087477 0.001259598 0.0047252895 0.006384383
0.0034193508 0.0018598642 0.0013494957 0.007638659 0.0064591155 0.0053535 0.0058876057 0.0060304254
0.0038601214 0.0047555156 0.010095077 0.0046729646 0.005371952 0.007482759 0.00573935 0.0036855037
0.002074005 0.0050026127 0.0047428836 0.006797457 0.0047455276 0.00610667 0.005934291 0.0030360646
0.0031273826 0.006298684 0.004614662 0.006479655 0.0024628968 0.006891497 0.0057016998 0.0031648295
0.006267414 0.0019580028 0.006552721 0.0070410036 0.0049350304 0.004985841 0.0085938 0.0036247983
0.00028438139 0.0008040421 -0.0025844823 0.0049340697 -0.00046351747 -0.0010035866 0.0018616423 -0.0014027618
-0.004100787 0.0017061073 -0.00012826348 0.0025276865 -0.0016353788 -0.0012050582 0.000665951 -0.0045368886
0.0004172966 0.0014557524 -0.0010567592 -0.0030341002 0.0008285824 0.00077354145 0.0036304006 -0.0026967423
0.0016360305 -4.2258776e-05 -0.0015723426 0.0024463162 0.0016769845 -0.000996461 0.0007358966 0.0022528286
0.0017185818 0.00017637087 -0.0022847808 0.0010595232 0.0027566596 -0.0007956327 -0.0018486137 0.0014178177
0.0009856716 0.0008944787 0.0023158246 -0.0033972533 -0.0005844509 0.0004636814 0.0017107136 -0.0006700612
-0.0021715774 -0.00084948813 -0.00015739522 -0.0021920535 -0.00078594376 -0.0007364964 0.002021886 -0.00020741837
-0.0011812563 -0.00062995235 0.00017018893 -0.00020544288 0.0016434871 -0.0017646485 -0.0024762347 -0.0021402936

onnx::LSTM_379 f4 [2, 256, 128]
00000000: f5fd ffb9 c93d a4b9 0549 ae38 e556 c8b8
00000010: 2a6a a2b8 b3fc 4639 31f3 533a 12b2 e039
00000020: feff 97b9 74a4 a4b8 fd11 d637 d5c3 0139
00000030: 8e4d 2fb9 fe1f bb38 2dc1 a6b6 3da6 cfb7
00000040: 0ab4 31b9 1d74 9639 b378 9d38 46bd ccba
00000050: e41b 1b3a 3c46 a9b7 0bca d539 845e c539
00000060: 02f8 ebb9 8085 4f36 dc1d 223b e30b f738
00000070: 2260 99b8 4cb4 6eb7 8c9d c139 71bb 4638
00000080: e269 ec38 5e86 f5b9 6570 a839 a4bb 4539
00000090: 5083 2fba 3bf9 20b7 4874 06ba b317 dd38
000000a0: e91f 3439 b474 81b7 db1f c539 2bba 52b9
000000b0: 497c 1bb7 5242 2b37 f10c 0e39 53da aab8
000000c0: 8780 0eb9 1036 74b9 866c e5b9 2bfe 1b39
000000d0: 086f 8838 3e04 12ba 2f1d 3cb9 d85a bdb8
000000e0: aafc 01ba a2b7 e6bb 955e 9c39 c45c fbb7
000000f0: aa3c 78ba 273e ddb9 e7cb 3837 74d8 18b9
00000100: 9eb7 7d35 d623 9439 98f9 a831 cd87 2934
00000110: f076 48b3 e84e 0f2f 631e ca38 ea70 4436
00000120: 011e d0b0 3aa4 1334 3e3c da33 b490 7c37
00000130: f10a e0b3 5c9e 10b2 ba3d 2b31 f7c2 2430
00000140: b19e 7ab0 bdef 9db5 916c d1b2 14ba 7b33
00000150: b101 982e 1ca8 4fb3 9449 9832 1442 4330
00000160: f02c dbaf 0c5d 3838 1ac3 8134 cba9 9334
00000170: ea43 7c33 55b6 0a33 a443 a531 648b d630
00000180: 5430 30b6 7dda a52f 23d5 4f31 a4a8 b3b5
00000190: 05c0 d535 6aba d134 81ad edb7 3efe 7db4
000001a0: f1f2 9c32 e0bf 2d35 dbe1 2db2 e47c a834
000001b0: d0ba 08b9 a328 23b8 c5e6 0035 e4bc 3932
000001c0: 0eda feb8 3d0a a330 97fb e52d ed35 0030
000001d0: 81ab dfb3 241c 0d33 fac4 e92f a0b6 a2b2
000001e0: a293 1834 14df 63b0 ade1 5136 4bdf 6db6
000001f0: ff24 4630 a9f0 f7b1 3a26 0630 1712 2c30
00000200: 01c6 a9b8 9f0d 8db9 80e5 d636 9f3d 43b9
00000210: fe8f 6bb8 dc04 93b9 bc06 6cbb 9b83 013a
00000220: 950f dcb9 6573 7439 4e44 6ab9 f132 c639
00000230: 4911 9db8 d6ee 8e39 c420 4135 b1a3 fcb6
00000240: 71d9 b5b9 302a b239 800e 5939 1d14 5a3a
00000250: 0d8c e739 d989 8a37 eef7 a539 24ec 7639
00000260: 4627 01ba a759 8bb7 b7d7 1f3b f55f 1db9
00000270: 3912 1a39 353a a3b6 7005 0a3a d4a9 2b38
00000280: 8364 2238 a8eb 97b9 1577 ae38 7d74 13b8
00000290: 1879 25ba bc1f 6e35 3c9e a5b9 4e5c 1c38
000002a0: dd53 8539 baeb 4236 895e 3a39 1c47 aeb8
000002b0: d019 1db9 0c77 1f39 32db 71b9 922d 2db9
000002c0: af46 4e38 f341 3e38 7e0e 37b9 f31f ed38
000002d0: d25a 85b8 2fe8 fab9 23e9 0339 ea5e 17b9
000002e0: 2105 28ba 5d3d 653a b06c bb39 b7b6 0f38
000002f0: 0863 56b9 fcd0 dfb9 87ba 9e36 6ca9 bbb9
00000300: 3e3f a834 1b50 0338 6b24 1c30 9df4 aeb2
00000310: f7b9 25b4 b3af e52e 4d74 e036 0dd3 5236
00000320: 345c c1b0 1197 0133 c38f 2733 e6cf 8cb8
00000330: 32e3 24b3 c82f 8cb1 e2a8 b330 0bc3 fc2e
00000340: c7c1 922d 6494 95b4 0cac 8cb1 cb32 8d32
00000350: c44e 7f2f 3fcb 1f32 9159 b730 62f4 f02e
00000360: ec13 8a30 28b5 5eb7 483d 9633 1344 1033
00000370: 51b1 b132 417f 9db1 2e3a 3ab2 520d 1eb0
00000380: d35a acb3 66f2 a62d 7fa2 94ae 2d8b feb4
00000390: 0bbe 9834 0e99 99b4 64dc 85b6 4343 e9b3
000003a0: baf0 7531 d936 9433 de43 86b1 f755 b932
000003b0: 013a 95b7 9d4a 9eb6 378b 4334 5eae bb31
000003c0: c581 33b6 6689 4e31 279f 532c b865 892e
000003d0: f825 0ab2 17b3 f331 37da e42e 40f0 b2b1
000003e0: 09d3 3b33 bd89 982f 4262 2335 e071 a735
000003f0: 8e9f a12e f581 cfb0 8f1e ac2e f3bd 352f
-0.00048826603 -0.0003132655 8.3105675e-05 -9.5529285e-05 -7.7445366e-05 0.00018976889 0.00080852496 0.00042857282
-0.00028991693 -7.850761e-05 2.5519164e-05 0.00012375352 -0.00016718192 8.922814e-05 -4.969674e-06 -2.4753734e-05
-0.00016947105 0.0002869674 7.5088254e-05 -0.0015620373 0.0005916937 -2.0179075e-05 0.0004077706 0.00037645188
-0.00045007473 3.092311e-06 0.0024737036 0.00011780092 -7.313515e-05 -1.4227884e-05 0.0003692921 4.7381447e-05
0.00011273079 -0.00046830153 0.00032127197 0.00018857286 -0.00066952873 -9.594772e-06 -0.00051290216 0.000105425155
0.00017178025 -1.5432342e-05 0.00037598502 -0.00020096514 -9.267657e-06 1.0207836e-05 0.00013546996 -8.146898e-05
-0.00013590055 -0.00023289793 -0.0004375914 0.00014876637 6.5056665e-05 -0.000557009 -0.00017939949 -9.029143e-05
-0.00049586094 -0.0070409337 0.00029825108 -2.9964729e-05 -0.0009469489 -0.00042198712 1.1014729e-05 -0.00014576485
9.451704e-07 0.0002825546 4.917819e-09 1.5788756e-07 -4.66743e-08 1.3033807e-10 9.6377706e-05 2.9272e-06
-1.514252e-09 1.3750187e-07 1.0162374e-07 1.5054062e-05 -1.0432803e-07 -8.41791e-09 2.4918863e-09 5.9939914e-10
-9.1174984e-10 -1.1767185e-06 -2.4380173e-08 5.860973e-08 6.91246e-11 -4.8348838e-08 1.7728588e-08 7.103449e-10
-3.9867798e-10 4.3955675e-05 2.4170077e-07 2.7504424e-07 5.873509e-08 3.229646e-08 4.809822e-09 1.5610166e-09
-2.6254174e-06 3.016857e-10 3.0243619e-09 -1.338562e-06 1.5925622e-06 3.9064918e-07 -2.8333396e-05 -2.3654954e-07
1.8271267e-08 6.4726737e-07 -1.0121279e-08 3.1383308e-07 -0.00013039564 -3.8900074e-05 4.801953e-07 1.0811366e-08
-0.0001215228 1.1862721e-09 2.6146014e-11 4.664276e-10 -1.0415443e-07 3.2854715e-08 4.2522413e-10 -1.894233e-08
1.4209812e-07 -8.289913e-10 3.1274787e-06 -3.5445726e-06 7.2084555e-10 -7.216006e-09 4.880324e-10 6.259894e-10
-8.095429e-05 -0.00026903764 6.4044143e-06 -0.00018619605 -5.616247e-05 -0.00028041645 -0.0036014756 0.000494057
-0.0004197328 0.00023312641 -0.00022341424 0.00037803457 -7.489563e-05 0.00027262297 7.1945783e-07 -7.5292414e-06
-0.00034685017 0.00033982238 0.00020700134 0.0008319037 0.000441641 1.6515072e-05 0.00031655974 0.00023548357
-0.00049268117 -1.6611839e-05 0.002439005 -0.00015008434 0.00014693373 -4.8645547e-06 0.00052650925 4.092774e-05
3.871742e-05 -0.00028976542 8.319147e-05 -3.515602e-05 -0.0006312295 8.870809e-07 -0.00031589146 3.7279264e-05
0.0002543022 2.9045464e-06 0.0001777356 -8.310212e-05 -0.00014982303 0.0001520777 -0.00023065208 -0.00016515542
4.9180057e-05 4.536095e-05 -0.00017457639 0.00011306992 -6.358851e-05 -0.00047856706 0.00012579984 -0.0001443584
-0.00064094557 0.00087448006 0.00035748398 3.4264023e-05 -0.00020445522 -0.0004268958 4.7304816e-06 -0.0003579365
3.1338453e-07 3.1307438e-05 5.680422e-10 -2.0367503e-08 -1.5434476e-07 1.0444925e-10 6.6892594e-06 3.1415286e-06
-1.4068804e-09 3.0172547e-08 3.9013468e-08 -6.714444e-05 -3.839086e-08 -4.0799684e-09 1.3071964e-09 1.149428e-10
1.6684333e-11 -2.786138e-07 -4.0940957e-09 1.6437658e-08 2.3220098e-10 9.301231e-09 1.3340459e-09 1.09573475e-10
1.0046484e-09 -1.327441e-05 6.996066e-08 3.3589526e-08 2.0686146e-08 -4.5837685e-09 -1.08398535e-08 -5.7498994e-10
-8.025895e-08 1.8979662e-11 -6.759126e-11 -4.741245e-07 2.845048e-07 -2.8609833e-07 -3.9893657e-06 -1.0862143e-07
3.578903e-09 6.901764e-08 -3.907629e-09 2.1575927e-08 -1.7789194e-05 -4.717453e-06 1.8211436e-07 5.4622395e-09
-2.6748614e-06 3.0055047e-09 3.007325e-12 6.2481076e-11 -8.04129e-09 7.092591e-09 1.0407002e-10 -5.207795e-09
4.3731266e-08 2.7746508e-10 6.0865216e-07 1.2475612e-06 7.349775e-11 -1.5098168e-09 7.827083e-11 1.6529338e-10

onnx::LSTM_380 f4 [2, 256, 64]
00000000: 7366 97b7 fcf3 7a38 2ce8 d037 b6ec 29b8
00000010: c501 8039 ac9d a838 14a6 9638 1c33 6ab7
00000020: 86dc 83b8 2951 7eb8 eb85 3d38 4236 b338
00000030: ba41 b638 d760 af38 6a42 9037 730e 85b8
00000040: 0da2 4638 afdd 7438 cf91 9036 6f02 a5b6
00000050: 37b1 0b39 1265 7ab8 1760 dcb7 dc7e 1639
00000060: 861d ddb4 2845 db38 4701 80b8 2649 b938
00000070: 4c15 0239 6e1d f5b8 cbf9 0d39 bdde b838
00000080: a3ba 8838 6d47 d838 9f0b 2b39 11e9 7635
00000090: a7fd a838 a70b 3539 c824 c238 b8e7 5ab7
000000a0: 2cbb dfb7 c901 f6b8 fcdf ac38 afd1 0eb8
000000b0: daa1 edb7 4b71 64b8 6601 df38 4a77 f4b7
000000c0: 0bf9 56b8 6ac1 5037 be62 c137 9b03 f433
000000d0: d7cc a0b8 b50d 0d39 5995 61b8 0547 5c38
000000e0: 286d e2b8 09ae b1b8 5fde 5e38 be9f bdb8
000000f0: 2636 d938 3ba9 94b8 8e7f d038 15a6 9838
00000100: 3b6c 8b38 ad68 efb8 b02e a6b7 5d8d 61b8
00000110: 088f 6839 96a0 01b8 9275 02b9 ade5 6838
00000120: 95d6 9c38 b237 e4b6 d17a 5739 b388 b5b8
00000130: b039 b7b8 500a 09b9 9b2c 44b8 ce98 0239
00000140: 6642 8037 6d23 a3b8 e5a7 b8b8 8362 db38
00000150: ec17 36b9 3ec6 6538 f416 98b8 9733 3539
00000160: 6eae 9c38 b3ee f2b8 c34e 8a38 62f1 33b9
00000170: 95eb 32b9 375e 1639 ca29 38b9 e4c3 fbb8
00000180: d327 d8b8 c781 1eb9 f1e6 0939 643e 4437
00000190: 00ca 01b9 17d9 4b39 896c 0239 cc79 78b8
000001a0: e6fd aab8 8722 0139 e8ba eab8 cfcb b538
000001b0: 1706 6338 5ab7 a038 25b1 10b9 1462 9738
000001c0: f0bf a238 e0cb a638 8c40 7bb8 9a32 3839
000001d0: b0b3 c638 8ddd 4239 ed5c 51b8 b4ab 8eb8
000001e0: de8f 4639 05f5 ed38 42b5 99b8 f0b4 ce35
000001f0: 782f ccb8 56e3 4939 7a8d fe38 05e1 a436
00000200: 2d5e f7b8 e832 5d39 9d98 0ab8 d3a3 ad38
00000210: 71da 27b7 fdc9 1b39 a6af 4f39 db9d b8b8
00000220: 7289 4fb9 9c91 4db8 fd95 ebb8 349f 4a39
00000230: 6296 5439 4c92 6f39 b1a5 8938 b4a5 5fb9
00000240: e398 8738 2d4b 2739 b171 df38 15d2 56b9
00000250: f04e 9539 4636 eab8 b1a0 fb38 d794 54b8
00000260: 44b8 9eb8 f132 7639 6f94 0fb9 223e 4939
00000270: 9573 a839 ce06 8fb9 8adf b439 fce2 8039
00000280: e40a 1639 76e7 8239 8fdb 47b8 35ec 95b5
00000290: 2fb7 5339 ecab e237 2c3e 24b8 81e9 5238
000002a0: 925e 8938 101d 82b9 960d 3e39 8c90 0db9
000002b0: c78b 01b9 f915 eab8 baf7 6539 d10c b9b8
000002c0: 0e99 30b9 55b7 69b8 3783 b838 2b46 2cb9
000002d0: b42a 59b9 b63e e2b7 6728 6338 2eda 0439
000002e0: 0912 8db9 68d5 43b9 4614 1039 f2b6 a9b8
000002f0: 8dcf 8539 e1b5 7cb9 e6ac 20b8 7473 7a37
00000300: 686e 0438 9688 16b7 ea1b f435 f22c feb8
00000310: f676 1439 0075 9e35 36b5 0eb8 badc cc35
00000320: 62fd 0338 6d88 69b8 0b36 21b7 9382 c6b7
00000330: b854 ddb7 26bc eb36 074e 40b8 78f2 9638
00000340: b46e c837 f15e 05b8 f222 56b8 52d5 c038
00000350: 2efd 3237 46e0 ef37 4fc8 a5b8 aad5 b937
00000360: 3f42 6638 cfa7 2fb8 e887 be36 6845 0f38
00000370: 172a 09b8 de1d 4a37 6f46 ccb7 2c6e 1937
00000380: de23 4cb6 25e5 82b7 2a29 eb38 29a6 eeb7
00000390: 952c b0b7 55f9 1a38 8f21 3937 2618 22b8
000003a0: 04cb b5b8 b6c8 16b7 c999 c435 3245 ff37
000003b0: a289 3e38 9352 92b7 6cc8 0e36 c2fc 6237
000003c0: 6f95 1e38 474f 5b38 c700 51b8 1430 00b6
000003d0: ce6e 18b6 4f95 1d38 343e 14b9 a969 59b7
000003e0: ca24 53b7 d3a6 aa36 e873 e836 e461 feb7
000003f0: a86e bcb7 bc9a c137 3e35 8638 f8e8 9438
-1.804831e-05 5.9831873e-05 2.4903646e-05 -4.0513194e-05 0.0002441538 8.040233e-05 7.183492e-05 -1.3959387e-05
-6.2876425e-05 -6.0633905e-05 4.5185832e-05 8.5454914e-05 8.690679e-05 8.362688e-05 1.7197064e-05 -6.3446256e-05
4.73578e-05 5.8380592e-05 4.308509e-06 -4.9176665e-06 0.0001332209 -5.9698774e-05 -2.6270789e-05 0.00014352374
-4.118594e-07 0.00010455615 -6.1037535e-05 8.8351124e-05 0.000124057 -0.00011687992 0.00013539863 8.815292e-05
6.519749e-05 0.00010312987 0.0001631216 9.19813e-07 8.058111e-05 0.00017265846 9.257492e-05 -1.3047764e-05
-2.667083e-05 -0.000117305266 8.2433195e-05 -3.405072e-05 -2.832797e-05 -5.446495e-05 0.00010633729 -2.9142615e-05
-5.1253515e-05 1.2442799e-05 2.3053373e-05 1.1362791e-07 -7.667549e-05 0.00013451914 -5.378327e-05 5.251823e-05
-0.00010796852 -8.472434e-05 5.3136024e-05 -9.0419766e-05 0.00010357452 -7.0887116e-05 9.941972e-05 7.27886e-05
6.648196e-05 -0.000114159055 -1.9810483e-05 -5.3775835e-05 0.00022178527 -3.0905554e-05 -0.00012441564 5.5527013e-05
7.478629e-05 -6.8014133e-06 0.0002054975 -8.656215e-05 -8.736865e-05 -0.0001306918 -4.6771584e-05 0.0001245469
1.5289708e-05 -7.779044e-05 -8.8050765e-05 0.00010461083 -0.00017365784 5.4782482e-05 -7.2522e-05 0.00017280724
7.47115e-05 -0.000115839204 6.595023e-05 -0.00017160692 -0.00017063164 0.00014340213 -0.00017563175 -0.000120051
-0.000103071005 -0.000151164 0.0001315137 1.1697037e-05 -0.0001237765 0.00019440461 0.00012438199 -5.924124e-05
-8.153524e-05 0.00012315261 -0.000111928035 8.668715e-05 5.412669e-05 7.6635464e-05 -0.00013798902 7.2185096e-05
7.760513e-05 7.9534715e-05 -5.9903177e-05 0.00017566458 9.474845e-05 0.00018583816 -4.9916027e-05 -6.80307e-05
0.00018936346 0.00011346679 -7.3293704e-05 1.5400856e-06 -9.73632e-05 0.00019253543 0.00012138016 4.9137766e-06
-0.000117954194 0.00021095166 -3.3043896e-05 8.2797975e-05 -1.00048355e-05 0.00014857198 0.00019806492 -8.8032066e-05
-0.0001979226 -4.9011418e-05 -0.00011233611 0.00019323529 0.00020273917 0.00022847316 6.5635315e-05 -0.00021328666
6.465779e-05 0.00015954366 0.00010654645 -0.00020486892 0.00028478308 -0.00011168099 0.00011998544 -5.0683357e-05
-7.568349e-05 0.00023479365 -0.00013692839 0.00019192 0.00032129572 -0.00027280155 0.00034498825 0.0002458318
0.00014309172 0.00024967984 -4.7649777e-05 -1.117011e-06 0.0002019077 2.7021357e-05 -3.915855e-05 5.028537e-05
6.550284e-05 -0.00024817185 0.00018124873 -0.00013500656 -0.0001235447 -0.00011162082 0.00021931427 -8.823875e-05
-0.00016841685 -5.572227e-05 8.7982444e-05 -0.00016429338 -0.00020710641 -2.6970501e-05 5.4158645e-05 0.00012669779
-0.00026907053 -0.00018676149 0.00013740463 -8.092624e-05 0.00025522374 -0.00024100348 -3.8307997e-05 1.4928042e-05
3.1574076e-05 -8.972498e-06 1.8187541e-06 -0.000121200355 0.00014158696 1.1805969e-06 -3.4024204e-05 1.5263424e-06
3.1468815e-05 -5.5678585e-05 -9.608931e-06 -2.3664243e-05 -2.6384703e-05 7.025449e-06 -4.5849036e-05 7.197721e-05
2.3893408e-05 -3.1798092e-05 -5.105412e-05 9.1950074e-05 1.0668575e-05 2.8595456e-05 -7.9051235e-05 2.2153214e-05
5.489797e-05 -4.1879535e-05 5.678263e-06 3.4158496e-05 -3.2702545e-05 1.2047092e-05 -2.4351493e-05 9.145162e-06
-3.0419246e-06 -1.5603911e-05 0.000112133406 -2.8449185e-05 -2.1001595e-05 3.694867e-05 1.1034673e-05 -3.86463e-05
-8.668567e-05 -8.987428e-06 1.4647895e-06 3.043059e-05 4.542771e-05 -1.7443008e-05 2.127631e-06 1.35294995e-05
3.7809306e-05 5.22875e-05 -4.9830207e-05 -1.9101471e-06 -2.2714262e-06 3.757077e-05 -0.00014137552 -1.2958809e-05
-1.2585146e-05 5.0858157e-06 6.927632e-06 -3.0324743e-05 -2.2462875e-05 2.3079447e-05 6.399535e-05 7.100584e-05
