LOSO/models/model_without_subj_4.pth (torch, 549103 bytes, 18 tensors)

lstm.weight_ih_l0 f4 [256, 6]
0.002470897 0.0018159937 0.0034811338 0.0031125103 0.003991536 0.0023518614 0.00036628253 0.00039438237
0.0012049165 0.0010752446 0.0016819097 7.729426e-05 -2.8413592e-06 -1.3025523e-06 -4.276553e-06 -1.7735949e-06
-1.9277627e-06 -3.3324857e-06 -6.097336e-07 -2.770336e-07 -7.692666e-07 -4.098045e-07 -4.8501073e-07 -6.6555356e-07
0.0017525756 0.0010623873 0.0022884412 0.0023316273 0.003017535 0.0009675231 -3.8523635e-07 -1.6589762e-07
-4.5967204e-07 -2.6780387e-07 -2.8744734e-07 -3.8992061e-07 0.0018294037 0.001665836 0.0023474575 0.0024056039
0.0031445615 0.0018332876 0.0026466353 0.0021577897 0.003375911 0.0031934502 0.003787993 0.0022605762
0.0011932758 0.00097132125 0.001887809 0.0017104509 0.002480048 0.0009455025 -3.8622875e-05 -4.6716053e-05
-1.21861995e-05 -4.6899873e-05 -5.1325704e-05 -3.558521e-05 0.0018471463 0.0017249143 0.0026881308 0.002411744
0.003031473 0.0015113583 0.0031281353 0.0020850312 0.003779485 0.0035420584 0.0040983562 0.0025027022
0.0014897066 0.0010850764 0.0023359791 0.002170619 0.0027712067 0.0010409021 0.0020955203 0.0015067147
0.0027705475 0.002750234 0.003251259 0.0018740211 0.0028905028 0.0023455282 0.0036534888 0.0034971377
0.0040551797 0.002536038 0.0021065623 0.0016831659 0.0026870398 0.0025969048 0.003043057 0.0017380661
0.0021606602 0.002044075 0.0027347086 0.0026639132 0.0030291814 0.0017303525 0.002132332 0.0015816573
0.002746631 0.0025866434 0.0031885246 0.0016601292 0.0035047142 0.0024949783 0.0042937547 0.0041465163
0.004776319 0.0029581173 0.0019557 0.0012760939 0.0027849674 0.0026070515 0.0032303385 0.0015794283
-8.7104974e-07 -3.5554044e-07 -9.808323e-07 -4.9732313e-07 -6.2585184e-07 -8.07615e-07 0.0027552517 0.0018545656
0.003671592 0.003361325 0.0042220512 0.0025244392 0.002181998 0.0016972481 0.0026506097 0.00260579
0.0031854191 0.0018456535 0.085947976 0.074670784 0.08882904 0.14204788 0.06039241 0.117349885
0.03600693 0.036143214 0.050702933 0.051783375 0.038295668 0.04977526 0.00263915 0.0017373464
0.0036341501 0.0030832514 0.0038246026 0.0020678644 0.0018989882 0.0017871952 0.0026569576 0.002379404
0.0027915041 0.0016172493 0.0021854115 0.0020025831 0.0029848532 0.0028297172 0.0036870076 0.001873758
0.002143224 0.0013238782 0.002751329 0.0025563107 0.0028723318 0.0017274355 0.0018703508 0.0014753389
0.002193467 0.0022830407 0.00255665 0.0013981536 0.043304898 0.091092005 0.1133106 0.013857973
0.06934436 0.070813954 0.002122087 0.0022008198 0.0030616643 0.0028651955 0.003348088 0.0019780481
0.0011706655 0.0009876782 0.0015428154 0.0016279623 0.0021350877 0.0009815127 0.0021596896 0.0016927251
0.002738435 0.0026165298 0.002855737 0.0016848551 0.001257588 0.00094394665 0.001885635 0.0016989477
0.0024280294 0.0009188212 0.0022170595 0.001704299 0.0026650222 0.002412071 0.0026269439 0.0016479924
0.10337876 0.0756236 0.110844165 -0.044631355 0.07044071 0.09398032 -1.7414686e-06 -1.039368e-06
-2.3144876e-06 -1.4029083e-06 -1.2711056e-06 -1.8172899e-06 0.0019448898 0.0014221672 0.0028080144 0.002749132
0.003659064 0.0014269678 0.0025725334 0.0016753768 0.003485464 0.0030542407 0.0035851984 0.0022283446
0.0018288208 0.0015172076 0.00260037 0.0024691143 0.0030174681 0.0013824628 -6.940062e-07 -6.753501e-07
-5.259955e-07 -7.411271e-07 -7.640807e-07 -6.2792134e-07 0.0028018963 0.0019409409 0.0035067983 0.0031201402
00000000: c6ee 213b a306 ee3a bc23 643b 42fb 4b3b
00000010: 6ecb 823b b021 1a3b 9c09 c039 1bc5 ce39
00000020: 4aee 9d3a 39ef 8c3a 8673 dc3a 0a19 a238
00000030: 2eae 3eb6 5bd3 aeb5 507f 8fb6 420c eeb5
00000040: b65e 01b6 aba3 5fb6 93ac 23b5 35bb 94b4
00000050: 997f 4eb5 1a03 dcb4 af31 02b5 7ea8 32b5
00000060: aeb6 e53a cd3f 8b3a acf9 153b 37ce 183b
00000070: d6c1 453b 60a1 7d3a 7bd2 ceb4 9721 32b4
00000080: d8c8 f6b4 afc6 8fb4 7652 9ab4 4856 d1b4
00000090: 9ac8 ef3a 2e58 da3a cdd7 193b 56a7 1d3b
000000a0: fd14 4e3b ed4a f03a 2c73 2d3b b469 0d3b
000000b0: 633e 5d3b 3449 513b fa3f 783b 2d26 143b
000000c0: b167 9c3a 44a0 7e3a 5c70 f73a 3531 e03a
000000d0: 4d88 223b 99db 773a fffe 21b8 fbf0 43b8
000000e0: 5473 4cb7 5bb6 44b8 8e46 57b8 5441 15b8
000000f0: f21b f23a 8516 e23a 5a2b 303b 5a0e 1e3b
00000100: adab 463b c518 c63a 6701 4d3b 05a5 083b
00000110: 3cb1 773b e121 683b 814b 863b 6004 243b
00000120: 4242 c33a 1f39 8e3a 3a17 193b f240 0e3b
00000130: 229d 353b e16e 883a ff54 093b f57c c53a
00000140: 1392 353b 453d 343b 1313 553b b7a1 f53a
00000150: 976e 3d3b 6fb7 193b 5f6f 6f3b 3c30 653b
00000160: 50e1 843b a833 263b 400e 0a3b ad9d dc3a
00000170: 0c19 303b d530 2a3b 066e 473b d2cf e33a
00000180: dd99 0d3b e3f5 053b cc38 333b 0c95 2e3b
00000190: 3b85 463b ffcc e23a 98be 0b3b 9d4f cf3a
000001a0: d200 343b ad84 293b 91f6 503b b198 d93a
000001b0: 59af 653b ca82 233b a0b2 8c3b 80df 873b
000001c0: ab82 9c3b f9dc 413b 342b 003b 9b42 a73a
000001d0: 0084 363b 11db 2a3b 16b4 533b d204 cf3a
000001e0: 15d2 69b5 1be1 beb4 24a5 83b5 c97f 05b5
000001f0: 3600 28b5 e1ca 58b5 7491 343b e514 f33a
00000200: 189f 703b ad49 5c3b 2259 8a3b 1071 253b
00000210: daff 0e3b 3276 de3a dab5 2d3b e7c5 2a3b
00000220: 77c2 503b dbe9 f13a 7e05 b03d ffec 983d
00000230: 00ec b53d 0075 113e 085e 773d 2355 f03d
00000240: 017c 133d e80a 143d e1ad 4f3d ce1a 543d
00000250: ebdb 1c3d 25e1 4b3d 97f5 2c3b acb7 e33a
00000260: ec2a 6e3b 6010 4a3b 2fa6 7a3b 0285 073b
00000270: 78e7 f83a 5240 ea3a 5a20 2e3b c6ef 1b3b
00000280: abf1 363b e2f9 d33a 1f39 0f3b c53d 033b
00000290: 879d 433b c772 393b b9a1 713b e398 f53a
000002a0: 5575 0c3b fb85 ad3a a44f 343b c787 273b
000002b0: bb3d 3c3b 1e6b e23a 8f26 f53a 2960 c13a
000002c0: 45c0 0f3b 119f 153b 788d 273b 4042 b73a
000002d0: 7a60 313d 728e ba3d 630f e83d 8d0c 633c
000002e0: 6a04 8e3d e806 913d b612 0b3b a13b 103b
000002f0: 34a6 483b 01c6 3b3b 986b 5b3b 24a2 013b
00000300: 0471 993a fb74 813a 4b38 ca3a 5a61 d53a
00000310: d4ec 0b3b 1aa6 803a 9489 0d3b 6ede dd3a
00000320: 5177 333b 167a 2b3b 5127 3b3b 5bd6 dc3a
00000330: a7d5 a43a 3073 773a 6927 f73a 3aaf de3a
00000340: 931f 1f3b 0cdd 703a 164c 113b c962 df3a
00000350: a7a7 2e3b d613 1e3b ce28 2c3b 7301 d83a
00000360: 3eb8 d33d 8ce0 9a3d 4402 e33d 5ecf 36bd
00000370: 3843 903d c178 c03d 68bc e9b5 6a80 8bb5
00000380: 9852 1bb6 904b bcb5 db9a aab5 9be9 f3b5
00000390: aceb fe3a 0368 ba3a aa06 383b c82a 343b
000003a0: e8cc 6f3b 1809 bb3a f397 283b 5198 db3a
000003b0: 626c 643b a829 483b a6f5 6a3b 6b09 123b
000003c0: 0bb5 ef3a 0add c63a f86a 2a3b ddd0 213b
000003d0: b7c0 453b c133 b53a be4b 3ab5 b549 35b5
000003e0: 2332 0db5 def1 46b5 3a1b 4db5 6d8e 28b5
000003f0: 05a0 373b 2b67 fe3a 50d2 653b 447b 4c3b

lstm.weight_hh_l0 f4 [256, 64]
-7.334957e-05 4.180336e-05 8.632214e-06 1.7731042e-08 3.7790294e-05 -1.0662908e-06 -7.002725e-05 3.5946043e-05
0.00012582842 -2.8489298e-05 4.794556e-05 4.7331678e-06 -1.0739322e-05 -7.286544e-05 7.843075e-05 6.6693035e-05
5.8523815e-06 3.3043867e-05 -7.401334e-05 9.11829e-05 -3.0216095e-06 3.597502e-05 -6.5226145e-06 -0.001717642
-0.00017530129 -7.266482e-05 -0.000103059996 -6.008057e-05 0.00018288693 -3.5376685e-05 0.0007423121 8.664112e-05
-3.4526794e-05 8.61972e-05 -8.076111e-06 -0.00010821723 -0.0011132155 6.40545e-06 -9.485167e-05 8.599616e-05
-3.620033e-05 4.1851113e-06 0.0002125462 -7.439188e-05 4.0858962e-05 -1.2174212e-06 -0.00010086046 -9.530206e-05
-7.2508024e-05 6.704561e-05 -1.6760994e-05 -0.00014698795 -8.4449115e-05 -3.9456245e-06 -7.5839715e-05 -1.1367067e-05
-2.549267e-05 -0.00012291125 -4.9158784e-06 0.00015046427 6.538267e-06 -0.0099370545 0.007936756 -6.696604e-05
0.00010631639 -0.0001713379 1.190241e-06 -2.737667e-06 0.00019178164 -3.0576489e-06 0.00013514627 -0.00014449132
-0.00012564789 -2.6550586e-06 -0.00022389545 -0.00026880624 -0.00024594818 0.00017546036 -0.00017076773 -4.6212557e-05
0.00018091426 -0.00017575812 0.00022041255 -0.0001730458 -5.1324587e-08 -0.00021482998 0.00012587282 0.0008779404
-0.00033198696 0.00019616948 0.00014896962 0.00016093132 -3.6676225e-05 -0.00017323885 -7.232192e-05 -0.00013481213
0.00014042921 -0.00010763906 0.00015245451 3.2210814e-05 0.0019434629 1.53352e-06 -0.00025138198 -0.0002705445
-0.00020288634 1.7174842e-06 -7.5280564e-05 0.00019353021 -0.00011417134 2.9684602e-06 0.00011072992 -0.00031068406
0.00014270203 -0.0001859013 -1.4874062e-05 -0.00026574018 0.0001331823 -8.370349e-07 0.00022377279 -9.026223e-06
0.00027424097 0.00012283899 -4.9900245e-06 0.0003127621 5.510002e-06 -0.0094624115 0.0070333234 0.0002017464
-2.1941256e-07 2.3679151e-07 -2.0651405e-09 -4.7483684e-10 -2.5322512e-07 -1.9832707e-09 -1.7984092e-07 2.1966459e-07
1.8040275e-07 5.6076843e-10 2.1920091e-07 2.2389294e-07 2.478919e-07 -1.9937042e-07 1.985777e-07 2.081961e-07
-2.3274688e-07 2.215582e-07 -2.0974471e-07 2.0793088e-07 9.827279e-10 2.3289466e-07 -2.024652e-07 1.8085397e-06
1.9197033e-07 -2.4441212e-07 -2.0387874e-07 -2.2757129e-07 1.6530652e-07 2.1177176e-07 5.5408714e-07 2.1116863e-07
-2.0325068e-07 2.129287e-07 -2.3769866e-07 -1.8297813e-07 9.480777e-07 -2.1839967e-10 2.800902e-07 2.2400653e-07
2.5459482e-07 -4.0261292e-10 1.7371832e-07 -2.0751558e-07 2.0398589e-07 -2.730956e-09 -2.1164381e-07 1.7774133e-07
-2.0873517e-07 2.168732e-07 -2.061091e-09 2.7465947e-07 -1.7423972e-07 2.379029e-10 -2.179317e-07 -1.6957961e-10
-2.3757487e-07 -1.7300266e-07 -1.4235975e-09 -1.7780022e-07 2.6625268e-11 3.5904432e-07 -3.4180104e-07 -2.0961221e-07
-3.5745387e-08 4.2394802e-08 6.6351896e-10 9.440853e-10 -4.217573e-08 1.0749868e-10 -3.251913e-08 3.6014413e-08
3.202612e-08 -3.2592313e-09 4.0297838e-08 4.1241435e-08 4.2814143e-08 -3.5860154e-08 3.4897127e-08 3.4187927e-08
-3.778428e-08 3.7514514e-08 -3.7754845e-08 3.5753818e-08 -3.6912737e-10 4.092562e-08 -3.3765794e-08 3.8588226e-07
1.499476e-08 -4.3903963e-08 -3.564145e-08 -3.7358863e-08 2.9679882e-08 3.6091635e-08 -1.112981e-07 3.477442e-08
-3.4230332e-08 3.4970054e-08 -3.923081e-08 -2.9651204e-08 3.7732963e-07 6.4077205e-10 4.6646218e-08 4.042782e-08
3.9474305e-08 2.6576336e-10 3.0516937e-08 -3.615413e-08 3.37597e-08 -1.2460747e-09 -3.5821728e-08 3.4249773e-08
-3.643578e-08 3.9288178e-08 -5.649604e-10 4.3713797e-08 -2.9851833e-08 1.0056893e-09 -3.836726e-08 -1.0624099e-10
-4.3450036e-08 -3.1826907e-08 4.700686e-10 -2.859317e-08 -3.1377953e-10 -1.3235588e-07 -1.16423756e-07 -3.8998742e-08
00000000: 40d3 99b8 0456 2f38 14d3 1037 f94e 9832
00000010: 0581 1e38 791d 8fb5 98db 92b8 c5c4 1638
00000020: cff0 0339 4dfc eeb7 2719 4938 9ad1 9e36
00000030: 092d 34b7 56cf 98b8 307b a438 8ddd 8b38
00000040: 935f c436 9598 0a38 9c37 9bb8 7239 bf38
00000050: dbc6 4ab6 e2e3 1638 d5dc dab6 8022 e1ba
00000060: 15d1 37b9 a163 98b8 ea21 d8b8 05ff 7bb8
00000070: 56c5 3f39 6d61 14b8 b997 423a 19b3 b538
00000080: ddd0 10b8 c5c4 b438 a27e 07b7 aff2 e2b8
00000090: 50e9 91ba 66ee d636 1aeb c6b8 d658 b438
000000a0: cfd5 17b8 d56d 8c36 f0de 5e39 d602 9cb8
000000b0: fa5f 2b38 4666 a3b5 0c85 d3b8 e7dc c7b8
000000c0: 730f 98b8 d69a 8c38 f699 8cb7 c720 1ab9
000000d0: 461a b1b8 a864 84b6 230c 9fb8 2eb5 3eb7
000000e0: 18d9 d5b7 bde1 00b9 13f3 a4b6 f2c5 1d39
000000f0: 4963 db36 07cf 22bc 2b09 023c 1e70 8cb8
00000100: 2df6 de38 2ba9 33b9 5fc0 9f35 c3b8 37b6
00000110: fe18 4939 0232 4db6 0db6 0d39 9882 17b9
00000120: 59c0 03b9 8f2d 32b6 7ac5 6ab9 90ee 8cb9
00000130: 9bf2 80b9 c8fb 3739 1d10 33b9 5bd4 41b8
00000140: cdb3 3d39 b64b 38b9 8b1e 6739 a173 35b9
00000150: fb6f 5cb3 fc43 61b9 bafc 0339 9525 663a
00000160: 890e aeb9 d8b2 4d39 ba34 1c39 acbf 2839
00000170: ccd4 19b8 73a7 35b9 89ab 97b8 5b5c 0db9
00000180: 2e40 1339 48bc e1b8 32dc 1f39 191a 0738
00000190: cbbb fe3a 59d3 cd35 ebcb 83b9 ded7 8db9
000001a0: e3bd 54b9 4f84 e635 f2df 9db8 5fee 4a39
000001b0: 456f efb8 c235 4736 ac37 e838 4fe3 a2b9
000001c0: 49a2 1539 80ee 42b9 9c8b 79b7 0b53 8bb9
000001d0: daa6 0b39 9ab0 60b5 8da4 6a39 556f 17b7
000001e0: 00c8 8f39 57ce 0039 fc6f a7b6 38fa a339
000001f0: 8fe2 b836 3b08 1bbc cb77 e63b e38b 5339
00000200: aa97 6bb4 c140 7e34 56ea 0db1 ac85 02b0
00000210: fff2 87b4 114a 08b1 4c1a 41b4 f1dc 6b34
00000220: bbb4 4134 9224 1a30 7d5d 6b34 3967 7034
00000230: 0116 8534 8612 56b4 9f38 5534 828c 5f34
00000240: fae8 79b4 74e5 6d34 3036 61b4 9b43 5f34
00000250: aa10 8730 9911 7a34 3665 59b4 f3bc f235
00000260: 6720 4e34 bf37 83b4 c3e9 5ab4 525a 74b4
00000270: 1c7f 3134 6163 6334 94bc 1435 97bd 6234
00000280: 1f3d 5ab4 65a1 6434 1c3a 7fb4 a578 44b4
00000290: 677f 7e35 0b22 70af 4e5f 9634 7286 7034
000002a0: 3faf 8834 bb56 ddaf 5487 3a34 73d1 5eb4
000002b0: 3707 5b34 7cab 3bb1 3540 63b4 2ad9 3e34
000002c0: b020 60b4 a7dd 6834 19a3 0db1 e974 9334
000002d0: a616 3bb4 dbc9 822f 9c00 6ab4 6b74 3aaf
000002e0: 1518 7fb4 9cc2 39b4 62a8 c3b0 5ae9 3eb4
000002f0: c632 ea2d adc2 c034 c780 b7b4 c411 61b4
00000300: 7886 19b3 9415 3633 ff62 3630 0cc1 8130
00000310: b524 35b3 6064 ec2e 29ab 0bb3 44ae 1a33
00000320: 178d 0933 01f9 5fb1 f113 2d33 7021 3133
00000330: a6e2 3733 a804 1ab3 cce1 1533 06d6 1233
00000340: 4148 22b3 a51f 2133 e427 22b3 bd8f 1933
00000350: 0fee caaf 32c6 2f33 e205 11b3 412b cf34
00000360: d3cd 8032 eb90 3cb3 3014 19b3 8174 20b3
00000370: c0f2 fe32 2c03 1b33 c702 efb3 e15a 1533
00000380: a604 13b3 fb31 1633 bb7e 28b3 b0b3 feb2
00000390: ca93 ca34 5322 3030 0f58 4833 dca2 2d33
000003a0: 758a 2933 de1a 922f ba11 0333 e347 1bb3
000003b0: 2fff 1033 5b42 abb0 68da 19b3 061a 1333
000003c0: 907d 1cb3 cfbd 2833 8e4b 1bb0 d4bf 3b33
000003d0: 7036 00b3 8c38 8a30 40c9 24b3 5ca0 e9ae
000003e0: d29d 3ab3 0eb2 08b3 2336 0130 0c9d f5b2
000003f0: 8b80 acaf b51d 0eb4 a304 fab3 927f 27b3

lstm.bias_ih_l0 f4 [256]
0.004882529 0.0025251827 -8.026101e-06 -6.5457084e-07 0.0041576438 -7.311833e-07 0.003220532 0.0048985784
0.0032044207 8.6582244e-05 0.0041338173 0.0056538703 0.004140444 0.004018022 0.00537376 0.003701618
0.0038778617 0.004109171 0.0061334427 0.004131102 -9.993091e-07 0.005615868 0.003831055 0.19028232
0.086346805 0.005569678 0.0037218418 0.004698281 0.0041524763 0.0030748267 0.1087289 0.0042542643
0.0025345755 0.003937787 0.0029535852 0.0036731365 0.16533859 -2.7817941e-06 0.0044604503 0.0056219934
0.0036536388 2.6699738e-07 0.0049766414 0.0053976 0.0042366325 -5.190847e-06 0.004885093 0.05152648
0.003621152 0.005988847 1.1198728e-06 0.0030832705 0.0036827757 -3.362425e-06 0.0053227143 -6.1058677e-06
0.0053719017 0.0041216654 -1.4538128e-07 0.06534337 3.7231155e-07 0.23894091 0.18665618 0.0048750527
0.003854821 0.0015711414 -7.911589e-06 -6.9665845e-07 0.0032044759 -7.4182765e-07 0.0024448049 0.003936953
0.0023782016 7.909238e-05 0.0033360613 0.004519997 0.0028854297 0.002908169 0.0042095883 0.002892055
0.002945155 0.0033545962 0.0050514727 0.0031134211 -1.2361767e-06 0.004425817 0.002873862 0.22695355
0.12815724 0.0045945756 0.0027688348 0.0039189295 0.0034142605 0.0022950883 0.30796227 0.0037091067
0.0017591619 0.003052048 0.0019892193 0.0031849863 0.31978813 -2.8981503e-06 0.0033451007 0.004022663
0.0026603006 1.7898932e-07 0.003916617 0.004536086 0.003271436 -4.9485557e-06 0.0041476972 0.055685997
0.0027954567 0.005113616 3.6185735e-08 0.0021282209 0.0027543872 -2.8544353e-06 0.004099663 -6.4038973e-06
0.0042232955 0.0031773995 -1.7131336e-07 0.080835775 3.549366e-07 0.15059233 0.13737819 0.0037189526
0.0071885195 -0.007876858 0.00022549732 9.057247e-05 0.009973926 5.6632925e-05 0.005959122 -0.0075203273
-0.0057750177 -0.0003699898 -0.006447529 -0.006315256 -0.007845993 0.005906986 -0.0060064862 -0.007898988
0.008724094 -0.007707227 0.005440063 -0.006129839 -0.00022870672 -0.007176989 0.0072621815 -0.09678684
0.042991925 0.006950329 0.0061809733 0.006790358 -0.0046521174 -0.009039023 -0.04759094 -0.0068178913
0.0072369874 -0.0077981297 0.008988472 0.0075385566 0.021951182 3.3246593e-05 -0.009730808 -0.0057690763
-0.009157702 1.570462e-05 -0.004442867 0.006353948 -0.007035308 -8.941264e-05 0.00664384 0.030601611
0.007200085 -0.006645949 -0.00010076777 -0.010574873 0.0060948227 0.00052143104 0.006043362 -2.2158265e-05
0.0075508067 0.0054118447 0.00035598208 -0.03663397 0.00027690103 0.14721817 -0.020433554 0.0072175213
0.0049012885 0.0025478462 -8.025613e-06 -6.5232655e-07 0.004185366 -7.307669e-07 0.0032316067 0.004915546
0.003220538 8.6668566e-05 0.0041588503 0.005678215 0.0041730586 0.004037622 0.0053949603 0.0037126506
0.0038963465 0.004125685 0.0061594206 0.0041510304 -9.964467e-07 0.005639935 0.0038431808 0.16816564
0.08417483 0.005596998 0.0037375712 0.0047208755 0.0041638077 0.0030913264 0.18006498 0.0042730947
0.002547656 0.00395113 0.002970349 0.003680731 0.20336868 -2.7770545e-06 0.0044885264 0.0056559336
0.003670812 2.683721e-07 0.004991301 0.005414682 0.0042520203 -5.192091e-06 0.0049024215 0.0514347
0.0036372028 0.0060123517 1.2204648e-06 0.0031091077 0.0036952859 -3.3959288e-06 0.005345994 -6.091408e-06
0.0054038297 0.0041328073 -1.4781591e-07 0.064714275 3.7101128e-07 0.22420938 0.19635317 0.0048954394
00000000: 9ffd 9f3b 897d 253b d7a7 06b7 c4b5 2fb5
00000010: d83c 883b 8946 44b5 900f 533b 4184 a03b
00000020: 4201 523b 7d93 b538 f974 873b 1a44 b93b
00000030: 90ac 873b 9da9 833b 5e16 b03b d896 723b
00000040: b923 7e3b 3aa6 863b 0cfb c83b 325e 873b
00000050: 0020 86b5 5105 b83b 7012 7b3b 5ed9 423e
00000060: 98d6 b03d d881 b63b 25ea 733b 0af4 993b
00000070: 7f11 883b 0883 493b 42ad de3d 5b67 8b3b
00000080: 1f1b 263b 8d08 813b f090 413b 01b9 703b
00000090: 854e 293e dcae 3ab6 f828 923b b338 b83b
000000a0: e371 6f3b d757 8f34 1813 a33b 5ade b03b
000000b0: 73d3 8a3b 092d aeb6 2113 a03b 6e0d 533d
000000c0: d950 6d3b 173e c43b 894e 9635 b210 4a3b
000000d0: b95a 713b 06a6 61b6 2a6a ae3b 01e1 ccb6
000000e0: c706 b03b 090f 873b 1a1a 1cb4 bfd2 853d
000000f0: 1ce2 c734 edac 743e cc22 3f3e e8be 9f3b
00000100: 2aa1 7c3b c2ee cd3a 04bc 04b7 0102 3bb5
00000110: 2f02 523b 0222 47b5 0539 203b 8e01 813b
00000120: 9adb 1b3b 66de a538 d2a1 5a3b 7c1c 943b
00000130: 7a19 3d3b fb96 3e3b 96f0 893b a288 3d3b
00000140: 8003 413b c9d8 5b3b d386 a53b 8a0a 4c3b
00000150: b5ea a5b5 7206 913b 6757 3c3b 8366 683e
00000160: a73b 033e 188e 963b 5775 353b 5d6a 803b
00000170: c9c1 5f3b 3169 163b 3bad 9d3e 7c14 733b
00000180: ae93 e63a de04 483b 905d 023b 34bb 503b
00000190: 45bb a33e d87d 42b6 7a39 5b3b 8bd0 833b
000001a0: 7058 2e3b 3630 4034 f756 803b 73a3 943b
000001b0: 9765 563b c50b a6b6 68e9 873b 0017 643d
000001c0: fb33 373b 1f90 a73b a36a 1b33 9f79 0b3b
000001d0: f382 343b d38e 3fb6 7756 863b 0fe1 d6b6
000001e0: 9263 8a3b eb3b 503b 42f2 37b4 3a8d a53d
000001f0: 1d8e be34 e034 1a3e deac 0c3e acb9 733b
00000200: ac8d eb3b f00d 01bc 7a73 6c39 b9f1 bd38
00000210: ad69 233c 2489 6d38 bd44 c33b 146d f6bb
00000220: 5c3c bdbb 31fb c1b9 cb45 d3bb 35f0 cebb
00000230: 7b8c 00bc 648f c13b 0fd2 c4bb c26a 01bc
00000240: 81ef 0e3c e88c fcbb 8e42 b23b d1dc c8bb
00000250: fed0 6fb9 f32c ebbb 98f7 ed3b 2e38 c6bd
00000260: 4d18 303d 96bf e33b c389 ca3b a781 de3b
00000270: ca70 98bb 6918 14bc b8ee 42bd 9e68 dfbb
00000280: 4024 ed3b 7487 ffbb 6244 133c ff05 f73b
00000290: f7d2 b33c 4272 0b38 f86d 1fbc 850a bdbb
000002a0: 300a 16bc 6abd 8337 7895 91bb c734 d03b
000002b0: 7188 e6bb 0c83 bbb8 92b4 d93b 3bb0 fa3c
000002c0: b1ee eb3b 43c6 d9bb 4953 d3b8 3b42 2dbc
000002d0: 14b7 c73b a5b0 083a 6507 c63b 83e0 b9b7
000002e0: c26c f73b d855 b13b 1ba3 ba39 800d 16bd
000002f0: 072d 9139 5cc0 163e 4564 a7bc f580 ec3b
00000300: fd9a a03b c4f9 263b bfa5 06b7 8a1b 2fb5
00000310: 6525 893b eb29 44b5 5dc9 533b 9712 a13b
00000320: a90f 533b d5c1 b538 f746 883b 5210 ba3b
00000330: 27be 883b 074e 843b 35c8 b03b f14f 733b
00000340: d959 7f3b c130 873b f7d4 c93b 5e05 883b
00000350: a6bd 85b5 34cf b83b e0dd 7b3b 9d33 2c3e
00000360: da63 ac3d 0667 b73b 0af2 743b 93b1 9a3b
00000370: 8d70 883b da97 4a3b f462 383e 5105 8c3b
00000380: 93f6 263b 7b78 813b 30aa 423b 6b38 713b
00000390: e13f 503e 6f5d 3ab6 7d14 933b 6955 b93b
000003a0: 0192 703b c814 9034 118e a33b a56d b13b
000003b0: 8854 8b3b b937 aeb6 7ea4 a03b 31ad 523d
000003c0: 235e 6e3b 4303 c53b dace a335 2cc2 4b3b
000003d0: 9c2c 723b 9de5 63b6 732d af3b cc64 ccb6
000003e0: 9c12 b13b 806c 873b 54b7 1eb4 eb88 843d
000003f0: 672f c734 2597 653e ce10 493e ec69 a03b

lstm.bias_hh_l0 f4 [256]
0.004882529 0.0025251827 -8.026101e-06 -6.5457084e-07 0.0041576438 -7.311833e-07 0.003220532 0.0048985784
0.0032044207 8.6582244e-05 0.0041338173 0.0056538703 0.004140444 0.004018022 0.00537376 0.003701618
0.0038778617 0.004109171 0.0061334427 0.004131102 -9.993091e-07 0.005615868 0.003831055 0.19028232
0.086346805 0.005569678 0.0037218418 0.004698281 0.0041524763 0.0030748267 0.1087289 0.0042542643
0.0025345755 0.003937787 0.0029535852 0.0036731365 0.1653387 -2.7817941e-06 0.0044604503 0.0056219934
0.0036536388 2.6699738e-07 0.0049766414 0.0053976 0.0042366325 -5.190847e-06 0.004885093 0.05152648
0.003621152 0.005988847 1.1198728e-06 0.0030832705 0.0036827757 -3.362425e-06 0.0053227143 -6.1058677e-06
0.0053719017 0.0041216654 -1.4538128e-07 0.06534337 3.7231155e-07 0.23894091 0.18665618 0.0048750527
0.003854821 0.0015711414 -7.911589e-06 -6.9665845e-07 0.0032044759 -7.4182765e-07 0.0024448049 0.003936953
0.0023782016 7.909238e-05 0.0033360613 0.004519997 0.0028854297 0.002908169 0.0042095883 0.002892055
0.002945155 0.0033545962 0.0050514727 0.0031134211 -1.2361767e-06 0.004425817 0.002873862 0.22695355
0.12815724 0.0045945756 0.0027688348 0.0039189295 0.0034142605 0.0022950883 0.30796227 0.0037091067
0.0017591619 0.003052048 0.0019892193 0.0031849863 0.31971353 -2.8981503e-06 0.0033451007 0.004022663
0.0026603006 1.7898932e-07 0.003916617 0.004536086 0.003271436 -4.9485557e-06 0.0041476972 0.055685997
0.0027954567 0.005113616 3.6185735e-08 0.0021282209 0.0027543872 -2.8544353e-06 0.004099663 -6.4038973e-06
0.0042232955 0.0031773995 -1.7131336e-07 0.080835775 3.549366e-07 0.1505926 0.13737819 0.0037189526
0.0071885195 -0.007876858 0.00022549732 9.057247e-05 0.009973926 5.6632925e-05 0.005959122 -0.0075203273
-0.0057750177 -0.0003699898 -0.006447529 -0.006315256 -0.007845993 0.005906986 -0.0060064862 -0.007898988
0.008724094 -0.007707227 0.005440063 -0.006129839 -0.00022870672 -0.007176989 0.0072621815 -0.10586202
0.04284332 0.006950329 0.0061809733 0.006790358 -0.0046521174 -0.009039023 -0.06103336 -0.0068178913
0.0072369874 -0.0077981297 0.008988472 0.0075385566 0.0062137274 3.3246593e-05 -0.009730808 -0.0057690763
-0.009157702 1.570462e-05 -0.004442867 0.006353948 -0.007035308 -8.941264e-05 0.00664384 0.030601608
0.007200085 -0.006645949 -0.00010076777 -0.010574873 0.0060948227 0.00052143104 0.006043362 -2.2158265e-05
0.0075508067 0.0054118447 0.00035598208 -0.036638845 0.00027690103 0.14059786 0.066323325 0.0072175213
0.0049012885 0.0025478462 -8.025613e-06 -6.5232655e-07 0.004185366 -7.307669e-07 0.0032316067 0.004915546
0.003220538 8.6668566e-05 0.0041588503 0.005678215 0.0041730586 0.004037622 0.0053949603 0.0037126506
0.0038963465 0.004125685 0.0061594206 0.0041510304 -9.964467e-07 0.005639935 0.0038431808 0.16816564
0.08417483 0.005596998 0.0037375712 0.0047208755 0.0041638077 0.0030913264 0.18006498 0.0042730947
0.002547656 0.00395113 0.002970349 0.003680731 0.20336667 -2.7770545e-06 0.0044885264 0.0056559336
0.003670812 2.683721e-07 0.004991301 0.005414682 0.0042520203 -5.192091e-06 0.0049024215 0.0514347
0.0036372028 0.0060123517 1.2204648e-06 0.0031091077 0.0036952859 -3.3959288e-06 0.005345994 -6.091408e-06
0.0054038297 0.0041328073 -1.4781591e-07 0.064714275 3.7101128e-07 0.22420938 0.19635317 0.0048954394
00000000: 9ffd 9f3b 897d 253b d7a7 06b7 c4b5 2fb5
00000010: d83c 883b 8946 44b5 900f 533b 4184 a03b
00000020: 4201 523b 7d93 b538 f974 873b 1a44 b93b
00000030: 90ac 873b 9da9 833b 5e16 b03b d896 723b
00000040: b923 7e3b 3aa6 863b 0cfb c83b 325e 873b
00000050: 0020 86b5 5105 b83b 7012 7b3b 5ed9 423e
00000060: 98d6 b03d d881 b63b 25ea 733b 0af4 993b
00000070: 7f11 883b 0883 493b 42ad de3d 5b67 8b3b
00000080: 1f1b 263b 8d08 813b f090 413b 01b9 703b
00000090: 8c4e 293e dcae 3ab6 f828 923b b338 b83b
000000a0: e371 6f3b d757 8f34 1813 a33b 5ade b03b
000000b0: 73d3 8a3b 092d aeb6 2113 a03b 6e0d 533d
000000c0: d950 6d3b 173e c43b 894e 9635 b210 4a3b
000000d0: b95a 713b 06a6 61b6 2a6a ae3b 01e1 ccb6
000000e0: c706 b03b 090f 873b 1a1a 1cb4 bfd2 853d
000000f0: 1ce2 c734 edac 743e cc22 3f3e e8be 9f3b
00000100: 2aa1 7c3b c2ee cd3a 04bc 04b7 0102 3bb5
00000110: 2f02 523b 0222 47b5 0539 203b 8e01 813b
00000120: 9adb 1b3b 66de a538 d2a1 5a3b 7c1c 943b
00000130: 7a19 3d3b fb96 3e3b 96f0 893b a288 3d3b
00000140: 8003 413b c9d8 5b3b d386 a53b 8a0a 4c3b
00000150: b5ea a5b5 7206 913b 6757 3c3b 8366 683e
00000160: a73b 033e 188e 963b 5775 353b 5d6a 803b
00000170: c9c1 5f3b 3169 163b 3bad 9d3e 7c14 733b
00000180: ae93 e63a de04 483b 905d 023b 34bb 503b
00000190: 7eb1 a33e d87d 42b6 7a39 5b3b 8bd0 833b
000001a0: 7058 2e3b 3630 4034 f756 803b 73a3 943b
000001b0: 9765 563b c50b a6b6 68e9 873b 0017 643d
000001c0: fb33 373b 1f90 a73b a36a 1b33 9f79 0b3b
000001d0: f382 343b d38e 3fb6 7756 863b 0fe1 d6b6
000001e0: 9263 8a3b eb3b 503b 42f2 37b4 3a8d a53d
000001f0: 1d8e be34 f234 1a3e deac 0c3e acb9 733b
00000200: ac8d eb3b f00d 01bc 7a73 6c39 b9f1 bd38
00000210: ad69 233c 2489 6d38 bd44 c33b 146d f6bb
00000220: 5c3c bdbb 31fb c1b9 cb45 d3bb 35f0 cebb
00000230: 7b8c 00bc 648f c13b 0fd2 c4bb c26a 01bc
00000240: 81ef 0e3c e88c fcbb 8e42 b23b d1dc c8bb
00000250: fed0 6fb9 f32c ebbb 98f7 ed3b 30ce d8bd
00000260: 7a7c 2f3d 96bf e33b c389 ca3b a781 de3b
00000270: ca70 98bb 6918 14bc 1efe 79bd 9e68 dfbb
00000280: 4024 ed3b 7487 ffbb 6244 133c ff05 f73b
00000290: 869c cb3b 4272 0b38 f86d 1fbc 850a bdbb
000002a0: 300a 16bc 6abd 8337 7895 91bb c734 d03b
000002b0: 7188 e6bb 0c83 bbb8 92b4 d93b 39b0 fa3c
000002c0: b1ee eb3b 43c6 d9bb 4953 d3b8 3b42 2dbc
000002d0: 14b7 c73b a5b0 083a 6507 c63b 83e0 b9b7
000002e0: c26c f73b d855 b13b 1ba3 ba39 9d12 16bd
000002f0: 072d 9139 e3f8 0f3e 86d4 873d f580 ec3b
00000300: fd9a a03b c4f9 263b bfa5 06b7 8a1b 2fb5
00000310: 6525 893b eb29 44b5 5dc9 533b 9712 a13b
00000320: a90f 533b d5c1 b538 f746 883b 5210 ba3b
00000330: 27be 883b 074e 843b 35c8 b03b f14f 733b
00000340: d959 7f3b c130 873b f7d4 c93b 5e05 883b
00000350: a6bd 85b5 34cf b83b e0dd 7b3b 9d33 2c3e
00000360: da63 ac3d 0667 b73b 0af2 743b 93b1 9a3b
00000370: 8d70 883b da97 4a3b f462 383e 5105 8c3b
00000380: 93f6 263b 7b78 813b 30aa 423b 6b38 713b
00000390: 5a3f 503e 6f5d 3ab6 7d14 933b 6955 b93b
000003a0: 0192 703b c814 9034 118e a33b a56d b13b
000003b0: 8854 8b3b b937 aeb6 7ea4 a03b 31ad 523d
000003c0: 235e 6e3b 4303 c53b dace a335 2cc2 4b3b
000003d0: 9c2c 723b 9de5 63b6 732d af3b cc64 ccb6
000003e0: 9c12 b13b 806c 873b 54b7 1eb4 eb88 843d
000003f0: 672f c734 2597 653e ce10 493e ec69 a03b

lstm.weight_ih_l0_reverse f4 [256, 6]
-4.3702988e-07 -1.3572081e-07 -6.164754e-07 -2.786747e-07 -2.818642e-07 -4.0454918e-07 4.4320883e-18 5.181622e-18
3.4090315e-18 4.525297e-18 4.269721e-18 5.1424913e-18 7.9761256e-15 2.814686e-14 1.1598542e-14 1.5793851e-14
1.5912849e-14 1.1018272e-14 4.1476511e-16 8.913204e-16 -1.8239544e-15 1.2451979e-15 1.2121634e-15 -6.41931e-17
3.4310868e-10 8.534819e-10 6.496105e-11 7.4230566e-10 1.015092e-09 3.5553768e-10 -8.258871e-11 2.6672278e-12
6.717186e-11 2.6086648e-11 7.359314e-11 -8.416009e-11 1.5450772e-05 1.4121434e-05 1.1664286e-05 1.5354111e-05
1.4289029e-05 1.4250406e-05 6.148921e-11 -4.4016422e-11 3.1119145e-11 -3.242145e-12 -3.050393e-11 6.421892e-11
-5.6326366e-14 -3.3792346e-14 -6.929776e-14 -4.3581563e-14 -4.1657094e-14 -5.5409185e-14 3.56804e-10 -2.883682e-10
-4.4642454e-10 4.2879075e-11 3.1096726e-11 3.280582e-10 -1.07558026e-13 2.2810516e-14 -2.4707558e-13 3.012488e-14
5.853244e-14 -1.1101446e-13 -7.210803e-11 -1.8404256e-10 -1.0192949e-10 -1.202641e-10 -8.5633105e-11 -4.1306646e-11
-1.779424e-18 -1.2550596e-18 -2.317851e-18 -1.5793817e-18 -1.3538566e-18 -1.9167797e-18 -2.5316667e-26 4.0053507e-26
-1.0555804e-25 2.240838e-26 2.4231698e-26 -3.739154e-26 -2.5265106e-05 -2.413193e-05 -3.4070363e-05 -2.3315237e-05
-1.8713803e-05 -2.7693486e-05 6.460653e-10 7.933994e-09 -3.168108e-09 7.816597e-09 1.4978786e-09 -8.180922e-09
-2.0676813e-11 3.485179e-11 1.0188624e-11 1.06733886e-10 1.0287503e-10 -8.885961e-12 2.047798e-11 -3.3649392e-11
1.23276155e-11 -7.200171e-11 1.2131757e-11 5.4010685e-11 1.9454596e-17 1.435862e-17 2.0742722e-17 2.6717487e-17
3.283442e-17 2.459263e-17 1.9023246e-13 -9.0124895e-14 5.450712e-13 -8.807601e-14 -2.513222e-14 1.9506129e-13
9.433563e-13 5.9334087e-12 -2.156409e-12 3.292411e-12 1.7750819e-12 1.5244913e-12 -1.704696e-09 -1.8875204e-08
1.343644e-08 -1.5466041e-08 -1.5436726e-08 4.743836e-09 1.0697601e-08 6.961903e-09 1.2346151e-08 7.399146e-09
8.262921e-09 1.1396745e-08 -0.0002633865 -0.00019229614 -0.00036901748 -0.00020189137 -0.0001575768 -0.0003073056
5.154899e-13 1.0226902e-12 -6.23303e-13 8.7973595e-13 9.901953e-13 2.727494e-13 -3.1615693e-20 -9.436248e-22
-4.8506194e-20 -7.908298e-21 -3.4253153e-21 -3.3380053e-20 -1.0759736e-05 -1.3483151e-05 -1.6917122e-05 -9.892008e-06
-8.283121e-06 -6.8624454e-06 1.8381073e-08 1.290403e-08 -2.1967445e-08 3.4684438e-09 -1.4056694e-08 -1.5505549e-08
3.813686e-05 4.237795e-05 3.2280037e-05 4.3766795e-05 4.6192297e-05 3.5052115e-05 0.0004009153 0.00045713774
0.00023184282 0.00045454496 0.0004688933 0.00035496903 -4.3773078e-08 -2.4144457e-08 -5.5166755e-08 -3.2101543e-08
-3.2726255e-08 -4.120967e-08 1.1586307e-08 4.5994573e-09 -9.136884e-09 -3.6583955e-10 -9.823743e-09 7.093032e-09
-1.8348165e-14 -8.878178e-15 -2.3702865e-14 -1.2728482e-14 -1.1598055e-14 -1.8582663e-14 -5.1538795e-08 1.3460964e-07
-1.4823789e-07 1.0767563e-07 1.6614683e-07 -6.48641e-08 6.3824635e-05 0.00017827771 -0.00011822293 0.00015602332
0.00020098992 9.235014e-06 8.554966e-17 8.072166e-17 -4.6371375e-17 1.3081861e-16 1.8201784e-16 1.6513202e-17
5.8160356e-05 5.1297317e-05 5.275816e-05 5.1827617e-05 4.8598213e-05 5.2289288e-05 -2.97051e-09 -2.1239885e-09
-3.4929168e-09 -2.505515e-09 -2.3176685e-09 -2.9312173e-09 7.9323254e-10 -3.0972344e-10 6.5535605e-11 3.4572026e-11
-2.0971877e-10 9.040742e-10 5.139369e-10 1.152105e-09 -2.5053115e-10 9.625278e-10 1.1831838e-09 1.5829399e-10
1.7902185e-10 1.7614693e-10 1.9911814e-10 1.884165e-10 2.197715e-10 1.8949517e-10 6.9849917e-09 6.484995e-09
6.5655357e-09 6.9459998e-09 6.161722e-09 6.6414643e-09 5.160617e-13 5.844053e-13 4.4607086e-13 5.9332915e-13
00000000: eea0 eab4 a7ba 11b4 de7b 25b5 c29c 95b4
00000010: 1f53 97b4 d130 d9b4 e483 a322 092b bf22
00000020: c98a 7b22 39f4 a622 6086 9d22 75b9 bd22
00000030: 63af 0f28 3e86 fd28 d5f0 5028 2442 8e28
00000040: 8854 8f28 d07c 4628 8718 ef25 eb73 8026
00000050: 056e 03a7 b273 b326 f0b0 ae26 eb04 94a4
00000060: 41a0 bc2f 739a 6a30 d2d9 8e2e 1e0b 4c30
00000070: 6083 8b30 7b75 c32f 4f9d b5ae 81b0 3b2c
00000080: 65b6 932e e975 e52d 41d5 a12e eb11 b9ae
00000090: 489c 8137 19eb 6c37 bab1 4337 b4cc 8037
000000a0: eaba 6f37 0715 6f37 5937 872e 1696 41ae
000000b0: 0bdd 082e 4b25 64ac 5f28 06ae 0a38 8d2e
000000c0: e1ab 7da9 ec2f 18a9 700b 9ca9 1f46 44a9
000000d0: 5c9b 3ba9 718a 79a9 b327 c42f 3788 9eaf
000000e0: ab6c f5af 8c95 3c2e cdc3 082e 165a b42f
000000f0: fb32 f2a9 7875 cd28 5817 8baa 9fab 0729
00000100: a8cd 8329 7bfb f9a9 3691 9eae 605b 4aaf
00000110: 3425 e0ae 563b 04af 274f bcae 26ab 35ae
00000120: 5e4c 03a2 d036 b9a1 f806 2ba2 5b13 e9a1
00000130: 42cb c7a1 f26e 0da2 60b9 fa94 da55 4615
00000140: aeac 0296 feeb dd14 a7fa ef14 6827 3995
00000150: 67f0 d3b7 ed6e cab7 c6e6 0eb8 1795 c3b7
00000160: 96fb 9cb7 4f4f e8b7 ce96 3130 134e 0832
00000170: f2b5 59b1 c249 0632 ebdd cd30 138c 0cb2
00000180: 0be0 b5ad a147 192e 7c3d 332d d6b5 ea2e
00000190: 7e39 e22e d052 1cad 5020 b42d d9fd 13ae
000001a0: a5de 582d 5c55 9eae 946c 552d a08a 6d2e
000001b0: de6f b323 556f 8423 5e51 bf23 e26c f623
000001c0: 0b6c 1724 b5d3 e223 c62e 562a 77f1 caa9
000001d0: 856c 192b 5d54 c6a9 f45e e2a8 979e 5b2a
000001e0: fec3 842b 65c3 d02c 69be 17ac ceae 672c
000001f0: 11d2 f92b 968d d62b a94a eab0 0323 a2b2
00000200: 17d6 6632 2fda 84b2 b899 84b2 39ff a231
00000210: 8cc8 3732 8c35 ef31 f21a 5432 943b fe31
00000220: b6f4 0d32 6acb 4332 2317 8ab9 1aa3 49b9
00000230: b078 c1b9 cdb2 53b9 333b 25b9 dc1d a1b9
00000240: f618 112b 4cee 8f2b b771 2fab a89f 772b
00000250: 8c5b 8b2b 558b 992a 074d 159f b798 8e9c
00000260: 6410 659f 2f62 159e 9e67 819d 02a2 1d9f
00000270: b784 34b7 b135 62b7 3ee9 8db7 daf5 25b7
00000280: bcf7 0ab7 f543 e6b6 68e4 9d32 86b0 5d32
00000290: ecb2 bcb2 8259 6e31 fe7d 71b2 1031 85b2
000002a0: 24f5 1f38 fabe 3138 6d64 0738 3d92 3738
000002b0: 9abe 4138 ec04 1338 f131 d239 fdab ef39
000002c0: d51a 7339 fe4f ee39 cbd5 f539 231b ba39
000002d0: 0201 3cb3 3966 cfb2 7df0 6cb3 05e0 09b3
000002e0: e68e 0cb3 83fe 30b3 1e0d 4732 4109 9e31
000002f0: 71f8 1cb2 571f c9af 47c5 28b2 f8b6 f331
00000300: fd43 a5a8 5fef 1fa8 167f d5a8 c34b 65a8
00000310: 97ee 50a8 b460 a7a8 815b 5db3 3789 1034
00000320: 522b 1fb4 4e3b e733 1866 3234 6b4b 8bb3
00000330: 97d9 8538 0ff0 3a39 74ee f7b8 319a 2339
00000340: d2c0 5239 15f0 1a37 9b43 c524 a821 ba24
00000350: a8d9 55a4 d7d2 1625 2fda 5125 b24e 9823
00000360: 35f1 7338 1328 5738 a548 5d38 7b61 5938
00000370: efd5 4b38 3251 5b38 c421 4cb1 9af5 11b1
00000380: 0b08 70b1 7c2d 2cb1 db44 1fb1 856e 49b1
00000390: c70a 5a30 b345 aaaf 441d 902e a40c 182e
000003a0: 9696 66af 9182 7830 1845 0d30 1758 9e30
000003b0: 20bb 89af f049 8430 949d a230 cc0b 2e2f
000003c0: 2cd6 442f f4ac 412f c6ee 5a2f 882a 4f2f
000003d0: 2ea4 712f 265a 502f a300 f031 9fd2 de31
000003e0: 1097 e131 a9a9 ee31 14b7 d331 f032 e431
000003f0: 2a42 112b d77e 242b 961d fb2a df01 272b

lstm.weight_hh_l0_reverse f4 [256, 64]
1.9281182e-10 2.59554e-16 -5.782536e-14 2.212938e-15 -2.7065032e-12 -1.0142332e-12 -5.661386e-10 3.7014388e-13
-5.003991e-14 -6.7091135e-13 5.990221e-14 -4.606309e-13 -2.9615978e-16 -9.034034e-20 6.0128247e-10 3.0119678e-12
-4.486704e-13 -1.8012971e-13 -9.632303e-16 6.7166367e-15 -4.447039e-13 3.0775007e-12 -3.3252845e-12 2.63318e-09
4.3149815e-13 7.7484106e-17 -1.6568376e-09 -1.832465e-12 -2.003112e-09 -2.0721383e-10 4.3795512e-11 -3.7326197e-13
-2.7751174e-14 -2.1400558e-10 -1.6640673e-09 -7.0477175e-16 -8.732117e-10 7.51855e-12 -5.6125764e-13 -1.5778637e-11
7.530287e-13 -9.682929e-12 -8.6639504e-14 5.2679107e-13 -2.3766384e-14 2.0627288e-13 -2.0961655e-17 1.2857175e-12
-1.073852e-18 9.002107e-11 -2.6316721e-11 -2.941873e-16 -9.2952386e-14 -3.743308e-17 2.5876694e-12 1.571955e-13
-4.3708895e-12 7.9696475e-15 -1.2323642e-10 -2.934425e-14 -3.5030555e-11 -2.2550124e-09 3.008982e-12 -2.6460813e-13
2.669397e-22 8.73242e-28 -2.0920207e-25 4.1959743e-26 7.765804e-23 -6.664904e-24 -4.442616e-22 1.15413246e-23
-1.2463687e-25 -2.192227e-23 -1.7696853e-25 -1.1494903e-23 -9.760137e-28 -1.24508e-31 1.2107838e-21 3.5592652e-22
-5.87288e-23 9.814379e-24 -1.724166e-26 3.4481305e-25 4.4524584e-24 1.4468783e-22 -1.5133563e-23 4.1160515e-22
7.624231e-25 1.8050355e-28 -3.0420892e-21 3.4800726e-22 -3.0415518e-21 -4.948889e-21 -2.6704435e-24 -1.4888905e-22
-3.872086e-26 -5.7842275e-22 -7.429119e-21 -6.3890087e-27 1.0515966e-21 2.0327502e-23 4.039939e-23 -4.7147865e-23
1.3286489e-23 -2.669257e-23 8.578372e-26 2.6491635e-24 -4.9149667e-26 -1.274017e-25 -2.3709427e-29 1.1283192e-23
3.3677262e-29 3.067398e-22 3.8615492e-23 8.462618e-27 3.9858373e-24 -3.3802114e-28 -6.219291e-23 1.6681518e-25
2.0053035e-22 -8.723466e-29 -7.565276e-23 2.3001768e-27 -1.0876711e-22 -6.7087026e-21 9.1034036e-24 4.2720385e-22
1.1932872e-17 2.3566902e-23 -6.8399143e-22 8.443007e-23 -2.9165197e-21 -5.8396825e-20 -4.826558e-17 1.1164691e-20
-2.0561672e-21 -3.7304653e-20 6.8849676e-21 -1.3010945e-19 -6.568689e-24 -4.617368e-27 -7.051425e-18 7.781292e-20
-5.613167e-20 8.945097e-21 -7.5161506e-23 -2.231046e-21 -3.996927e-20 -3.8324286e-20 -6.690467e-19 2.0581753e-16
2.0646472e-20 2.9778065e-24 -9.6221527e-17 -6.0528093e-21 -1.22614e-16 1.07574025e-16 2.8298101e-18 3.0088023e-20
-1.2333576e-21 -6.780301e-18 -5.5094004e-17 3.010911e-23 -1.0240484e-16 3.369482e-19 -1.1142763e-20 -4.0838362e-19
8.6550266e-20 -1.3026946e-19 -7.007979e-21 8.190972e-20 -9.880517e-22 1.503305e-20 -1.5576323e-24 4.940854e-19
-8.5639597e-26 2.9639873e-18 -2.1752739e-18 3.195769e-23 -2.1269257e-21 -1.0671089e-24 1.6050373e-19 1.0808589e-20
7.0445754e-21 5.550813e-22 -8.779318e-18 -2.3912812e-21 -8.986356e-19 -7.152215e-17 1.07010495e-19 -1.5097006e-20
2.2163983e-20 -1.2432871e-24 -8.418451e-25 6.994518e-21 1.0033524e-18 1.0336231e-19 3.3143581e-19 1.3022385e-19
1.0494174e-24 -1.436054e-19 1.0697916e-21 -1.5309125e-19 -2.5195978e-26 -5.013044e-28 -2.7087508e-19 -3.7755195e-18
-1.688749e-19 4.3444754e-20 9.846165e-23 3.6723575e-20 3.8919733e-20 -7.603532e-18 3.023946e-18 -8.790444e-19
9.0255634e-23 1.987529e-27 -3.899958e-18 -1.887836e-18 8.704654e-19 -5.5186275e-19 3.4873756e-19 5.3678926e-18
9.8107854e-24 3.0869233e-20 1.2472519e-18 2.3766987e-21 3.1747158e-19 -4.407462e-22 1.4044094e-18 1.7472662e-21
3.7192736e-19 -8.4569824e-19 3.1329084e-21 3.2574583e-20 8.679406e-24 9.110859e-22 5.5349754e-26 -5.6414617e-19
9.9752133e-26 1.515245e-20 -4.5221823e-18 -5.6567204e-22 2.946395e-19 3.9035066e-24 5.7287665e-19 1.379472e-21
4.2149307e-18 -1.015509e-21 3.1642266e-18 -2.2475059e-22 -1.3670497e-21 -5.739957e-19 3.2317195e-22 6.5127458e-18
00000000: b4ff 532f 699f 9525 0d36 82a9 8075 1f27
00000010: 0774 3eac 9abd 8eab 769e 1bb0 5b5f d02a
00000020: 175c 61a9 42d8 3cab 46e3 8629 f4a7 01ab
00000030: 78b9 aaa5 634f d59f 7e47 2530 caf2 532c
00000040: 3894 fcaa dbce 4aaa edd0 8aa6 0afe f127
00000050: 9658 faaa 538f 582c 00ff 69ac 64f3 3431
00000060: 70e9 f22a 8baa b224 cab6 e3b0 c1f2 00ac
00000070: 1ea7 09b1 82d5 63af 5d9d 402e b820 d2aa
00000080: daf5 f9a8 374d 6baf 2ab5 e4b0 fa22 4ba6
00000090: d006 70b0 8a44 042d e0fa 1dab 55ca 8aad
000000a0: 70f5 532b 0958 2aad 4618 c3a9 4c47 142b
000000b0: 8d11 d6a8 1c3e 682a 4f56 c1a3 dbf2 b42b
000000c0: fb78 9ea1 5bf5 c52e fd7b e7ad 6296 a9a5
000000d0: 674f d1a9 2ea1 2ca4 4f17 362c 85fc 302a
000000e0: 79c9 99ac 8391 0f28 f87f 07af 9e27 04a9
000000f0: e610 1aae 99f6 1ab1 00bd 532c 0df6 94aa
00000100: eb5a a11b e75e 8a12 647d 8196 4bc6 4f15
00000110: 00c4 bb1a 02eb 0099 1445 069c df3d 5f19
00000120: 004b 1a96 e904 d499 9113 5b96 0158 5e99
00000130: d2a7 9a92 e19e 218c eef7 b61c f624 d71b
00000140: 5eff 8d9a 73d6 3d19 cdc0 aa94 cf6d d516
00000150: 033f ac18 b7ea 2e1b e35c 9299 d0cc f81b
00000160: 62f5 6b17 c0d0 6411 90da 659d 845b d21b
00000170: 2bd0 659d b8f6 ba9d 959d 4e98 eefe 339b
00000180: 85bc 3f95 4bd1 2e9c 0455 0c9e 3f18 fd93
00000190: ace9 9e1c 7598 c419 065c 431a 3bfe 639a
000001a0: c17f 8019 cd13 019a e463 d415 17f8 4c18
000001b0: 9b60 7395 36b7 1d96 3171 f08f a93f 5a19
000001c0: 96c3 2a10 af69 b91b aabb 3a1a 929e 2714
000001d0: d231 9a18 113f d691 8c5f 969a d781 4e16
000001e0: 236d 721b 882a dd90 caea b69a 213d 3613
000001f0: ca7d 039b 9772 fd9d df15 3019 4c1d 011c
00000200: 651f 5c23 d3ec e319 46b9 4e9c af23 cc1a
00000210: b25d 5c9d b7e2 899f f095 5ea4 22e5 521e
00000220: 0f5c 1b9d 8f2a 309f a90d 021e 2b9b 19a0
00000230: 251d fe98 ade9 b693 6a13 02a3 06bb b71f
00000240: 8389 849f d6f7 281e b8ba b59a b592 289d
00000250: e2bf 3c9f 38fb 349f bd77 45a1 9d4a 6d25
00000260: 1b00 c31e 8965 6618 2adf dda4 2eab e49d
00000270: 445d 0da5 7f0c f824 9acd 5022 3016 0e1f
00000280: 3661 ba9c 2226 faa2 8513 7ea4 4699 111a
00000290: 2621 eca4 2ce6 c620 187b 529e 3011 f1a0
000002a0: 6d5c cc1f 87cb 19a0 8260 049e 6367 c11f
000002b0: 664f 959c affb 8d1e 2c08 f197 0ad4 1121
000002c0: 8b08 d495 23b4 5a22 c381 20a2 b489 1a1a
000002d0: bab4 209d 8a20 a597 477d 3d20 212b 4c1e
000002e0: 7a11 051e 56c3 271c 28f3 21a3 1bae 349d
000002f0: 7e9d 84a1 3aeb a4a4 e0ab fc1f 5296 8e9e
00000300: 3955 d11e ad63 c097 ec44 8297 6a1f 041e
00000310: 9511 9421 af0e f41f 2aa5 c320 bebd 1920
00000320: b563 a217 128a 29a0 8fa9 a11c febc 34a0
00000330: 6587 f994 a5de 1e92 7ce5 9fa0 c64a 8ba2
00000340: 4f5f 47a0 7c29 4d1f cf10 ee1a 146c 2d1f
00000350: 12cb 371f aa42 0ca3 ba20 5f22 5cb9 81a1
00000360: 8839 da1a e177 1d13 10e2 8fa2 374c 0ba2
00000370: 4175 8021 92e1 22a1 bbdb cd20 500a c622
00000380: a8c4 3d19 9dc6 111f d80f b821 0a94 331d
00000390: f366 bb20 1635 059c 1641 cf21 0b05 041d
000003a0: 138c db20 279b 79a1 43b7 6c1d 41d4 191f
000003b0: 56e2 2719 eead 891c 130a 8915 ae81 26a1
000003c0: 6df9 f615 601c 8f1e ced6 a6a2 c1f6 2a9c
000003d0: aaec ad20 7502 9718 5615 2921 bd75 d01c
000003e0: e580 9b22 9a75 999c 8d7a 6922 78da 879b
000003f0: 2c95 ce9c e469 29a1 7058 c31b 2547 f022

lstm.bias_ih_l0_reverse f4 [256]
-1.5616406e-06 -6.192329e-18 8.221215e-15 -4.981182e-16 1.4669486e-09 -2.4966126e-10 -2.3531116e-05 -1.689207e-11
-1.2310258e-13 9.544364e-11 -1.184846e-12 -2.6856173e-10 -4.189968e-18 -4.651488e-25 -5.517804e-05 1.5750038e-08
-3.7961436e-11 -6.791008e-11 -1.2196994e-16 -1.6315284e-13 -1.5605304e-11 9.918103e-09 7.669788e-09 -0.0006008453
-4.838356e-12 -1.5220209e-19 -4.6722405e-05 -4.876977e-09 -7.8483405e-05 -0.0008710621 -8.7637545e-08 -1.3615839e-08
-3.4331272e-14 -8.5410124e-07 -0.0009176043 -5.8643987e-16 -4.0396706e-05 -5.0825815e-09 4.5618964e-10 -1.9058002e-09
-1.466729e-10 -2.0072177e-09 -9.615128e-13 2.5545002e-10 -9.6273926e-15 -5.730493e-12 -6.346668e-20 9.77468e-09
-1.354041e-22 -1.0307735e-07 5.7872906e-08 -5.4849413e-17 8.391035e-12 -2.4541614e-19 -6.344375e-10 -1.5371465e-12
-6.9260238e-09 -1.8160831e-15 2.6234335e-07 -5.1377935e-14 -4.3670624e-08 -0.00026261198 -5.805346e-11 2.6129626e-08
2.960301e-08 4.0211214e-18 1.693886e-14 -4.471438e-16 7.3907597e-10 6.4539075e-11 8.398958e-06 1.0931633e-11
-3.079484e-14 -2.5303468e-10 1.3202151e-13 -4.8255133e-11 -6.4413935e-19 5.4969276e-26 -1.2695914e-05 1.0747348e-08
5.720398e-11 -2.6627206e-11 5.0995837e-17 1.8883453e-13 3.0993812e-12 1.4279557e-08 6.5440595e-09 -3.7387854e-05
1.1031705e-12 2.2520999e-20 -9.659585e-06 3.2888664e-10 3.2565273e-05 0.00044015324 -1.3380742e-08 9.924654e-09
-7.0844655e-16 1.14958596e-07 0.00024398985 1.2666042e-16 3.4473214e-05 -1.6525767e-09 2.0338801e-10 1.0127166e-09
8.5741615e-11 4.519193e-09 4.0926483e-13 1.3614646e-10 -7.0654734e-16 7.741036e-13 1.2884636e-20 5.208111e-09
4.797283e-23 3.508473e-08 1.6163678e-08 3.8564054e-17 9.849317e-12 4.2917416e-23 -1.961722e-11 -1.9966511e-13
1.6550727e-08 6.480807e-16 3.9076374e-07 1.2574832e-15 -1.0320893e-08 0.00012537905 4.8418596e-11 8.12969e-09
3.988027e-05 4.7761833e-11 1.3534629e-08 -1.6177786e-10 -2.8812342e-06 6.1129736e-06 3.6681802e-06 -1.0036852e-06
-3.0216913e-09 -5.02316e-07 4.8812257e-08 -5.2741347e-05 3.1571504e-10 -4.045999e-14 -0.0011346966 -5.626862e-05
-8.843147e-06 5.0154945e-06 -1.3932733e-10 -5.652989e-09 -1.380045e-07 -2.1718814e-05 2.8621805e-06 0.0015450837
6.757776e-08 2.7319461e-11 -0.00014045119 -1.1444955e-05 -0.00055245886 -0.0013651383 1.0065523e-05 2.2646003e-05
-8.648282e-09 1.21854555e-05 0.00029018754 3.6987717e-09 -0.00042060777 -2.2263155e-06 4.6640125e-06 1.4329107e-06
-3.889901e-07 -5.621627e-06 5.483505e-09 -1.2513209e-06 -2.9666354e-09 4.521815e-08 -1.5634714e-11 -3.9700712e-06
5.0642643e-14 1.7081073e-06 -7.109741e-07 2.9395557e-09 -1.1266267e-07 9.1376816e-11 3.3905687e-07 5.9309993e-08
-8.7263825e-06 -1.0980539e-09 -4.7465765e-05 -2.9124045e-09 1.3528405e-05 7.1245166e-05 6.4358466e-07 -2.0045367e-05
-1.5619047e-06 -6.200198e-18 8.223274e-15 -5.163795e-16 1.4674094e-09 -2.5089408e-10 -2.3557444e-05 -1.6815948e-11
-1.2309258e-13 9.56323e-11 -1.1852345e-12 -2.68875e-10 -4.1900747e-18 -4.654199e-25 -5.5169825e-05 1.5790333e-08
-3.7293443e-11 -6.7408024e-11 -1.2196017e-16 -1.6123503e-13 -1.5637422e-11 9.846294e-09 7.663459e-09 -0.0006004143
-4.840937e-12 -1.5223194e-19 -4.674027e-05 -4.353085e-09 -7.857349e-05 -0.00087221025 -8.7569966e-08 -1.36421585e-08
-3.4294216e-14 -8.546715e-07 -0.00091805245 -5.8661685e-16 -4.047879e-05 -5.0797757e-09 4.5217965e-10 -1.906849e-09
-1.4775475e-10 -2.0196518e-09 -9.634267e-13 2.5524546e-10 -9.597321e-15 -5.7335e-12 -6.3473905e-20 9.766344e-09
-1.3549729e-22 -1.03160986e-07 5.7848347e-08 -5.4754155e-17 7.762614e-12 -2.4536185e-19 -6.3589434e-10 -1.5363414e-12
-6.988975e-09 -1.8171838e-15 2.615731e-07 -5.1379575e-14 -4.365747e-08 -0.00026296717 -5.8096528e-11 2.604021e-08
00000000: 9099 d1b5 e574 e4a2 aa19 1428 a392 0fa6
00000010: aa9d c930 b340 89af b064 c5b7 8f95 94ad
00000020: e799 0aaa fee1 d12e 93c0 a6ab b4a4 93af
00000030: 2195 9aa2 e2f4 0f97 f86e 67b8 b34a 8732
00000040: c7f4 26ae fa55 95ae 2c9f 0ca5 9bb1 37aa
00000050: 0544 89ad 4764 2a32 16c4 0332 0c82 1dba
00000060: 093c aaac 42b0 33a0 cdf7 43b8 5892 a7b1
00000070: 7597 a4b8 fd57 64ba 4033 bcb3 18eb 69b2
00000080: 439d 1aa9 6445 65b5 628b 70ba a007 29a6
00000090: a26f 29b8 dca2 aeb1 fcca fa2f 31f7 02b1
000000a0: c044 21af 59ef 09b1 2652 87ab 656f 8c2f
000000b0: 836e 2da8 b19f c9ac 41db 959f 7fed 2732
000000c0: 8ab1 239b 5f5b ddb3 ef8f 7833 c2f2 7ca4
000000d0: dd9d 132d 3dde 90a0 9264 2eb0 8a55 d8ab
000000e0: f3f9 edb1 d2dc 02a7 32d8 8c34 ba62 67a9
000000f0: 5c90 3bb3 2faf 89b9 6352 7fae a873 e032
00000100: b549 fe32 6b5a 9422 5a92 9828 64e1 00a6
00000110: d927 4b30 45ec 8d2e 40e9 0c37 b34f 402d
00000120: 09b0 0aa9 771b 8baf 9ca4 142a 733a 54ae
00000130: cb1d 3ea1 eb18 8815 8900 55b7 56a3 3832
00000140: f595 7b2e 2337 eaad 422d 6b24 d99b 542a
00000150: 7d19 5a2c 2852 7532 28da e031 e7d0 1cb8
00000160: e841 9b2b 6fb4 d41e 9a0f 22b7 aece b42f
00000170: b296 0838 5ec4 e639 20e1 65b2 1781 2a32
00000180: 2132 4ca6 28df f633 87d7 7f39 8f07 1225
00000190: 5597 1038 e020 e3b0 a3a0 5f2f cc2f 8b30
000001a0: 3d8c bc2e 3e47 9b31 4765 e62a d2b1 152f
000001b0: fea5 4ba6 0be4 592b 4762 731e 07f3 b231
000001c0: 7dfb 671a 12b0 1633 4ed8 8a32 66d8 3124
000001d0: 6145 2d2d 3089 4f1a 0d8e acad 8dcd 60aa
000001e0: 6f2b 8e32 eacb 3a26 29ca d134 f138 b526
000001f0: c44f 31b2 2f78 0339 7ef2 542e c1aa 0b32
00000200: 1d45 2738 0b0f 522e ee85 6832 6be0 31af
00000210: 3a5b 41b6 0b1e cd36 db2a 7636 5cb6 86b5
00000220: 28a6 4fb1 e5d6 06b5 a5a5 5133 9736 5db8
00000230: f190 ad2f 3137 36a9 1aba 94ba f801 6cb8
00000240: 075d 14b7 c54a a836 2831 19af 383c c2b1
00000250: 632e 14b4 cc30 b6b7 e313 4036 6884 ca3a
00000260: 441f 9133 f54d f02d 1446 13b9 b503 40b7
00000270: e3d2 10ba 71ee b2ba 18df 2837 ecf7 bd37
00000280: 8c93 14b2 2270 4c37 5024 9839 7b2d 7e31
00000290: 0585 dcb9 cf67 15b6 907f 9c36 7052 c035
000002a0: 64d6 d0b4 69a1 bcb6 6c69 bc31 0ff3 a7b5
000002b0: 9add 4bb1 e235 4233 3f86 89ad a736 85b6
000002c0: fe12 6429 1f42 e535 c5d9 3eb5 3601 4a31
000002d0: f5f0 f1b3 93f0 c82e 9f07 b634 07bc 7e33
000002e0: 8767 12b7 56ea 96b0 fa15 47b8 9023 48b1
000002f0: 0ff8 6237 7569 9538 cdc2 2c35 1927 a8b7
00000300: a3a2 d1b5 37bf e4a2 2823 1428 15d6 14a6
00000310: e1ad c930 34ee 89af 3a9d c5b7 26ea 93ad
00000320: 0597 0aaa 334c d22e 93ce a6ab cbd0 93af
00000330: 2396 9aa2 5d0a 1097 2666 67b8 4fa3 8732
00000340: af04 24ae 583b 94ae 4a9c 0ca5 d588 35aa
00000350: 588c 89ad 7528 2932 40a8 0332 1f65 1dba
00000360: 4953 aaac 48b9 33a0 fc0a 44b8 2492 95b1
00000370: d2c7 a4b8 0aa5 64ba 190e bcb3 d95e 6ab2
00000380: 8a72 1aa9 946c 65b5 75a9 70ba af14 29a6
00000390: c5c7 29b8 2e8a aeb1 a196 f82f a409 03b1
000003a0: 4475 22af 17ca 0ab1 1b97 87ab 9b52 8c2f
000003b0: d5e3 2ca8 c7ba c9ac 9fdf 959f d6c8 2732
000003c0: 61ce 239b 5a89 ddb3 ee74 7833 4c82 7ca4
000003d0: b58f 082d 09d6 90a0 16cb 2eb0 8838 d8ab
000003e0: ad23 f0b1 20f1 02a7 556e 8c34 9e64 67a9
000003f0: e581 3bb3 dbde 89b9 e082 7fae 07af df32
